data/actor_net_simple_spread_2670000_pH-MARL.pth (torch, 62756 bytes, 75 tensors)

Aq_4 f4 [16, 16]
0	0xc03c241e	-2.9397044
1	0x3ebf6f41	0.37389567
2	0x3f11d36c	0.5696323
3	0xbe616036	-0.22009358
4	0xbed45e5e	-0.41478246
5	0x3dd27f17	0.10278147
6	0xbf95e61d	-1.171085
7	0xbf75f886	-0.9608234
8	0xbfada390	-1.356554
9	0x3ff3ba4c	1.9041228
10	0x3e654bda	0.22392216
11	0x3ef91ad6	0.48653287
12	0x3f798b3c	0.9747808
13	0x402c0b0b	2.688174
14	0xbe490412	-0.19630459
15	0x3f7aa0ef	0.97901815
16	0x3f1168d2	0.5680057
17	0xbf9ea3e6	-1.2393768
18	0xbf1bb86c	-0.6082828
19	0x40084836	2.1294074
20	0x3ff7973a	1.9343026
21	0x3de3dc81	0.11126042
22	0xbf7a6e9b	-0.9782502
23	0xbfbfd358	-1.4986372
24	0x40109119	2.258856
25	0x3f98089c	1.1877627
26	0xc02c5ea0	-2.6932755
27	0xc036d562	-2.8567739
28	0x3f6c9bc3	0.92425174
29	0xbf1ce473	-0.61286086
30	0xbff6c001	-1.9277345
31	0x3ef09707	0.46990225
32	0x3f8e84b5	1.1134249
33	0xbf207593	-0.62679404
34	0x40115673	2.2709014
35	0x3f7d385b	0.98914117
36	0xbf24a954	-0.64320874
37	0xbfc32e85	-1.5248572
38	0x3f93e942	1.155556
39	0xbea24cee	-0.31699318
40	0xbed39ea6	-0.41331977
41	0x3f887533	1.0660766
42	0xbf9fae7b	-1.2475122
43	0xbf850829	-1.0393115
44	0x3f646df7	0.89230293
45	0xbf188912	-0.5958415
46	0x3ea23247	0.31678984
47	0x3fde56a3	1.737019
48	0xbf21f521	-0.6326466
49	0x3f422f78	0.7585368
50	0xbf0c4d30	-0.5480528
51	0x3f99023f	1.195381
52	0xbf891a1b	-1.0711092
53	0xbfe116b0	-1.7585049
54	0x40010421	2.015877
55	0x4042850e	3.039371
56	0x3f1f3ed5	0.6220525
57	0xbf5c163c	-0.85971427
58	0xbfee5172	-1.8618605
59	0xbf52fc5b	-0.82416314
60	0x3fc187ba	1.5119545
61	0xbf946d9d	-1.1595951
62	0xbff88bda	-1.9417679
63	0xbfbc6282	-1.4717562
64	0xbe1f186b	-0.15536658
65	0xbf00f4c4	-0.5037348
66	0xbfa51ee9	-1.2900058
67	0xbf6b6d6e	-0.9196385
68	0x3de50282	0.11182119
69	0x3f0f0ae3	0.55875987
70	0x3f459d7b	0.7719342
71	0x3def7e2a	0.11693986
72	0xbf48d784	-0.7845385
73	0xbf51eeb3	-0.8200485
74	0xbf6341f3	-0.88772506
75	0xbff3fe2f	-1.9061946
76	0xbfa45e5d	-1.2841297
77	0xbf8def58	-1.1088667
78	0x3f546efc	0.8298185
79	0x3e702c3e	0.23454377
80	0xbf15684a	-0.5836226
81	0xbf3704d5	-0.7149175
82	0xbf97cc67	-1.1859254
83	0xbf87912a	-1.0591176
84	0xbfaf36ed	-1.3688637
85	0xbf8e2a50	-1.1106663
86	0xbf039a3a	-0.51407206
87	0xbf0b45b2	-0.5440322
88	0xbeba0726	-0.3633358
89	0xbeb0c122	-0.3452235
90	0xbf565a4f	-0.8373155
91	0xbec4cc72	-0.3843723
92	0xbffb3c1a	-1.9627717
93	0x3f49bf99	0.7880798
94	0xbee21359	-0.44155386
95	0x3f826e47	1.0189904
96	0xbeb223bb	-0.34792885
97	0xbe5e0599	-0.21681823
98	0xbfde908d	-1.7387863
99	0xbf6af6b3	-0.91782683
100	0xbed73c8d	-0.42038384
101	0x3f0a0622	0.5391561
102	0xbf12ba3c	-0.5731542
103	0x3f1f8bf3	0.6232292
104	0x3d266f1b	0.040633302
105	0x3fda8750	1.7072544
106	0xbf8cb820	-1.099369
107	0x3f0d6341	0.55229574
108	0xbffdb116	-1.9819667
109	0xbfc7677b	-1.5578455
110	0xc00df297	-2.2179315
111	0xbfcc421b	-1.5957674
112	0xbdfb8ae4	-0.12282351
113	0x3f47ac8a	0.7799765
114	0x3f97501f	1.1821326
115	0xbeeeba47	-0.46626493
116	0x3ef98ba7	0.4873936
117	0x3e0fedb0	0.14055514
118	0xbef6d506	-0.482094
119	0x3e88c2c6	0.267111
120	0x402611ca	2.5948358
121	0x3ee5fe12	0.44920403
122	0xbebc6805	-0.3679811
123	0x3fc47642	1.534859
124	0xc050df9e	-3.2636485
125	0x3fbb8a82	1.4651644
126	0xbf7c598d	-0.98574144
127	0x4081e6b3	4.0594115
128	0xbd8c4c09	-0.0685044
129	0xbf690f76	-0.91039217
130	0xc060ffe6	-3.5156188
131	0x406de84a	3.7173028
132	0xbf565c86	-0.8373493
133	0xbe1acadc	-0.15116447
134	0x3fe2bcaa	1.7713826
135	0xc0053aa5	-2.0817044
136	0xbfe53189	-1.7905742
137	0xbf969a73	-1.1765884
138	0x3fb815f0	1.4381695
139	0xbfa79e15	-1.3095118
140	0x4070eb92	3.764378
141	0xbf87d57e	-1.0612028
142	0x3f73c051	0.95215327
143	0xbf64368f	-0.8914575
144	0xbda0071d	-0.07813857
145	0xbfd3eca2	-1.655659
146	0xbf2a001d	-0.6640642
147	0xbf6dfbb4	-0.92962193
148	0x3e5b2408	0.21400464
149	0x3e88e1a9	0.26734665
150	0x3be452e2	0.006967888
151	0xc01fcba1	-2.4968035
152	0x3f800ee6	1.0004547
153	0xbf098389	-0.5371633
154	0xbede38a5	-0.4340259
155	0xbf7a9bea	-0.97894156
156	0x401507b1	2.3285944
157	0x3fa9ecca	1.3275387
158	0xbdc8c0c4	-0.09802392
159	0x3fabf294	1.3433404
160	0x3f39590d	0.72401506
161	0xbaa19c86	-0.0012329973
162	0xbf7eadcc	-0.99483943
163	0xbfa387e9	-1.2775851
164	0xc010424e	-2.254047
165	0xbea59014	-0.32336485
166	0x3f7e25ae	0.99276245
167	0x3fb12402	1.3839114
168	0xbc59f8fc	-0.013303991
169	0x3ff79891	1.9343435
170	0xbe890a20	-0.26765537
171	0xbf164fc2	-0.5871545
172	0xbf472a01	-0.7779847
173	0xbfb377f3	-1.4020981
174	0xbfd0213a	-1.626014
175	0xbf75aff8	-0.9597163
176	0x3f2f4825	0.6846946
177	0xbe70a430	-0.23500133
178	0xbf8615ac	-1.0475364
179	0x3fbd3680	1.4782257
180	0xbec7a510	-0.3899312
181	0xbe12effc	-0.1434936
182	0x3f5f06fa	0.8712002
183	0xbf4520c5	-0.7700313
184	0x3fcdea3e	1.608711
185	0xbf3fbf3e	-0.7490119
186	0x3f9088fd	1.1291806
187	0x3e4a1439	0.19734277
188	0xbe890657	-0.2676265
189	0x3d6a758f	0.05724102
190	0xbfdcb73e	-1.7243421
191	0xbe10f817	-0.14157139
192	0xbf3aa4d1	-0.7290774
193	0xbe9dd712	-0.30828148
194	0xbf00f148	-0.50368166
195	0x3ed12853	0.40851077
196	0x3f1c0504	0.60945153
197	0xbde0a180	-0.10968304
198	0xc077380c	-3.8627958
199	0xbf1c05b3	-0.60946196
200	0x3ed4ddc6	0.4157545
201	0xbf160754	-0.5860493
202	0xbf2190a4	-0.6311133
203	0x3f74686e	0.9547185
204	0xbf60b56f	-0.87776846
205	0xbf8ea294	-1.1143365
206	0xbf7716a0	-0.965189
207	0xbf5198d5	-0.8187383
208	0x3ee22920	0.44172
209	0xbf28d0e1	-0.65943724
210	0xbf7c123a	-0.9846531
211	0x3f013597	0.50472397
212	0x3fbed484	1.4908605
213	0x3ef74da9	0.48301437
214	0x40122fb4	2.2841616
215	0x3ed93250	0.42421198
216	0xbe889579	-0.2667654
217	0x3f28ddbf	0.6596336
218	0x40202515	2.5022633
219	0x3f29023a	0.6601902
220	0xbdcedbe4	-0.101005346
221	0xbf8f37d0	-1.1188908
222	0xbf3c12f5	-0.73466426
223	0xbebb69db	-0.366042
224	0x3ff430af	1.9077357
225	0x3e4fd90f	0.20297645
226	0x3e65635a	0.22401181
227	0xbf6d6f26	-0.92747724
228	0x3e863737	0.26214
229	0xbfc1b8bd	-1.5134503
230	0x3f91a1a7	1.1377457
231	0xbeaacaca	-0.3335784
232	0x3f974286	1.1817176
233	0x3d878f52	0.06619133
234	0x3f1168a6	0.56800306
235	0xc0117539	-2.2727797
236	0x3f9916fd	1.196014
237	0xc04b0537	-3.1721933
238	0xbf4b06ba	-0.7930714
239	0xbff09051	-1.8794042
240	0xbeb64e98	-0.35606837
241	0xbf009132	-0.5022155
242	0x3febfd84	1.8436742
243	0xbe18c4d6	-0.14918837
244	0xbf6d6946	-0.9273876
245	0x3e437ec6	0.19091329
246	0xbf273c21	-0.65326124
247	0xbf68c26c	-0.90921664
248	0xbf3d09c8	-0.7384305
249	0xbf438281	-0.7637101
250	0xbe4accef	-0.19804738
251	0x3ffa08b8	1.9533911
252	0xbf8f157d	-1.1178433
253	0xbf1543f3	-0.5830681
254	0xbfb5c2b5	-1.4200045
255	0xbfe2a50d	-1.770662

Ak_4 f4 [16, 16]
0	0xbf98bc13	-1.1932396
1	0x3f7a4c91	0.9777308
2	0x3eca3269	0.39491585
3	0x3f33a6ed	0.70176584
4	0x4015e3c9	2.342028
5	0x3f9868e6	1.1907012
6	0xbdefeb8a	-0.117148474
7	0xbfe2c3b5	-1.7715975
8	0xbf9a61fd	-1.2061154
9	0x3fd6f2b9	1.6792823
10	0xbfa00b5a	-1.2503464
11	0x3f8e835e	1.113384
12	0xbf1a523b	-0.60281724
13	0x40097c31	2.148205
14	0xbe8a9c13	-0.270722
15	0xc0129cf8	-2.2908306
16	0x3f35b94d	0.7098587
17	0xbf8badfd	-1.0912472
18	0xbf181ef1	-0.5942221
19	0xc03235f8	-2.784544
20	0x3f8947e4	1.0725064
21	0x3fb3b50f	1.403963
22	0xbea437cb	-0.32073817
23	0x3f8f98dd	1.1218525
24	0x3f920f61	1.1410943
25	0xc047dbda	-3.1227937
26	0xbd22fd21	-0.039792184
27	0xc0268711	-2.6019938
28	0xbef2e193	-0.47437724
29	0x3f205011	0.6262217
30	0x40184496	2.3791862
31	0xbf655fdd	-0.895994
32	0xc00d0ed2	-2.2040296
33	0xbfdda34c	-1.7315459
34	0xbf32e0f6	-0.69874513
35	0xbf187268	-0.5954957
36	0xbf74d17a	-0.95632136
37	0xbfc9fb23	-1.5779766
38	0xc0311fc6	-2.7675643
39	0xc02d6bbd	-2.7097008
40	0x3e7846df	0.24245785
41	0x3fc29c04	1.5203862
42	0x3fd60ebf	1.672325
43	0xbd7f667c	-0.062353596
44	0xbe625df6	-0.22106156
45	0x4007fbe5	2.1247494
46	0xbfc2846a	-1.519666
47	0x3faa260f	1.3292865
48	0x400c4805	2.1918957
49	0x3ef39aca	0.47579032
50	0x3f8d23a1	1.1026498
51	0x3f54cad2	0.8312198
52	0xc01518e8	-2.3296452
53	0x3f39825e	0.7246455
54	0xbf785e8c	-0.9701927
55	0xc0019019	-2.02442
56	0x3fe5bc42	1.7948077
57	0xbfb6d00c	-1.4282241
58	0xc043a8e5	-3.0571835
59	0xbe1bdf71	-0.15221955
60	0x3e2f63f1	0.17127968
61	0xc000e2ec	-2.0138502
62	0xbfc71c08	-1.555543
63	0xc0414444	-3.0197916
64	0xbd1b49e1	-0.037912253
65	0xbf3813ec	-0.719054
66	0x3ead0ce3	0.33798894
67	0xbee68f8c	-0.45031393
68	0x3faa5958	1.3308516
69	0x3ece269f	0.4026384
70	0xbf6340e5	-0.88770896
71	0xbfd083f7	-1.6290272
72	0x3e2d264b	0.16909139
73	0x3f91ee6f	1.1400889
74	0xbf22e257	-0.6362662
75	0xbe19f60d	-0.15035267
76	0xbffdfb10	-1.9842243
77	0x3f0e8411	0.5567027
78	0xbd6876f8	-0.056754082
79	0xbd64b2a8	-0.055834442
80	0x3fbc25e6	1.4699066
81	0xbf9a1f85	-1.2040869
82	0xc02a9fa8	-2.6659946
83	0xc00dea77	-2.2174356
84	0x3f556225	0.8335288
85	0xbf7a3083	-0.97730273
86	0xbfa9f95d	-1.3279225
87	0xc03a92e3	-2.9152153
88	0x3f2feefc	0.68724036
89	0xbf6f6543	-0.9351389
90	0x3f1cfb1a	0.6132065
91	0xbf493c88	-0.7860799
92	0x3dd3480a	0.10316475
93	0x3f131d2b	0.5746638
94	0xbe3b1fc9	-0.18273844
95	0xbf4d6e9b	-0.80246896
96	0x3f147f06	0.5800632
97	0xbf8c9ff6	-1.0986316
98	0xc054760f	-3.3197057
99	0x3f25ba5f	0.64737505
100	0xbfe1ac72	-1.7630751
101	0xbd4fa9db	-0.050699096
102	0x405c6824	3.4438562
103	0xbf319998	-0.6937499
104	0x400273ed	2.0383255
105	0xbf9033db	-1.1265825
106	0xc01aee78	-2.420805
107	0xbfda8b6a	-1.7073796
108	0xbfdca5ae	-1.7238061
109	0xbfe58957	-1.7932538
110	0xbf8eb248	-1.1148157
111	0xc0277bc2	-2.6169286
112	0xbe0f1a96	-0.13974985
113	0x3f28d8c2	0.65955746
114	0xbe058fa7	-0.1304308
115	0xbf9479fa	-1.1599724
116	0xbf88f29f	-1.0699042
117	0xbe191c05	-0.14952095
118	0xbea03c70	-0.3129611
119	0xc00dc635	-2.2152226
120	0x3fcc6658	1.5968733
121	0x3ebb613b	0.36597618
122	0x3f4346a6	0.76279676
123	0xbfd69e03	-1.6766971
124	0xbf4554f3	-0.7708275
125	0x3f50a4f7	0.81501716
126	0x3f921063	1.1411251
127	0xbefdb7a9	-0.49554184
128	0xbf2e8430	-0.6817045
129	0xbeae95d2	-0.3409868
130	0x3f9c342e	1.2203424
131	0xbfa0fa7b	-1.257644
132	0x3f6af861	0.91785246
133	0xbf58a31c	-0.84623885
134	0x3f80c968	1.0061464
135	0x3efe58c7	0.49677107
136	0xbe87890b	-0.26471743
137	0x3fea747a	1.8316796
138	0x3e43f185	0.19135101
139	0xbd3773b8	-0.044788092
140	0xbf02ce9d	-0.51096517
141	0xbf17cbb9	-0.5929523
142	0xbee65a9a	-0.44990999
143	0xc0164f81	-2.3486025
144	0xbfbf4958	-1.4944258
145	0xbf83ac5e	-1.0286977
146	0xbd1aeb56	-0.03782209
147	0xbe2d73f1	-0.1693876
148	0xbd8c75f3	-0.068584345
149	0xbeb1337f	-0.346096
150	0xbfd77146	-1.6831443
151	0xbf325d2e	-0.6967343
152	0xbf92cb04	-1.1468205
153	0x3faab422	1.3336222
154	0x3f016688	0.50547075
155	0xc02068de	-2.5064006
156	0xbfca00f2	-1.5781538
157	0x3e0a2133	0.13489227
158	0x3d52343a	0.05131934
159	0xbebf3489	-0.3734477
160	0xbf66e060	-0.9018612
161	0x3ef3da86	0.47627658
162	0x3f8a11b3	1.0786651
163	0x3f1f3c90	0.62201786
164	0xbda575f4	-0.080791384
165	0xbfae8186	-1.3633277
166	0xbfdc3514	-1.7203698
167	0xbe950929	-0.2910855
168	0xbd5bc905	-0.053658504
169	0xc01b0cee	-2.4226642
170	0x3f4c1e5f	0.7973384
171	0x3e54be4c	0.20775717
172	0xbfc6b700	-1.5524597
173	0x3f1185c8	0.5684476
174	0xbe37f07c	-0.17962831
175	0xbde87b44	-0.11351636
176	0x3fc778ed	1.5583779
177	0xbef11e8c	-0.47093618
178	0xbe9b169e	-0.30290693
179	0x3e9a64ee	0.30155128
180	0xbf0cb859	-0.5496879
181	0x3e6883b9	0.22706498
182	0x3ec86f28	0.39147305
183	0x3e258b02	0.16166309
184	0xbdaac17e	-0.08337687
185	0xbe566041	-0.20935155
186	0x3e83b4c6	0.25723857
187	0x3c5be1de	0.01342055
188	0xbf2e7ffa	-0.68164027
189	0xbed9d800	-0.42547607
190	0x3fed3c16	1.8533962
191	0xbfc73780	-1.5563812
192	0xbf4c0d7f	-0.79708093
193	0x3eb6ff14	0.35741484
194	0x3da094df	0.07840895
195	0x3f8948d9	1.0725356
196	0x3edde3b4	0.43337786
197	0x3f4d79c3	0.8026392
198	0x3f70b3d8	0.9402442
199	0xbfabc9d0	-1.3420963
200	0x3e525a3b	0.20542233
201	0x3fafc48f	1.373186
202	0xbf4fad73	-0.8112404
203	0x3f833e99	1.0253478
204	0xbfe59f5c	-1.7939258
205	0x3f899fd7	1.0751904
206	0xbf9a06b6	-1.2033298
207	0xbfa54c2d	-1.2913872
208	0x3f476f10	0.7790384
209	0x3fa90123	1.3203472
210	0x3dbcf306	0.092260405
211	0x3f0b2afa	0.5436245
212	0x3f80b380	1.0054779
213	0x3e318a01	0.173378
214	0xbf680aa2	-0.90641224
215	0xbf5660f7	-0.83741707
216	0xbf2ec181	-0.68264014
217	0x3d00e0ac	0.031464264
218	0xbf1d01fc	-0.6133115
219	0xbfa9a69a	-1.3253968
220	0xbf20c880	-0.6280594
221	0xbd85754a	-0.06516512
222	0xbfca4f52	-1.5805457
223	0x3dcecdac	0.100978225
224	0xbf4b1cc0	-0.79340744
225	0x3f9d867d	1.2306668
226	0x3f48d4a3	0.7844946
227	0xbf1b722f	-0.60721105
228	0x3f28aa3b	0.6588475
229	0x3fd6375f	1.6735648
230	0x3e4e38fd	0.20138927
231	0xc004bc16	-2.0739799
232	0xbfc30417	-1.5235623
233	0xbf3c29d5	-0.7350133
234	0xbf80fecc	-1.0077758
235	0xbf975cb2	-1.1825163
236	0xbfe3f478	-1.7808981
237	0x3ddc8086	0.107667014
238	0xbc4f90b3	-0.012668776
239	0xc04582f0	-3.0861168
240	0x3f87aa86	1.0598915
241	0x3f4388df	0.76380724
242	0x3fd6889d	1.6760441
243	0x402fc3df	2.74633
244	0xbfcf7e1c	-1.621036
245	0xbf0530f7	-0.5202784
246	0x40024802	2.035645
247	0xbf3cb97a	-0.73720515
248	0x40906409	4.5122113
249	0xbe421c8a	-0.189562
250	0xbcf4cb70	-0.029882163
251	0xbf623dee	-0.8837575
252	0x3e1767c3	0.14785676
253	0xbf6e0533	-0.92976683
254	0xbfdde1d6	-1.7334545
255	0xc05fe369	-3.498255

Av_4 f4 [16, 16]
0	0x3f9ae11d	1.2099949
1	0xbf82dd68	-1.0223818
2	0xbfeb28bc	-1.8371806
3	0xbfd96abe	-1.69857
4	0xbf64265b	-0.89121026
5	0x3fd53a87	1.6658486
6	0xbe0e55cd	-0.13899918
7	0xbfeca894	-1.8488946
8	0x3ef9ba78	0.48775077
9	0x3f1500ca	0.5820433
10	0xc019e821	-2.404793
11	0x3daab6f4	0.08335677
12	0xbfbabe54	-1.4589334
13	0x3f2de5d0	0.6792879
14	0xbf27d900	-0.6556549
15	0xc013541d	-2.3020089
16	0x3f1f31ed	0.62185556
17	0xbf41c268	-0.75687265
18	0xbde1c428	-0.11023742
19	0x40893ef9	4.288937
20	0x3f262efd	0.6491545
21	0x3f884783	1.0646824
22	0x3e4b4e06	0.19853982
23	0xbec74a2f	-0.38923785
24	0xbec1c34e	-0.37844318
25	0x3ea3d614	0.31999266
26	0x3ff4fee1	1.9140283
27	0x3f4a449b	0.79010934
28	0xbf865a77	-1.0496358
29	0x3f2c0495	0.6719449
30	0x3f95a9ae	1.1692407
31	0xbdd874af	-0.10569131
32	0xbca61e56	-0.020278137
33	0x3fbec72d	1.4904534
34	0x3f47b684	0.7801287
35	0xc04a1d61	-3.1580431
36	0x3f7509d8	0.95718145
37	0xbe43b6ef	-0.19112752
38	0xbe6e6705	-0.23281486
39	0x3ecce996	0.40021962
40	0xbf803e9e	-1.0019109
41	0x3f9dc5e1	1.2326013
42	0x3eef5067	0.4674103
43	0x3f8a52bb	1.0806497
44	0xbe045808	-0.12924206
45	0x3fdd9c26	1.7313278
46	0x401b46f7	2.4262064
47	0xbf07cca2	-0.5304662
48	0xbe754c17	-0.23954807
49	0xbf319563	-0.6936857
50	0x3dce9706	0.10087399
51	0x3f2001b7	0.62502617
52	0x3fede2a6	1.8584793
53	0x3ee7a8e7	0.4524605
54	0xbf30635d	-0.68901616
55	0xbf7a3134	-0.9773133
56	0xbf2b99db	-0.6703164
57	0xbe04da5a	-0.1297392
58	0xbe2383b7	-0.15968214
59	0x3f6d65f6	0.92733705
60	0x3f27c470	0.65534115
61	0x3f75182e	0.9574002
62	0x3fdc258b	1.7198957
63	0x3f2ff3a8	0.68731165
64	0xbf0aa0cf	-0.54151624
65	0x3f921b73	1.1414627
66	0x3d50151d	0.050801385
67	0xbffd83e8	-1.980588
68	0xbf13d23f	-0.57742685
69	0x3f0976e4	0.5369704
70	0xc02531ae	-2.5811572
71	0x3ff87b05	1.9412543
72	0xbf2c2e74	-0.6725838
73	0xbe3ae14d	-0.18250008
74	0x3ef1e2e9	0.4724343
75	0xbea4e497	-0.3220565
76	0xbfad8936	-1.3557498
77	0xbf9f3156	-1.2436931
78	0x3ff54b49	1.91636
79	0xbed10fcf	-0.40832373
80	0x3f0596d0	0.52183247
81	0xc061237d	-3.517791
82	0xc024ef26	-2.5770965
83	0x4008f488	2.139925
84	0x3f483e4b	0.7822005
85	0x40142e33	2.3153198
86	0xbe41b642	-0.18917182
87	0x406aba06	3.667604
88	0xbfe8c8ce	-1.8186281
89	0x3ea9fbcd	0.3319992
90	0x3faf7fd4	1.3710885
91	0xc05e6c6b	-3.4753673
92	0x40479d81	3.1189883
93	0xbd9d815e	-0.076906905
94	0xc00b87cd	-2.1801636
95	0xbf8eebad	-1.1165673
96	0xbd91968a	-0.07108791
97	0xbfd3e835	-1.6555239
98	0x3f613e6e	0.87985885
99	0xc0457f61	-3.0858996
100	0xbf5cd4d8	-0.86262274
101	0x3f9d275a	1.2277634
102	0xbef5f855	-0.48041025
103	0x3e889f0e	0.2668385
104	0xbf40dfd9	-0.75341564
105	0xc049310f	-3.1436193
106	0xbffbe0b0	-1.9677944
107	0x3dee7a53	0.11644425
108	0x3e83dbf5	0.2575375
109	0x3fcc88ef	1.5979289
110	0xbf1bb75b	-0.60826653
111	0x3f090cab	0.53534955
112	0xbea79bbe	-0.3273601
113	0xbf402aba	-0.75065196
114	0x3d4ab30d	0.049487162
115	0xbfd51d67	-1.6649598
116	0xbf8746a9	-1.0568439
117	0xbfa4875f	-1.2853812
118	0x3fc5a460	1.5440788
119	0x3fbe7b49	1.4881374
120	0x3e514f90	0.20440507
121	0x400ce219	2.2013
122	0x3ee92bdf	0.45541283
123	0x400808a7	2.125528
124	0x3f9dcd9a	1.232837
125	0x3feb23ac	1.8370261
126	0xbf261df7	-0.6488947
127	0x3f8e6c1f	1.1126746
128	0x3f5e7b50	0.8690691
129	0xbf374605	-0.71591216
130	0x3f055dca	0.52096236
131	0x3e0806c4	0.13283831
132	0x3f9031d3	1.1265205
133	0xbf20d701	-0.6282807
134	0x3e716855	0.23574956
135	0x3f108977	0.56459755
136	0x3cbd1a6b	0.023083886
137	0x3f4c71a1	0.79860884
138	0x3fc7a294	1.559649
139	0xbfd35cfc	-1.6512752
140	0x3fae86ac	1.3634849
141	0x3f9c2fd0	1.2202091
142	0xbf85c177	-1.0449666
143	0x404ce8f7	3.201719
144	0x400f642c	2.240489
145	0xbfea7e91	-1.8319875
146	0xbd7403e1	-0.05957401
147	0xbf372c0b	-0.7155158
148	0x3cc0894c	0.023502968
149	0x3f23649e	0.63825405
150	0xbeef521b	-0.4674233
151	0x40271879	2.6108687
152	0xbffd6e0c	-1.9799209
153	0x3fbcc385	1.4747168
154	0xbf13d95b	-0.57753533
155	0x4059fd00	3.406067
156	0x3fc4d821	1.5378457
157	0x400109a3	2.0162132
158	0xbe757340	-0.23969746
159	0x404f3d25	3.238107
160	0x3fbe8822	1.4885294
161	0x3f42c1ee	0.76077163
162	0xbfbe37b5	-1.486075
163	0xbf726c90	-0.94696903
164	0xbee910d8	-0.45520663
165	0xbe96ff6e	-0.29491752
166	0xc0487f52	-3.132771
167	0x3f6a167e	0.9144057
168	0xbe9b5133	-0.30335388
169	0xc02ac741	-2.6684115
170	0x3f7505f9	0.9571224
171	0x3f91d350	1.1392612
172	0xbe40179a	-0.18759003
173	0xbdfadd5e	-0.12249254
174	0xbf1d07a9	-0.61339813
175	0x3fbfedc5	1.4994437
176	0xbeda150c	-0.42594182
177	0x3e251b43	0.16123681
178	0x3fae3d52	1.3612463
179	0x401cadbd	2.4481041
180	0x3ed021ad	0.40650693
181	0x3e9c5dfa	0.30540448
182	0xbece0c05	-0.40243545
183	0x3eb297d8	0.34881473
184	0xbef92885	-0.48663726
185	0x3efadb29	0.4899533
186	0xbf8be227	-1.0928391
187	0x3f6cda48	0.9252057
188	0x3fa3c72a	1.2795155
189	0x3f28c8fb	0.6593167
190	0x3f7684bb	0.9629628
191	0x3e67e327	0.22645245
192	0x402e4482	2.7229314
193	0xbe07eef7	-0.13274752
194	0xbec4ec4b	-0.38461527
195	0xc0c13be5	-6.0385613
196	0xc054b5bf	-3.323593
197	0xc01a6ea2	-2.4130025
198	0xc05e6e49	-3.4754813
199	0x3e6977d7	0.22799622
200	0xbeebaffe	-0.4603271
201	0x3cf0d762	0.029399578
202	0xbefd4cd3	-0.49472675
203	0xbedf46ab	-0.43608603
204	0x3f650aa9	0.8946939
205	0x3f0fc9f1	0.56167513
206	0x403a2f09	2.9091208
207	0x40153a33	2.3316772
208	0xc0628902	-3.5396123
209	0xbf2b608d	-0.669442
210	0x402d211d	2.705146
211	0xbec10beb	-0.37704405
212	0xbf918ebf	-1.1371688
213	0xbeead88f	-0.45868346
214	0x3fd00bc6	1.6253593
215	0x3f79947a	0.9749218
216	0xbef5c605	-0.4800264
217	0x3f848be1	1.0355188
218	0xbedb61a9	-0.42847946
219	0x3f4cd127	0.8000664
220	0x3f8619cd	1.0476624
221	0x3eafe545	0.34354606
222	0xbcef68f6	-0.029224854
223	0xc00038e9	-2.0034735
224	0x3d6fd123	0.058549058
225	0xbfa90e5a	-1.3207505
226	0xc0a62ae9	-5.192738
227	0x3f5342c8	0.82523775
228	0x3f885bad	1.0652977
229	0xbfe17d26	-1.7616317
230	0x3fab01ca	1.3359921
231	0x3f78a668	0.97128916
232	0xbf884c48	-1.0648279
233	0xbfd514f1	-1.6647016
234	0xbf755c26	-0.9584373
235	0x3f668f54	0.9006245
236	0x3f95b2fb	1.1695246
237	0x3f51e25f	0.8198604
238	0xc0acb777	-5.3973956
239	0x3f82e159	1.0225021
240	0x3f03f876	0.51550996
241	0x3fabac4b	1.3411955
242	0x3f9194ce	1.1373537
243	0x40799640	3.8997955
244	0xc012c04a	-2.2929864
245	0x3f6e171d	0.9300402
246	0x3e7edc93	0.2488883
247	0xbfa68dcc	-1.3012023
248	0x3fb0dae6	1.3816803
249	0x3f99f5c0	1.2028122
250	0xbf9a7f35	-1.207007
251	0x3ff84a2b	1.9397634
252	0x40086dc8	2.1317005
253	0xbfd9ec35	-1.702521
254	0xbf41be4f	-0.7568101
255	0x3e85382a	0.26019412

Aq_7 f4 [8, 8]
0	0xbf9a60b0	-1.2060757
1	0x3f5beeba	0.8591114
2	0xbf16e931	-0.5894957
3	0x3fa6e580	1.3038788
4	0x3ffa7ce2	1.9569361
5	0xbfad284e	-1.3527925
6	0xc03c1a9d	-2.9391243
7	0xbf897e13	-1.07416
8	0xbf258045	-0.6464885
9	0x3f8f79b5	1.1209017
10	0x3fb9c887	1.4514321
11	0xbfc96ebc	-1.5736918
12	0xbefbc5c8	-0.49174333
13	0xbed44dbc	-0.41465557
14	0x3ff08a02	1.8792117
15	0xbfa48da0	-1.285572
16	0xbf530581	-0.82430273
17	0x3dcd8db4	0.10036793
18	0x3f53c5a1	0.8272343
19	0xbe784cfb	-0.24248116
20	0x3fc382cb	1.527429
21	0x3e9349b6	0.28767174
22	0xbfb95b76	-1.4481037
23	0x3e3245a1	0.17409374
24	0x3ec24518	0.3794334
25	0xbf8f755d	-1.1207691
26	0xbfca40f8	-1.5801077
27	0x3e1dd87c	0.15414613
28	0xc01f4374	-2.488492
29	0x40480fa5	3.1259549
30	0x3ec3f165	0.38270107
31	0x3ec4e20e	0.38453716
32	0xbca30bbe	-0.01990306
33	0xbe47071b	-0.19436304
34	0xbfcedb84	-1.6160741
35	0xbe2e8468	-0.17042696
36	0x40045159	2.067465
37	0xbf9ccf9c	-1.2250857
38	0x3fbd3cdd	1.4784199
39	0xbf609cd8	-0.87739325
40	0x3e8f61ca	0.28004295
41	0x40001fff	2.001953
42	0x3fd7ffb8	1.6874914
43	0x4025b045	2.5888836
44	0xbf30e043	-0.69092196
45	0xbef28265	-0.47365108
46	0x4016fe6f	2.3592794
47	0xc05f11b5	-3.4854558
48	0xbf594ed7	-0.84885925
49	0xbe1cf54a	-0.15327945
50	0xc0643fb0	-3.5663872
51	0xbea0413d	-0.31299773
52	0x402b8b48	2.680376
53	0xc007bba3	-2.1208274
54	0xbdafc1f2	-0.08581914
55	0x3fd07fda	1.6289017
56	0xbe5da64d	-0.2164547
57	0x4019712f	2.3975332
58	0x40168b99	2.3522704
59	0x3da46582	0.080271736
60	0x3fdbcdce	1.7172182
61	0x3fabe8e8	1.3430452
62	0xbe83d5ea	-0.2574914
63	0x3e6b0fd6	0.2295526

Ak_7 f4 [8, 8]
0	0xbeb5836b	-0.35451826
1	0x3e35aa50	0.1774075
2	0x4044a6f9	3.0726912
3	0xbf299b42	-0.6625253
4	0xc0081e5e	-2.1268535
5	0x3ee0395f	0.4379377
6	0xbf56dfe0	-0.83935356
7	0xc0596069	-3.3965094
8	0xc028dc19	-2.6384337
9	0x3f2fcd2c	0.6867244
10	0x3fa4a5d8	1.2863111
11	0xbf84593d	-1.0339733
12	0xc07c4d0f	-3.9422033
13	0x3fdb334a	1.7125027
14	0x3f56e060	0.8393612
15	0x3ece79fc	0.40327442
16	0x3f3cf056	0.73804224
17	0x3fcd1a68	1.6023684
18	0x3edb7ff2	0.42871052
19	0x3f9abc4b	1.2088712
20	0x3ea85de6	0.3288414
21	0xbf3bccbb	-0.7335927
22	0x3f110a51	0.56656367
23	0x3eb39267	0.35072634
24	0x3e407733	0.18795471
25	0x3fc3ad83	1.5287327
26	0xbe2e198e	-0.17001936
27	0x3fc23ac3	1.5174183
28	0xbeef0655	-0.46684518
29	0x3d8ff9c2	0.070300594
30	0x3ea82b67	0.32845613
31	0x3ed791bd	0.42103377
32	0xbf084ea1	-0.5324498
33	0xc049e3f7	-3.1545389
34	0x3f173cc9	0.59077126
35	0xc01bb634	-2.4329958
36	0x3eb8e4aa	0.36111957
37	0xc000d965	-2.0132687
38	0xc01e36c4	-2.4720926
39	0x406c541c	3.6926336
40	0x3b5e2bf3	0.0033900707
41	0xbf8096e6	-1.004605
42	0x3e08c016	0.13354525
43	0x3f8a961c	1.082706
44	0x3fdecc47	1.740609
45	0x3e8ba7a6	0.27276343
46	0x409b2dbb	4.8493323
47	0xc0a7cdf6	-5.2438917
48	0xbf67a05d	-0.9047907
49	0x3ccb62cc	0.024827383
50	0xbf4be522	-0.79646504
51	0x40444ceb	3.0671947
52	0x3fa209b4	1.2659211
53	0xbf93e2af	-1.1553553
54	0xbf123ee8	-0.5712724
55	0xbf5d9370	-0.86553097
56	0xbf882efd	-1.063934
57	0xbf54c03d	-0.8310583
58	0x3e69e796	0.2284225
59	0xbf8c956f	-1.0983104
60	0xc0862c41	-4.192902
61	0xbdd2c6af	-0.10291802
62	0xbfaa4c78	-1.3304586
63	0x40507416	3.2570853

Av_7 f4 [8, 8]
0	0x3f5f8690	0.873147
1	0x3fb66d8e	1.4252183
2	0xc0165e97	-2.3495233
3	0xbfa01f3b	-1.2509531
4	0x3f81941c	1.0123324
5	0x3fb66787	1.4250344
6	0xbfd01fdc	-1.6259723
7	0xbfb599d8	-1.4187574
8	0xbe29d27d	-0.16584201
9	0xbe9feb51	-0.3123422
10	0xbf57ce8c	-0.8429954
11	0x3f2d5cd6	0.6771978
12	0x3fee24d7	1.8604993
13	0xbf393db3	-0.7235977
14	0xc01c521b	-2.4425113
15	0x3ec1d31d	0.3785638
16	0xbfe4ddc0	-1.7880173
17	0xbf906482	-1.1280673
18	0x3fab5089	1.3383952
19	0x3fde82e0	1.738369
20	0xc031d20a	-2.7784448
21	0x3f9acd31	1.209387
22	0xbecb9385	-0.39760986
23	0x3e7a1bf0	0.2442472
24	0xbf464f15	-0.7746442
25	0xc06ecc34	-3.7312136
26	0xbf38a797	-0.7213072
27	0xc0554292	-3.3321881
28	0xbf4fe834	-0.8121369
29	0xbedcf019	-0.4315193
30	0x3f72bfaa	0.94823706
31	0xc0698d71	-3.649258
32	0xbff69b6d	-1.9266182
33	0xc04a16a3	-3.1576316
34	0xc0408b9c	-3.008521
35	0xc0210dbb	-2.516463
36	0xbe21755c	-0.15767425
37	0x3f55552a	0.83333075
38	0x404b68a6	3.1782622
39	0xbe898511	-0.26859334
40	0xbf56288f	-0.8365564
41	0xbedf8fd7	-0.4366443
42	0xbea8ae39	-0.3294542
43	0xbf8b4483	-1.0880283
44	0x40339b92	2.8063703
45	0xbfc81b60	-1.5633354
46	0xc087645e	-4.231002
47	0x3f71bf10	0.94432163
48	0xc07fa6b4	-3.9945498
49	0x3fb55cc9	1.4168941
50	0x3fa199fd	1.2625118
51	0xbf88d418	-1.0689726
52	0x3f53a249	0.826695
53	0x3faf8443	1.3712238
54	0xbf5aace6	-0.8542007
55	0xbfbfdc15	-1.4989039
56	0xbf3b3031	-0.7312041
57	0x3dd051a3	0.10171821
58	0xbf59b883	-0.8504717
59	0xbebe2edc	-0.37145126
60	0x3edf0af0	0.43563032
61	0xbfe3fa02	-1.7810671
62	0xbf671531	-0.9026671
63	0x3e83d518	0.25748515

Bq_4 f4 [16, 1]
0	0x3fe23eba	1.7675393
1	0xbe646336	-0.22303471
2	0x3e8b31b7	0.27186367
3	0xbf8dc2b6	-1.1075046
4	0xbe9d57e0	-0.30731106
5	0xbf1217eb	-0.57067746
6	0xbf3f1295	-0.7463773
7	0x3f7607f3	0.9610588
8	0xbf49ae20	-0.7878132
9	0xbe1b00e4	-0.15137058
10	0xbe7932d6	-0.24335799
11	0xbf008c45	-0.50214034
12	0x4011a15f	2.2754743
13	0x3faab927	1.3337754
14	0x3e380277	0.1796969
15	0x3f7a2328	0.97709894

Bk_4 f4 [16, 1]
0	0x3f2ae461	0.6675473
1	0xbfa8d212	-1.3189108
2	0x3eb98db9	0.36240938
3	0x3efb67c9	0.4910262
4	0x3f8a73aa	1.0816548
5	0xbf432ba5	-0.7623847
6	0xc01439b8	-2.3160229
7	0x3fe63458	1.7984724
8	0x3fae2476	1.3604877
9	0x3f0f2971	0.5592261
10	0x3fbdf620	1.4840736
11	0xbef43a66	-0.47700804
12	0x3fa83a47	1.3142785
13	0x40085997	2.1304681
14	0xbe3b2459	-0.18275584
15	0xc02f3276	-2.737455

Bv_4 f4 [16, 1]
0	0xbfe3e429	-1.7804004
1	0x3e6e1051	0.23248412
2	0x3f3270e3	0.697035
3	0x3ed94cc4	0.4244138
4	0xbfb1bf18	-1.3886442
5	0x3e06d109	0.13165678
6	0xbd4b34c9	-0.049610887
7	0xbed70c83	-0.42001733
8	0x3f88f032	1.0698302
9	0x3f03d28d	0.5149315
10	0x3e632225	0.22180994
11	0x4041822e	3.0235705
12	0xbee25c79	-0.44211176
13	0xbd3db929	-0.04631916
14	0x3ef0a567	0.47001192
15	0x3ff0a1ad	1.879934

Bq_7 f4 [8, 1]
0	0xbc89587d	-0.016765827
1	0x3d897890	0.067124486
2	0x3f1fc7bb	0.6241414
3	0xbf3e8143	-0.7441599
4	0xbf53dcb5	-0.8275865
5	0x3daa30cd	0.08310089
6	0x3f9be75d	1.2179981
7	0xbe4fd3bc	-0.20295614

Bk_7 f4 [8, 1]
0	0x3d480c1b	0.04883967
1	0xbed3a481	-0.41336444
2	0x3f82cfed	1.0219704
3	0x3f0f3873	0.5594551
4	0x3f96c721	1.1779519
5	0xbf2cb82d	-0.6746853
6	0x3e6eb43c	0.23310941
7	0xbe33891e	-0.17532775

Bv_7 f4 [8, 1]
0	0x3ed0a8b5	0.40753713
1	0xbf66847b	-0.900459
2	0x3f03b1a7	0.5144295
3	0xbfc9e4cd	-1.577295
4	0x3f11e8ec	0.56996036
5	0xbf70058d	-0.9375847
6	0xbf7d1e87	-0.98874706
7	0xbfec6789	-1.8469096

weight f4 [16, 6]
0	0x3e7b132f	0.24519037
1	0xbd8746aa	-0.06605275
2	0xbed3c3da	-0.4136036
3	0x3f00f155	0.50368243
4	0xbf352bf4	-0.7077019
5	0x3e4dcfe3	0.20098834
6	0xbe2b7f05	-0.16747673
7	0x3efb8354	0.49123633
8	0x3e5d70f6	0.21625122
9	0xbf4019df	-0.75039476
10	0xbf9aea35	-1.2102724
11	0xbf889632	-1.0670836
12	0xbf00c3d0	-0.50298786
13	0x3f6ab946	0.91688955
14	0xbe638d7c	-0.22221941
15	0x3f49bdb3	0.78805083
16	0x3eb79b11	0.35860494
17	0x3e4192e8	0.18903697
18	0xbecdc2a2	-0.40187556
19	0xbf1f7601	-0.62289435
20	0xbe9dad4d	-0.3079628
21	0xbe8f696a	-0.28010112
22	0xbf06096c	-0.52358127
23	0xbf1939d4	-0.59853864
24	0xbdb36819	-0.087600894
25	0xbf1a40b7	-0.60254997
26	0xbea9ce6b	-0.33165297
27	0xbfaa1acb	-1.3289427
28	0x3ed055f9	0.40690592
29	0x3fc03610	1.5016499
30	0x3c93c261	0.018037023
31	0x3c97867c	0.018496744
32	0xbe19c2d7	-0.15015732
33	0x3e1f7999	0.1557373
34	0x4005de9b	2.0917118
35	0xbf99027c	-1.1953883
36	0xbe010988	-0.12601292
37	0xbf32af26	-0.69798505
38	0x3e2223b2	0.15833929
39	0xbe0fdde9	-0.14049496
40	0xbe70e8dd	-0.2352633
41	0xbf115fa3	-0.56786555
42	0x3f2c64f4	0.6734154
43	0x3efb342f	0.4906325
44	0x3e673776	0.2257975
45	0xbd95967a	-0.07304092
46	0x3dae22c7	0.08502727
47	0x3dfd3e73	0.12365427
48	0xbcc5a055	-0.024124304
49	0xbd7f2c26	-0.062297963
50	0xbe60d44b	-0.21955983
51	0x3c73c35b	0.014878119
52	0x3e73acd3	0.23796396
53	0xbf0d03e4	-0.5508406
54	0xbf0457d8	-0.5169654
55	0x3c2290e6	0.009922242
56	0xbe69edfc	-0.2284469
57	0xbf0e9198	-0.5569091
58	0xbd6d1703	-0.057883274
59	0xbd9c7839	-0.07640118
60	0xbef41892	-0.47674996
61	0xbf2600cd	-0.6484497
62	0xbef46d3d	-0.47739592
63	0xbf2533e6	-0.64532316
64	0x3ebed708	0.3727343
65	0x3ddf8f31	0.109159835
66	0x3f5e5107	0.8684239
67	0x3f1d5bd8	0.6146827
68	0x3f06ac46	0.5260662
69	0x3e2dffea	0.16992155
70	0xbf260e15	-0.6486524
71	0xbf01fc13	-0.5077526
72	0x3f547b43	0.8300058
73	0xbebff2bb	-0.37489876
74	0x3f2cdbb8	0.67522764
75	0xbe47fd27	-0.19530164
76	0x3ea6c2f1	0.32570603
77	0xbf24f008	-0.6442876
78	0xbd92d4bf	-0.07169484
79	0x3de1a447	0.110176615
80	0x3dd25289	0.102696486
81	0x3f07b59e	0.530115
82	0xbe9e967d	-0.30974188
83	0x3ece7c7d	0.40329352
84	0xbe665f3f	-0.22497271
85	0x3e301d3d	0.17198654
86	0xbe911660	-0.28337383
87	0xbed7211a	-0.42017442
88	0xbc3891ed	-0.01126526
89	0x3f86bf89	1.0527202
90	0x3e384cce	0.17998049
91	0x3eae595a	0.34052545
92	0xbe8777cd	-0.26458588
93	0xbf384d5d	-0.71993047
94	0x3eca0791	0.39458898
95	0x3e01a8cd	0.12662049

bias f4 [16]
0	0xbea50f6e	-0.32238334
1	0xbe1ff969	-0.15622486
2	0x3dd26539	0.10273213
3	0xbe1018e1	-0.1407199
4	0x3eb7ff43	0.35936937
5	0xbe24fc36	-0.16111836
6	0xbe146eec	-0.14495438
7	0xbdbb2b71	-0.09139145
8	0xbee55e1a	-0.44798356
9	0x3ec36474	0.38162577
10	0x3ebca799	0.36846617
11	0x3d15a6de	0.03653609
12	0xbe9fd5d2	-0.3121782
13	0x3edce8e9	0.43146446
14	0x3e4b0376	0.19825539
15	0x3c77e122	0.015129359

weight f4 [8, 16]
0	0xbeb4692d	-0.35236493
1	0xbe578938	-0.21048439
2	0x3f04f180	0.51931
3	0xba8b72b6	-0.0010639045
4	0x3dcc93de	0.09989141
5	0x3d5eda59	0.05440745
6	0xbd7efede	-0.06225478
7	0xbf7e1579	-0.99251515
8	0x3ddb2fa7	0.10702448
9	0xbed27162	-0.4110213
10	0xbebe7e29	-0.37205628
11	0xbde0df32	-0.10980071
12	0xbf067623	-0.5252401
13	0xbe2ea6d4	-0.17055827
14	0xbedbc5bb	-0.42924294
15	0xbd31d7c3	-0.043418657
16	0x3efe36fe	0.4965133
17	0x3d8f11d7	0.069858246
18	0x3e594c9a	0.21220627
19	0xbd93055b	-0.07178756
20	0x3e2a337f	0.16621207
21	0x3d1d9f2c	0.038481876
22	0x3eb187fb	0.34674057
23	0x3d05c0e6	0.032654665
24	0x3cd475aa	0.025935013
25	0xbe0163dc	-0.1263575
26	0xbe21c3d4	-0.15797359
27	0x3eca9107	0.39563772
28	0xbc23c3d0	-0.009995416
29	0xbe03aa7d	-0.12858005
30	0xbeefc124	-0.46827042
31	0xbd5d97a4	-0.054099694
32	0x3edd874d	0.4326729
33	0x3ef1dc40	0.4723835
34	0x3e57af01	0.21062852
35	0xbd3a9f69	-0.04556218
36	0xbcff966f	-0.031199662
37	0xbed63414	-0.41836607
38	0xbe8ccbdf	-0.2749929
39	0x3e3d2201	0.18470003
40	0xbe1d331f	-0.15351532
41	0xbeb48b20	-0.35262394
42	0xbe2d66d6	-0.1693376
43	0xbe30985b	-0.17245619
44	0x3d828fe1	0.06375099
45	0x3dfaee5f	0.12252497
46	0xbed4289e	-0.41437238
47	0x3d334cdb	0.043774467
48	0x3ebb3e89	0.36571148
49	0x3e5fb0da	0.21844807
50	0x3da67476	0.08127682
51	0x3e189d3d	0.14903732
52	0x3e16e67f	0.14736365
53	0x3d47e38d	0.048800994
54	0xbe25b8a6	-0.16183719
55	0x3edd15b4	0.4318062
56	0x3d9c74b8	0.0763945
57	0x3d99f905	0.075182
58	0xbdb501f9	-0.08838267
59	0x3d4b6130	0.049653232
60	0xbd8af463	-0.06784894
61	0xbf0dda4d	-0.55411226
62	0xbe080113	-0.1328166
63	0x3d7e7dca	0.06213168
64	0xbd05556b	-0.032552164
65	0xbec4e5d8	-0.38456607
66	0xbf75fb1e	-0.960863
67	0xbf6bc5d0	-0.9209871
68	0xbf2c9971	-0.67421633
69	0xbf954f07	-1.1664742
70	0xbf859553	-1.0436195
71	0xbe7ee034	-0.24890214
72	0xbf7ac132	-0.9795104
73	0xbec21f82	-0.37914664
74	0x3dd285f9	0.102794595
75	0xbf9a908b	-1.2075361
76	0xbe72e640	-0.23720646
77	0x3ea8da09	0.32978848
78	0xbeeb912f	-0.46009204
79	0xbdbfe670	-0.09370124
80	0xbe865eeb	-0.26244292
81	0xbe058e81	-0.13042642
82	0x3e5cb606	0.21553811
83	0xbd126169	-0.03573743
84	0x3e95e089	0.2927287
85	0xbe83c566	-0.2573654
86	0xbdfd7783	-0.12376311
87	0xbd5598ec	-0.05214779
88	0x3e10832a	0.14112535
89	0xbe0a04f7	-0.13478456
90	0xbe11029c	-0.14161152
91	0xbdb83ca2	-0.0899594
92	0x3e0e7bee	0.13914463
93	0xbcd004e4	-0.025392957
94	0xbe0b2466	-0.13588104
95	0x3c611692	0.013738291
96	0xbd8f6756	-0.07002132
97	0x3e189bca	0.14903179
98	0x3e9d93ee	0.30776924
99	0x3da3d32d	0.07999263
100	0xbeed4e25	-0.46348682
101	0x3dca9c61	0.09893108
102	0xbe4142ac	-0.1887309
103	0xbdd98853	-0.10621705
104	0x3e68f35b	0.22749083
105	0xbdbf80e3	-0.09350755
106	0xbdf3753c	-0.11887595
107	0xbe3616d3	-0.17782144
108	0xbed29e6e	-0.41136497
109	0xbeae562e	-0.34050125
110	0x3dfbf2be	0.12302159
111	0xbe53ed5c	-0.20696014
112	0x3ee30b7a	0.44344693
113	0x3d83086c	0.06398091
114	0xbde1ccea	-0.110254124
115	0xbdba05c5	-0.09083132
116	0xbdb62325	-0.08893422
117	0xbe894bab	-0.26815543
118	0xbe03085c	-0.12796158
119	0x3e046119	0.12927665
120	0xbe903b7d	-0.28170386
121	0x3e535102	0.20636371
122	0xbceee639	-0.029162513
123	0xbe830658	-0.25590777
124	0x3f0aeec5	0.54270583
125	0x3f169731	0.5882445
126	0xbe84316f	-0.25818965
127	0x3d56eb35	0.052470405

bias f4 [8]
0	0xbe318f38	-0.1733979
1	0x3f1dc0c8	0.61622286
2	0x3f29e702	0.66368115
3	0xbba15699	-0.0049236533
4	0x3f44de58	0.7690177
5	0x3ec7ceea	0.3902505
6	0x3e5ad87c	0.21371645
7	0x3e339b5f	0.17539738

weight f4 [16, 8]
0	0xbf2c09ba	-0.6720234
1	0x3f5099a8	0.8148446
2	0xbf6de448	-0.92926455
3	0xbf9eb14e	-1.2397859
4	0xbf62090b	-0.8829505
5	0x3e386da8	0.1801058
6	0xbec6893b	-0.38776574
7	0xbd365e83	-0.044523727
8	0xbf367ef9	-0.71287495
9	0x3f6317ac	0.88707995
10	0xbf536ef8	-0.825912
11	0xbfe63fd6	-1.7988231
12	0xbf711d67	-0.9418549
13	0x3e2305aa	0.1592013
14	0xbe6b7d8d	-0.22997113
15	0xbce77e9a	-0.02825861
16	0xbf7bba0b	-0.98330754
17	0x3f2e8375	0.6816934
18	0xbf249e70	-0.64304256
19	0xbee96b33	-0.455896
20	0xbf1d761d	-0.6150835
21	0x3e81cbb2	0.2535072
22	0xbf0c49a0	-0.5479984
23	0xbdae00f4	-0.084962755
24	0xbf4791fe	-0.7795714
25	0x3f01c389	0.5068899
26	0xbf9697c5	-1.1765066
27	0xc02af5f1	-2.671261
28	0xbfd237c4	-1.6423268
29	0x3e4b1e2a	0.19835725
30	0xbf00150c	-0.50032115
31	0x3ee1af0f	0.44078872
32	0x3de28fb1	0.11062563
33	0xbea2fb01	-0.31832126
34	0xbfb8cc3d	-1.4437329
35	0x3e673999	0.22580566
36	0x3e865fe7	0.26245043
37	0x3f136857	0.57581085
38	0xbf0439a3	-0.51650447
39	0x3ebfcd42	0.37461287
40	0xbf04e25c	-0.51907897
41	0xbe714fd3	-0.23565607
42	0xbfad255e	-1.3527029
43	0x3e92501d	0.28576747
44	0x3eabec19	0.33578566
45	0x3e89cb85	0.26913086
46	0xbf339870	-0.70154476
47	0x3ecd2016	0.40063542
48	0xbde5b1fb	-0.11215588
49	0xbe4b38e0	-0.19845915
50	0xbf5c7157	-0.8611044
51	0xbfa6ff0a	-1.3046582
52	0xbf563439	-0.83673435
53	0x3f0e6053	0.5561573
54	0x3c3711fc	0.011173721
55	0x3ef35097	0.47522423
56	0x3ef90491	0.48636296
57	0x3ec1cd7c	0.37852085
58	0xbf7b3a96	-0.9813627
59	0xbfa15c20	-1.2606239
60	0x3f2346f9	0.6378017
61	0x3e98ad3f	0.29819676
62	0x3ec78cf5	0.3897473
63	0x3f361bf5	0.7113641
64	0xbe264cff	-0.16240309
65	0xbd98b98d	-0.07457266
66	0x3e33b59d	0.17549749
67	0xbe8214e6	-0.2540657
68	0x3c837faf	0.016052095
69	0xbeb4b55d	-0.3529462
70	0x3eca2cb5	0.39487234
71	0x3e521b07	0.20518123
72	0xbe10bf44	-0.14135462
73	0x3e511a78	0.20420253
74	0x3edbe860	0.42950726
75	0x3d80f2d5	0.062963165
76	0x3ee09294	0.4386183
77	0xbeab4f6f	-0.3345904
78	0x3cdcf8fc	0.026974194
79	0x3dac6922	0.0841849
80	0xbe7f521d	-0.24933667
81	0xbeab342e	-0.33438247
82	0x3ee97729	0.45598724
83	0x3ecf0954	0.40436804
84	0x3ef0b210	0.4701085
85	0xbead0612	-0.33793694
86	0x3d817718	0.063215435
87	0xbcfd2a41	-0.030903937
88	0xbedd6ff5	-0.4324948
89	0xbe5c8339	-0.21534432
90	0x3ed02b10	0.40657854
91	0x3e0f4b54	0.13993579
92	0xbf9b179b	-1.2116579
93	0xbedb67dc	-0.42852676
94	0xbe0ed72f	-0.13949274
95	0x3d34ecbb	0.044171076
96	0xbf446d1d	-0.76728994
97	0xbfc9de4f	-1.5770968
98	0x3e9ada9f	0.3024492
99	0xbe9c7d4f	-0.30564353
100	0xc0180eac	-2.3758955
101	0x3f5911d5	0.84792835
102	0xbe8ff9dc	-0.28120315
103	0x3e1f3822	0.15548757
104	0x3e55837a	0.20850936
105	0x3de6e050	0.11273253
106	0x3eebcbc3	0.46053895
107	0xbc710c95	-0.014712472
108	0xbfbd9440	-1.4810867
109	0xbdc45c49	-0.095879145
110	0xbf103df7	-0.5634455
111	0xbefb3393	-0.49062786
112	0x3f184212	0.59475815
113	0x3e88bb72	0.2670551
114	0x3ee54493	0.4477888
115	0xbf5aa3df	-0.854063
116	0xbf37a81c	-0.7174089
117	0xbe97f770	-0.29680967
118	0xbe9fda45	-0.31221214
119	0xbf0d33d0	-0.55157185
120	0x3f12227e	0.5708388
121	0x3c824ce4	0.015905805
122	0x3e425306	0.18976983
123	0xbdf44f8c	-0.11929235
124	0xbf061e9a	-0.52390444
125	0x3e4a0672	0.19729021
126	0xbef5b8a1	-0.47992423
127	0xbf4213e4	-0.758116

bias f4 [16]
0	0x3f452c59	0.77020794
1	0x3f0a164a	0.5394026
2	0x3f720e20	0.94552803
3	0x3f0b1868	0.54334116
4	0x3ec95082	0.39319235
5	0x3e51f480	0.20503426
6	0x3b9acc90	0.004724093
7	0xbe7c18c4	-0.24618822
8	0x3e932a50	0.2874322
9	0x3e08a936	0.13345799
10	0x3e6e58ef	0.23276113
11	0xbeafb65d	-0.3431882
12	0xbea7bc02	-0.32760626
13	0x3ee0b13a	0.43885213
14	0x3e4ddf4e	0.20104715
15	0x3e86fa87	0.26363012

Aq_4 f4 [16, 16]
0	0xbfa04fd0	-1.2524357
1	0x4006d127	2.1065156
2	0xbef43387	-0.47695562
3	0x3f80722f	1.0034846
4	0xc03f90a5	-2.9932034
5	0xbfb12d90	-1.384203
6	0xbf1e6159	-0.6186729
7	0xbfb3b169	-1.4038516
8	0xbfff3ab8	-1.9939795
9	0x3ef9fae8	0.4882424
10	0x3f15529b	0.5832917
11	0xbec71d8b	-0.38889727
12	0xbf251ece	-0.6450013
13	0x3d8e11f0	0.06937015
14	0xbfc378e0	-1.5271263
15	0xbfcd9397	-1.6060666
16	0x401ae741	2.4203646
17	0xbf5f2f29	-0.87181336
18	0x3f810520	1.0079689
19	0x3fb7b6f2	1.4352705
20	0xbf05c21e	-0.52249324
21	0x3f622ff4	0.8835442
22	0xbdab2199	-0.083560176
23	0xbf380b47	-0.7189221
24	0x3f66c4af	0.90143865
25	0xbf38f3ef	-0.72247213
26	0xbe990087	-0.29883215
27	0x3e108fd6	0.14117369
28	0xbf7b7825	-0.982302
29	0xbd87855d	-0.06617234
30	0xbe47ae8c	-0.19500178
31	0xbf864cfe	-1.0492246
32	0xbf9e1055	-1.2348734
33	0xbebaecd2	-0.36508805
34	0xc006147c	-2.0950003
35	0xbfd9f58b	-1.7028059
36	0xbde58582	-0.11207105
37	0x3e0f2b31	0.1398132
38	0x3d0b4db4	0.03400965
39	0xbf5ad9ba	-0.85488474
40	0x3f681777	0.90660805
41	0xc0171cb3	-2.3611267
42	0xbf9eaef6	-1.2397144
43	0x3dc46b8e	0.09590827
44	0x3fd9430c	1.6973586
45	0xbde91ed5	-0.11382834
46	0x3eb39ee2	0.35082155
47	0x3fd0b4ba	1.6305153
48	0xbf7e9566	-0.99446714
49	0xbe471bd1	-0.19444205
50	0xbfe474ed	-1.7848183
51	0xbf74acab	-0.9557597
52	0xbf11e6b9	-0.5699268
53	0xbed5c6bb	-0.41753182
54	0x3f9174b2	1.1363738
55	0xbf7dd823	-0.99157923
56	0x3e895292	0.2682081
57	0x3f6d7a74	0.92764974
58	0x3f3971ca	0.72439253
59	0x3f6950ad	0.91138726
60	0xbf3255e9	-0.6966234
61	0xbfa1b3da	-1.2633011
62	0xbf4c55cb	-0.7981841
63	0x3f979af2	1.184416
64	0x3f175af2	0.59123147
65	0xc044653d	-3.068679
66	0x4020384c	2.503436
67	0xbf9b73ef	-1.2144755
68	0xbf419721	-0.7562123
69	0x40113e03	2.26941
70	0xbf9bc074	-1.2168107
71	0x3fa0c480	1.2559967
72	0xbdbfeb03	-0.09370997
73	0xbfc632af	-1.5484217
74	0x3faf8de5	1.3715178
75	0x3fd97737	1.6989506
76	0x3fdcb063	1.7241329
77	0xc00c5077	-2.1924112
78	0xbf75b3fa	-0.9597775
79	0xbf01b3d2	-0.5066501
80	0xbf970915	-1.1799647
81	0xbfb900ef	-1.445341
82	0x40038f75	2.055631
83	0x3f953bbe	1.1658857
84	0x3f959538	1.1686163
85	0xbf9d33b9	-1.228141
86	0x3d4ac446	0.049503587
87	0x3fbf7f21	1.4960672
88	0x4000e6b6	2.0140815
89	0xbfbbbfc7	-1.4667901
90	0xbf4ad581	-0.7923203
91	0xbfd32aa2	-1.6497386
92	0xbf37e908	-0.7183995
93	0xbf934b67	-1.1507386
94	0x3d0ba7a0	0.034095407
95	0x3f2b4c2f	0.6691312
96	0xbf29ea9f	-0.6637363
97	0xbf8f9a2d	-1.1218926
98	0xbf1eba62	-0.6200315
99	0xbffc9300	-1.9732361
100	0x3e79722b	0.24359958
101	0x3fb24e3c	1.3930125
102	0x3f2ec84f	0.68274397
103	0xbf17ac45	-0.5924724
104	0xbf23d014	-0.6398938
105	0xbee5781c	-0.448182
106	0xbfad73bc	-1.3550944
107	0xbf6e8e0f	-0.93185514
108	0xc0121bbd	-2.282943
109	0xbfbe6567	-1.4874696
110	0x3ebef2a5	0.37294498
111	0x401c804d	2.4453309
112	0xbd4feedb	-0.0507649
113	0x3eb705b7	0.35746548
114	0x3fbd622b	1.4795583
115	0xbf43db00	-0.7650604
116	0xbed0c655	-0.40776315
117	0x3f0e1067	0.5549378
118	0xbf3f1a91	-0.7464991
119	0x3e598e52	0.21245697
120	0xbf2729ba	-0.65298045
121	0x3f80e1fb	1.0068964
122	0xbf484e84	-0.78244805
123	0x3f9f5a11	1.2449361
124	0xbf95bb93	-1.1697868
125	0xbe1c0800	-0.15237427
126	0xbeb52fa6	-0.35387915
127	0xbd6064e9	-0.054783735
128	0xbf8169c0	-1.0110397
129	0x3f784c43	0.96991366
130	0xc01a86b5	-2.4144719
131	0x4023a6e5	2.5570614
132	0x3ecf691a	0.40509874
133	0x3f895268	1.0728273
134	0x3dc3011e	0.095216975
135	0xbf2e07c9	-0.6798063
136	0xbe971442	-0.29507643
137	0x3d943524	0.07236698
138	0x3f05fe8e	0.52341545
139	0x3eff1f21	0.49828437
140	0x3e90a62a	0.28251773
141	0xbef41d0d	-0.47678414
142	0xbf380aa0	-0.7189121
143	0xbf8ef76b	-1.1169256
144	0xbc3f6ba2	-0.0116833765
145	0xbf5192f9	-0.8186489
146	0xbf04a7df	-0.5181865
147	0x3f0ec7a3	0.5577337
148	0x3f51cdb2	0.8195449
149	0xbf8cb54e	-1.099283
150	0x3ff43554	1.9078774
151	0x400f3bf0	2.2380333
152	0x3f80d551	1.0065099
153	0x3f16f13a	0.5896183
154	0xbfdd9c70	-1.7313366
155	0x3f742753	0.95372504
156	0xbfb1290b	-1.384065
157	0xbf5517d1	-0.83239466
158	0x3eb2b81e	0.34906095
159	0xbe517f84	-0.204588
160	0xbf955853	-1.166758
161	0x3ed8ee8c	0.42369497
162	0xc06c4bd2	-3.6921277
163	0xbdf74b24	-0.12074879
164	0xbf31a955	-0.69399005
165	0xbe2484cd	-0.16066284
166	0xbfc13a7e	-1.5095975
167	0xbeff1ab6	-0.49825066
168	0xbe76b876	-0.24093804
169	0xbf2b4475	-0.6690133
170	0x3fcfe808	1.6242685
171	0xbeb520ea	-0.35376674
172	0xbfe1562f	-1.7604426
173	0x3f702b36	0.93815935
174	0xc01f425f	-2.488426
175	0x3e35bcd7	0.17747818
176	0xbf2a6cb2	-0.66572106
177	0xbfb310b3	-1.3989471
178	0x3ff3c07c	1.9043117
179	0xbed62c39	-0.41830614
180	0xc024f3dc	-2.577384
181	0x3f176e29	0.59152466
182	0x3f34a790	0.7056818
183	0x3fcd5f0b	1.604463
184	0xbeeef292	-0.4666944
185	0x3eb63353	0.35586032
186	0xbf997239	-1.1987983
187	0x3fa43538	1.2828741
188	0x3ec26a12	0.3797155
189	0xc0298711	-2.6488688
190	0x3ebd42c3	0.36964998
191	0xbf880fa5	-1.0629774
192	0xbf5ba0de	-0.8579234
193	0xc0323b7e	-2.784881
194	0x3f4a6465	0.7905944
195	0xbf1c3e63	-0.61032695
196	0x3f76a758	0.96349096
197	0xbd655c25	-0.05599608
198	0x3ebf88f1	0.37409166
199	0xbf847112	-1.0347006
200	0xbf94ae0c	-1.1615615
201	0xbfd54d3c	-1.6664195
202	0x3fe37a0c	1.7771621
203	0xbd547aee	-0.051875047
204	0xbf97064f	-1.17988
205	0x3fe233cc	1.7672057
206	0xbf3d2d7e	-0.7389754
207	0x3f319fa9	0.6938425
208	0xc00da546	-2.2132125
209	0x3ddbab6b	0.10726055
210	0xbf3e911d	-0.74440175
211	0xbf81736a	-1.0113347
212	0xbe193745	-0.1496249
213	0x3fb090cc	1.3794188
214	0x3feddc27	1.858281
215	0xbfc1833a	-1.5118172
216	0x3ea94c05	0.3306581
217	0x3e90c48c	0.28274953
218	0x3f9dd6cb	1.2331175
219	0xbedbddd4	-0.4294268
220	0xbf124e9a	-0.57151186
221	0xbf175665	-0.591162
222	0x3fc1e16f	1.5146922
223	0x3fa91211	1.3208638
224	0xbfa0cc17	-1.2562283
225	0xbfcfe8a6	-1.6242874
226	0xbf94f189	-1.1636211
227	0xbecf70a7	-0.40515634
228	0x3f8fa617	1.1222562
229	0xbe60862e	-0.21926185
230	0xbf7aba38	-0.979404
231	0xbf11eb89	-0.57000023
232	0xbf582dab	-0.84444684
233	0xbf1aeb0d	-0.6051491
234	0xbfbacad5	-1.459315
235	0xbf039d2c	-0.514117
236	0x3e1a9114	0.15094405
237	0xbf9010ba	-1.1255105
238	0x3f0187d1	0.50597864
239	0xbf688846	-0.90832937
240	0xbf5a4bcb	-0.852719
241	0x3f54b0ce	0.8308228
242	0x3f93fddf	1.156185
243	0xbdea2202	-0.11432268
244	0x3f303dd1	0.68844324
245	0xbe892a88	-0.2679026
246	0x3e536729	0.20644821
247	0xbf25d43c	-0.6477697
248	0xbf004547	-0.5010571
249	0xbe104ddd	-0.14092202
250	0x3f09dfde	0.5385722
251	0xbf1008bd	-0.56263334
252	0xbe953c97	-0.2914779
253	0xbe47a496	-0.19496378
254	0xbdc4fcc7	-0.09618526
255	0xbef7b9cd	-0.48383942

Ak_4 f4 [16, 16]
0	0x3f882ec1	1.0639268
1	0x3ebcec45	0.3689901
2	0x3ff7dee5	1.9364897
3	0x3c2aa8cf	0.010416224
4	0x3e895955	0.26825967
5	0xbe3914d5	-0.18074353
6	0xbf0b4086	-0.5439533
7	0x3f9c8dc0	1.2230759
8	0xbd8c183b	-0.06840559
9	0xbf8b6eae	-1.0893152
10	0x4002ecdb	2.0457065
11	0x3f88fffd	1.0703121
12	0xbf1e48f0	-0.61830044
13	0xbf862646	-1.048043
14	0xbf5d6a0e	-0.8648995
15	0xbec5eee8	-0.38658834
16	0xc0097dac	-2.1482954
17	0x3e319cc1	0.17344953
18	0xc005e23a	-2.0919328
19	0x3fb14827	1.3850144
20	0xbfa824c4	-1.313622
21	0xc013c72c	-2.3090315
22	0x3f216e46	0.6305889
23	0xbf668460	-0.9004574
24	0xbf46b2a0	-0.7761631
25	0x3ea24372	0.31692082
26	0x401238f4	2.2847261
27	0xbf5d3686	-0.8641132
28	0x3f3b4d2d	0.73164636
29	0x3f44b501	0.7683869
30	0xbecc650d	-0.39920846
31	0xbf860fbe	-1.0473554
32	0xbf9c95fe	-1.2233274
33	0xc0337191	-2.8038065
34	0xc07faeb9	-3.9950392
35	0xbffee1fb	-1.9912714
36	0xbf8cebd2	-1.1009467
37	0x3dda82bf	0.10669469
38	0xbff42a20	-1.9075356
39	0xc0108b39	-2.2584975
40	0xbfc6e48c	-1.5538497
41	0x3ec237ef	0.379333
42	0xbfcc6373	-1.596785
43	0xbf3ac715	-0.72960025
44	0xc04531f4	-3.081174
45	0x3d65f6b6	0.056143485
46	0x3f7addf8	0.9799495
47	0x3fd238e0	1.6423607
48	0x3fb74a68	1.4319582
49	0x3f01702e	0.505618
50	0x3f24bd13	0.64351004
51	0x3e0348f1	0.12820794
52	0xbe5492e1	-0.20759155
53	0x3e8c3304	0.27382672
54	0x3f2f48fb	0.68470734
55	0xbff7bcd4	-1.9354501
56	0xbeed8c78	-0.46396232
57	0x3fa8f005	1.3198248
58	0x3f2e5618	0.6810012
59	0x3ef83a86	0.4848215
60	0xbf56cc3f	-0.83905405
61	0x3e50bcde	0.20384547
62	0xbcecbb4e	-0.028897908
63	0xbffe0224	-1.9844403
64	0x3fd2b32a	1.6460927
65	0xbf9f5506	-1.2447822
66	0xbe6582e5	-0.22413214
67	0xbf4f39aa	-0.80947363
68	0xbf2f1ab5	-0.68400127
69	0xbf92006a	-1.1406376
70	0x3f8cc8f2	1.0998824
71	0x3ec7a515	0.38993135
72	0x3f3ccf33	0.7375366
73	0x3fbd14d8	1.4771986
74	0xbfa3016b	-1.2734808
75	0x3ec92edc	0.39293563
76	0xbfd18593	-1.6368889
77	0x3ff8c3ac	1.9434714
78	0x3f78bb73	0.97161025
79	0x3f9e0b6e	1.2347238
80	0xbfa755bc	-1.3073039
81	0x3dfdc1e3	0.123904966
82	0xbfc3ae42	-1.5287554
83	0xbf2efebd	-0.6835745
84	0xbfb86627	-1.4406174
85	0xbf638903	-0.8888094
86	0x3c2c7d46	0.010527914
87	0xc040a009	-3.0097678
88	0x3fd2225e	1.6416738
89	0x3e4fed8a	0.20305458
90	0x3d3541c0	0.044252157
91	0xbf7f2387	-0.99663585
92	0xbf1e01e9	-0.61721665
93	0xbeac400e	-0.3364262
94	0xbe04a19f	-0.12952279
95	0x3fbc3b1a	1.4705536
96	0xc0340002	-2.8125005
97	0xbfbbe693	-1.4679741
98	0xbfa9cce0	-1.3265648
99	0xbee92c86	-0.4554178
100	0xbd93788a	-0.072007254
101	0x400fbc05	2.2458508
102	0x3d4fd38d	0.05073886
103	0x3e98dd28	0.2985623
104	0x3f908eb5	1.1293551
105	0xbfb44649	-1.4083949
106	0x3fdac52e	1.7091424
107	0xbf9c8248	-1.2227259
108	0x3d9f5be2	0.07781197
109	0x3fd08d03	1.6293033
110	0xbed04aa2	-0.4068194
111	0x4007644b	2.1154964
112	0xbf4952fd	-0.78642255
113	0xbfb022a0	-1.3760567
114	0x3fd95dc3	1.6981739
115	0x3d84a55a	0.06476851
116	0x3f70c4db	0.9405038
117	0xbf319748	-0.6937146
118	0x3d717585	0.058949966
119	0xbdd11dd0	-0.102107644
120	0x3ec942cc	0.39308774
121	0xbec47a7a	-0.38374692
122	0x3fa7e960	1.3118095
123	0xc065710f	-3.5850255
124	0x3e591a36	0.21201405
125	0x3f6e0f76	0.9299234
126	0xbf1ca5a3	-0.6119024
127	0x3e446d3a	0.19182292
128	0xbf658fa9	-0.89672333
129	0x3f44c7a3	0.7686712
130	0xbf3382be	-0.7012137
131	0xbd207983	-0.039178383
132	0xbfec67eb	-1.8469213
133	0x3f1649c9	0.5870634
134	0xbb9c0a4d	-0.00476197
135	0x3e92ab9e	0.2864656
136	0xbf19ec20	-0.60125923
137	0x3f542efd	0.828842
138	0xbd9a3c9e	-0.07531093
139	0x3f75e375	0.96050197
140	0x3fcaea5b	1.585277
141	0xbf596242	-0.84915555
142	0x3f1c36cd	0.6102112
143	0x40367adf	2.8512495
144	0xbfb99527	-1.4498643
145	0xc0214cbc	-2.5203085
146	0x3f933af6	1.1502368
147	0xbfcb931b	-1.5904268
148	0xc04c1137	-3.1885507
149	0x3f1d4173	0.6142799
150	0x3f829936	1.0203006
151	0x400d5615	2.208379
152	0x3fba616c	1.4560981
153	0xbda4f462	-0.08054425
154	0xc04eca18	-3.2310848
155	0x3fe4a124	1.7861676
156	0x3fde54a2	1.7369578
157	0xbf9f37f3	-1.2438949
158	0xbfce30f1	-1.6108686
159	0x3ec38d94	0.38193953
160	0x3f0e56da	0.55601275
161	0xbfc1f4a1	-1.515278
162	0xbf5d8f45	-0.86546737
163	0xbf841214	-1.0318017
164	0x3fe2b036	1.7710025
165	0xbf84bf6a	-1.0370915
166	0xbefd6c3b	-0.49496636
167	0xbec2e31b	-0.38063893
168	0xbf166fdd	-0.5876444
169	0xbf9b8e89	-1.2152873
170	0x3fbc4313	1.470797
171	0x3e419822	0.1890569
172	0x3e871a3f	0.26387212
173	0x3dbe0abb	0.092793904
174	0x3e34ff47	0.17675506
175	0x3fec9c8b	1.8485273
176	0x40034aa6	2.0514312
177	0xbfc00bd1	-1.5003606
178	0xbf8ae854	-1.0852151
179	0x3f30ea5c	0.69107604
180	0x3f375f2a	0.71629584
181	0x3e9ff123	0.3123866
182	0x3f8eb752	1.1149695
183	0x3f022a05	0.50845367
184	0x3fc98356	1.5743206
185	0x3f38193a	0.7191349
186	0xbf76b63a	-0.96371806
187	0x3fab21cd	1.336969
188	0xbfc82125	-1.5635115
189	0xc0009c21	-2.0095294
190	0x3f83d39b	1.0298952
191	0x3fa0f84d	1.2575775
192	0xbfd556ca	-1.6667111
193	0xc005a94d	-2.0884583
194	0x3ed79015	0.42102113
195	0x3e9cdd2f	0.306375
196	0xbf224709	-0.6338964
197	0xbf87d356	-1.061137
198	0xbf086222	-0.5327474
199	0xbfdf3135	-1.7436892
200	0xbd819161	-0.06326557
201	0xbfa637fc	-1.2985835
202	0x3ee8ddad	0.45481625
203	0xc01c02a1	-2.4376605
204	0x3f6e5b36	0.93107927
205	0xc008bddf	-2.1365888
206	0x3f1eb747	0.6199841
207	0xc064ccb0	-3.5749931
208	0xbfd38f14	-1.6528039
209	0x3f8aada7	1.0834244
210	0xbf8f8832	-1.1213439
211	0xbf4069d3	-0.75161475
212	0xbe0e1ef0	-0.13878989
213	0xbfa239e0	-1.2673912
214	0x3f35265d	0.7076166
215	0xbf57eb9a	-0.84343874
216	0x3fae8f54	1.363749
217	0x3f539fd5	0.8266576
218	0x3cc28132	0.023743246
219	0x3fa345ad	1.2755638
220	0x3f98027b	1.1875757
221	0x3c25673e	0.010095416
222	0x3f08959f	0.53353304
223	0xbf987337	-1.1910161
224	0x3eb5a248	0.35475373
225	0xbf90283c	-1.1262279
226	0x3e1a3190	0.15057969
227	0x3ee82256	0.45338696
228	0x3f872306	1.0557563
229	0xbf8f866c	-1.1212897
230	0x3ebc2aef	0.36751506
231	0x3f20668e	0.62656486
232	0xbe009050	-0.12555051
233	0xbf505ca7	-0.81391376
234	0x3e556bd5	0.20841916
235	0x40002587	2.0022905
236	0x3dd5cdc5	0.10439638
237	0x3fd8e857	1.6945904
238	0x3f066832	0.5250274
239	0xbfa801cc	-1.3125548
240	0x3fa3bbfa	1.2791741
241	0xbf9847bc	-1.1896892
242	0x3f0d1c51	0.5512133
243	0xbe546f64	-0.20745617
244	0xbf514daf	-0.8175916
245	0x3e08de47	0.13366042
246	0xbe57738f	-0.21040176
247	0x3fa9bf9d	1.3261601
248	0x3fb63260	1.4234123
249	0xbc95a60b	-0.018267652
250	0x3f858563	1.0431331
251	0xbf09bf57	-0.53807586
252	0x4004625e	2.0685039
253	0xbf139a50	-0.5765734
254	0xbe7b72e7	-0.2455555
255	0xbe64ac8a	-0.22331443
