data/actor_net_simple_spread_3550000_pH-MARL.pth (torch, 62756 bytes, 75 tensors)

Aq_4 f4 [16, 16]
000000 55 2c 14 c0 55 cb 04 3f 8e 50 ab 3e e0 bb 74 3f
       -2.3152058 0.5187276 0.33459896 0.95599174
000010 4d 05 c1 3f f9 40 0c 3f 07 a6 0a 3f d7 36 03 bf
       1.5079743 0.5478664 0.5415959 -0.51255554
000020 0e 9d 06 c0 1a d2 13 40 e8 2c f8 3f a0 5a 4c 3e
       -2.1033359 2.3096986 1.9388704 0.19956446
000030 43 f2 66 3e 84 1f 42 40 ff 25 2e be 4d fe 38 bd
       0.22553353 3.0331736 -0.17006682 -0.045164395
000040 5a 1b 84 3f e3 67 04 3f 6e a1 af be 40 79 21 40
       1.0320847 0.5172102 -0.3430285 2.5230255
000050 d5 c8 c7 3f 46 33 fb bd f3 cf c7 bf a7 7f c2 bf
       1.5608164 -0.12265639 -1.5610336 -1.5195206
000060 23 15 35 40 a7 3e 0b 3f a3 a3 44 c0 86 6d 38 c0
       2.829415 0.54392475 -3.0724876 -2.8816848
000070 d5 13 80 3f b4 81 0d c0 63 d3 be bf cc 15 d9 3f
       1.0006052 -2.2110415 -1.490826 1.6959777
000080 35 19 7b 3d 01 b6 e5 bf 49 e8 17 40 f7 f8 17 3f
       0.061303336 -1.7946168 2.3735526 0.59364265
000090 67 8f b5 bf 39 94 55 bf b5 39 f5 3f a9 74 56 3f
       -1.4184388 -0.83429295 1.9158236 0.8377176
0000a0 67 ed c4 be 4b cf 94 3f 0b 6f 65 bf ae c5 c5 3b
       -0.38462374 1.1625761 -0.89622563 0.006035528
0000b0 9d bf cc 3f 87 9a 13 bf 8a cf 1b bf 68 a9 c9 3f
       1.5995976 -0.57657665 -0.60863554 1.5754824
0000c0 cb 26 dd be 6f 94 85 bf d1 f8 2b 3d ce e4 0b 40
       -0.4319366 -1.0435923 0.041985337 2.1858401
0000d0 26 39 15 c0 84 b9 5d 3d a4 ee 34 40 c1 34 01 3f
       -2.331613 0.054132 2.8270655 0.5047112
0000e0 14 85 9c 3f d2 3d 4e 3e 0d ee cd bf d3 27 0b c0
       1.2228112 0.2014077 -1.6088272 -2.1743057
0000f0 a6 d7 ca bd 3b b1 b3 bf 79 48 24 c0 15 f1 20 c0
       -0.09904413 -1.4038461 -2.5669234 -2.5147145
000100 4b ac c7 be 3c 58 f9 be bd 1d 4a bf 10 33 ff be
       -0.38998637 -0.4870013 -0.78951627 -0.49843645
000110 19 99 8d bc ef a5 44 3d f4 a8 ef 3f 15 aa eb bd
       -0.017284917 0.04800981 1.8723435 -0.1150705
000120 8c b0 a1 be 46 32 62 bf 36 dd 49 bf b8 3c df bf
       -0.31580007 -0.8835796 -0.78853166 -1.7440405
000130 d0 98 87 be dc 23 87 bf d1 0f ed 3e 5b 61 7c be
       -0.26483774 -1.0557818 0.4630113 -0.24646513
000140 09 50 b9 bf cd 11 03 c0 98 f4 5e bf 5a 08 a9 bf
       -1.447755 -2.0479615 -0.8709197 -1.3205674
000150 4c 38 6b bf 38 bd 1a bf 67 17 a3 be f4 5d 6d 3e
       -0.9188278 -0.60444975 -0.31853792 0.23180372
000160 b0 b7 29 be 9c bf af be 8b e9 11 bf 76 d9 97 bf
       -0.16573977 -0.34325874 -0.56996983 -1.1863239
000170 f6 0e 98 bf 63 7e e6 3e 6f 58 e7 be 8a 57 b0 3f
       -1.1879566 0.450183 -0.45184657 1.3776715
000180 78 86 d2 be 45 9c 3a bf c2 cf d4 bf 4e fc 00 c0
       -0.41118217 -0.728947 -1.6625903 -2.0153995
000190 c5 83 6d bf 90 91 87 bd 04 61 0b c0 19 67 39 3f
       -0.9277919 -0.06619561 -2.1777964 0.7242294
0001a0 ee cc 54 3e e4 ee 7c 3f 78 2f b2 bf be a8 69 bf
       0.207813 0.9880202 -1.3920736 -0.91273105
0001b0 a0 f1 8e bf ba 80 0d c0 43 00 aa bf 6d ae 94 bf
       -1.1167488 -2.2109818 -1.328133 -1.161573
0001c0 a5 e0 59 bf 44 59 12 bf fc b0 73 3f e2 eb 34 be
       -0.85108405 -0.5716746 0.9519193 -0.17668107
0001d0 43 c4 a9 3e db 33 46 bf 8f c2 81 bf ef 36 9a bf
       0.33157548 -0.77422875 -1.01375 -1.2048014
0001e0 af e7 35 40 41 fa fe 3d 0b 64 0f bf d1 ac 66 3f
       2.8422658 0.12450076 -0.5601203 0.90107447
0001f0 7e 5c c8 bf 66 c4 77 3f 98 92 9a 3e 4d f1 93 40
       -1.5653226 0.96784055 0.30189967 4.6232057
000200 5d 9d 00 be 56 9b f2 bf 4a 70 af bf a2 ea be 3f
       -0.1256003 -1.8953655 -1.3706143 1.4915354
000210 c4 85 9f bf 40 4a b4 bf 49 96 00 bf 8e b4 92 bf
       -1.2462697 -1.4085159 -0.50229317 -1.1461351
000220 dd 60 02 c0 53 d9 8c bf 85 4b ac 3f e9 6b 35 c0
       -2.037162 -1.1003822 1.3460547 -2.8347113
000230 a2 0c 17 40 69 08 9c bf e6 6a 8e 3f ae ef 78 be
       2.360146 -1.2190067 1.1126373 -0.2431018
000240 a6 dc bb be dd dd 53 3f e3 87 94 bf 69 d9 9d 3f
       -0.3669178 0.8276041 -1.1603969 1.2331973
000250 b6 60 79 3e 12 d0 10 bd 86 f1 81 3f fc 57 28 c0
       0.24353299 -0.03535468 1.0151832 -2.6303701
000260 be 0c 3e 3f 5e b9 bb 3d f1 bf df bd 50 2c b1 bf
       0.74238193 0.09166215 -0.10925282 -1.3841648
000270 55 88 c3 3f 00 82 af 3f da df 8a be 1b c3 4a 40
       1.527598 1.3711548 -0.2712391 3.1681583
000280 ab d9 55 3f 29 07 f9 3e 1e 97 17 c0 32 e4 b7 bf
       0.8353526 0.48638275 -2.3685985 -1.4366515
000290 94 6d 30 c0 10 8a 2a 3b 27 ad e1 3e d9 f7 0d 3f
       -2.756688 0.0026022233 0.44077417 0.5545631
0002a0 38 64 2b 3e 5f 73 94 3f be 64 b8 bf 35 c4 82 be
       0.16737449 1.1597708 -1.4405744 -0.2554032
0002b0 f8 17 12 bf 22 cb 91 bf d2 24 0c 3d b0 35 99 bf
       -0.57067823 -1.1390116 0.034214802 -1.1969509
0002c0 99 dd 82 3e de 64 36 3e 3b 36 38 bf ac 5a 32 3f
       0.2555969 0.17811915 -0.7195775 0.69669604
0002d0 c1 2f 58 bf bc fa a5 be ff 21 1d 3f 4b 09 af bf
       -0.84447867 -0.32417858 0.6138 -1.3674711
0002e0 e2 64 eb 3f 80 b9 b8 be 5d 0c 78 3f 5e 7f f4 be
       1.8390162 -0.36079025 0.96893865 -0.47753423
0002f0 d6 5f 7d 3f ab e5 be 3e c4 cc ff be c2 5c 93 bf
       0.9897436 0.37284598 -0.4996091 -1.1512682
000300 c0 ee e4 3e fe 3f 1a bf f1 4d 80 bf 3d 94 56 3f
       0.44713402 -0.60253894 -1.0023786 0.83819944
000310 0c 91 03 3f ec 1e 5e 3d b1 69 58 c0 d6 ef 4a bf
       0.513932 0.05422871 -3.381451 -0.7927221
000320 9e 7f 83 3f 25 f2 6a bf 93 97 6b bf ea 08 8c 3e
       1.0273321 -0.91775733 -0.9202816 0.2735055
000330 77 39 d1 be 87 ee a4 bf 3b db 04 bf d7 36 23 bf
       -0.40864155 -1.2885293 -0.5189702 -0.63755554
000340 62 ea 26 3f 61 4f 53 3e e0 33 06 bf 92 a5 85 be
       0.6520139 0.2063575 -0.52422905 -0.26102883
000350 79 b6 9b 3f a3 60 10 be 22 bb 82 3f b1 fd fc 3f
       1.2165061 -0.14099364 1.0213358 1.976492
000360 b0 1e fc be ee b9 9b 3d 31 31 ca 3f eb ef 59 3e
       -0.49242163 0.07603823 1.5796262 0.21282928
000370 01 94 28 be e8 00 11 bf 9c 19 88 3d a3 fe 82 3e
       -0.16462709 -0.5664201 0.066455096 0.25584897
000380 36 5b 01 40 75 a6 40 bf 75 6b 83 be 1c 80 bb bf
       2.021192 -0.75253993 -0.2566792 -1.4648471
000390 8d aa df bd 69 b1 66 bf 68 5f e3 3e aa 25 43 be
       -0.10921202 -0.90114456 0.44408727 -0.19057336
0003a0 e5 89 61 3f 8b 0e 06 be b4 52 d6 3e 19 da 0a c0
       0.88101035 -0.13091485 0.41859972 -2.1695616
0003b0 b8 c6 88 be 68 b4 2d c0 4c 25 b6 bf 8f 6d ef bf
       -0.2671411 -2.7141361 -1.4230132 -1.870531
0003c0 2f 62 d7 3e f9 f8 d4 3f 10 24 a4 3f f2 2a 42 3f
       0.42067096 1.663848 1.2823505 0.7584678
0003d0 ac 8b a5 bf 00 6a e4 3e ec a8 0b bf c1 59 db bf
       -1.293325 0.44612122 -0.5455463 -1.7136766
0003e0 2e 0f 9c be b4 20 e5 be 3a ea d4 be 16 e4 ba 3f
       -0.3048033 -0.44751513 -0.4158495 1.4600856
0003f0 6e 6d 88 bf 58 93 46 bf fa db b8 bf 08 ef af bf
       -1.0658395 -0.7756858 -1.4442132 -1.3744822

Ak_4 f4 [16, 16]
000000 79 37 9c bf 81 4e 9f 3f dd 09 1c 3f c8 d3 19 3f
       -1.2204429 1.2445832 0.6095255 0.6008878
000010 b6 59 12 40 cd 8e 90 3f 7f 8f 92 3e 32 4e d6 bf
       2.2867255 1.1293579 0.28625104 -1.6742613
000020 b3 70 99 bf 2b af cf 3f 30 92 9f bf bb 25 c0 3f
       -1.1987518 1.6225332 -1.2466488 1.5011514
000030 17 72 14 bf e5 52 0a 40 e8 9d ca be b6 bd f7 bf
       -0.5798659 2.1613095 -0.39573598 -1.935477
000040 1d f0 fd bd c2 e0 dd bf 0d c0 af bf 44 83 3d c0
       -0.123993136 -1.7334216 -1.3730484 -2.9611368
000050 d7 46 4b 3f f2 83 1c bf 96 15 0c 3e 87 f6 15 40
       0.7940497 -0.6113883 0.1368011 2.3431718
000060 83 20 9f 3f 60 75 40 c0 93 13 8d bf b7 6e 53 c0
       1.2431797 -3.007164 -1.1021599 -3.3036325
000070 75 9e de 3e aa a4 24 3e c8 6d c9 3f 4b 69 b3 3e
       0.43480268 0.1607844 1.5736628 0.3504127
000080 7d cb 0d c0 59 86 be bf df 84 12 bf 90 95 11 bf
       -2.215545 -1.488475 -0.57233995 -0.5686884
000090 5d fa 53 bf a3 32 b7 bf f5 35 34 c0 2e f7 2d c0
       -0.828039 -1.4312328 -2.8157933 -2.7182117
0000a0 86 f0 5f 3e cd 29 c8 3f e4 04 d7 3f 17 6f 84 be
       0.21869096 1.5637757 1.6798368 -0.25866005
0000b0 d2 7c ea be f8 62 06 40 73 98 b3 bf 64 0b cc 3f
       -0.45798355 2.0997906 -1.4030899 1.5940976
0000c0 a2 b7 b4 3e b6 c3 6e 3f 3f 76 82 3e 4b 8f 38 3f
       0.3529635 0.9326738 0.2548084 0.7209365
0000d0 a0 0d 42 c0 ca 98 a6 be 58 98 45 bf 13 b9 21 c0
       -3.0320816 -0.32538444 -0.77185583 -2.526921
0000e0 54 de 9e 3f 08 c9 a6 be f0 54 07 c0 54 21 fe be
       1.2411599 -0.3257525 -2.1145592 -0.49634802
0000f0 38 31 fa bc ed 58 12 c0 64 fc bb bf 82 00 93 bf
       -0.030541047 -2.2866776 -1.4686399 -1.148453
000100 07 a7 24 bc 39 a0 43 bf ed f9 d8 3e 3d 77 e4 be
       -0.010049588 -0.76416355 0.42378178 -0.44622222
000110 51 58 94 3f 18 02 9f 3e 7e 9d 85 bf 89 23 87 bf
       1.1589452 0.31056285 -1.0438688 -1.055772
000120 63 91 1f 3e 42 f0 94 3f 48 3d 41 bf f3 5d 2f 3f
       0.15582804 1.1635821 -0.7548413 0.6850273
000130 f4 08 ec bf d2 f3 2a 3f 8e 4b 81 be ff f0 a6 be
       -1.8440232 0.6677829 -0.25252956 -0.3260574
000140 ac e1 22 3e f5 c9 db be b0 b1 10 c0 99 15 ef bf
       0.159064 -0.42927518 -2.2608452 -1.8678466
000150 e6 95 13 3f 73 83 82 bf d6 dc 21 c0 43 63 31 c0
       0.576506 -1.0196365 -2.5291038 -2.7716835
000160 5d 47 a7 3e e2 f8 d2 3d 7c d2 91 3f c8 1d 82 3e
       0.32671633 0.10301377 1.139236 0.25413346
000170 fa 87 86 3c 46 37 06 3e 55 bb f0 bd a8 9e 2b 40
       0.01642226 0.13107023 -0.11754481 2.6815586
000180 d5 4a 74 be e0 b6 49 40 8c 5d bc bf 1a 96 68 3f
       -0.23856671 3.1517868 -1.4716048 0.90854037
000190 45 0d 3d c0 c2 d4 5e c0 c0 dc e7 3f 1f 62 cc bf
       -2.953935 -3.4817357 1.8114243 -1.5967444
0001a0 20 cf e0 3f 9b e3 30 be 77 f3 00 c0 8e 99 d0 bf
       1.756321 -0.17274325 -2.01486 -1.6296861
0001b0 ed 0c 4b c0 e1 24 12 c0 f7 e4 10 bf c2 70 21 3f
       -3.172664 -2.283501 -0.5659937 0.6306268
0001c0 8a cc 24 be e9 2c ff 3e 3a 38 e7 be 16 c2 5d bf
       -0.1609365 0.4983895 -0.45160085 -0.86624277
0001d0 db ac 81 bf bb a4 79 be 0c 88 11 3f 17 6b 12 c0
       -1.0130876 -0.24379246 0.56848216 -2.2877862
0001e0 11 c5 c4 3f b0 cf bf 3e 41 f0 64 3f b2 d0 7c bf
       1.537264 0.3746314 0.894291 -0.98755944
0001f0 76 0b e8 be a8 a8 67 3f 4f 4a 7b 3f 66 7e 82 bf
       -0.45321244 0.90491724 0.9816026 -1.0194824
000200 da 42 35 bf 7d a1 fe be a7 a1 7d 3f 81 92 a8 bf
       -0.7080513 -0.4973258 0.99074787 -1.316971
000210 d5 84 74 3f dd 24 68 bf 25 3b 45 3f 36 3a 02 3f
       0.95515186 -0.9068125 0.7704337 0.5087007
000220 7b c2 7e be 6a 2a e8 3f 02 28 43 3e da 91 06 bf
       -0.24878876 1.8137944 0.1905823 -0.525663
000230 a9 6b 38 bf de 93 21 bf 74 1a 99 be d9 7a 0d c0
       -0.72039276 -0.6311625 -0.29902995 -2.210623
000240 db 5b e4 bf 22 95 b0 bf 2d 49 24 bf b5 cd fe be
       -1.7840532 -1.3795512 -0.6417416 -0.49766317
000250 f4 51 6b be c8 1e a8 be 66 c7 c2 bf 0e 58 e1 bc
       -0.22980481 -0.32835984 -1.5217102 -0.027507808
000260 5a f6 a6 bf a7 38 9a 3f b7 3a 06 3f c5 0d 24 c0
       -1.304393 1.2048539 0.5243334 -2.5633404
000270 e2 c7 e0 bf 38 2e 98 3e d4 df 87 be a8 08 3e 3e
       -1.7560999 0.29722762 -0.26537955 0.1855799
000280 77 30 a0 bf 85 cb 33 bd b7 9f 00 3e 0b 35 31 3f
       -1.251479 -0.043895263 0.12560926 0.6922156
000290 0e ca 02 bf b4 fc 5f bf 1e 30 cc bf 83 2e 8d bf
       -0.5108956 -0.8749497 -1.5952184 -1.1029819
0002a0 d6 1e 27 be 02 5e 11 c0 61 33 77 3f 2d 60 8f 3f
       -0.16320357 -2.2713628 0.96562773 1.1201226
0002b0 3a ab ba bf d1 85 1d 3f 66 26 8a bf b2 33 97 bf
       -1.4583504 0.6153231 -1.0792968 -1.1812651
0002c0 7f 6b bf 3e b1 0b 7d be 94 5e fc 3c f8 58 08 be
       0.373867 -0.24711491 0.030806817 -0.13315189
0002d0 21 45 86 bf 78 7a 96 be 12 52 a1 3e 30 63 80 bd
       -1.0489846 -0.2939031 0.31507927 -0.062689185
0002e0 db 86 06 be 45 40 58 3e 50 90 11 3f f4 1f 5d bf
       -0.13137381 0.21118267 0.5686083 -0.8637688
0002f0 40 b3 7b bf fc 6b ef be 7f cc 02 40 1a de be bf
       -0.9832039 -0.46762073 2.0437315 -1.491153
000300 8e f6 34 bf 0f 2f 19 bf b4 7c 15 3f ea 92 1f be
       -0.7068871 -0.5983743 0.58393407 -0.15583387
000310 ca 76 3e be 77 34 b2 3d 33 75 71 bf ca f5 b2 bf
       -0.18600002 0.08701413 -0.94319457 -1.3981259
000320 d3 58 ae 3d 18 b8 ba 3f b8 a5 85 bf 64 1a 0b 3f
       0.085130356 1.4587431 -1.0441198 0.54337144
000330 5c 95 e4 bf 00 46 6c 3f f4 e7 80 bf bd 62 f6 be
       -1.7858081 0.9229431 -1.0070786 -0.48122206
000340 46 65 5e 3f 8d ad 97 3f 44 f6 f2 bd 1f 0a 5d 3f
       0.8687328 1.1849838 -0.11863378 0.8634357
000350 9c a2 9f 3f 12 50 e4 3e 44 d0 7f bf aa fb ab bf
       1.24715 0.4459234 -0.99927163 -1.3436177
000360 be bf 37 bf bd 09 92 3e cc eb d8 be 59 d2 e2 bf
       -0.7177695 0.28523055 -0.423674 -1.7720443
000370 f5 b2 a7 bd c1 a2 5c bd 2d 87 95 bf 45 3e b8 be
       -0.0818843 -0.05386615 -1.1681877 -0.35985008
000380 45 0e 35 bf dd 70 8f 3f 97 f8 d2 3f 90 b0 b2 3e
       -0.707249 1.1206318 1.6482114 0.34900331
000390 0c e3 c2 3e 94 64 9f 3f 81 9b dc 3d 8e 0f 24 c0
       0.38063848 1.2452569 0.107718475 -2.5634494
0003a0 72 16 cd bf 81 01 a6 be 2a dd 86 bf 23 9b 73 bf
       -1.6022475 -0.32423022 -1.0536244 -0.95158595
0003b0 47 36 01 c0 ad 98 a4 be 6e c2 85 be 9e f9 8d bf
       -2.0189378 -0.32147732 -0.261249 -1.1091802
0003c0 f6 43 e1 bd 04 7d 93 3f bb 69 ee 3f ff 60 03 40
       -0.10999291 1.1522527 1.8626016 2.0527952
0003d0 88 ad 2e c0 1b 14 22 bf 32 d2 62 3f fc f5 0e c0
       -2.7293415 -0.6331193 0.8860198 -2.2337637
0003e0 b0 e1 86 40 0a bb 9d 3e 2f 5a cb 3e 62 5d 3d bf
       4.2150497 0.30806762 0.39717242 -0.73970616
0003f0 a4 33 6d bf 82 ed 94 bf b7 3a ed bf 85 35 28 c0
       -0.9265692 -1.1634982 -1.8533543 -2.6282666

Av_4 f4 [16, 16]
000000 d3 1d 1f 3f 90 08 c8 bf fa 9b b4 be 55 9d f9 bf
       0.62154883 -1.5627613 -0.3527525 -1.9501139
000010 25 8c e5 be 33 52 01 be ef 1e 80 bf e3 ac c0 bf
       -0.44833484 -0.12629013 -1.000944 -1.5052761
000020 31 b3 ad 3e 75 d8 d8 3e f0 d1 2a c0 98 16 80 bf
       0.33925775 0.42352644 -2.6690636 -1.0006895
000030 bc a7 3b c0 86 46 77 3e 97 14 2f 3e 60 5c ff be
       -2.9321127 0.24147996 0.17097698 -0.49875164
000040 69 13 80 3f 2e 60 89 3c b8 68 10 3d c3 01 95 40
       1.0005924 0.016769495 0.035256118 4.656465
000050 85 df 93 3f 59 b0 59 3f cd 8a 91 3e 0c 29 22 3d
       1.1552588 0.8503471 0.2842621 0.039589927
000060 b3 21 10 bf 0e 41 0f 3f 47 63 06 40 b7 73 04 3f
       -0.5630142 0.5595864 2.0998094 0.51739067
000070 ed 2e de be d2 fd 8a 3f 8d 7f f9 3f fa c7 9f 3c
       -0.43395177 1.085871 1.949205 0.019504536
000080 d5 9c ea bd 14 5e ae 3f 16 32 83 3f aa 83 22 c0
       -0.114556946 1.362246 1.024966 -2.5392861
000090 ad b2 30 3f 93 99 1c be dc 97 3d 3e 9d 7b e8 be
       0.6902264 -0.15292959 0.18514961 -0.4540681
0000a0 b8 6e 8a bf f5 33 d2 3f 9e 39 31 3f b5 4e 8c 3f
       -1.0815039 1.6422106 0.6922854 1.096152
0000b0 23 55 22 bf 40 08 db 3f 6c 7e 1b 40 3b 43 fd be
       -0.6341116 1.7111893 2.4295912 -0.49465355
0000c0 6a bb 0c 3e f9 eb 1a 3f 7b d3 fe 3e da e7 a0 3f
       0.13743368 0.60516316 0.49770722 1.2570755
0000d0 44 84 11 40 ba f6 b5 3e 6f 57 13 bf 2d 8e b1 be
       2.2736979 0.355398 -0.5755529 -0.34678784
0000e0 9d f5 48 bf 3b d6 42 3d 28 9c 0c bd 0c 37 0b 3e
       -0.78499776 0.047567587 -0.03432861 0.13595217
0000f0 7a 5b 8e 3f cd 93 92 3f d9 a1 21 40 23 88 c7 3f
       1.1121666 1.1451355 2.5255034 1.5588421
000100 de 96 b6 bf 1c b2 91 bf 79 b2 87 3d 3b 16 20 c0
       -1.4264791 -1.138248 0.06625838 -2.5013568
000110 33 d1 b2 bf c0 b9 5f bf b1 4f 36 c0 0a 3f 99 3f
       -1.3970093 -0.87392807 -2.848614 1.1972363
000120 6e 85 68 bf ed ec 9c 3e 1c 5e 47 3f 0d 9c 2e bf
       -0.908286 0.3064951 0.77877975 -0.68206865
000130 aa 53 b7 bf d7 3f 99 bf 18 6a 8e 3f e3 93 82 bf
       -1.4322407 -1.1972607 1.1126127 -1.0201381
000140 1b 15 71 be 9e a5 35 c0 29 96 e5 bf 3d 13 b3 3f
       -0.23543207 -2.8382335 -1.793645 1.3990246
000150 c8 05 cf 3f 60 a3 2d 40 9d 7d 11 bf 47 1f 84 40
       1.6173639 2.7130966 -0.56832296 4.128818
000160 98 41 f6 bf d2 31 3c 3e 86 06 d6 3f 1e eb b2 c0
       -1.9238768 0.1837838 1.6720741 -5.591201
000170 71 c1 85 40 9e 0f 9a be d2 dd 03 c0 a7 ac 04 bf
       4.1798635 -0.3009004 -2.0604138 -0.51825947
000180 8f 9b ae be 17 3d 68 3f c6 29 e4 3f ac ab af c0
       -0.34103057 0.90718216 1.7825248 -5.489706
000190 62 18 a7 3e 91 10 f5 bf 09 67 5a c0 1a 6d 57 40
       0.3263579 -1.9145681 -3.4125388 3.366034
0001a0 62 bc 87 bf 43 03 89 c0 7f 7a 4b c0 0c 1b 87 bf
       -1.0604365 -4.281648 -3.1793516 -1.0555129
0001b0 79 62 29 3e e7 42 ca 3f c0 49 b9 3f 3b a7 77 40
       0.1654147 1.5801667 1.4475632 3.869582
0001c0 bd d6 a8 be 76 b4 15 bf e5 26 b5 bd 1e e1 16 bf
       -0.32976332 -0.58478487 -0.08845309 -0.5893725
0001d0 44 cf e8 bf 06 7f ca bf 37 d5 e9 3f fe aa 74 3f
       -1.8188252 -1.5820014 1.8268193 0.95573413
0001e0 1b b2 d3 3e 62 6a 0a 40 a2 bc 55 3e 79 a1 b4 3f
       0.4134682 2.162743 0.20872739 1.4111778
0001f0 fd 83 67 3f a9 53 88 3f e2 3b b6 bf 19 bf ed 3f
       0.90435773 1.0650531 -1.4237025 1.8573943
000200 ee 3b 5e 3f 4d 48 15 bf 2a 57 bc 3e db b6 18 3f
       0.86810195 -0.5831345 0.3678525 0.59654015
000210 0c 8b 5c 3f 0c 0b a9 be c4 83 77 3f df 04 46 3f
       0.8614967 -0.3301624 0.96685433 0.7735118
000220 41 d4 f4 3d 43 7c 47 3f f4 6a be 3f 57 58 3a be
       0.11954547 0.77923983 1.487639 -0.18197761
000230 ab 03 d0 3f 81 54 94 3f 79 3b ac bf c8 c2 53 40
       1.6251119 1.1588289 -1.345565 3.3087635
000240 f7 f5 20 40 f3 76 0f c0 0b a8 46 3f 46 ca 15 bf
       2.5150125 -2.241635 0.77600163 -0.5851177
000250 c2 ca a1 bd bc 6b ac 3f c7 b2 4d bf 21 0d 34 40
       -0.07900001 1.3470378 -0.8035092 2.8133013
000260 3e f2 ff bf 25 93 c0 3f 75 f8 2e bf 5c 54 11 40
       -1.9995801 1.5044905 -0.68347865 2.270774
000270 b2 31 96 3f 95 59 06 40 fb ec cf bd c3 db 6c 40
       1.1733916 2.0992177 -0.10152622 3.7009132
000280 db 79 a0 3f d5 7e bc 3f e0 e8 4a bf d9 42 e2 be
       1.2537187 1.4726206 -0.7926159 -0.44191626
000290 51 cb 41 c0 e4 d3 3b 3e 20 01 2c c0 c8 1b 90 bf
       -3.0280344 0.18342549 -2.6875687 -1.1258478
0002a0 4d dc dc be cf 09 c1 bf be 85 b3 3f 8b 22 eb 3f
       -0.43136826 -1.5081118 1.402519 1.8369917
0002b0 a1 7f 82 3e 10 a7 8f be 1a 1e 0e c0 0a 04 87 3f
       0.25487998 -0.28057146 -2.2205873 1.0548108
0002c0 47 8e 18 3d 59 cf 6b 3f b2 a5 a5 3f ca ad 43 40
       0.03724506 0.9211326 1.2941191 3.0574822
0002d0 03 9a 29 3f 4c 87 ec 3e ab ef 8e bd 1d b3 60 3f
       0.6625063 0.46196973 -0.06979307 0.87773305
0002e0 d3 44 c2 be c3 5d c7 3e 5c 00 94 bf f3 81 fa be
       -0.37943134 0.38938722 -1.156261 -0.48927268
0002f0 b9 dd fd 3f 81 b0 2a 3f db b7 b4 3f 8e cb 03 3f
       1.9833289 0.66675574 1.4118608 0.51482475
000300 d0 db b7 3f 0f fc 2d 3f 9d 97 0d be a3 15 bd c0
       1.4363956 0.67962736 -0.13827367 -5.908891
000310 9b ab 97 c0 69 76 80 bf ee 19 80 c0 31 fe b6 3f
       -4.739698 -1.0036136 -4.0031652 1.4296323
000320 bd a6 07 bf b2 76 5f 3f f2 ba 92 bd b3 e7 32 3e
       -0.529888 0.8729049 -0.07164563 0.17471199
000330 28 4e a7 3f 7f da ba 3e b2 99 05 40 78 ca 95 40
       1.3070726 0.36494824 2.0875058 4.6809654
000340 c3 dc 54 c0 65 83 8b be d9 60 2c 40 c9 42 1c 3e
       -3.3259742 -0.27248684 2.693411 0.15259852
000350 19 a4 a3 bf d5 5d b5 bd 52 5d 2b 3f f7 cd 5e 3f
       -1.2784454 -0.08855788 0.6693927 0.8703303
000360 b2 66 fd be 6a 91 9a 3f d1 6d ed be 3a 8c 81 3d
       -0.49492413 1.2075627 -0.46372846 0.06325574
000370 27 14 1d 3f 1f 7f 69 3e 86 9f e0 bb da 41 f7 bf
       0.61358875 0.22802399 -0.006854954 -1.9316971
000380 68 03 23 be ab eb d6 3e ae 49 c2 c0 e0 77 d5 be
       -0.15919268 0.41976675 -6.071494 -0.4169302
000390 95 ed 92 3f 7f 8f 5c c0 f6 39 82 3f 18 40 53 3f
       1.1478754 -3.4462583 1.0173938 0.82519674
0003a0 09 75 bc bf 5d ed 0e c0 1b ed be bf 4c 34 f1 3f
       -1.4723216 -2.2332375 -1.4916109 1.8844085
0003b0 42 ab 04 40 3e 95 b1 3f f4 5e bf c0 92 93 cd 3e
       2.0729527 1.387367 -5.980341 0.4015165
0003c0 35 37 0b 3d 1a 71 2e 40 cf 34 cc bd 4d ca 88 40
       0.033988196 2.7256532 -0.0997101 4.274695
0003d0 95 36 56 c0 95 a9 27 40 0c 31 38 3f a9 4a 47 c0
       -3.3470814 2.6197255 0.7194984 -3.113932
0003e0 f1 d2 90 3f 82 77 fe 3f 80 e5 61 bf 41 e2 98 40
       1.1314374 1.9880221 -0.88240814 4.777619
0003f0 0c 8a 2b 40 4a 17 a3 bf fb d2 fa bf 37 50 78 bf
       2.6803007 -1.2741482 -1.9595636 -0.969974

Aq_7 f4 [8, 8]
000000 20 90 e0 bf 4f 00 7a 3f dd 70 9d 3f 99 8a 6b 3f
       -1.7543983 0.9765672 1.2300068 0.9200836
000010 e3 fb 05 40 5f eb f3 bf bb ed 17 c0 4e ef b7 bf
       2.093499 -1.9056205 -2.373885 -1.4369905
000020 e9 77 bf 3d 02 bf 82 3f 3f 6b c8 3f bd f3 9c 3c
       0.09349043 1.0214541 1.5657729 0.019159192
000030 eb 44 56 bf 86 93 de 3f 73 27 16 40 3d cc bf be
       -0.8369891 1.738877 2.3461578 -0.3746051
000040 e4 4e 5f bf 3c 34 95 3e 84 13 6b 3f d7 55 57 3e
       -0.8722975 0.29141414 0.91826653 0.21028839
000050 35 7f d0 3f ce 35 96 bc ce 8c b6 bf e7 85 17 3f
       1.628882 -0.018336203 -1.426172 0.59188694
000060 4f df b0 3e 3b 49 a9 bf 42 31 25 be a7 5b cc bf
       0.3454537 -1.3225473 -0.16132072 -1.596547
000070 e2 32 3f c0 0c c4 7e 40 30 ea 10 bf 43 78 a5 3d
       -2.9874806 3.9807158 -0.5660734 0.08079579
000080 59 e2 85 3d a6 c9 a4 3e be f7 36 bf b1 40 82 bc
       0.06537313 0.32185096 -0.71471775 -0.015899988
000090 3f 38 0a 40 83 e6 3a c0 5c ad 2b 3f 3f ae cc bd
       2.159683 -2.9203193 0.670614 -0.09994172
0000a0 b6 03 1e be 7d e1 01 40 18 7f e0 3f 5e 2f f2 3f
       -0.15431103 2.0293877 1.7538786 1.8920705
0000b0 52 82 62 bf 04 0f 23 3f d3 48 03 40 54 7a 74 c0
       -0.88480103 0.6369479 2.0513198 -3.8199663
0000c0 4b 18 80 bf 49 eb 66 3d 53 aa 63 c0 8d 5e 0c bf
       -1.0007414 0.05637673 -3.5572708 -0.54831773
0000d0 81 fe d1 3f bc c0 12 c0 d7 8d e5 3c bb 24 84 3d
       1.6405793 -2.2930136 0.028021736 0.06452318
0000e0 f8 8a a2 be 9a d0 1f 40 d2 88 23 40 1e 8e ba 3d
       -0.3174665 2.497107 2.5552258 0.09109138
0000f0 bf 1b b3 3f 13 8a 60 3f 98 f7 62 3e 00 ef e2 be
       1.3992842 0.87710685 0.22164762 -0.44322968

Ak_7 f4 [8, 8]
000000 76 c9 8d be 9b a8 ef 3d a2 1a 39 40 39 94 d4 be
       -0.27692765 0.11702081 2.8922505 -0.41519335
000010 ba 7c 16 c0 86 f5 44 be c1 68 be bf d4 85 6f c0
       -2.3513627 -0.19234285 -1.4875718 -3.7425432
000020 7f 19 17 c0 d8 1a 21 3f 1f ea a0 3f 93 f5 75 bf
       -2.3609312 0.62931585 1.2571448 -0.9607784
000030 db df 8f c0 66 3c c2 3f 48 bf 00 40 46 c3 00 bf
       -4.496076 1.5174682 2.011675 -0.50297964
000040 b5 f1 34 3f 24 34 db 3f 1e db e7 3d 6d c6 9c 3f
       0.70681316 1.7125287 0.1132109 1.2248055
000050 07 dd 47 3f d0 79 2b bf 9c e4 6e 3f ba 6d 51 3e
       0.78071636 -0.66982746 0.9331758 0.20452014
000060 ea c5 bd 3e 76 b9 c9 3f 45 06 b3 bb 9b 54 e8 3f
       0.3706506 1.5759723 -0.005463394 1.815082
000070 b9 fc 0f bf 2e 2e 30 bf dc 88 fc bd 72 fb 7e 3f
       -0.56245 -0.68820465 -0.12330791 0.99602425
000080 0d f5 52 bf 18 e2 39 c0 8b c2 1f 3f ba 2c 23 c0
       -0.8240517 -2.9044247 0.62406224 -2.549605
000090 7e 8a 7f bd 34 31 15 bf 07 24 35 c0 4b 79 92 40
       -0.062387936 -0.58278203 -2.830324 4.5773063
0000a0 8e 3f ea 3d be bb 78 bf 1b 44 7f 3f 0a d7 2c 3f
       0.11437903 -0.9716147 0.99713296 0.67515624
0000b0 86 0b ad 3f 6b 6d 51 bf ff 96 8b 40 c6 be 7f c0
       1.3519142 -0.81807584 4.362182 -3.996019
0000c0 59 c5 90 bf ba 74 4b 3d 95 aa ba be 51 20 32 40
       -1.1310226 0.049671866 -0.3645827 2.7832224
0000d0 4b 96 a8 3f b1 19 3b 3e c6 a0 5d bf a6 02 ff be
       1.3170866 0.18271519 -0.86573446 -0.49806708
0000e0 2b 89 f0 bf 05 9c ec be e2 eb 76 3f b8 c4 88 bf
       -1.879186 -0.46212783 0.9645368 -1.0685034
0000f0 83 45 be c0 27 32 c7 3f 10 65 5d bf 0d f0 2d 40
       -5.9459853 1.556218 -0.86482334 2.7177765

Av_7 f4 [8, 8]
000000 ae f1 73 3f 8e 4d a9 3f b9 91 30 c0 8a bc d2 bf
       0.9529065 1.3226793 -2.7588942 -1.6463788
000010 db 2a dd 3f d5 ff 9a 3f 42 e1 ce bf c4 ac 77 bf
       1.7278703 1.2109324 -1.6162493 -0.96747994
000020 02 f8 2b 3e 4c 78 19 bf 4e d4 57 bf 93 0a c6 3e
       0.16793826 -0.59949183 -0.84308326 0.38679942
000030 76 cb e6 40 8b 9b 80 bf 8c 0a 2f c0 79 bc 18 3f
       7.2123365 -1.0047468 -2.7350187 0.59662586
000040 fd 3a ea bf 42 e3 8a bf 41 15 99 3f a7 5c e8 3f
       -1.8299252 -1.0850604 1.1959611 1.8153275
000050 45 cf 40 c0 f5 89 e0 3e b8 b8 88 be 6b 67 a7 3e
       -3.0126507 0.43855253 -0.2670343 0.3269609
000060 37 71 94 bf 30 f5 4c c0 1c 4a 08 3f 01 66 15 c0
       -1.159705 -3.202465 0.5323808 -2.3343508
000070 c9 5a c8 bf fe 9d d3 3f 48 68 81 3f 60 b8 b4 c0
       -1.5652705 1.653259 1.0109949 -5.6475067
000080 82 47 76 bf cd b4 56 c0 57 47 78 bf 29 8a 02 c0
       -0.9620286 -3.3547852 -0.96983856 -2.0396826
000090 b5 9f 91 3d a9 88 10 c0 60 44 65 40 40 9b 04 3f
       0.0711054 -2.258341 3.5822983 0.5179939
0000a0 3d b3 62 bf cd 55 0e bf 43 67 50 bf 9c 74 ce bf
       -0.88554746 -0.5559967 -0.81407565 -1.6129336
0000b0 af d9 b2 40 a2 a5 dc be a1 e8 8b c0 5c 59 c6 3f
       5.5890727 -0.43095118 -4.372147 1.549602
0000c0 3f 57 80 c0 59 c1 bb 3f 67 86 04 40 ae 28 85 bf
       -4.01065 1.466838 2.0707033 -1.040304
0000d0 15 e9 30 3e c3 da 9b 3f 59 7b 65 bf c7 21 22 3f
       0.17276414 1.2176136 -0.8964134 0.6333279
0000e0 b3 fa 8b bf 42 7f 1f 3d 98 55 84 bf 66 8f 2d 3e
       -1.0935882 0.038939722 -1.0338621 0.16949233
0000f0 ae 9b a6 3f a3 2a 0d c0 99 fe 2f bf e8 5f 78 3f
       1.301626 -2.2057273 -0.6874786 0.9702134

Bq_4 f4 [16, 1]
000000 ac 8c 00 40 3f c4 a4 bf bc 19 c6 3e 9e a7 a0 bf
       2.008586 -1.287239 0.3869151 -1.2551153
000010 19 fa ec be 58 d3 18 bf 9a eb 93 bf b3 87 40 3f
       -0.4628456 -0.59697485 -1.1556275 0.7520706
000020 c8 29 82 bf 20 aa 3d 3d f4 83 2c 3e 4c 92 0c bf
       -1.0169001 0.046304822 0.16847211 -0.5491073
000030 a2 b3 e6 3f 6c 05 be 3f a2 5b 95 3e 4f 15 3c 3f
       1.802357 1.4845405 0.29171473 0.73470014

Bk_4 f4 [16, 1]
000000 fe 20 2a 3f 27 53 d2 bf 93 14 b6 3e 99 89 99 3f
       0.6645659 -1.6431626 0.35562572 1.1995116
000010 11 d5 8e 3f ef bb 4c be 19 70 10 c0 b0 8d f0 3f
       1.1158773 -0.19993566 -2.256842 1.879324
000020 35 69 ae 3f 1a 1d 40 3f 2d 7b d5 3f f5 a6 b1 be
       1.3625857 0.75044405 1.6678215 -0.3469769
000030 0c 15 99 3f 98 91 0a 40 76 ba 9b be fb 15 13 c0
       1.1959548 2.1651363 -0.30415696 -2.2982166

Bv_4 f4 [16, 1]
000000 2c 66 00 c0 c8 e1 da 3e 5c e7 44 3f 16 c3 01 3f
       -2.006236 0.42750382 0.76915526 0.506883
000010 6f 2b a6 bf 6b dd 90 3e ea 7f c9 bd f8 e7 45 bf
       -1.2982005 0.28293929 -0.09838851 -0.7730708
000020 bc 15 89 3f 29 51 e8 3e de a6 66 3e 30 99 3a 40
       1.0709758 0.4537442 0.22524592 2.9155998
000030 71 04 f1 bd f3 56 87 bd 14 39 6d 3f f9 69 1e 40
       -0.11768425 -0.06608381 0.9266522 2.475218

Bq_7 f4 [8, 1]
000000 53 f5 30 be ba 1a 1c 3e 34 02 48 3f ae ec ef be
       -0.17281084 0.1524457 0.7812836 -0.4686026
000010 a5 36 50 bf 6f 55 4f 3e ee cb b3 3f 0b ec b6 be
       -0.8133338 0.20247434 1.4046609 -0.35726961

Bk_7 f4 [8, 1]
000000 1f 2a eb 3d b2 0d 04 bf e7 b7 9a 3f cd 7f db 3e
       0.11482643 -0.515834 1.2087373 0.42870942
000010 c9 4f b9 3f 33 b5 26 bf 82 c0 cf 3e 34 dd 91 3e
       1.4477473 -0.6512024 0.4057656 0.28489077

Bv_7 f4 [8, 1]
000000 30 03 e3 3e 93 68 56 bf a1 1c fb 3e c8 a5 9d bf
       0.4433837 -0.8375332 0.4904528 -1.2316217
000010 ee 71 e5 bd b1 a6 53 bf 5f 05 73 bf b2 d9 da bf
       -0.11203371 -0.82676226 -0.9493007 -1.7097685

weight f4 [16, 6]
000000 e8 a8 43 be f3 5c 95 3e e6 01 8d be b7 c2 8a 3f
       -0.19107401 0.29172477 -0.2754051 1.0840672
000010 a9 a7 48 bf b3 c8 21 3f 6e 67 27 bd 01 cf c8 3e
       -0.7838083 0.6319687 -0.040870123 0.3922043
000020 fc 71 df bd ee 47 94 bf 26 d7 d7 be 8e 20 ce bf
       -0.10910413 -1.1584451 -0.42156333 -1.6103685
000030 a7 96 30 be af ca 84 3f b9 b3 7b 3e ba 77 e5 3e
       -0.1724497 1.0374354 0.24580278 0.44817907
000040 f9 4e 5e bc 62 d3 a5 3e 99 46 d7 be 30 85 34 bf
       -0.013568633 0.32387835 -0.4204605 -0.7051573
000050 06 78 09 bf b9 f2 02 be a6 3c f8 be fa e7 04 bf
       -0.53698766 -0.12787904 -0.4848377 -0.5191647
000060 41 aa 14 3e 4b 54 e1 be 99 cd 87 3e fa a4 ce bf
       0.14518072 -0.44009623 0.26524046 -1.6144097
000070 f6 66 81 be d9 af 0a 40 d4 d2 22 be 2d 39 75 3e
       -0.25273865 2.166983 -0.15900737 0.23947592
000080 20 4f 59 bf 99 ce 13 3d b1 07 39 40 8f 7f c7 be
       -0.8488636 0.0360857 2.8910944 -0.38964507
000090 a5 b2 1d bd 59 fd 72 bf 7e f6 89 bd ab 95 ad 3d
       -0.038500447 -0.9491783 -0.06736468 0.084758125
0000a0 f1 6e 46 be a5 53 63 be 49 3f b6 3e 65 3a 0d 3f
       -0.19378258 -0.22199877 0.35595158 0.5516723
0000b0 b8 6c f9 3d 07 36 2f bc f2 b3 b4 3e 3e 23 aa 3e
       0.121789396 -0.0106940335 0.35293537 0.33230013
0000c0 f0 62 92 3e 3e a4 80 be 0d 42 4f be 0b e3 7c 3e
       0.28591108 -0.25125307 -0.2024004 0.24695985
0000d0 8a 8d 89 3f d4 13 29 bf c3 10 b1 be 2e 68 9f bd
       1.0746319 -0.6604588 -0.345831 -0.077835426
0000e0 33 3b 6e bf 6a bf de be f0 9d 97 3e 2a 20 c4 be
       -0.9305908 -0.43505412 0.29612684 -0.3830579
0000f0 1c 3f 93 be 94 05 0d bf e0 3d cd be fe 2a dc be
       -0.28759086 -0.55086637 -0.4008627 -0.4300155
000100 58 d7 6e 3e a0 ab b6 bd 17 24 96 bc c6 6d 48 3f
       0.23324335 -0.089194536 -0.018327756 0.782925
000110 5d a5 84 be a4 85 0b 40 19 98 65 3e ff f4 00 c0
       -0.25907412 2.1800318 0.22421302 -2.0149534
000120 cd 17 01 3f 4e 7a 44 bf f1 ef 83 3f 0b d3 92 be
       0.5042694 -0.7674912 1.0307599 -0.28676638
000130 6c 48 14 3f 25 64 2d bf 04 7c 3c 3e 1c 19 81 3b
       0.57923007 -0.67730933 0.18406683 0.003939761
000140 90 de a5 3d cc fc 79 3f ce c1 aa be 2c 1e cc 3e
       0.08099091 0.9765136 -0.33350986 0.3986677
000150 fc d2 95 be e5 53 2e 3f bd d8 dd 3d 23 9c a1 3e
       -0.2926253 0.6809676 0.10832355 0.31564435
000160 2d ae 70 be 6d d2 ba 3f ba f3 a1 3b b8 66 4a 3f
       -0.23503943 1.4595467 0.0049423845 0.79062986
000170 c1 02 a4 3d 46 40 03 bb 64 d5 94 3e b6 87 cd 3e
       0.08008338 -0.0020027324 0.29069054 0.40142602

bias f4 [16]
000000 dd c3 9d be 6d ea 0b be 87 de 96 3d 20 98 ed bd
       -0.30813494 -0.13663645 0.073666625 -0.11601281
000010 bf a6 b6 3e 49 14 1f be e2 00 e9 bd 79 76 e5 bd
       0.35674092 -0.15535082 -0.113771215 -0.112042375
000020 c3 9a 0e bf bd d1 c9 3e 97 f1 cd 3e 6a b8 eb 3d
       -0.557049 0.3941783 0.4022338 0.115097836
000030 5c de 81 be 2a 86 d4 3e d3 c7 68 3e 44 43 1d bb
       -0.2536496 0.4150861 0.22732477 -0.0023996392

weight f4 [8, 16]
000000 ed 29 dd be 5d c1 93 be 79 09 65 3e b1 ae 09 be
       -0.4319605 -0.28858462 0.22366895 -0.13445546
000010 85 4e 85 bc 91 79 80 bd c6 72 58 be a4 8a 5e bf
       -0.016272793 -0.06273187 -0.21137533 -0.869303
000020 a2 c4 75 3e 69 c7 2a bb 75 c8 ed be 95 ee 2c be
       0.2400079 -0.00260588 -0.46442 -0.16887887
000030 e5 0d 45 bf 89 f5 df be 34 e8 f5 be 58 47 e8 3d
       -0.76974326 -0.43742016 -0.4802872 0.11341733
000040 d2 f8 b2 3e ab 3e da 3d a2 3d 09 3e 96 9a ea bd
       0.3495546 0.10656484 0.13402417 -0.11455266
000050 9a ab 97 3d 83 79 9c 3c 54 a5 86 3e 8f 5c 03 3e
       0.07405777 0.01910091 0.2629801 0.12828277
000060 49 8e 97 bc 54 65 b9 be 49 30 3a bd 4f 65 bd 3e
       -0.018500464 -0.3621012 -0.045456205 0.36991355
000070 9b 07 36 be 79 8f ca 3e 01 34 0d bf e1 27 02 bd
       -0.17776339 0.39562586 -0.55157477 -0.031776313
000080 9c 4a 33 3f 74 15 2f 3f 66 83 c4 3e 33 c7 16 3e
       0.7003572 0.6839211 0.383815 0.14724426
000090 a9 93 f1 bd 41 ff 81 be 9f 32 87 be 27 d2 b4 3d
       -0.11795742 -0.25390056 -0.26405808 0.08829146
0000a0 1a 33 b5 be a1 82 1e be 05 5c 91 be 7b 6a 83 be
       -0.3539055 -0.15479518 -0.28390518 -0.25667176
0000b0 31 4d b0 3e 5f b9 67 3e 42 ec 0c bf 26 99 86 bd
       0.34433892 0.22629307 -0.55048 -0.065721795
0000c0 34 66 00 3f 7e c7 2e 3e 91 49 1c 3e e9 53 f5 3d
       0.5015595 0.17068288 0.15262438 0.11978895
0000d0 53 2b dd 3d 8d 60 12 bc fb 3a 05 be 7e 56 4f 3d
       0.10799279 -0.008934152 -0.1301078 0.050619595
0000e0 a7 cd 56 bd 01 2e 28 be 42 48 1d bc c0 d9 dd 3c
       -0.05244222 -0.16423799 -0.009599747 0.02708137
0000f0 fb c0 d0 3d 2a 16 bc be ab 72 02 be a1 3d cc bc
       0.10193058 -0.3673566 -0.12739055 -0.02493173
000100 0d 29 45 3d 5b f4 eb be 53 68 97 bf 31 0a 80 bf
       0.048134852 -0.46084866 -1.1828712 -1.000311
000110 4d 1e 55 bf ca 8e ab bf 39 b8 96 bf 1b a6 8f bd
       -0.8324936 -1.3402951 -1.177497 -0.07014104
000120 88 1e 99 bf a0 78 84 be 99 ac 28 3e 88 cd b0 bf
       -1.1962442 -0.2587328 0.16472091 -1.3812723
000130 3c 91 04 3f 18 0d 0b 3f c7 dd 1b bf e3 9a 17 be
       0.5178411 0.54316854 -0.6088528 -0.14805178
000140 d8 86 13 bf bf 35 22 bd 2c 2e c5 bc 3b 50 03 be
       -0.5762763 -0.039602038 -0.024069868 -0.12823574
000150 57 78 b4 3e 75 e3 71 be ee ba 09 bd f6 d3 92 be
       0.35248062 -0.23621924 -0.033625536 -0.28677338
000160 8a ad a4 3e d7 9f 6a 3d a7 49 a4 bc 83 6d 29 be
       0.3216365 0.05728134 -0.020054651 -0.16545682
000170 b5 b1 2b 3d df ef 39 bd f1 dd ae bd 1d 78 1f bd
       0.04191752 -0.045394775 -0.08538426 -0.03893291
000180 a1 b0 15 be c3 4f df 3d b5 a8 e4 3e f1 e6 cd 3d
       -0.1461816 0.10903885 0.44659963 0.10053814
000190 a4 31 e8 be 37 a8 83 3d c3 f9 4b be c9 b8 bd bd
       -0.45350373 0.06428569 -0.19919495 -0.092637606
0001a0 bc 38 a3 3d 0a 72 ff bd 17 1a fb bd ea ee 17 be
       0.079698056 -0.12472923 -0.122608356 -0.14837232
0001b0 d5 b9 7a be 31 1e ae be c4 de 9f 3d e9 a7 d9 bd
       -0.24484952 -0.3400741 0.07806161 -0.106277294
0001c0 a6 6e bd 3e 25 c5 af 3c 89 31 2f bd 96 4b c9 bd
       0.3699848 0.02145631 -0.04277185 -0.0982887
0001d0 dc 42 c9 bd c2 4e 93 be 4b 0f 01 be 2b 20 07 3f
       -0.098272055 -0.28771025 -0.1260349 0.5278346
0001e0 77 96 60 be 26 d5 0e 3e 29 89 b2 bd d8 f6 2a be
       -0.21932398 0.13948497 -0.087175675 -0.16695726
0001f0 bd 7e 24 3f 17 e9 24 3f 67 72 87 be 9b 64 18 3e
       0.6425589 0.64418167 -0.2645447 0.14882128

bias f4 [8]
000000 bc 8e 2e be d7 c6 47 3f bf ac 2d 3f a6 5d 48 3d
       -0.17046636 0.7803778 0.67841715 0.048917435
000010 5d e9 a3 3f 1b 5d ab 3e 71 df 39 3e 6a 0e 27 3e
       1.2805592 0.3346947 0.18151642 0.16314092

weight f4 [16, 8]
000000 29 1a e7 be 47 0e 97 3f 3e ca 04 bf 93 a8 3b bf
       -0.45137146 1.1801232 -0.518711 -0.733041
000010 9f 4f 56 bf 74 10 04 3e 8f 3d 56 bd d5 83 ef be
       -0.8371524 0.12896901 -0.0523048 -0.46780267
000020 a9 c9 00 bf 17 27 9a 3f 22 35 e2 be c3 82 a1 bf
       -0.5030771 1.2043179 -0.44181162 -1.261803
000030 0c 8c 5e bf 88 4d c4 3d 55 fb a8 3d 74 2f f5 be
       -0.86932445 0.095851004 0.08251063 -0.47887766
000040 55 3f 42 bf ef cd 89 3f 0b 62 62 be 42 e7 09 3d
       -0.75877887 1.0765971 -0.22107713 0.03366781
000050 be a8 18 bf 6e 6d 5b 3e 5c e1 3d be a8 fb ff be
       -0.5963248 0.21428463 -0.18542999 -0.49996686
000060 cd 98 06 bf a3 ac 46 3f 9a 59 43 bf 4a ba 0c c0
       -0.52576905 0.7760717 -0.76308596 -2.1988702
000070 22 d5 be bf c1 9b cf 3d e6 dc 7c be b6 85 af 3d
       -1.4908793 0.101371296 -0.24693641 0.08570425
000080 37 2d 7a 3e 42 d4 8c be 9f 33 ab bf 1e bf e8 be
       0.2443131 -0.2750569 -1.3375129 -0.4545831
000090 67 09 82 3a ed 87 29 3f 16 30 c1 be b3 53 e8 3e
       0.0009921015 0.6622303 -0.37732 0.45376357
0000a0 b9 f9 91 be f3 46 10 be 49 56 96 bf 69 70 34 bf
       -0.28510836 -0.14089565 -1.1745082 -0.70484024
0000b0 89 19 b9 bd 3a 41 fb 3e 68 d0 fb be de a3 17 3f
       -0.090380736 0.490732 -0.4918244 0.59234416
0000c0 3d 07 d7 bc 80 4a 52 be f4 21 4d bf 68 8d c6 bf
       -0.026248569 -0.20536232 -0.80129933 -1.5511904
0000d0 17 d0 4c bf 1f 61 10 3f 01 99 4d 3d d5 09 01 3f
       -0.8000502 0.56398195 0.050194744 0.5040563
0000e0 71 a5 02 3f 39 c7 a6 3e 7a 46 7a bf e5 0c b6 bf
       0.51033694 0.3257387 -0.9776379 -1.4222685
0000f0 a2 48 17 3f bc bc 7a 3e bf 4b e9 3e d3 14 23 3f
       0.59095204 0.24486059 0.45565602 0.6370365
000100 8a 0e d8 be 2a 22 8e bd 5d 2c 84 3d fd 90 25 3f
       -0.42198592 -0.0694011 0.06453774 0.6467436
000110 f8 c6 00 3f d8 d1 6a be bf ab d9 3e c2 54 de bc
       0.503036 -0.22931612 0.42513844 -0.027140025
000120 69 17 41 be c8 3a ce 3e 33 b0 06 3f cc 51 89 3f
       -0.18856587 0.40279222 0.5261261 1.0728087
000130 8b 3d 89 3f 86 4f 88 bd 05 3b 0a 3c d9 31 ad 3d
       1.0721906 -0.06655793 0.008436923 0.08456773
000140 e9 e4 2a bf b2 ec a7 bf 85 11 75 3d 87 57 79 3f
       -0.6675554 -1.3119109 0.05983116 0.9739918
000150 dd bb 88 3f a1 d1 66 be 29 89 e3 3e 04 6e c2 be
       1.0682331 -0.22540905 0.44440582 -0.3797456
000160 59 b2 10 bf 52 a5 bb bf 51 cd 53 3e 17 63 21 3f
       -0.56522137 -1.4659827 0.2068379 0.63041824
000170 05 3a 97 bd 83 5f 58 bf a8 fb ad bd b9 3a db 3e
       -0.07384113 -0.8452074 -0.08495265 0.4281824
000180 41 42 89 bf 75 92 aa bf 73 9c 53 3f b1 e7 57 3e
       -1.0723344 -1.3325945 0.826606 0.21084477
000190 08 78 34 c0 bd cf 31 3f 1c 2e 1d 3e a6 c5 85 3d
       -2.8198261 0.6945761 0.1534962 0.06531839
0001a0 ed 54 ec bd 8a 54 a0 3e 45 08 6a 3f 7f 2f da 3e
       -0.11539636 0.31314498 0.9141887 0.42614362
0001b0 cd b7 de bf d1 0c 28 be 42 51 11 bf ba ea d6 be
       -1.7399842 -0.16411139 -0.56764615 -0.41975957
0001c0 72 64 7e 3e 22 3e a4 3e de eb 59 3f 57 80 ee be
       0.24843004 0.32078654 0.8512553 -0.4658229
0001d0 b7 62 7c bf fe c4 dd be ce c4 b3 be 7a 21 11 bf
       -0.98588127 -0.43314356 -0.35111088 -0.56691706
0001e0 0b c2 79 3e 82 b2 ca 3d c6 a7 1a 3f 13 f7 aa 3e
       0.24390428 0.09897329 0.6041225 0.33391628
0001f0 62 30 3e bf 1f 59 8b 3d 74 92 eb be f4 71 43 bf
       -0.74292576 0.06804108 -0.46010172 -0.76345754

bias f4 [16]
000000 e5 ed 30 3f 7b 0c e0 3e 17 49 63 3f 15 a2 ab 3e
       0.69113 0.43759522 0.887834 0.33522096
000010 87 82 09 3f bb 77 9e 3e 42 a5 3d 3e 46 aa 7e bd
       0.53714794 0.30950722 0.18520072 -0.062174104
000020 be 1f 7d 3e 26 5e 1d 3e a9 15 6e 3e 6c d7 ae be
       0.2471914 0.15367946 0.2325045 -0.3414873
000030 09 fc 7a be 42 20 f2 3e 2b 6c 55 3e 7c fb 8b 3e
       -0.24510206 0.47290236 0.20842044 0.27340305

Aq_4 f4 [16, 16]
000000 42 22 90 bf d3 cc ae 3f 5e e8 3c 3c d6 71 c2 3f
       -1.1260455 1.3656257 0.01153001 1.519099
000010 2b 9f 63 c0 7b f2 bc bf 3f 7d 77 bf c7 90 a9 bf
       -3.5565898 -1.4761499 -0.96675485 -1.3247308
000020 59 5a dd bf 9b b9 19 3e 1d 0b 86 3f cb 62 12 3f
       -1.7293197 0.15012209 1.0472142 0.57181996
000030 45 6b f8 3e f6 99 3c 3f ca 74 e9 bf ed 79 31 bf
       0.4851934 0.73672426 -1.8238766 -0.6932667
000040 f9 53 22 40 39 b0 2f bf 3f 63 8c 3f 4c ed 8f 3f
       2.5363753 -0.6862827 1.0967788 1.1244292
000050 c3 32 3f bf 99 10 68 3f 14 e8 4c bf 30 b6 4f bf
       -0.7468683 0.90650326 -0.80041623 -0.8113737
000060 86 5d 6f 3f 95 fa 49 bf 68 a9 94 be d4 32 61 3c
       0.9350208 -0.7889798 -0.29035497 0.0137450285
000070 51 a1 07 c0 36 ba 59 3e 8b 2e 8e be 42 25 da bf
       -2.119221 0.2126244 -0.27769884 -1.704262
000080 a3 3b a5 bf 02 7a ca be 8c a6 07 c0 40 d5 f1 bf
       -1.2908825 -0.3954621 -2.1195402 -1.8893204
000090 6b 99 90 be 20 a1 a1 ba 99 1f 96 bd 76 d0 6f bf
       -0.2824205 -0.0012331344 -0.073302455 -0.9367746
0000a0 99 e5 61 3f de 7a 15 c0 ab 76 9d bf c6 f5 75 bd
       0.88240963 -2.3356242 -1.230184 -0.06004884
0000b0 c8 a5 6b 3f df 45 c1 bd c3 a8 cc 3e 1f 58 f8 3f
       0.9204984 -0.09437155 0.39972505 1.9401892
0000c0 47 c1 5c bf 6a f6 b0 bf 31 ad b3 bf 7a 14 a3 bf
       -0.8623242 -1.38252 -1.4037229 -1.2740624
0000d0 7b 1e 12 bf f2 e8 97 be 6d d5 9b 3e 4e 24 87 bf
       -0.5707776 -0.2966991 0.30436268 -1.0557954
0000e0 cb c8 02 3e 35 9a bf 3e 8e 62 4c 3f 9e de ff 3e
       0.12771909 0.37422338 0.7983788 0.4997453
0000f0 e9 b2 5a be 69 8b b9 bf 20 5e c6 bf ce 93 67 3f
       -0.21357311 -1.449567 -1.5497475 0.9045991
000100 c9 8d 08 3e 77 98 c9 bf 94 67 cf 3f 2f 6a 54 bf
       0.13335337 -1.5749654 1.6203485 -0.82974523
000110 9e a2 0b 3f 8a da 03 40 4e 60 08 bf 78 4f 29 3f
       0.5454501 2.0602136 -0.5327195 0.66136885
000120 40 e6 af bf 70 fb 6b bf c9 71 4e 3e 5b 74 81 3f
       -1.3742142 -0.9218054 0.20160593 1.0113634
000130 6d 82 e1 be c5 e9 69 c0 48 51 a2 bf 8e 59 1c c0
       -0.4404482 -3.6548932 -1.2681055 -2.442966
000140 5a 68 a0 bf 9c 16 e3 bf fa c5 04 40 ce 2c 8d 3f
       -1.2531846 -1.7741275 2.0745835 1.1029298
000150 26 e7 01 3f 4d 1c a2 bf b1 df c0 3e 58 1c cc 3f
       0.5074333 -1.2664887 0.37670663 1.594615
000160 4a 01 08 40 0f 97 b8 bf d4 13 16 bf ad ac bf bf
       2.1250787 -1.44211 -0.58624005 -1.4974571
000170 20 73 bd bf 42 d7 70 bf 5d 47 d7 3d 6a 5a c8 3f
       -1.4800758 -0.9407846 0.10511658 1.5652592
000180 eb 72 29 bf c9 d7 a4 bf 45 8e 18 bf dc 4f f6 bf
       -0.66190976 -1.2878352 -0.59592086 -1.9243121
000190 34 7b f6 3d f2 8e b7 3f 6a 8f f4 3e 64 f2 0e bf
       0.12035218 1.4340498 0.47765666 -0.5583861
0001a0 ef 3c 45 bf 36 b9 01 bf c6 c6 a6 bf fe 40 75 bf
       -0.770461 -0.50673234 -1.3029411 -0.95802295
0001b0 20 42 93 bf 86 6a cc bf 30 1d 10 3e 0e 16 1b 40
       -1.1504555 -1.5970008 0.14073634 2.423221
0001c0 30 36 22 be 4d 14 32 3f 36 57 b2 3f c7 7f 4c bf
       -0.15840983 0.69562227 1.3932865 -0.7988247
0001d0 50 83 82 bf 1c 85 7a 3e 5d e6 68 bf d9 d9 af 3d
       -1.0196323 0.2446484 -0.90976506 0.08586473
0001e0 5e 3b 38 bf b7 63 8c 3f e2 49 7a bf ce a2 a0 3f
       -0.7196559 1.096793 -0.97768986 1.2549684
0001f0 a4 f7 dc bf 56 14 9f be 3e 0d 7c be 43 aa 2b be
       -1.7263074 -0.31070203 -0.24614426 -0.16764168
000200 02 37 85 bf 78 27 81 3f cc 83 1c c0 dd 20 21 40
       -1.0407412 1.009017 -2.4455442 2.5176308
000210 77 98 c0 3d a5 21 88 3f 6f 6a 13 3e a7 bb 30 bf
       0.0940408 1.0635267 0.1439607 -0.69036335
000220 40 8a b8 be 79 0a e9 3d 32 69 fd 3e 98 39 fd 3e
       -0.36042976 0.113789506 0.4949432 0.49458003
000230 53 e8 62 3d d1 2d 13 bf d8 4c 35 bf d1 58 45 bf
       0.055397343 -0.57491785 -0.7082038 -0.7708865
000240 54 1f c9 bd 11 5e e8 be f9 1a 24 bf 7f 61 9d 3e
       -0.098204285 -0.45384267 -0.64103657 0.30738446
000250 f2 e2 67 3e 87 2f 8a bf 2e 99 02 3f 16 e3 f2 3f
       0.22645167 -1.0795754 0.51014984 1.8975551
000260 39 77 fa 3e 1b ff 57 3f 89 51 07 c0 b3 09 72 3f
       0.48919085 0.84373635 -2.1143515 0.9454605
000270 28 10 8d bd 8c 5a 46 bf 4c 60 0a bf a4 c5 dd 3c
       -0.06887847 -0.77481914 -0.5405319 0.027071781
000280 1e fc af bf 8d cc 12 3f 64 f2 45 c0 44 41 ce 3f
       -1.3748815 0.5734337 -3.0929193 1.6113667
000290 cd 8c 0a c0 c7 80 0f bf 8f c9 ba bf f6 f7 12 3f
       -2.1648438 -0.56055874 -1.4592761 0.5740961
0002a0 03 b3 de 3e ab 58 dc bf cd b6 1d 40 c5 a6 98 3f
       0.4349595 -1.7214559 2.4642823 1.1925894
0002b0 ab 50 1f bd 14 e0 af 3f 15 ff 6c c0 2c 9a 93 3f
       -0.03889529 1.3740258 -3.703069 1.1531425
0002c0 2f 81 96 bf 7c ea 05 bf 40 b2 bc 3f 32 78 85 bf
       -1.1758174 -0.5231092 1.4741898 -1.0427306
0002d0 11 74 65 c0 0f e4 2c 3f 2b c2 94 3f 1e 19 83 3f
       -3.5852091 0.6753549 1.1621755 1.024204
0002e0 d4 a2 fe be 49 22 3d 3f 8f 33 98 bf 72 99 52 3f
       -0.49733603 0.7388044 -1.1890734 0.8226539
0002f0 e7 90 cd 3f a0 17 04 c0 f8 38 f6 3e bf 54 d9 be
       1.6059846 -2.063942 0.4809034 -0.4244747
000300 6e da 82 bf 8b 4a 39 c0 5c 41 2c 3f 1d 75 7b bf
       -1.022291 -2.8951747 0.6728723 -0.98225576
000310 c1 e3 bf 3f c3 9b c4 be 9f 38 31 3f a8 69 76 bf
       1.499138 -0.38400087 0.6922702 -0.9625497
000320 fc 5d b3 bf 41 18 ca bf af 17 d8 3f fc a8 9c be
       -1.4013057 -1.5788652 1.6882228 -0.30597675
000330 18 56 d1 bf 23 34 c3 3f 57 3d 9d be 91 0f 2a 3f
       -1.6354399 1.5250286 -0.3071086 0.6643
000340 4e 29 18 c0 90 f2 ce 3e 47 58 3f bf 43 8d 69 3e
       -2.377521 0.40419436 -0.74744076 0.22807793
000350 1b c7 db bf ac da 4a 3f ed c0 ee 3f 2c 0e cf bf
       -1.7170137 0.79239917 1.8652626 -1.61762
000360 4f 78 de 3e da 68 a5 3e b1 2f 7f 3f 83 e1 63 bc
       0.43451163 0.32306558 0.99682146 -0.013908747
000370 1f 51 c9 bf 17 ad 24 bf b8 fe eb 3f 67 8b 63 3f
       -1.5727881 -0.64326614 1.8437109 0.88884586
000380 ea 8d 8a bf 65 63 af bf b1 3b 8a bf 39 80 14 bf
       -1.0824559 -1.3702208 -1.0799466 -0.5800815
000390 6d d6 ec 3e 5f c6 26 be fa 9e bc bf 88 09 4f bf
       0.46257344 -0.1628661 -1.4736016 -0.8087392
0003a0 69 49 32 bf 63 e4 24 bf a8 18 b3 bf 82 77 fc be
       -0.69643265 -0.6441099 -1.39919 -0.49309927
0003b0 58 17 b6 bc 7f 86 37 bf fb 94 ec 3e 57 7c 7e bf
       -0.022227928 -0.716896 0.46207413 -0.9940848
0003c0 4d 89 1a bf 56 12 1d 40 13 d2 93 3f ac 99 f0 be
       -0.60365754 2.4542441 1.1548485 -0.46992242
0003d0 b6 1c 0c 3f 1f e3 79 3b 0e 4a 92 3e de d5 2c bf
       0.5473131 0.003812976 0.28572124 -0.67513835
0003e0 6b e6 9f 3d 5a a0 ba bd d2 21 0d 3f 11 bb b0 bb
       0.078076206 -0.09112616 0.5512973 -0.005393394
0003f0 99 a9 fd be f1 66 a9 3d 5d 95 28 3f 89 88 2c c0
       -0.49543455 0.08271588 0.6585291 -2.6958334
