data/actor_net_food_collection_3980000_pH-MARL.pth (torch, 62974 bytes, 75 tensors)

Aq_4 f4 [16, 16]
-0.72042066 0.40774488 -0.26526177 -0.016770003 0.1439893 -0.3054249 1.0015115 -0.9805991
0.36865985 1.0894694 -0.71433127 -1.365501 -1.0908406 1.0881398 1.3152469 1.8637781
-0.566268 -0.41734007 1.0011551 1.4228995 1.281532 0.98506534 -0.2103866 0.84418315
0.6400427 -0.4919243 -1.7743925 -1.5294775 -0.4792123 -0.37976384 -0.34549713 0.2943911
0.262424 -0.2070074 0.7995069 1.5521712 0.977198 0.14995593 1.1491585 -2.1734476
0.32605222 0.09014044 -0.6107289 1.3105432 2.1492362 -1.0972043 2.010319 0.22737993
0.4476945 1.6987499 -0.38088608 -0.8421043 0.14452823 -0.4474001 0.75926864 1.166097
-1.625039 0.103727974 -0.7168267 -0.8223703 1.1630014 -2.0549448 -1.6343329 -3.2687488
-1.9858145 -0.8127867 -0.21412502 0.102901176 0.13772954 -1.8565965 1.4762301 -0.95240396
1.7456028 0.16589233 -1.5083797 -2.2762702 0.14704745 -1.2198094 -1.9236194 1.0433108
-2.5317411 -0.889049 -0.9636616 -0.5718165 -1.0550117 -1.6534549 0.42931467 -1.8753368
-0.7717847 -0.3037503 -0.4492084 -1.287455 -2.7039957 0.24178612 0.15252724 1.5346388
-1.1202855 -0.32910657 1.1716481 -1.3911238 1.3423809 0.53152317 -1.4584038 0.8372834
1.3653171 0.4517278 0.31888872 -2.4576771 -2.9269605 -0.9399581 0.43542635 -1.4912456
0.48771477 -2.581823 2.6949868 0.2637414 1.7434022 0.17714944 -1.4156016 -1.3915
0.23757789 -0.45932555 0.7204429 0.65809935 -2.2095196 2.1509352 -0.59288836 0.9089838
-0.7603083 0.11352531 1.2243962 0.17327826 -0.36991385 0.9132828 1.5668434 -0.14229037
-0.8148269 -1.0238687 1.307539 -1.5182856 2.4368412 0.8940985 -0.37822673 -1.0432371
1.1232407 -1.1154939 0.87935334 0.76643705 -0.42824128 -0.16809835 1.2646956 -0.6751201
-0.49480852 0.69176537 0.023997512 1.4141957 2.3111448 1.361018 -2.0602937 2.7144892
-0.71715295 -0.5229803 0.017403603 -1.3149817 -0.7377932 -1.2033137 0.4510525 -0.12758715
-0.65236 1.2458632 0.4940857 -1.1072663 -0.25491613 -0.9260866 0.4240617 0.6406085
-1.0454959 0.61686635 0.81391984 0.48826227 -1.7470003 -0.56512874 0.8008143 0.22254379
1.4679772 -0.16564175 -1.8816593 -0.94974077 0.6791625 0.7172107 1.4566276 2.8505194
-1.1566693 0.9490501 0.27968752 0.82363176 -1.6381825 -0.0785383 -2.2425091 -1.1370591
-3.1003804 0.10231822 1.063341 -1.2050819 0.19401257 -0.10889211 -1.2913694 -2.7729216
-0.016777253 1.281807 -1.4281249 1.3500346 0.9685211 1.4220564 1.006486 1.9037137
0.44767344 0.39287195 1.3411927 -1.3848233 1.03082 -0.3804588 -1.4400623 -2.3292098
0.8016917 0.85721934 -0.35395968 -1.7058862 1.4816784 1.3283727 -0.01302859 0.6920274
-0.09694671 0.52072424 0.37099987 -1.6280184 1.2113395 -2.4929347 -0.7630906 -0.9985853
0.14659892 0.64242274 0.5271062 -0.73945117 -0.45751318 0.115970716 -0.6639013 0.36295348
0.31653 -1.185947 -0.29924643 0.6366146 -0.7610921 -1.057626 -0.78004587 0.9793745
00000000: 7d6d 38bf f0c3 d03e 64d0 87be 3f61 89bc
00000010: ee71 133e a760 9cbe 8731 803f 8b08 7bbf
00000020: fcc0 bc3e bc73 8b3f 6ade 36bf bdc8 aebf
00000030: aaa0 8bbf 2a48 8b3f 035a a83f 4890 ee3f
00000040: f1f6 10bf 99ad d5be da25 803f 9221 b63f
00000050: 3e09 a43f 3e2d 7c3f 966f 57be 631c 583f
00000060: d7d9 233f 80dd fbbe 4b1f e3bf ebc5 c3bf
00000070: 515b f5be 6870 c2be 00e5 b0be 6eba 963e
00000080: 705c 863e bff9 53be 7cac 4c3f 8cad c63f
00000090: a629 7a3f 0c8e 193e a017 933f c419 0bc0
000000a0: 51f0 a63e 8d9b b83d bb58 1cbf e1bf a73f
000000b0: 168d 0940 3171 8cbf 11a9 0040 49d6 683e
000000c0: 3738 e53e a370 d93f 8003 c3be 2694 57bf
000000d0: 35ff 133e a011 e5be 6e5f 423f ab42 953f
000000e0: 4701 d0bf 556f d43d f481 37bf dc86 52bf
000000f0: 3bdd 943f 3784 03c0 d231 d1bf 2e33 51c0
00000100: 2b2f febf ca12 50bf 9743 5bbe dabd d23d
00000110: f908 0d3e f4a4 edbf 1cf5 bc3f bfd0 73bf
00000120: ea6f df3f aedf 293e 9612 c1bf 69ae 11c0
00000130: 9b93 163e b722 9cbf 2939 f6bf 358b 853f
00000140: 0c08 22c0 b798 63bf 87b2 76bf 9162 12bf
00000150: a00a 87bf 69a4 d3bf 22cf db3e 090b f0bf
00000160: af93 45bf 2985 9bbe a5fe e5be 53cb a4bf
00000170: 440e 2dc0 c896 773e 1a30 1c3e 0b6f c43f
00000180: 8465 8fbf a880 a8be 91f8 953f 5810 b2bf
00000190: 23d3 ab3f e711 083f faac babf 3458 563f
000001a0: b6c2 ae3f de48 e73e 6245 a33e 954a 1dc0
000001b0: 5253 3bc0 18a1 70bf 34f0 de3e 23e1 bebf
000001c0: c0b5 f93e 973c 25c0 aa7a 2c40 1d09 873e
000001d0: ce27 df3f aa66 353e 6f32 b5bf ac1c b2bf
000001e0: 9e47 733e b82c ebbe f26e 383f 3379 283f
000001f0: c568 0dc0 eca8 0940 88c7 17bf 2ab3 683f
00000200: 91a3 42bf f57f e83d 04b9 9c3f db6f 313e
00000210: 5965 bdbe e7cc 693f 538e c83f 91b4 11be
00000220: 7f98 50bf 210e 83bf 705d a73f 2f57 c2bf
00000230: 35f5 1b40 a4e3 643f efa6 c1be cb88 85bf
00000240: 5ac6 8f3f 81c8 8ebf 4d1d 613f 3835 443f
00000250: 7142 dbbe f921 2cbe 8ce1 a13f acd4 2cbf
00000260: 8b57 fdbe 8917 313f 6e96 c43c 5d04 b53f
00000270: cce9 1340 d635 ae3f dadb 03c0 31ba 2d40
00000280: 5697 37bf 09e2 05bf 0092 8e3c 5251 a8bf
00000290: 04e0 3cbf 2f06 9abf 5af0 e63e 35a6 02be
000002a0: 1101 27bf 7278 9f3f cdf8 fc3e e7ba 8dbf
000002b0: 5e84 82be 0314 6dbf 9d1e d93e ebfe 233f
000002c0: cfd2 85bf f4ea 1d3f 0d5d 503f 83fd f93e
000002d0: b59d dfbf 47ac 10bf 2a02 4d3f 85e2 633e
000002e0: ade6 bb3f fe9d 29be 36da f0bf 3622 73bf
000002f0: 98dd 2d3f 1f9b 373f c672 ba3f e96e 3640
00000300: bd0d 94bf f3f4 723f 3433 8f3e 88d9 523f
00000310: f7af d1bf b0d8 a0bd 4585 0fc0 278b 91bf
00000320: a26c 46c0 378c d13d 8f1b 883f 2040 9abf
00000330: 3bab 463e d402 dfbd 984b a5bf 8c77 31c0
00000340: 7370 89bc 4012 a43f cccc b6bf efcd ac3f
00000350: 00f1 773f f205 b63f 89d4 803f e4ac f33f
00000360: 7435 e53e 8326 c93e 34ac ab3f e441 b1bf
00000370: e9f1 833f 7fcb c2be f653 b8bf c611 15c0
00000380: ab3b 4d3f ba72 5b3f 343a b5be 7b5a dabf
00000390: a3a7 bd3f 1e08 aa3f de75 55bc b528 313f
000003a0: ff8b c6bd 2f4e 053f b2f3 bd3e e862 d0bf
000003b0: 2c0d 9b3f 3e8c 1fc0 e859 43bf 49a3 7fbf
000003c0: 071e 163e d175 243f 6ff0 063f ac4c 3dbf
000003d0: 2b3f eabe 0e82 ed3d 70f5 29bf 0ad5 b93e
000003e0: 3810 a23e 1ccd 97bf d436 99be 2df9 223f
000003f0: efd6 42bf 4a60 87bf 16b1 47bf 4ab8 7a3f

Ak_4 f4 [16, 16]
0.5968888 0.1077019 0.3703054 0.07011414 1.7523603 1.7965854 -0.7193609 -0.8249091
-0.62641025 1.7884187 -1.1159551 -0.49737373 -0.6929022 2.1046858 0.42202476 -1.3019327
-1.9101969 -3.5447958 1.1824372 0.507054 -1.2303735 0.35404396 4.0121117 -0.58300465
-0.12111371 -1.3604469 -3.276587 0.4733269 -1.678423 0.49950483 -1.3823074 1.4431868
-2.240064 -0.86026317 1.3402461 -1.9398617 -1.1929692 -2.2980301 -0.92284775 0.4628909
0.83505374 -0.35289195 0.5380817 0.22959653 0.7949313 1.7911004 0.2482298 0.53876245
1.9117053 -0.30977502 0.14140113 1.313321 -0.4670336 0.39438865 0.024632385 0.86630946
-0.14493974 1.3117908 -0.6042912 0.052851915 0.106533736 -2.0859482 -0.19030064 0.25036627
0.6887581 -0.9209099 0.15803984 0.6461241 1.0055851 0.50864124 -0.89107805 -0.15533397
0.47755522 0.36769488 -0.086783394 0.24460232 -0.6464254 0.76322496 1.4500965 0.3745994
-2.5282798 -0.36958358 1.759307 0.4298442 0.78671235 0.43447435 1.4992828 0.011004429
-0.5524613 -0.27881953 1.2549937 -0.08193387 -0.32803807 0.5662155 -0.37536186 -0.5073013
-1.9972917 0.25370675 -1.4224937 -1.2040867 0.6055809 -3.6143486 2.2678506 -1.2627537
3.3193972 -1.5606751 -3.34902 -1.0394545 -1.0549384 -1.3796529 0.6223386 1.6101481
0.81646 0.98932064 0.5925662 -1.3316056 0.7768582 0.32114762 -0.024634892 0.12554412
0.1900853 -0.8329468 0.48107582 -0.79135364 -0.042438332 0.33666238 -0.5364795 -0.101494186
-0.037001774 -0.6466354 1.3540876 -0.9457729 1.025699 -0.96775854 0.99963725 -0.36259177
-0.35050333 1.856692 -0.16057402 0.30315512 -0.6792024 -0.5086292 -0.913614 -2.2742126
-0.1657005 -1.1118164 -1.1527884 -1.8325093 0.32027596 1.2975259 0.86887574 -0.5024477
0.9821068 1.899071 -0.23108327 0.60588205 -0.014493182 1.1351684 -0.16473453 0.5422421
-0.83369267 0.23398612 -0.420315 -0.0013949149 -0.3350316 -1.6175425 -0.79085296 -0.01151773
0.05643161 -2.1799 1.421453 1.7230172 -0.34481972 0.84082717 -0.2644934 2.020889
1.1039106 0.49726224 -0.9495567 -0.021186374 -1.5115244 1.7977582 1.0771245 -0.9505797
-0.9777235 -0.5695496 -0.14457196 -0.41841143 -1.0822681 -1.3949045 -0.8800105 -0.92742664
-1.592868 0.676054 0.78356445 0.9960129 -1.0129075 -1.280164 1.3005731 0.031740528
0.042745803 1.4113058 -0.662189 -0.77777696 -3.724285 1.0855469 -2.2821093 -1.6295707
0.34407657 1.0681169 -0.029065907 0.079324834 0.68559265 -0.6045325 -1.2640306 0.4099419
-0.5964563 0.19480292 0.12650701 -0.8672405 0.23085727 -0.40769553 0.7312489 1.2305707
1.1357446 -0.78761685 -0.40656054 -1.9526805 0.65219903 -0.29910603 -1.5688052 -1.1307644
-0.33049846 0.052885033 -1.0001714 1.3991511 -2.0319223 0.35442385 -2.0069804 -3.1268015
0.17941904 -1.2264062 -0.21392636 1.0071692 0.7086086 -1.2669259 -0.48381737 -0.5316403
0.76968956 2.6997747 0.9344263 0.1645148 -0.08548318 1.0444446 0.5193983 0.18027805
00000000: b4cd 183f d092 dc3d ab98 bd3e 0198 8f3d
00000010: 584d e03f 83f6 e53f 0928 38bf 3e2d 53bf
00000020: 6c5c 20bf e7ea e43f 9ed7 8ebf c5a7 febe
00000030: 0a62 31bf 2cb3 0640 a113 d83e bba5 a6bf
00000040: 5581 f4bf efdd 62c0 1a5a 973f 4ace 013f
00000050: e17c 9dbf 4045 b53e 3863 8040 cb3f 15bf
00000060: 770a f8bd 2023 aebf 9ab3 51c0 e757 f23e
00000070: 91d6 d6bf 19bf ff3e 73ef b0bf 58ba b83f
00000080: 355d 0fc0 353a 5cbf 2f8d ab3f 634d f8bf
00000090: 37b3 98bf ed12 13c0 c03f 6cbf 0900 ed3e
000000a0: 15c6 553f 41ae b4be b9bf 093f 5a1b 6b3e
000000b0: 9e80 4b3f c742 e53f f42f 7e3e 56ec 093f
000000c0: c2b2 f43f d59a 9ebe 75cb 103e e71a a83f
000000d0: 071f efbe 4fed c93e dbc9 c93c 75c6 5d3f
000000e0: 156b 14be c3e8 a73f d4b2 1abf 407b 583d
000000f0: 5c2e da3d 2d80 05c0 2cde 42be 0230 803e
00000100: 7352 303f c0c0 6bbf 32d5 213e 6468 253f
00000110: 03b7 803f 5036 023f b11d 64bf de0f 1fbe
00000120: 1e82 f43e 8142 bc3e 7ebb b1bd 0879 7a3e
00000130: 237c 25bf b662 433f c39c b93f 7ecb bf3e
00000140: 56cf 21c0 0f3a bdbe f930 e13f 8a14 dc3e
00000150: fb65 493f 6c73 de3e 80e8 bf3f ec4b 343c
00000160: 1b6e 0dbf 6fc1 8ebe a2a3 a03f f2cc a7bd
00000170: 9bf4 a7be 80f3 103f 6e2f c0be 7fde 01bf
00000180: 41a7 ffbf dae5 813e 4614 b6bf 831f 9abf
00000190: 5a07 1b3f 7d51 67c0 7724 1140 eaa1 a1bf
000001a0: 0171 5440 34c4 c7bf 5856 56c0 d80c 85bf
000001b0: 3908 87bf 7798 b0bf 9551 1f3f 5519 ce3f
000001c0: 8603 513f 1e44 7d3f 6bb2 173f 0d72 aabf
000001d0: 2ee0 463f 766d a43e 1dcf c9bc a38e 003e
000001e0: b9a5 423e 003c 55bf 924f f63e 2796 4abf
000001f0: d1d3 2dbd 035f ac3e b856 09bf 2fdc cfbd
00000200: 2c8f 17bd e689 25bf be52 ad3f 2c1e 72bf
00000210: 1b4a 833f 06bf 77bf 3ae8 7f3f a1a5 b9be
00000220: 2c75 b3be 15a8 ed3f 846d 24be 2637 9b3e
00000230: 35e0 2dbf 8635 02bf 9be2 69bf b38c 11c0
00000240: 64ad 29be 0050 8ebf 928e 93bf aa8f eabf
00000250: 36fb a33e 5415 a63f a46e 5e3f 6aa0 00bf
00000260: 5a6b 7b3f c214 f33f 18a1 6cbe 161b 1b3f
00000270: d074 6dbc 334d 913f 2bb0 28be 61d0 0a3f
00000280: e26c 55bf 0f9a 6f3e 8733 d7be 94d5 b6ba
00000290: 4389 abbe a20b cfbf 5775 4abf dcb4 3cbc
000002a0: d524 673d 7b83 0bc0 2cf2 b53f d48b dc3f
000002b0: 368c b0be 7340 573f ae6b 87be 3f56 0140
000002c0: f14c 8d3f 2899 fe3e 2616 73bf 0c8f adbc
000002d0: a279 c1bf f11c e63f 37df 893f 3159 73bf
000002e0: 164c 7abf 01ce 11bf ac0a 14be 063a d6be
000002f0: c387 8abf 3b8c b2bf 5e48 61bf d56b 6dbf
00000300: 19e3 cbbf e011 2d3f ae97 483f b4fa 7e3f
00000310: f4a6 81bf 6adc a3bf 2e79 a63f 5b02 023d
00000320: 3916 2f3d aba5 b43f 3885 29bf 641c 47bf
00000330: af5a 6ec0 33f3 8a3f 140e 12c0 c695 d0bf
00000340: ce2a b03e 0eb8 883f a01b eebc 0f75 a23d
00000350: 0083 2f3f a4c2 1abf c1cb a1bf e8e3 d13e
00000360: 5cb1 18bf 6b7a 473e 0e8b 013e 7903 5ebf
00000370: d965 6c3e 78bd d0be 2133 3b3f 5783 9d3f
00000380: 1460 913f 42a1 49bf b428 d0be 6ff1 f9bf
00000390: 84f6 263f 6d24 99be 9cce c8bf e3bc 90bf
000003a0: 1837 a9be fa9d 583d 9e05 80bf 6217 b33f
000003b0: 040b 02c0 0b77 b53e 5e72 00c0 841d 48c0
000003c0: a0b9 373e e1fa 9cbf 830f 5bbe ecea 803f
000003d0: 6067 353f a12a a2bf e9b6 f7be 9419 08bf
000003e0: 600a 453f 1cc9 2c40 9036 6f3f 9176 283e
000003f0: ce11 afbd 5cb0 853f 49f7 043f cf9a 383e

Av_4 f4 [16, 16]
-0.17294443 -1.9102174 -2.932932 0.05106707 0.87317926 -2.1768515 -0.38803348 -1.3544011
-0.5826227 0.72215116 0.7396819 -0.8708678 0.19430065 0.8386203 -8.1035385 -1.926003
-0.04963079 -1.0693997 1.0152007 1.00264 1.0818931 0.7330019 -1.1877607 -0.9077802
-1.2984854 0.504228 1.8856397 -0.15507442 -2.203642 1.3303463 0.48649246 -0.14073136
1.1406214 0.7085515 0.002284883 -3.2490923 1.2890533 -1.08771 -0.76459205 -0.015440486
-0.41943112 1.2401721 0.63617396 0.0652988 -1.0146669 1.7945281 0.076007366 0.22703196
0.43751636 -1.291771 0.32192212 -0.5914527 0.16029982 -0.017564528 0.7956291 0.17628187
0.21941918 -0.13209733 -1.7983695 -0.1121728 0.49704176 0.36470515 -0.6703826 -0.14755225
-2.7779908 0.25904995 2.0765066 -1.5738125 -0.23333572 0.39737985 1.2682838 1.2831516
-4.291271 -2.545194 1.4580294 -5.342068 -1.135883 -1.1199471 -0.34713787 -0.884388
-0.7896566 -1.0264211 0.9214498 -1.100208 0.85761887 -0.18026267 0.030461522 0.93350816
-1.8403957 -0.22792424 -0.42951742 -2.5676544 0.35073593 0.5629913 -0.502309 -0.9755452
-0.9770997 -0.65522677 1.2688258 -1.5414615 -0.41333035 -1.8088171 0.1337546 -2.8239367
-0.786595 -1.3600291 -0.739149 -0.16804527 -0.78812426 1.4632498 -1.7787466 -0.69100684
0.2950918 0.02787234 -3.2574313 -0.44992998 -1.5300069 1.335954 2.9418771 -0.32734993
-1.0058236 1.4572604 0.7764547 0.8028809 -1.8318061 0.9626998 -0.9013488 0.2699302
0.21066608 -1.7619493 0.6506001 0.19575925 1.3906636 0.7773718 -0.6392871 -0.83260036
0.9743601 -0.18693429 1.0003165 -1.8305027 -0.97662556 1.9894584 -0.28825334 1.6757916
0.43420014 -1.7223893 -0.5685471 0.26228198 -0.2780749 -0.08975376 0.472724 -0.87191
0.87565005 2.0887756 -0.6593979 -0.7783477 -0.5848861 1.5349559 -1.053541 -0.6285406
-0.47102574 -0.3719938 -6.0178957 -0.81052345 -1.1461858 -1.0070599 -0.6566266 0.14677817
0.60034543 -0.93451524 0.78165984 1.4697969 1.7563002 0.63454175 -2.7499976 -3.1904821
-0.5204283 -0.5952042 1.3102837 0.02386662 0.91252816 -0.3101347 -1.5216544 -0.70523417
-1.1631649 0.71225667 -0.7740111 0.011821997 -0.4649751 1.2245811 0.04811437 -0.7401292
-2.3507056 -0.58560395 0.30191225 -1.9635825 -0.6796641 -1.2829238 -1.3749831 -1.1361504
-0.7187416 1.551583 2.4629197 -1.3325235 0.64965355 0.17944893 -1.469162 0.7596106
-0.0055179377 -1.348683 2.1113462 -0.16735427 -1.0771693 -1.7001822 0.110412456 -2.0754948
-0.80164623 1.304359 -0.6195775 -1.5732775 -0.7466692 1.3261621 -1.3041419 -0.0032812874
-0.96799463 -1.7997124 -1.0464178 0.13622744 0.58592707 -2.5602584 1.6840234 -0.09423472
-0.22432049 -0.21972038 -1.1102372 0.20652892 0.45377865 1.3332994 -2.4704642 -0.56446964
1.537539 1.4450552 -2.0269828 -0.15478776 -1.7882663 -1.1646444 0.7139449 1.2605437
-0.8059365 0.045785256 -2.9918985 2.0290623 0.15231197 -2.0203323 2.51061 0.35329166
00000000: 5818 31be 0182 f4bf 28b5 3bc0 b42b 513d
00000010: ad88 5f3f 8951 0bc0 53ac c6be 045d adbf
00000020: c326 15bf e6de 383f cb5b 3d3f 31f1 5ebf
00000030: c0f6 463e d2af 563f 18a8 01c1 4487 f6bf
00000040: a849 4bbd 17e2 88bf 19f2 813f 8256 803f
00000050: 797b 8a3f 03a6 3b3f 8b08 98bf 4864 68bf
00000060: c534 a6bf 1615 013f a45c f13f d4cb 1ebe
00000070: 7808 0dc0 ca48 aa3f 8a15 f93e e21b 10be
00000080: e2ff 913f a263 353f fabd 153b 21f1 4fc0
00000090: b3ff a43f 153a 8bbf 4ebc 43bf 18fa 7cbc
000000a0: adbf d6be f6bd 9e3f 4cdc 223f 61bb 853d
000000b0: 9be0 81bf 19b3 e53f c0a9 9b3d 117b 683e
000000c0: 2502 e03e c158 a5bf fad2 a43e 7269 17bf
000000d0: a325 243e 7ce3 8fbc 59ae 4b3f 3c83 343e
000000e0: 6caf 603e 8644 07be f930 e6bf daba e5bd
000000f0: 427c fe3e a2ba ba3e 329e 2bbf f017 17be
00000100: 9aca 31c0 32a2 843e 7ce5 0440 b072 c9bf
00000110: 8fef 6ebe 5f75 cb3e 2057 a23f 503e a43f
00000120: 1852 89c0 75e4 22c0 b5a0 ba3f 39f2 aac0
00000130: 9d64 91bf 6d5a 8fbf 0ebc b1be 4167 62bf
00000140: ef26 4abf c461 83bf 22e4 6b3f 9ed3 8cbf
00000150: e98c 5b3f c796 38be 718a f93c 64fa 6e3f
00000160: 1692 ebbf f964 69be b5e9 dbbe 7354 24c0
00000170: a993 b33e 3320 103f 5397 00bf 55bd 79bf
00000180: 3523 7abf f1bc 27bf e268 a23f 9c4e c5bf
00000190: 09a0 d3be 5287 e7bf f7f6 083e 61bb 34c0
000001a0: 4a5e 49bf 6f15 aebf de38 3dbf 0f14 2cbe
000001b0: 83c2 49bf c54b bb3f f8ad e3bf d3e5 30bf
000001c0: 4616 973e 8954 e43c c179 50c0 395d e6be
000001d0: 44d7 c3bf 8a00 ab3f b747 3c40 699a a7be
000001e0: d4be 80bf 8287 ba3f bcc5 463f 9a89 4d3f
000001f0: 9f78 eabf 7e73 763f ccbe 66bf 4b34 8a3e
00000200: d9b8 573e 8e87 e1bf ba8d 263f 1d75 483e
00000210: 4401 b23f d701 473f 52a8 23bf 4c25 55bf
00000220: aa6f 793f b46b 3fbe 5f0a 803f ea4d eabf
00000230: 2204 7abf 93a6 fe3f f195 93be 5780 d63f
00000240: 7b4f de3e 4177 dcbf 4e8c 11bf d349 863e
00000250: d55f 8ebe d2d0 b7bd e108 f23e 7e35 5fbf
00000260: 9a2a 603f 80ae 0540 4dce 28bf cb41 47bf
00000270: 18bb 15bf 6f79 c43f 6eda 86bf 09e8 20bf
00000280: 492a f1be f975 bebe 9a92 c0c0 777e 4fbf
00000290: 37b6 92bf 57e7 80bf ae18 28bf 044d 163e
000002a0: 3db0 193f 643c 6fbf dc1a 483f 4e22 bc3f
000002b0: 72ce e03f 5471 223f f6ff 2fc0 dc30 4cc0
000002c0: ca3a 05bf 4d5f 18bf 60b7 a73f ee83 c33c
000002d0: 729b 693f fac9 9ebe 92c5 c2bf 3a8a 34bf
000002e0: 96e2 94bf 7456 363f 9725 46bf 0db1 413c
000002f0: 3711 eebe 13bf 9c3f 9313 453d 1b79 3dbf
00000300: f671 16c0 24ea 15bf 3e94 9a3e ac56 fbbf
00000310: 77fe 2dbf d936 a4bf 72ff afbf 606d 91bf
00000320: 73ff 37bf 469a c63f 7aa0 1d40 2190 aabf
00000330: b24f 263f 76c1 373e 800d bcbf d775 423f
00000340: d1cf b4bb a5a1 acbf 4c20 0740 eb5e 2bbe
00000350: afe0 89bf 929f d9bf ed1f e23d e8d4 04c0
00000360: b038 4dbf 3cf5 a63f a29c 1ebf 2861 c9bf
00000370: b625 3fbf aebf a93f 1fee a6bf de0a 57bb
00000380: 7fce 77bf fa5c e6bf 05f1 85bf 357f 0b3e
00000390: 51ff 153f 46db 23c0 148e d73f 22fe c0bd
000003a0: 45b4 65be 61fe 60be 411c 8ebf 517c 533e
000003b0: ad55 e83e 8ea9 aa3f 161c 1ec0 1581 10bf
000003c0: 14ce c43f 92f7 b83f 16ba 01c0 af80 1ebe
000003d0: e9e5 e4bf 1113 95bf 18c5 363f 7f59 a13f
000003e0: db51 4ebf 5289 3b3d 447b 3fc0 28dc 0140
000003f0: abf7 1b3e 204d 01c0 d6ad 2040 a5e2 b43e

Aq_7 f4 [8, 8]
-1.0870527 0.3847359 -0.04304831 -0.21481828 -0.009600935 -0.62142116 -3.1620278 -0.77248627
-0.19658184 1.1621721 0.0482581 1.1915106 0.23435274 -1.8412228 1.4401819 -0.54176897
-0.026939552 0.0060395435 0.35417414 -0.091528766 1.7138785 -0.3649049 0.2851978 0.2449362
-0.089024715 -0.65247947 -0.21246314 -0.31343272 -1.9977924 1.6026919 0.08106303 0.9177958
1.4871821 -0.3845568 -1.860782 2.7577727 -0.59361887 -1.5304346 -0.8677241 0.31777516
0.38958883 2.3400354 -0.07562435 1.5198117 -0.93690455 1.344325 0.4567256 -1.841398
-13.846756 10.954434 8.739113 -3.5672963 -9.699335 3.5056355 -11.34682 12.693853
-4.7812552 7.9687014 4.352619 -3.3554072 -0.3758816 0.07158379 -5.207276 4.1172037
00000000: 8b24 8bbf 1bfc c43e 6d53 30bd 53f9 5bbe
00000010: 3d4d 1dbc 7515 1fbf aa5e 4ac0 a9c1 45bf
00000020: c04c 49be 0ec2 943f 49aa 453d 6b83 983f
00000030: 2afa 6f3e 30ad ebbf e157 b83f 5fb1 0abf
00000040: 56b0 dcbc 5de7 c53b 5056 b53e 6f73 bbbd
00000050: 5f60 db3f d1d4 babe 7205 923e 8ed0 7a3e
00000060: 9752 b6bd e508 27bf f08f 59be 417a a0be
00000070: a9b7 ffbf 0225 cd3f 6004 a63d aaf4 6a3f
00000080: fc5b be3f a1e4 c4be 1b2e eebf 597f 3040
00000090: 68f7 17bf 48e5 c3bf 2b23 5ebf 6db3 a23e
000000a0: 3078 c73e 24c3 1540 f0e0 9abd 3189 c23f
000000b0: fad8 6fbf d712 ac3f f0d7 e93e eeb2 ebbf
000000c0: 508c 5dc1 5d45 2f41 68d3 0b41 954e 64c0
000000d0: 7a30 1bc1 555c 6040 938c 35c1 061a 4b41
000000e0: 0b00 99c0 9aff fe40 a848 8b40 febe 56c0
000000f0: 8e73 c0be 869a 923d 01a2 a6c0 22c0 8340

Ak_7 f4 [8, 8]
-0.10545407 0.46603772 1.6249477 -3.060744 -1.1302738 -0.12896745 0.2505382 -2.0306826
-1.4511565 0.32854238 0.80108684 -1.7540586 -2.5952206 0.4245651 -0.33985242 0.30059367
0.89010364 1.1795285 0.27372006 1.0617903 -0.042423368 -0.367462 0.36087856 0.8053964
0.62973684 1.063627 -0.31665114 -0.5350572 -0.27174962 0.14091393 0.45013747 -1.6927819
-0.0098570045 -2.2478206 -1.7438653 1.6924634 1.4740597 -1.9400861 0.9238384 0.6386395
-0.85712606 0.106921725 0.16955625 -1.8629199 0.8067082 -1.031398 -0.3834216 1.057018
-1.2609569 0.43556327 0.33987215 2.0941777 -0.09263255 -0.07451871 -0.9470036 0.8496891
0.26459166 -0.75130504 -1.9434363 -0.31261382 -2.2269676 -1.5696579 2.7448826 1.8272083
00000000: 4ef8 d7bd 7f9c ee3e 49fe cf3f 3be3 43c0
00000010: d0ac 90bf 0b10 04be 8b46 803e b4f6 01c0
00000020: 7fbf b9bf b536 a83e 0714 4d3f fe84 e0bf
00000030: 1818 26c0 9960 d93e 2301 aebe 6ae7 993e
00000040: d5dd 633f cafa 963f 0925 8c3e bfe8 873f
00000050: 20c4 2dbd fb23 bcbe 13c5 b83e 752e 4e3f
00000060: 6f36 213f ee24 883f 1920 a2be 82f9 08bf
00000070: c422 8bbe be4b 103e 6b78 e63e 14ad d8bf
00000080: 467f 21bc 4bdc 0fc0 fa36 dfbf a4a2 d83f
00000090: fdad bc3f be54 f8bf ac80 6c3f e17d 233f
000000a0: 9d6c 5bbf c7f9 da3d 27a0 2d3e 2974 eebf
000000b0: 6e84 4e3f da04 84bf d64f c4be 5e4c 873f
000000c0: 0967 a1bf 2602 df3e b903 ae3e 0207 0640
000000d0: 22b6 bdbd 449d 98bd d46e 72bf 3a85 593f
000000e0: 8f78 873e 8755 40bf 85c2 f8bf eb0e a0be
000000f0: a386 0ec0 8dea c8bf 28ac 2f40 f6e1 e93f

Av_7 f4 [8, 8]
0.4072539 1.8561624 -1.1120415 -2.6613834 -0.022897258 0.26909798 -0.2324026 -0.46283764
-0.7075413 1.2859981 0.27853474 0.15306345 -0.3480529 -0.831734 1.2481543 -0.9236044
-1.4252024 -1.1651114 1.2672753 1.7605631 -1.9297704 1.2809496 -0.12642843 -0.011609378
-1.1525122 -1.755743 0.7542127 -1.0885464 -2.1562936 1.330698 -0.95542485 -0.59997624
-1.9830774 -1.5709932 -0.7632392 -0.7002076 -1.0317863 1.0110295 1.1030014 0.48509434
-2.1074185 1.1783975 -0.4626992 -0.7806462 0.20687832 -1.7776951 -0.9471205 -2.2132843
-4.509259 1.7951503 0.9543515 -1.8884183 0.55948925 1.3317709 -1.7730622 0.40530407
-0.5834533 -0.39193648 -0.053384062 0.37918484 0.5844438 -1.9842908 -1.7774047 0.67368215
00000000: 9583 d03e bb96 ed3f 6057 8ebf 1b54 2ac0
00000010: 0893 bbbc 36c7 893e f2fa 6dbe 0ef9 ecbe
00000020: 6d21 35bf 969b a43f 1b9c 8e3e aabc 1c3e
00000030: fd33 b2be 85ec 54bf 85c3 9f3f 5771 6cbf
00000040: 086d b6bf 5f22 95bf 1436 a23f 225a e13f
00000050: b702 f7bf 28f6 a33f 7476 01be 4335 3ebc
00000060: 8585 93bf 30bc e0bf 1514 413f 7d55 8bbf
00000070: b700 0ac0 5054 aa3f b996 74bf 0b98 19bf
00000080: 7bd5 fdbf 4e16 c9bf a563 43bf ce40 33bf
00000090: 9311 84bf 6a69 813f 262f 8d3f 495e f83e
000000a0: f2df 06c0 bbd5 963f e9e6 ecbe 6ed8 47bf
000000b0: e9d7 533e 838b e3bf 7d76 72bf 73a6 0dc0
000000c0: da4b 90c0 7cc7 e53f 6150 743f b1b7 f1bf
000000d0: b03a 0f3f 7877 aa3f b4f3 e2bf 0484 cf3e
000000e0: 325d 15bf e6ab c8be 3fa9 5abd 8424 c23e
000000f0: 1c9e 153f 3efd fdbf ff81 e3bf 6f76 2c3f

Bq_4 f4 [16, 1]
0.6978671 -0.1326565 0.24700002 -1.0093564 -0.49589366 -0.7200821 -1.1263492 1.2231275
-0.099633195 -0.09834578 -0.16887943 -0.662443 2.7060356 1.357624 0.8587585 0.52551466
00000000: 6ba7 323f 1bd7 07be 93ed 7c3e 9732 81bf
00000010: c6e5 fdbe 4d57 38bf 362c 90bf 718f 9c3f
00000020: 7d0c ccbd 8369 c9bd bbee 2cbe dd95 29bf
00000030: b02f 2d40 a0c6 ad3f 99d7 5b3f 2188 063f

Bk_4 f4 [16, 1]
0.81956494 -0.96985584 -0.7538811 1.7377572 1.0010114 0.2219239 -2.1011534 2.0826495
1.3916317 0.7318573 1.6247013 -0.7654932 0.70101386 1.7027977 -0.27756873 0.18549329
00000000: 02cf 513f 7948 78bf 5afe 40bf d46e de3f
00000010: 2421 803f 0540 633e 4c79 06c0 214a 0540
00000020: fd20 b23f 005b 3b3f 36f6 cf3f 5df7 43bf
00000030: a575 333f 46f5 d93f 7d1d 8ebe f4f1 3d3e

Bv_4 f4 [16, 1]
-0.6159741 0.6423362 0.3353891 -0.27849743 -1.1649411 -0.15580937 0.073911294 -0.8894536
1.2668786 -0.08519618 0.05074449 3.2719407 0.73877776 -0.2929727 -0.28942278 0.31966436
00000000: 7bb0 1dbf 2570 243f 1fb8 ab3e 3797 8ebe
00000010: ca1c 95bf 7e8c 1fbe ce5e 973d 3bb3 63bf
00000020: 1429 a23f 567b aebd 74d9 4f3d 7a67 5140
00000030: 8a20 3d3f 8500 96be 392f 94be 0cab a33e

Bq_7 f4 [8, 1]
0.004431921 0.14991823 0.19756709 -0.27812803 -0.706833 0.4105559 13.812662 4.3442435
00000000: a639 913b 2a84 193e 074f 4a3e cc66 8ebe
00000010: 02f3 34bf 6234 d23e aa00 5d41 0b04 8b40

Bk_7 f4 [8, 1]
-0.88787955 -1.0206742 0.987419 0.12113483 1.3016587 -0.38445684 0.6498252 -0.8388566
00000000: 134c 63bf 74a5 82bf 7ec7 7c3f 8a15 f83d
00000010: c19c a63f 87d7 c4be f25a 263f 4ebf 56bf

Bv_7 f4 [8, 1]
0.7071233 -0.29979637 0.5015826 -0.10188669 1.5118113 -0.3883874 -0.8482643 -2.2190404
00000000: 0806 353f e97e 99be b867 003f f8a9 d0bd
00000010: 0883 c13f b7da c6be d927 59bf c204 0ec0

weight f4 [16, 6]
0.9635779 0.7187029 0.5465737 0.48736185 0.06333734 -0.0010857326 0.043728795 -0.06917929
0.6299789 -0.90366626 0.7129986 -0.5666087 -0.44350085 -0.0074720117 -0.33794877 0.046306062
-0.3124017 0.12861043 -0.49567926 -0.6222828 -0.6187446 -1.0864301 0.5203688 0.0598589
-0.32010132 -0.60651284 -0.085806355 0.05768343 -0.021841394 -0.5566523 -0.18133086 -0.28496027
0.6257716 -0.5359986 -0.37058836 0.6980395 -0.045230627 -0.70432746 0.13575354 -0.7980511
-0.20775782 -0.24059556 0.07467594 -0.09589695 -0.6938695 -0.18681552 -1.009757 -1.1116194
0.2551971 0.5732852 -0.6554441 -0.4057643 0.31459108 0.6558048 0.14102694 0.25853664
0.19801077 0.011294837 -0.09524042 -0.21355152 -0.09010602 -0.40066388 -0.5239034 -0.048925694
0.30529565 -0.24606885 0.29868042 0.17921707 -0.102712356 0.33922908 -0.062785886 -0.04886927
-0.6674338 0.026982134 -1.0603786 -0.8064481 0.050816596 -0.006039622 0.16694087 -0.125376
0.44738823 -0.10727695 -0.33275938 -0.42095867 -0.23554122 0.25941938 0.65383524 0.41335097
-0.057156786 -0.15677242 -0.04534082 0.008723406 0.094170816 0.045134425 -0.22722673 -0.008354092
00000000: 0bad 763f eafc 373f 41ec 0b3f 7e87 f93e
00000010: 02b7 813d 244f 8eba f71c 333d dfad 8dbd
00000020: 4c46 213f ac56 67bf 1487 363f 450d 11bf
00000030: 8b12 e3be c7d7 f4bb 9f07 adbe 6dab 3d3d
00000040: 1ef3 9fbe 74b2 033e acc9 fdbe ed4d 1fbf
00000050: 0c66 1ebf 2410 8bbf e436 053f 9b2e 753d
00000060: 52e4 a3be 6d44 1bbf 3ebb afbd 7645 6c3d
00000070: b9ec b2bc c480 0ebf ccae 39be 50e6 91be
00000080: 9132 203f 3437 09bf c2bd bdbe b7b2 323f
00000090: c043 39bd ce4e 34bf fa02 0b3e 144d 4cbf
000000a0: 77be 54be af5e 76be b3ef 983d 9f65 c4bd
000000b0: 6ea1 31bf 914c 3fbe b83f 81bf 8b49 8ebf
000000c0: 32a9 823e d2c2 123f 2fcb 27bf 57c0 cfbe
000000d0: 1512 a13e d3e2 273f 5e69 103e ea5e 843e
000000e0: 56c3 4a3e fb0d 393c 690d c3bd 40ad 5abe
000000f0: 8189 b8bd d123 cdbe 891e 06bf 4f66 48bd
00000100: b64f 9c3e 79f9 7bbe a4ec 983e ae84 373e
00000110: db5a d2bd 6faf ad3e e395 80bd 252b 48bd
00000120: f1dc 2abf a309 dd3c 7cba 87bf 6273 4ebf
00000130: 1025 503d 05e8 c5bb 8cf2 2a3e 9162 00be
00000140: 1210 e53e 04b4 dbbd 705f aabe e587 d7be
00000150: b831 71be 9ed2 843e bf61 273f bda2 d33e
00000160: 3c1d 6abd f388 20be 4cb7 39bd 9eec 0e3c
00000170: a1dc c03d e0de 383d 20ae 68be 9adf 08bc

bias f4 [16]
-0.051588744 -0.5230919 0.17189798 -0.13187209 0.47882992 -0.32481652 -0.3473487 -0.11382626
-0.29541114 0.32887986 0.504788 0.037091397 -0.6334065 0.41066554 0.16307369 0.073544055
00000000: b84e 53bd 5ae9 05bf 0606 303e 7a09 07be
00000010: 3229 f53e 5a4e a6be b0d7 b1be be1d e9bd
00000020: 2140 97be f162 a83e c939 013f 26ed 173d
00000030: ee26 22bf c142 d23e cafc 263e 449e 963d

weight f4 [8, 16]
0.13337544 -0.3793355 0.3877625 -0.1280509 0.2339801 -0.18574128 -0.059955675 0.18410514
-0.19081809 0.36143306 -0.063494965 -0.4134874 -0.013115129 0.4160102 0.28971717 -0.13651162
-0.02963959 0.16203664 -0.067664996 0.35840124 0.36209187 0.018369887 0.1748196 0.30904037
-0.21676959 -0.19092678 -0.10498847 0.21540184 -0.19931501 0.008215289 -0.34855038 0.023834702
-0.07141309 0.4380457 0.06923605 -0.011975788 0.026112406 -0.18555501 0.25909007 -0.13312747
-0.06812786 -0.27487993 0.63677055 0.09874384 0.16979404 0.21673012 0.26744774 0.37162152
0.3812734 -0.29445556 0.2550673 -0.48017624 -0.086603016 -0.28163734 -0.41422412 0.06809958
0.6845251 0.02120946 -0.28408176 -0.04530297 -0.13388097 -0.031706836 0.44304308 0.117835484
0.27900496 -0.3847161 -0.26569042 -0.15563655 0.13276628 0.09320398 -0.7509558 0.009903519
-0.2621194 -0.30651492 -0.33083397 -0.36842945 -0.03221687 -0.09973576 -0.12757368 -0.19884986
0.08527496 -0.04373207 0.12572853 -0.03426126 0.2639041 -0.19389178 0.15132372 0.17360504
-0.117045335 -0.19833946 0.33122832 -0.06873955 0.13329032 -0.11566859 0.059289686 -0.16217922
0.66510105 -0.06881895 0.08691798 0.04902739 -0.28631118 -0.10888386 0.18815473 -0.21048667
0.09329908 0.1375259 0.022551745 -0.31512284 -0.13981886 -0.10607266 0.2466158 -0.12185775
0.15313385 0.11908648 0.0040806117 -0.13128631 0.38935053 0.13789997 0.0996892 0.09271576
0.07595349 -0.17686953 -0.096997246 0.009242612 0.023806505 0.0005067051 0.2998301 0.12849067
00000000: 9293 083e 4338 c2be ce88 c63e c61f 03be
00000010: 7b98 6f3e f632 3ebe 1594 75bd 0f86 3c3e
00000020: d165 43be c10d b93e a609 82bd 9fb4 d3be
00000030: d7e0 56bc 4aff d43e cf55 943e b4c9 0bbe
00000040: bace f2bc efec 253e f293 8abd 5e80 b73e
00000050: 1b64 b93e 727c 963c e903 333e 8a3a 9e3e
00000060: d9f8 5dbe 4f82 43be 3204 d7bd 4d92 5c3e
00000070: 3c19 4cbe 6b99 063c 3275 b2be fe40 c33c
00000080: 0741 92bd 8747 e03e a1cb 8d3d 1836 44bc
00000090: afe9 d53c 2202 3ebe 74a7 843e 9152 08be
000000a0: 9f86 8bbd 10bd 8cbe 6503 233f 363a ca3d
000000b0: 7dde 2d3e 80ee 5d3e e9ee 883e 2d45 be3e
000000c0: 4436 c33e e1c2 96be 2e98 823e a9d9 f5be
000000d0: ec5c b1bd c532 90be 2f15 d4be cb77 8b3d
000000e0: 093d 2f3f 76bf ad3c 2a73 91be 9b8f 39bd
000000f0: 1818 09be 07df 01bd 8bd6 e23e bb53 f13d
00000100: bdd9 8e3e 82f9 c4be 9308 88be 305f 1fbe
00000110: e2f3 073e bae1 be3d a43e 40bf 5f42 223c
00000120: 8434 86be 86ef 9cbe 1263 a9be c9a2 bcbe
00000130: d6f5 03bd 4342 ccbd ada2 02be 4c9f 4bbe
00000140: a3a4 ae3d 6620 33bd fbbe 003e 8955 0cbd
00000150: 701e 873e 918b 46be 9bf4 1a3e 85c5 313e
00000160: 77b5 efbd 8019 4bbe c296 a93e 52c7 8cbd
00000170: 427d 083e a7e3 ecbd bed9 723d 4f12 26be
00000180: 1044 2a3f f3f0 8cbd 0e02 b23d f2d0 483d
00000190: 6197 92be 80fe debd a2ab 403e d189 57be
000001a0: 9713 bf3d 97d3 0c3e 70be b83c c857 a1be
000001b0: ad2c 0fbe 9f3c d9bd da88 7c3e 8e90 f9bd
000001c0: 1fcf 1c3e 9de3 f33d a7b6 853b eb6f 06be
000001d0: f458 c73e a635 0d3e da29 cc3d c3e1 bd3d
000001e0: 818d 9b3d 491d 35be 7ea6 c6bd 536e 173c
000001f0: dc05 c33c 67d4 043a 5583 993e 0f93 033e

bias f4 [8]
-0.41523057 0.3202077 0.16320823 -0.055199992 -0.29506204 0.119281426 0.21504177 0.120441094
00000000: 1a99 d4be 43f2 a33e 0f20 273e 6319 62bd
00000010: 5f12 97be d249 f43d e933 5c3e d2a9 f63d

weight f4 [16, 8]
-0.030933788 0.23902063 -0.34153357 -0.0073681623 -1.2492306 0.26774037 -0.08641556 -0.30355483
-0.14681579 0.36878708 -0.10524927 -0.12774292 -1.05151 0.28011942 0.13643296 -0.22903371
0.24001244 -0.19627988 -0.37672126 0.5086725 1.9365575 -0.33138663 -0.51738906 -0.5949033
0.037443668 -0.04335478 -0.14960644 -0.017549537 -1.2068135 0.31427982 -0.14492567 0.31549105
-0.45645207 0.0020571467 -0.4087791 -0.12410983 -0.39734936 0.30686423 -0.3343188 -0.11383478
-0.5929824 -0.5560034 -0.4679081 -0.3989806 -0.9248224 -0.40750173 -0.14777327 -0.5053567
0.059586465 -0.15224528 0.2669253 0.07696998 0.37166545 0.1384277 -0.07681874 -0.09882513
0.80401176 0.109467834 -0.17019455 -0.31432885 -0.36597025 -0.19599731 0.036031242 0.006071944
0.21135496 -0.27075586 -0.12780617 -0.38003436 -0.35549602 0.033250052 0.13168895 0.17837141
-0.04564169 -0.09459265 0.21384534 -0.040181823 -0.0016185422 0.09630059 -0.17735983 0.091897465
0.22524306 -0.5106641 -0.7829837 -0.33185437 -0.009638447 -0.3633934 -0.33306122 -0.42934972
0.0056951307 0.16394536 -0.671173 0.6815356 -0.24073282 -0.26610175 -0.54725486 -0.4332196
0.103705704 0.04452328 -0.15408795 -0.025674399 -0.60437804 -0.24214698 0.13744265 -0.34355536
-0.41637322 0.3744821 0.33781853 0.40730107 -0.6169139 -0.20035009 -0.3275019 -0.25763652
0.37418616 0.050602507 0.045579087 0.3064839 0.43281525 -0.52424175 -0.38000265 -0.3427031
-0.1687324 0.13146107 -0.04825609 0.32166794 -0.42297563 0.22563292 -0.24999811 -0.5030207
00000000: db68 fdbc d3c1 743e 7ddd aebe a070 f1bb
00000010: cae6 9fbf 4415 893e a4fa b0bd 8a6b 9bbe
00000020: e156 16be a9d1 bc3e ee8c d7bd 0acf 02be
00000030: e197 86bf d06b 8f3e 15b5 0b3e d087 6abe
00000040: d2c5 753e 98fd 48be 9ce1 c0be 5c38 023f
00000050: 1ee1 f73f 82ab a9be 9c73 04bf 954b 18bf
00000060: 885e 193d c894 31bd 6e32 19be 0cc4 8fbc
00000070: dd78 9abf 49e9 a03e 6567 14be 0b88 a13e
00000080: 16b4 e9be 32d1 063b 7f4b d1be 4b2d febd
00000090: 6071 cbbe 4f1d 9d3e d52b abbe 3622 e9bd
000000a0: b2cd 17bf 3d56 0ebf a791 efbe 2f47 ccbe
000000b0: 29c1 6cbf 11a4 d0be e051 17be 0f5f 01bf
000000c0: f010 743d 30e6 1bbe 6faa 883e 70a2 9d3d
000000d0: ef4a be3e febf 0d3e 2553 9dbd d464 cabd
000000e0: b7d3 4d3f ac30 e03d 7b47 2ebe b6ef a0be
000000f0: 7460 bbbe 85b3 48be 7f95 133d 28f7 c63b
00000100: 6f6d 583e 83a0 8abe 9fdf 02be dd93 c2be
00000110: 9303 b6be 3531 083d 78d9 063e ffa6 363e
00000120: c8f2 3abd cbb9 c1bd 46fa 5a3e b295 24bd
00000130: 4425 d4ba 3e39 c53d d19d 35be bd34 bc3d
00000140: 1ea6 663e e2ba 02bf 9f71 48bf d1e8 a9be
00000150: 94ea 1dbc b30e babe 0087 aabe bad3 dbbe
00000160: 389e ba3b 4be1 273e fed1 2bbf 1e79 2e3f
00000170: aa82 76be 7d3e 88be e518 0cbf f6ce ddbe
00000180: a863 d43d 0b5e 363d 3bc9 1dbe 1e53 d2bc
00000190: 85b8 1abf 61f5 77be c4bd 0c3e 7de6 afbe
000001a0: df2e d5be 1ebc bf3e 8df6 ac3e c489 d03e
000001b0: 12ee 1dbf 9328 4dbe 54ae a7be efe8 83be
000001c0: 5495 bf3e 9344 4f3d 23b1 3a3d 75eb 9c3e
000001d0: f699 dd3e b534 06bf b58f c2be c876 afbe
000001e0: 30c8 2cbe bb9d 063e 2ea8 45bd a9b1 a43e
000001f0: 4390 d8be 510c 673e 81ff 7fbe f7c5 00bf

bias f4 [16]
0.32927257 0.11999208 0.19237746 0.01424714 0.6200808 -0.61980593 0.045681253 -0.49441952
0.3277612 0.25786138 -0.694211 -0.22489505 -0.5664851 0.1042026 -0.40139046 -0.1491144
00000000: 6a96 a83e 68be f53d 99fe 443e d66c 693c
00000010: 9ebd 1e3f 9aab 1ebf 441c 3b3d 8e24 fdbe
00000020: 51d0 a73e 6806 843e d0b7 31bf e34a 66be
00000030: 2b05 11bf 2c68 d53d 0d83 cdbe 72b1 18be

Aq_4 f4 [16, 16]
-2.225519 0.7097846 -2.0600743 -0.49613756 -2.61776 -1.3918062 0.43345782 0.2084787
-1.5009797 -0.06373524 1.0805048 -0.56507367 0.6284393 -0.06555109 -1.3329929 0.7605863
-0.61955065 0.9104524 0.3543219 1.9499533 -0.48331362 -2.052253 -1.478693 -1.1092745
-0.64698905 0.57625824 -0.94398093 0.6772436 0.8268866 0.032064803 0.12014326 -1.1000177
-1.416094 0.3833615 -1.9934653 -0.7166179 -0.7221108 -0.43060625 -1.449783 -0.1005508
0.24872985 -2.9886415 -1.1289308 -0.36456436 0.39670888 -4.7313957 -1.2024591 -1.8372163
-0.744414 0.031029608 -0.85953784 0.9553956 0.45587578 -0.9976954 0.28648743 -0.51079667
-0.75753796 -0.28792796 0.94537544 -0.2376504 -0.9309392 -0.46598467 0.22204243 -1.0046641
-0.6203264 -1.9112271 2.8359683 0.22511642 0.28675783 -0.5617855 -1.8594689 0.40790275
1.4151583 -0.9929175 2.0857875 0.85756534 2.107107 -2.0934057 -0.35786864 0.37536564
-3.251338 -0.9525249 -0.9735807 -0.6927457 0.056223102 -0.4141391 -1.4321206 -0.3526114
-0.49844855 -1.5804309 -1.2272269 -1.7460476 -0.78945524 -2.5180752 2.356394 2.8913116
-1.373908 -2.388646 -1.2607424 -1.6000348 -2.5320253 2.0354555 -1.2807294 -0.36497062
-1.0504184 -0.9072118 0.06581277 0.75684667 -1.61997 0.042360753 -0.3258589 -0.02191302
-0.9672624 -0.9893847 0.5691902 -1.0194522 -1.2306412 1.1226854 -2.2533536 -1.2802886
-1.946745 -0.2229627 -0.315441 0.8128996 0.1608002 -1.1777345 -1.4341519 -2.0298588
-0.509042 0.6711384 -3.0203967 1.807324 0.8622136 2.4076989 0.56168723 0.44746962
-0.4101558 0.5543141 0.17829964 0.5474578 -0.8621981 -0.15972447 0.3464079 -0.1044981
-1.7793332 -0.6545795 0.6088813 1.2866455 1.334332 -0.36315757 1.7952858 0.25196624
-0.29860377 -0.23460253 0.11027723 -0.9199011 -1.6555188 0.8183156 -0.85022 0.3365172
0.6161971 2.0028107 -2.9617856 0.51058054 -1.4408447 -1.1959541 -2.305561 -0.84847265
-2.5395331 -0.76114666 0.890599 -0.5117179 0.78899574 2.236138 -1.7665306 -3.6312594
-3.4783978 -1.8693435 -2.0676575 -1.3770612 0.6875241 1.6264975 0.9369085 -0.04768922
-0.7320513 -2.2792175 -0.12143472 0.031067582 1.046145 -1.012464 -1.2115026 2.0408983
0.25416014 -0.6345847 0.70081455 1.2600533 0.6711323 -0.6341792 -0.2960965 -1.3906742
-4.320365 -0.8257524 2.781354 -1.2940184 -0.35971886 3.2031007 -0.90094405 -1.4049941
-0.7599345 -0.3546938 0.18732452 -0.6909921 -0.24156792 0.114810295 1.4288085 -1.1848035
0.79372627 -0.47479653 0.4705557 -0.1628002 0.87091637 -1.9547026 1.5315685 -0.25047633
0.36061937 -2.2307212 -1.2338125 -0.7510098 1.6415915 1.2017013 0.3082936 0.36159486
0.7472184 0.61068934 -3.0463831 0.13585226 -2.5284717 -5.8137918 0.5771494 -0.56151134
-2.5445998 -0.15587899 1.3947426 0.109703176 0.8278309 0.5808035 -1.1899015 -0.37315196
-1.4671309 -0.181572 0.52275616 -1.2374332 -0.9266396 0.20841864 -0.13934347 -0.844767
00000000: e76e 0ec0 72b4 353f 42d8 03c0 be05 febe
00000010: 6189 27c0 b526 b2bf 2fee dd3e 717b 553e
00000020: 1a20 c0bf 9f87 82bd fb4d 8a3f aba8 10bf
00000030: 66e1 203f a63f 86bd 839f aabf c9b5 423f
00000040: df9a 1ebf 6913 693f ae69 b53e 1298 f93f
00000050: e274 f7be 1d58 03c0 d045 bdbf b5fc 8dbf
00000060: 13a1 25bf a985 133f bca8 71bf d65f 2d3f
00000070: d7ae 533f 6256 033d ab0d f63d 61cd 8cbf
00000080: 9142 b5bf f547 c43e df29 ffbf 4574 37bf
00000090: 41dc 38bf 6c78 dcbe 7d92 b9bf 94ed cdbd
000000a0: 0ab3 7e3e e745 3fc0 ce80 90bf 2ea8 babe
000000b0: 6d1d cb3e 9867 97c0 2eea 99bf e729 ebbf
000000c0: ea91 3ebf ce31 fe3c ac0a 5cbf ce94 743f
000000d0: 8d68 e93e f768 7fbf 7bae 923e 92c3 02bf
000000e0: 02ee 41bf 4b6b 93be 2004 723f a05a 73be
000000f0: 0852 6ebf 8b95 eebe 175f 633e d598 80bf
00000100: b6cd 1ebf 17a3 f4bf 8180 3540 eb84 663e
00000110: ecd1 923e 2dd1 0fbf 1403 eebf a1d8 d03e
00000120: e823 b53f d72f 7ebf 8b7d 0540 6789 5b3f
00000130: d7da 0640 5cfa 05c0 8f3a b7be ed2f c03e
00000140: ec15 50c0 acd8 73bf 963c 79bf c857 31bf
00000150: 324a 663d 0a0a d4be ba4f b7bf 7b89 b4be
00000160: a634 ffbe 8f4b cabf c515 9dbf 7d7e dfbf
00000170: bd19 4abf 2528 21c0 29cf 1640 400b 3940
00000180: 38dc afbf 93df 18c0 0260 a1bf f1cd ccbf
00000190: b40c 22c0 e744 0240 f1ee a3bf 6edd babe
000001a0: 1c74 86bf 083f 68bf d8c8 863d b4c0 413f
000001b0: 2d5b cfbf 7882 2d3d fad6 a6be ef82 b3bc
000001c0: 829e 77bf 5148 7dbf 73b6 113f 697d 82bf
000001d0: a785 9dbf 28b4 8f3f f236 10c0 7fe0 a3bf
000001e0: f12e f9bf 5650 64be 7c81 a1be 301a 503f
000001f0: cfa8 243e 01c0 96bf 4a92 b7bf 35e9 01c0
00000200: 9450 02bf bacf 2b3f 2e4e 41c0 6556 e73f
00000210: 08ba 5c3f bd17 1a40 bcca 0f3f bd1a e53e
00000220: f1ff d1be 87e7 0d3f 2e94 363e 3226 0c3f
00000230: 04b9 5cbf d08e 23be 605c b13e 1a03 d6bd
00000240: 31c1 e3bf 8692 27bf a5df 1b3f cdb0 a43f
00000250: 64cb aa3f caef b9be edcb e53f b801 813e
00000260: 98e2 98be a53b 70be 07d9 e13d a37e 6bbf
00000270: 0ae8 d3bf 227d 513f 05a8 59bf fc4b ac3e
00000280: 18bf 1d3f 0d2e 0040 e58d 3dc0 68b5 023f
00000290: 996d b8bf 0615 99bf 508e 13c0 8135 59bf
000002a0: b687 22c0 82da 42bf 4cfe 633f f2ff 02bf
000002b0: a0fb 493f e31c 0f40 ad1d e2bf 8e66 68c0
000002c0: 129e 5ec0 a646 efbf 8054 04c0 8b43 b0bf
000002d0: 9401 303f 1231 d03f 3cd9 6f3f c655 43bd
000002e0: b767 3bbf b3de 11c0 c4b2 f8bd 7181 fe3c
000002f0: 14e8 853f 6c98 81bf 8412 9bbf 149e 0240
00000300: 4721 823e 2574 22bf 9568 333f 6d49 a13f
00000310: 54cf 2b3f 9159 22bf f699 97be 9d01 b2bf
00000320: 6e40 8ac0 8264 53bf b401 3240 65a2 a5bf
00000330: 122d b8be 9aff 4c40 45a4 66bf d9d6 b3bf
00000340: 118b 42bf 6d9a b5be 00d2 3f3e dce4 30bf
00000350: 955d 77be a921 eb3d 32e3 b63f a4a7 97bf
00000360: a531 4b3f 8818 f3be adec f03e 18b5 26be
00000370: 60f4 5e3f b233 fabf 700a c43f 6f3e 80be
00000380: 1aa3 b83e 23c4 0ec0 91ed 9dbf 2e42 40bf
00000390: ac1f d23f 59d1 993f a9d8 9d3e f622 b93e
000003a0: b449 3f3f 2356 1c3f f1f7 42c0 db1c 0b3e
000003b0: 7bd2 21c0 950a bac0 10c0 133f 35bf 0fbf
000003c0: b9da 22c0 be9e 1fbe ed86 b23f 0fac e03d
000003d0: baec 533f 8aaf 143f b14e 98bf c60d bfbe
000003e0: f2ca bbbf 03ee 39be 59d3 053f 3664 9ebf
000003f0: 4138 6dbf b26b 553e 0eb0 0ebe a642 58bf

Ak_4 f4 [16, 16]
0.99588996 -0.7288284 1.4936731 -0.15789872 0.7091563 -0.8714548 -1.5202099 1.2020699
-0.7962986 -1.4974623 1.6635399 1.1210977 -0.7635073 -0.6198696 0.16402964 0.47376636
1.1848738 -0.035437718 0.2593584 1.2264409 0.88020146 0.2309953 -2.1369712 -0.22678581
0.9479911 -0.33348534 3.243071 0.86929137 -2.6386745 -0.41863337 -1.0996081 -1.667979
1.7256657 -1.1049222 -1.9165127 -1.5934765 -0.16474257 1.40724 0.7764402 0.0013372541
0.70075166 1.675545 0.25951073 0.35197625 -0.7984987 -1.2783451 -0.9949051 1.2057153
-0.97060865 -1.5467114 2.8146005 1.4423742 1.4647766 1.5573132 1.8253868 -1.8047285
-2.9083505 0.04668049 2.4176428 0.28411883 -0.1483463 -0.29277593 -1.2738317 0.77915317
0.5860424 0.8723434 2.0631163 -3.9776177 -1.6757122 -1.5031201 2.7359195 0.33007777
-2.1046808 0.40204045 -3.7082906 -0.47680908 -4.029733 -1.9612174 -0.060183927 -5.87732
0.23037139 -1.3580687 1.0985126 1.3671752 -0.11216982 -2.0949204 -2.9841223 -2.2768254
-1.1614792 -2.2637136 -0.23955922 -0.98607266 -3.8563728 -1.7594097 -1.7787441 1.0592604
-2.3086576 -1.4453746 0.7812914 0.7866923 0.55164033 1.6500616 -0.13784306 1.746054
0.82112634 -0.67381996 1.2344402 -1.4747796 0.4666496 0.65779895 -0.76313835 0.15843198
-0.0855331 -2.0128632 2.4367988 -0.7527302 0.90306383 2.3135655 0.7251216 -0.16301756
0.13929962 -1.3919317 2.4573944 -0.96830344 -0.7598946 1.4261191 -0.29133213 0.21258676
-3.5058014 0.05803502 -0.48896363 -0.62468904 -3.670264 1.3329027 2.018009 1.5642349
-3.5802057 0.2917886 -0.16583118 0.12664269 0.41756403 -2.6554403 0.78695107 0.3472282
-0.14625761 -2.5206652 1.646236 -0.14186256 -1.1923416 -1.1740414 -0.39479724 1.5700002
-1.6881034 -0.047350027 -1.4251475 -0.03472965 0.75823843 0.14785 -1.0544451 -1.9359568
0.9888626 -1.8982229 0.05655451 0.15968102 0.14634113 1.7053201 0.7478517 0.9135088
-2.4965928 -1.3229244 0.68083614 -1.4280542 0.043917075 -2.5362155 0.22455442 -0.3191685
1.4272243 -2.8918102 -0.63785666 0.92339414 0.16282742 -1.0390109 -0.2853895 -0.5234489
0.5168364 0.2804579 -0.27985469 0.69770384 -0.033217587 -0.73383236 -0.6538412 -0.11606032
-0.51434106 -1.5312774 1.1028755 -1.271786 -0.1810254 0.5891357 0.5675597 0.028541626
-0.6876647 -1.5865602 0.043119498 -2.1915102 1.2912292 -1.4736547 0.18641047 -2.8122206
-5.6924205 -1.524487 -0.12860389 -4.670449 -1.5221418 1.136621 1.4305395 -0.255575
-7.1742263 -0.45832983 0.7175261 -0.85462624 1.7452295 -1.8876812 -3.2904012 -1.2543663
0.026849985 -0.68486947 -0.8007589 0.37503082 0.88718456 -0.040273808 -0.4901966 0.43726897
0.53447837 -0.29597417 0.6950077 0.56184965 -0.52819157 -0.6066676 -1.121497 -0.5712872
0.24027103 -0.7778892 0.5281702 -0.45402125 -1.4648658 -0.7643114 0.83835775 0.96532005
-1.1490924 -0.13188002 0.49717054 -0.04544215 1.4673432 -0.41168684 -0.76591945 -0.12474307
00000000: a5f2 7e3f 7f94 3abf ae30 bf3f 34b0 21be
00000010: 448b 353f a917 5fbf 3d96 c2bf 6ddd 993f
00000020: 3ada 4bbf d8ac bfbf e0ee d43f 2180 8f3f
00000030: 3775 43bf c6af 1ebf 63f7 273e 8191 f23e
00000040: f2a9 973f 2427 11bd a0ca 843e 04fc 9c3f
00000050: e254 613f 088a 6c3e 23c4 08c0 8a3a 68be
00000060: 8baf 723f 97be aabe 7a8e 4f40 e189 5e3f
00000070: 0be0 28c0 1d57 d6be f5bf 8cbf 5680 d5bf
00000080: 9de2 dc3f 176e 8dbf 4a50 f5bf 0af7 cbbf
00000090: 47b2 28be 7120 b43f c9c4 463f cd46 af3a
000000a0: 7664 333f 4278 d63f 97de 843e 3b36 b43e
000000b0: 696a 4cbf d0a0 a3bf 1ab2 7ebf e154 9a3f
000000c0: cf79 78bf a4fa c5bf 6a22 3440 b89f b83f
000000d0: cd7d bb3f 0a56 c73f 46a6 e93f 5801 e7bf
000000e0: 6a22 3ac0 0b34 3f3d a9ba 1a40 0678 913e
000000f0: 18e8 17be bae6 95be eb0c a3bf 9576 473f
00000100: e006 163f e651 5f3f 190a 0440 4a91 7ec0
00000110: bd7d d6bf 3d66 c0bf 4e19 2f40 f4ff a83e
00000120: 17b3 06c0 3fd8 cd3e a254 6dc0 5220 f4be
00000130: 93f3 80c0 2c09 fbbf 6c83 76bd 0113 bcc0
00000140: 7ae6 6b3e 32d5 adbf 109c 8c3f 99ff ae3f
00000150: 4ab9 e5bd 2d13 06c0 dcfb 3ec0 82b7 11c0
00000160: 5aab 94bf afe0 10c0 034f 75be 426f 7cbf
00000170: d0ce 76c0 5634 e1bf e3ad e3bf d895 873f
00000180: 0cc1 13c0 0902 b9bf b702 483f ab64 493f
00000190: 4d38 0d3f 3835 d33f bb26 0dbe b37e df3f
000001a0: 5635 523f 777f 2cbf 2302 9e3f 94c5 bcbf
000001b0: b2ec ee3e 8365 283f 095d 43bf fe3b 223e
000001c0: fa2b afbd c0d2 00c0 83f4 1b40 edb2 40bf
000001d0: 312f 673f 7511 1440 92a1 393f 13ee 26be
000001e0: 8fa4 0e3e d12a b2bf f345 1d40 bce2 77bf
000001f0: 7488 42bf 128b b63f 7c29 95be 58b0 593e
00000200: 0d5f 60c0 21b6 6d3d 7159 fabe 9feb 1fbf
00000210: 9be5 6ac0 8e9c aa3f 0f27 0140 d938 c83f
00000220: 1722 65c0 5165 953e a6cf 29be 9fae 013e
00000230: f4ca d53e bcf2 29c0 a075 493f e5c7 b13e
00000240: 8ec4 15be 9452 21c0 dcb7 d23f 6b44 11be
00000250: a69e 98bf fd46 96bf dd22 cabe c4f5 c83f
00000260: c613 d8bf 1af2 41bd 3c6b b6bf ad40 0ebd
00000270: ea1b 423f fe65 173e 0ff8 86bf 6fcd f7bf
00000280: 1926 7d3f f8f8 f2bf b4a5 673d 6c83 233e
00000290: 73da 153e ee47 da3f 3673 3f3f b6db 693f
000002a0: 2dc8 1fc0 9655 a9bf 474b 2e3f 7bca b6bf
000002b0: 64e2 333d 5b51 22c0 98f1 653e 0e6a a3be
000002c0: 49af b63f 6b13 39c0 934a 23bf 8f63 6c3f
000002d0: 3bbc 263e 4ffe 84bf 931e 92be bf00 06bf
000002e0: 644f 043f 2e98 8f3e 1d49 8fbe b89c 323f
000002f0: 2a0f 08bd 70dc 3bbf 2362 27bf 08b1 edbd
00000300: dbab 03bf e600 c4bf 062b 8d3f e2c9 a2bf
00000310: b95e 39be 99d1 163f 984b 113f 21d0 e93c
00000320: cb0a 30bf 6814 cbbf 129e 303d b441 0cc0
00000330: 0047 a53f b8a0 bcbf 63e2 3e3e 6cfb 33c0
00000340: 4f28 b6c0 6422 c3bf bdb0 03be 5174 95c0
00000350: 8bd5 c2bf cc7c 913f eb1b b73f bada 82be
00000360: 4393 e5c0 35aa eabe caaf 373f c9c8 5abf
00000370: ae63 df3f 8a9f f1bf ef95 52c0 138f a0bf
00000380: 80f4 db3c 9b53 2fbf 89fe 4cbf 0a04 c03e
00000390: 871e 633f 26f6 24bd 0cfb fabe b8e1 df3e
000003a0: 93d3 083f ed89 97be 06ec 313f 61d5 0f3f
000003b0: 9037 07bf 914e 1bbf 378d 8fbf e13f 12bf
000003c0: 9c09 763e bf23 47bf 2a36 073f 7975 e8be
000003d0: b980 bbbf e9a9 43bf 9d9e 563f 371f 773f
000003e0: 7615 93bf 8e0b 07be 238d fe3e 8c21 3abd
000003f0: e7d1 bb3f 9ec8 d2be 4c13 44bf 4b79 ffbd
