data/q_value_target_net_1_food_collection_1190000_GSA.pth (torch, 163113 bytes, 7 tensors)

weight f4 [192, 96]
0	0xbe98d388	-0.29848886
1	0x3e411054	0.18853885
2	0x3d8c5843	0.06852772
3	0x3eb8eb40	0.36116982
4	0x3dd0dd05	0.10198406
5	0xbe062a5e	-0.131021
6	0xbc4cc494	-0.01249804
7	0xbd373d83	-0.044736397
8	0xbcef091f	-0.029179154
9	0xbdc76b90	-0.09737313
10	0xbf4bab4e	-0.79558265
11	0xbe519045	-0.2046519
12	0x3d62c3d4	0.055362538
13	0xbd86effc	-0.06588742
14	0x3d5866dd	0.052832473
15	0xbd746518	-0.059666723
16	0x3eca9ec7	0.39574262
17	0x3cdad16f	0.026711194
18	0x3d4c220f	0.04983717
19	0x3d232c33	0.039837074
20	0x3c7c3ac4	0.01539487
21	0xbe06a59a	-0.1314911
22	0x3e31d328	0.17365706
23	0x3e92474f	0.2857003
24	0x3f536821	0.82580763
25	0xbe18c239	-0.1491784
26	0xbcfc771b	-0.030818513
27	0xbd2071fa	-0.039171197
28	0xbd963187	-0.07333665
29	0xbc60dcd0	-0.013724521
30	0xbd87dc47	-0.066338114
31	0x3cedafb3	0.029014444
32	0xbf5fc912	-0.87416184
33	0x3b8c7587	0.0042864713
34	0xbe11deec	-0.14245194
35	0x3cd70916	0.02624945
36	0xbdc2aabf	-0.095052235
37	0x3dd0852b	0.1018165
38	0xbecc4d07	-0.39902517
39	0xbd7f0b99	-0.06226692
40	0xbee60fbb	-0.44933876
41	0xbd7bf912	-0.06151683
42	0xbebb5ac7	-0.36592695
43	0xbe00a90f	-0.1256449
44	0xbe85df8c	-0.26147115
45	0x3df45936	0.11931078
46	0xbde0ef47	-0.109831385
47	0x3d6fbea6	0.058531426
48	0x3e1bec57	0.15226875
49	0xba032324	-0.000500249
50	0x3d5fadbf	0.054609057
51	0x3d8dab61	0.069174536
52	0xbd8b7ff0	-0.068115115
53	0x3d1cd30e	0.038287215
54	0xbf40add7	-0.7526526
55	0xbd162719	-0.03665838
56	0x3e1929b8	0.1495732
57	0x3c922ae2	0.017842714
58	0xbb796422	-0.0038054069
59	0x3d52ea73	0.05149312
60	0x3defcdc2	0.11709167
61	0xbb851e0b	-0.0040624193
62	0x3ea0958d	0.31364098
63	0xbd17bf78	-0.037047833
64	0xbd2fdef9	-0.042937253
65	0xbe214ed0	-0.15752721
66	0xbebbe63d	-0.36699095
67	0x3d7af365	0.061267275
68	0xbe6283d7	-0.22120605
69	0xbea336c2	-0.31877714
70	0x3c483ef4	0.01222204
71	0xbd93e519	-0.07221431
72	0x3d26690d	0.040627528
73	0xbd7610dd	-0.060074676
74	0x3dd875cc	0.10569343
75	0x3bb50841	0.0055246656
76	0xbf3d220b	-0.7388007
77	0xbd92ac89	-0.07161815
78	0x3dfaa61f	0.12238716
79	0xbdd313ac	-0.103064865
80	0x3d0715a3	0.03297962
81	0x3cf54faf	0.029945223
82	0x3e17665a	0.14785138
83	0x3dc06b97	0.09395521
84	0x3eb0afdb	0.34509167
85	0x3e09343b	0.1339883
86	0x3d744c45	0.05964305
87	0x3e117f6e	0.14208767
88	0xbc0fd1f0	-0.00877808
89	0x3db3cb7b	0.08779045
90	0x3e203096	0.15643534
91	0xbd06576c	-0.032798216
92	0xbcc76bb6	-0.024343353
93	0x3c9928b5	0.018696168
94	0xbd55e160	-0.052216887
95	0xbce49af1	-0.027905913
96	0xbf108743	-0.56456393
97	0x3effe68f	0.4998059
98	0xbecadaa7	-0.39619943
99	0x3eb8a46f	0.36062953
100	0x3e11a4db	0.14223044
101	0x3b8a9d7a	0.0042301985
102	0x3d36489a	0.044502832
103	0x3cdc0ebd	0.026862497
104	0x3e33c0f9	0.17554082
105	0xbd934a2d	-0.07191882
106	0x3deec992	0.1165954
107	0x3ce37455	0.027765432
108	0x3dc4892c	0.09596476
109	0x3d5e5a5d	0.054285396
110	0x3e10f33a	0.14155284
111	0xbd6607f6	-0.056159936
112	0x3ee02209	0.43775967
113	0x3ede6537	0.43436596
114	0x3eb5411f	0.35401246
115	0xbf06c566	-0.52644956
116	0x3e350180	0.17676353
117	0xbe5f68cd	-0.21817322
118	0x3e373450	0.1789105
119	0x3f6da55f	0.9283046
120	0x3f40714d	0.75172883
121	0x3f9cfc62	1.2264521
122	0xbd5f8778	-0.054572552
123	0xbe809bbd	-0.2511882
124	0xbe0f1ece	-0.13976595
125	0xbe4ec1ce	-0.20191118
126	0xbdad8db2	-0.08474292
127	0xbe51b669	-0.2047974
128	0xbe5abdcf	-0.21361469
129	0xbe2d474c	-0.16921729
130	0xbe2e570a	-0.1702539
131	0xbe7ac8d2	-0.2449067
132	0xbe4df12e	-0.20111534
133	0xbe61aec2	-0.22039321
134	0xbedfc496	-0.4370467
135	0xbeaf4871	-0.34234956
136	0xbe2ed95b	-0.17075102
137	0xbf632c55	-0.8873952
138	0xbecc9720	-0.3995905
139	0xbf182273	-0.59427565
140	0x3dbd5073	0.0924386
141	0x3cdcb540	0.026941895
142	0x3f6c208c	0.9223716
143	0xbe93ddd2	-0.28880173
144	0xbd917708	-0.071027815
145	0x3ea47ce8	0.32126546
146	0xbdf521a4	-0.11969307
147	0x3e17103e	0.1475229
148	0xbc4f704d	-0.012661052
149	0x3e98e3cc	0.29861295
150	0x3d7683d7	0.060184326
151	0x3e9db556	0.3080241
152	0xba7b4c00	-0.0009586215
153	0x3e8c5fa6	0.27416724
154	0xbd130ce9	-0.035900984
155	0x3e4daabc	0.20084661
156	0xbee962ec	-0.45583284
157	0x3f00abba	0.50262034
158	0x3daa3361	0.08310581
159	0x3f57c830	0.84289837
160	0xbe556469	-0.20839085
161	0x3e17ca86	0.1482335
162	0xbe95dc62	-0.292697
163	0x3e57c02b	0.210694
164	0x3f0b1c99	0.5434051
165	0x3f4e5565	0.8059905
166	0x3d5e60f5	0.054291684
167	0x3cfb8c2f	0.030706493
168	0xbd4b0d21	-0.049573068
169	0x3daa6e02	0.083217636
170	0x3b5a84e0	0.003334336
171	0x3d798ad0	0.060923398
172	0x3dc74677	0.09730237
173	0x3c1d82a3	0.009613666
174	0xbbf0b53a	-0.0073458226
175	0x3d9c4bd3	0.0763165
176	0x3e18e106	0.1492959
177	0x3d0c77d7	0.034293976
178	0xbe31ab14	-0.17350417
179	0x3e4d65c2	0.20058349
180	0x3e9f8579	0.3115652
181	0x3f1d4ff3	0.6145012
182	0x3eb60042	0.35547072
183	0xbe3dc4dd	-0.18532129
184	0xbdbab4aa	-0.0911649
185	0x3dc78b7b	0.09743401
186	0x3e104b61	0.14091255
187	0x3e7117d6	0.23544249
188	0x3d08d050	0.033401787
189	0xbd0cfede	-0.034422748
190	0x3e112b45	0.14176662
191	0x3c5aa9ce	0.013346149
192	0xbf3b5806	-0.7318119
193	0xbef794a5	-0.48355594
194	0xbf9b4462	-1.2130244
195	0xbfa19af2	-1.262541
196	0x3cf24c89	0.02957751
197	0x3d7f82a6	0.062380455
198	0xbe02e972	-0.12784365
199	0x3e65e503	0.22450642
200	0xbd0234b6	-0.03178855
201	0x3e037bba	0.12840167
202	0x3ceaab58	0.028646156
203	0x3e23d626	0.1599966
204	0x3d0667f5	0.032813985
205	0x3e97227b	0.29518494
206	0xb8eda1d4	-0.000113311835
207	0x3e675d62	0.22594216
208	0xbe1ddd32	-0.1541641
209	0x3e720c10	0.23637414
210	0xbd95381c	-0.07286093
211	0x3e9f888a	0.3115886
212	0x3d378918	0.044808477
213	0x3f0d1ef6	0.5512537
214	0xbf3ea4ee	-0.7447041
215	0xbe94ee4a	-0.2908805
216	0x3e7cb5d6	0.2467874
217	0x3f2e6874	0.6812813
218	0xbd109948	-0.03530243
219	0xbbb95d98	-0.005656909
220	0xbe056b35	-0.13029177
221	0xbe0ef4bc	-0.13960546
222	0xbd72b734	-0.059256747
223	0x3caf2660	0.021380603
224	0xbdf4cf42	-0.11953594
225	0xbda3b512	-0.07993521
226	0xbdf4f65a	-0.1196105
227	0xbde5e7cc	-0.11225852
228	0xbe1b14b0	-0.1514461
229	0x3a730e5f	0.0009271856
230	0x3db452d6	0.08804862
231	0xbea91c5e	-0.33029455
232	0x3c497d63	0.012297961
233	0x3e097307	0.13422786
234	0x3e7f1ef0	0.24914145
235	0x3f234e88	0.63791704
236	0xbf82290e	-1.0168779
237	0xbe989452	-0.2980066
238	0xbed7b3da	-0.42129403
239	0xbed91128	-0.42395902
240	0xbb48e713	-0.003065531
241	0x3d8615ce	0.06547128
242	0xbd13756d	-0.036000658
243	0x3e0528f0	0.13003898
244	0xbd6dfa49	-0.05810002
245	0xbd50cf0e	-0.050978713
246	0xba32881b	-0.00068104424
247	0x3d9a5617	0.075359516
248	0xbdfc177c	-0.12309167
249	0xbcc24dee	-0.0237188
250	0x3d4b1403	0.04957963
251	0x3d750a7e	0.05982446
252	0x3dc0b6f9	0.09409899
253	0xbeb32407	-0.34988424
254	0x3df288d2	0.11842503
255	0xbe41102b	-0.18853824

bias f4 [192]
0	0xbec4fa66	-0.3847229
1	0xbe8d74e3	-0.2762824
2	0x3f4e6a25	0.80630714
3	0xbeba731c	-0.36415946
4	0x3f680143	0.90626925
5	0x3de411d0	0.1113621
6	0xbe449a4e	-0.19199488
7	0xbe84b6a1	-0.25920585
8	0x3f046357	0.5171408
9	0x3e0fa77d	0.14028735
10	0xbf2b312d	-0.6687191
11	0x3e9453a3	0.2897006
12	0x3e79f068	0.24408114
13	0x3eb51526	0.35367697
14	0xbe01783f	-0.12643526
15	0x3e53f9a7	0.20700704
16	0x3ec7bc98	0.39011073
17	0x3f1cfcfd	0.6132353
18	0xbedf8559	-0.43656424
19	0x3e86bd71	0.26316407
20	0x3ef0f887	0.4706461
21	0xbefc166f	-0.49235865
22	0xbebb17d6	-0.36541623
23	0x3eb5d76c	0.35515916
24	0x3efa1958	0.4884746
25	0x3f004e4b	0.50119466
26	0x3f201549	0.6253248
27	0x3eb28228	0.34864926
28	0x3e96d404	0.2945863
29	0xbe813303	-0.2523423
30	0x3cff15a1	0.031138243
31	0x3d0cf1e7	0.034410384
32	0x3f3d4628	0.73935175
33	0x3c9893da	0.018625189
34	0xbe2d0d78	-0.16899669
35	0x3cd14985	0.025547752
36	0x3f18a5ca	0.59627974
37	0x3eedbe50	0.4643426
38	0x3e040470	0.12892318
39	0xbe852562	-0.26005083
40	0xbdcc093d	-0.099626996
41	0x3eecaee2	0.46227175
42	0x3e93036e	0.28713554
43	0x3e6230cf	0.22088932
44	0x3f3a992d	0.7288998
45	0x3f037d11	0.5136271
46	0x3e9339fb	0.28755173
47	0x3f0cea09	0.5504461
48	0x3e813459	0.2523525
49	0x3ebbf890	0.36713076
50	0xbe3ab452	-0.18232849
51	0x3f1b9190	0.60768986
52	0xbc5683d8	-0.013092957
53	0x3f258d10	0.6466837
54	0x3ec8f11d	0.39246455
55	0xbf38def0	-0.72215176
56	0x3ea9d791	0.33172277
57	0x3f0527e2	0.5201398
58	0xbf4aefbb	-0.7927205
59	0x3e8f31e4	0.2796775
60	0xbecaa682	-0.3958016
61	0x3e85715f	0.26063058
62	0x3c3935f1	0.011304365
63	0x3e4b4d1e	0.19853637
64	0x3f5738d1	0.8407107
65	0x3eeeb4be	0.4662227
66	0x3e33ed58	0.17571008
67	0x3e648787	0.22317325
68	0xbecc8ab8	-0.39949584
69	0x3f09f2ff	0.5388641
70	0x3f898473	1.0743545
71	0x3f05cf79	0.52269703
72	0x3e2f7428	0.17134154
73	0x3e832957	0.25617477
74	0x3e9e1f53	0.30883273
75	0xbe712828	-0.23550475
76	0x3ed5a7c5	0.4172956
77	0xbece14d8	-0.40250278
78	0xbeda77e2	-0.42669588
79	0xbe849efa	-0.2590254
80	0xbe03ad6d	-0.12859125
81	0x3eec2f15	0.4612967
82	0xbd141b54	-0.036158875
83	0x3f07df3b	0.53075
84	0xbef46c43	-0.47738847
85	0x3efba82c	0.49151742
86	0x3f21d675	0.6321786
87	0xbf0173b0	-0.5056715
88	0x3f352403	0.70758075
89	0x3f0e5dce	0.55611885
90	0x3f01ee45	0.50754195
91	0x3ec26ce6	0.37973708
92	0x3eacf5ce	0.33781284
93	0x3f48abb8	0.7838702
94	0x3f18b0df	0.59644884
95	0x3e2bc2ec	0.16773576
96	0xbe2410ba	-0.16022006
97	0x3fc19072	1.5122206
98	0xbdeab9e0	-0.11461234
99	0xbedf3743	-0.4359685
100	0x3dc537c8	0.0962978
101	0xbec62434	-0.38699496
102	0x3f961e36	1.172797
103	0xbe96f753	-0.29485568
104	0xbed75939	-0.4206026
105	0xbef78825	-0.48346058
106	0x3e9022bd	0.28151503
107	0x3db3404b	0.08752497
108	0xbe21779a	-0.1576828
109	0x3f0967aa	0.53673804
110	0x3e1efb07	0.15525447
111	0xbf086572	-0.53279793
112	0xbee38f41	-0.44445232
113	0xbe436c16	-0.190842
114	0xbea6f617	-0.32609627
115	0x3f800857	1.0002545
116	0x3f11f3c5	0.5701259
117	0xbe27fcf7	-0.16405092
118	0x3f0732ce	0.52811897
119	0x3f0a4a34	0.54019475
120	0xbe7b4ef5	-0.24541838
121	0x3f15e451	0.5855151
122	0x3ee75a44	0.45186055
123	0xbec0cae4	-0.37654793
124	0x3f036e0b	0.5133979
125	0x3e6200a6	0.2207056
126	0x3e8a4540	0.2700596
127	0x3eaac904	0.33356488
128	0x3e63c23e	0.22242066
129	0xbf8277e1	-1.0192834
130	0x3e8c051e	0.27347654
131	0xbecda4c8	-0.4016478
132	0x3d159143	0.036515485
133	0x3f89d38e	1.0767686
134	0xbeced361	-0.40395644
135	0x3ed4c94c	0.41559827
136	0xbeb7dbd9	-0.35909918
137	0xbf010a7a	-0.5040661
138	0xbec2f935	-0.38080755
139	0xbe0eff55	-0.13964589
140	0x3ea9f999	0.3319824
141	0x3f1b2a93	0.6061184
142	0x3f32aea5	0.69797736
143	0x3ecab3f3	0.39590415
144	0x3e97dcec	0.29660738
145	0xba94caf9	-0.0011351994
146	0xbf1e13c0	-0.61748886
147	0xbee8a4c8	-0.45438218
148	0x3ed2f6b3	0.41203842
149	0x3f1cfd18	0.6132369
150	0x3f2d0bd0	0.6759615
151	0xbf8caa32	-1.098944
152	0xbf72fd57	-0.94917816
153	0xbf3f4e5a	-0.7472893
154	0xbbf5f0fe	-0.007505535
155	0x3eec0a47	0.4610159
156	0x3f07d974	0.5306618
157	0x3ee85f42	0.45385176
158	0x3d078639	0.03308699
159	0xbd4fe94d	-0.050759602
160	0xbe8c84ed	-0.27445164
161	0xbe60e31a	-0.21961632
162	0x3edb208d	0.42798272
163	0x3ef82258	0.48463702
164	0x3e279178	0.16364086
165	0x3e38a7ee	0.1803281
166	0xbdf2fbc2	-0.11864425
167	0x3e06f2b7	0.13178526
168	0xbf58c355	-0.84673053
169	0x3ea23fdb	0.31689343
170	0x3f9dc0f4	1.232451
171	0x3d4d7bf4	0.05016704
172	0x3c2613cf	0.010136559
173	0x3f2cb2ef	0.6746053
174	0x3f203fce	0.6259736
175	0x3f05f2ae	0.52323425
176	0x3d83ec4c	0.064415544
177	0x3ddaa704	0.10676387
178	0x3f56daa1	0.8392735
179	0xbe1e8414	-0.15480071
180	0xbe22d75f	-0.1590247
181	0x3f39f181	0.7263413
182	0x3f3c2059	0.7348686
183	0x3e90d2d0	0.28285837
184	0x3f238a72	0.63883126
185	0xbf829d39	-1.020423
186	0x3ee4fdb4	0.4472481
187	0xbf6ca9d9	-0.92446667
188	0xbe86369d	-0.26213542
189	0x3ea89d1f	0.32932374
190	0xbeadec3c	-0.33969295
191	0xbf4ac9c3	-0.79214114

weight f4 [96, 192]
0	0x3eb0ff47	0.3456976
1	0x3e50bfa4	0.20385605
2	0x3e1e3274	0.15448934
3	0xbb875238	-0.0041296743
4	0x3e4cf65b	0.20015852
5	0x3e82a2e0	0.2551489
6	0x3dddc341	0.10828257
7	0x3e9a2897	0.30109093
8	0x3e7e1793	0.2481368
9	0x3dee7e91	0.116452344
10	0xbe901331	-0.28139642
11	0x3eaf8cb0	0.34287024
12	0x3ebbd85a	0.366885
13	0x3e9f8890	0.31158876
14	0x3df9f0c5	0.12204126
15	0x3e66b4ba	0.22529879
16	0x3e6572a3	0.22407012
17	0x3eb68e5d	0.3565549
18	0xbd51abd7	-0.05118927
19	0x3e74899e	0.23880622
20	0x3ecea841	0.40362743
21	0xbe60186c	-0.21884316
22	0x3d886706	0.06660275
23	0x3e81b0b0	0.25330114
24	0x3edafdbb	0.42771706
25	0x3ec0ce1b	0.37657246
26	0x3ea5df7b	0.32397065
27	0x3e8a8b6a	0.2705949
28	0x3ecda5af	0.4016547
29	0xbd83518d	-0.06412039
30	0x3db815a2	0.08988501
31	0x3e810f85	0.25207153
32	0x3eb065bc	0.34452617
33	0x3e584e89	0.21123709
34	0xbd95ad79	-0.07308478
35	0x3e663a26	0.2248312
36	0x3e836da6	0.25669593
37	0x3e909133	0.28235778
38	0x3ea1960e	0.31559795
39	0xbdd2ec8f	-0.10299026
40	0x3dd25c1b	0.10271474
41	0x3e548019	0.2075199
42	0x3edec745	0.43511406
43	0x3e5ce772	0.21572664
44	0x3e828696	0.25493306
45	0x3ea07536	0.31339425
46	0x3eb74524	0.35794938
47	0x3eb5578d	0.35418358
48	0x3ea0b53d	0.31388274
49	0x3da26fa1	0.07931448
50	0x3ddc9d49	0.10772187
51	0x3ed1648a	0.40897018
52	0x3e710e91	0.23540713
53	0x3ee97329	0.45595673
54	0x3edb6213	0.42848262
55	0xbf84acaa	-1.0365193
56	0x3e8c5d0d	0.27414742
57	0x3e12c01c	0.14331096
58	0xbc9e27e8	-0.019306138
59	0x3eb6e68a	0.35722762
60	0x3c59edbc	0.013301309
61	0x3e8f0326	0.2793209
62	0x3e8e9a20	0.27851963
63	0x3e45df9a	0.19323578
64	0x3eab7d1a	0.33493882
65	0x3e85bc24	0.26120102
66	0x3ec31922	0.38105112
67	0x3ec82be8	0.39095998
68	0xbbeed290	-0.0072882846
69	0x3e854ad0	0.2603364
70	0x3e3d5fa1	0.18493511
71	0x3eda702a	0.426637
72	0x3e8f5e7f	0.28001782
73	0x3ee45ec0	0.4460354
74	0x3ea0f004	0.31433117
75	0x3ea17853	0.31537113
76	0x3e84dcd3	0.25949726
77	0xbdc5d9f5	-0.09660713
78	0x3d248b55	0.04017194
79	0x3edb9152	0.42884308
80	0x3ddd4ae2	0.108052984
81	0x3e8ca78e	0.27471584
82	0x3cdb4b0e	0.026769187
83	0x3e17b947	0.14816771
84	0xbe18e5aa	-0.1493136
85	0x3e26f5dd	0.16304727
86	0x3eb0b0c8	0.34509873
87	0x3dcef26e	0.101048335
88	0x3ea75a36	0.32686013
89	0x3e74e83b	0.23916714
90	0x3e49c8b7	0.19705473
91	0x3e2bd4a7	0.16780339
92	0x3e382967	0.17984544
93	0x3e30b513	0.17256574
94	0x3ebbd0d8	0.36682773
95	0x3e35ae48	0.17742264
96	0x3e4a0809	0.19729628
97	0x3e91d804	0.2848512
98	0x3d157b1e	0.036494367
99	0xbbccae65	-0.0062463754
100	0x3e941d41	0.2892857
101	0xbdb5c0ac	-0.0887464
102	0x3e46b58c	0.19405192
103	0x3a5cf6f5	0.00084291334
104	0x3e019fbe	0.12658593
105	0xbdbbadaa	-0.09163983
106	0xbd773369	-0.060351763
107	0x3e278d6e	0.16362545
108	0x3ca926eb	0.02064844
109	0x3c9ff627	0.019526554
110	0x3e33e95e	0.17569491
111	0x3e0ce6be	0.13759896
112	0x3d8bf5a4	0.068339616
113	0x3dc0c4c6	0.094125316
114	0xbefa272f	-0.4885802
115	0x3bc64fc8	0.006051991
116	0x3e7541a0	0.23950815
117	0x3eb3d770	0.35125303
118	0x3e4aaf8e	0.19793531
119	0x3ecf51c3	0.40492067
120	0x3d824a32	0.06361808
121	0x3e9b8b95	0.3037993
122	0x3e9a676b	0.30157027
123	0x3e358130	0.17725062
124	0x3ee39373	0.44448432
125	0x3e4f7227	0.2025839
126	0x3e9aa447	0.3020346
127	0x3ec0b6f4	0.37639582
128	0x3ea8eba5	0.32992283
129	0xbf0158de	-0.50526226
130	0x3e1c27f5	0.15249617
131	0xbf20f78d	-0.6287773
132	0x3e08f78b	0.1337568
133	0x3ec21705	0.37908188
134	0x3e2db007	0.1696168
135	0x3e8dff27	0.27733728
136	0x3e270f3c	0.16314405
137	0xbe99d2d5	-0.30043665
138	0x3e6b1316	0.229565
139	0x3d15fe30	0.036619365
140	0x3e9928fa	0.29914075
141	0x3eb2b798	0.34905696
142	0x3efc356b	0.49259505
143	0x3ee20106	0.44141406
144	0x3e62fdd3	0.22167139
145	0x3eca9b65	0.39571682
146	0xbe3c5528	-0.1839186
147	0x3d817d66	0.06322746
148	0x3eb88335	0.36037603
149	0x3e935e61	0.28782943
150	0x3ec8d3fb	0.39224228
151	0xbe8ab85d	-0.27093783
152	0xbf65a44c	-0.8970382
153	0xbbabcea3	-0.005243139
154	0x3e46b6bc	0.19405645
155	0x3ec22d05	0.37924972
156	0x3dd1291b	0.10212918
157	0x3ea7465e	0.32670873
158	0x3e453339	0.19257821
159	0x3ec0ee55	0.37681833
160	0x3dbe61a8	0.0929597
161	0x3db8a71f	0.09016251
162	0x3e8f9032	0.280397
163	0x3ed7b8f8	0.42133307
164	0x3e8106ff	0.2520065
165	0x3eb99ba2	0.3625155
166	0x3db813cf	0.08988153
167	0x3ea94f12	0.33068138
168	0xbf650a8e	-0.8946923
169	0x3ecaf354	0.3963877
170	0x3ee02e46	0.43785304
171	0x3e64059b	0.22267763
172	0x3e5cad9a	0.21550599
173	0x3ee8951a	0.45426255
174	0x3e94998c	0.29023397
175	0x3e23e4b1	0.16005208
176	0x3e7c059b	0.24611513
177	0x3eb10634	0.34575045
178	0x3e89d4d5	0.2692019
179	0x3ed508d4	0.41608298
180	0x3e90d89e	0.28290266
181	0x3ee0f6ca	0.43938285
182	0x3d298000	0.041381836
183	0x3da65e0e	0.08123408
184	0x3e694eec	0.22784013
185	0xbf1ace30	-0.6047087
186	0x3e8bc6d7	0.2730014
187	0xbf40a21a	-0.7524735
188	0x3e29c4c1	0.16578962
189	0x3ecc8ccb	0.39951167
190	0x3e1c93b9	0.15290727
191	0xbf657029	-0.8962427
192	0x3ed396f4	0.41326106
193	0x3e6765d9	0.22597446
194	0x3e73ac44	0.23796183
195	0xbd730d1a	-0.059338666
196	0x3e8760dc	0.26441085
197	0x3e8bbd01	0.27292636
198	0x3dab5908	0.08366591
199	0x3e2b5c6d	0.16734476
200	0x3ea99ae3	0.33125982
201	0x3cb08e7a	0.021552313
202	0xbebfb860	-0.37445354
203	0x3e9c6d4f	0.30552146
204	0x3ec5ece8	0.38657308
205	0x3ed7a114	0.4211508
206	0x3e4e812a	0.2016646
207	0x3e8ccc56	0.27499646
208	0x3e925272	0.28578526
209	0x3e9e6cfa	0.30942518
210	0xbd2671b5	-0.040635783
211	0x3ea95da4	0.33079255
212	0x3eb99c5e	0.3625211
213	0xbe1942a5	-0.14966829
214	0x3d2db8f0	0.0424127
215	0x3e97fda3	0.29685697
216	0x3eac118c	0.33607137
217	0x3e991107	0.29895803
218	0x3eda3f02	0.42626196
219	0x3eb58dcc	0.35459745
220	0x3ebfbde3	0.3744956
221	0xbd594530	-0.053044498
222	0x3e0bbc3a	0.13646021
223	0x3e83765b	0.25676236
224	0x3eb9b4c1	0.36270717
225	0x3e1a6e9e	0.1508126
226	0x3cfb65a1	0.030688109
227	0x3e9a69c3	0.30158815
228	0x3e88334e	0.26601642
229	0x3e92d71a	0.28679734
230	0x3e87ea55	0.2654597
231	0xbdaa8978	-0.08327001
232	0x3e5b8ad9	0.21439685
233	0x3e346b4e	0.17619058
234	0x3ecbc186	0.39796084
235	0x3ea77696	0.3270766
236	0x3e9c703e	0.30554384
237	0x3e47cdb3	0.19512062
238	0x3ec3a9c4	0.38215458
239	0x3ed085ba	0.40727025
240	0x3edf094c	0.4356178
241	0x3dfcaeb8	0.123380125
242	0x3db1e85d	0.08686898
243	0x3eee0845	0.46490684
244	0x3e910c75	0.28329816
245	0x3f0cbab3	0.5497238
246	0x3ecf8bb8	0.40536284
247	0xbf70dc6e	-0.9408635
248	0x3e7e02ff	0.2480583
249	0x3e6828a1	0.22671749
250	0xbc868137	-0.016419036
251	0x3e94eda4	0.29087555
252	0xbd9bbd2d	-0.07604442
253	0x3ea703ab	0.32619986
254	0x3ec5885a	0.3858059
255	0x3dd621be	0.104556546

bias f4 [96]
0	0x3ebe74e3	0.37198552
1	0x3eacbb1c	0.33736503
2	0xbfc13a4f	-1.5095919
3	0x3eb02cf5	0.344093
4	0x3ebb40fd	0.3657302
5	0x3e874fca	0.26428062
6	0xbe240f08	-0.16021359
7	0x3e87b065	0.26501766
8	0xbf32f33d	-0.699024
9	0x3f2410d6	0.6408819
10	0xbf607200	-0.8767395
11	0x3eb2dcb1	0.34934
12	0xc0153a10	-2.3316689
13	0xbecbbd49	-0.3979285
14	0xbfaf7011	-1.3706075
15	0x3e6ad494	0.22932655
16	0x3e993be6	0.2992851
17	0xbfe9c8b9	-1.8264381
18	0xbef4ff79	-0.4785116
19	0x3ece51ac	0.40296686
20	0x3f3b6ed1	0.7321597
21	0x3ecc7ac2	0.39937407
22	0xbf8d6bb3	-1.1048492
23	0x3e992fba	0.29919225
24	0xbdd8d31c	-0.10587141
25	0xbf03fff7	-0.51562446
26	0xbe9a4985	-0.30134216
27	0x3f1eb211	0.6199046
28	0x3e7eae7a	0.24871245
29	0xbea8b6f5	-0.32952085
30	0x3ec6a7ca	0.38799888
31	0x3eccd0b9	0.40002993
32	0xbf7b9a55	-0.98282367
33	0x3f5c6a4e	0.8609971
34	0xbf9e7a7f	-1.2381133
35	0x3f223793	0.6336605
36	0xbe904e51	-0.2818475
37	0x3f0d57d2	0.5521213
38	0x3ed5d829	0.4176648
39	0x3eaef244	0.3416921
40	0x3f1fa47d	0.62360364
41	0xbffb576e	-1.9636056
42	0x3effecd3	0.4998537
43	0x3eac0104	0.33594525
44	0x3e1273de	0.14302012
45	0xbe65e710	-0.22451425
46	0x3f033380	0.5125046
47	0xbdd56151	-0.10418952
48	0x3ec21589	0.37907055
49	0x3ec7a079	0.38989618
50	0x3e9209fa	0.28523237
51	0xbf37c537	-0.717853
52	0xbf9c97a6	-1.223378
53	0x3f0855c7	0.53255886
54	0xbf313470	-0.6922064
55	0x3ef55bdd	0.4792165
56	0x3e803682	0.25041586
57	0xbfc4b8e7	-1.5368928
58	0x3eae8960	0.34089184
59	0x3e890a10	0.2676549
60	0xbf0ed3db	-0.55792016
61	0x3e9206ba	0.28520757
62	0x3f315339	0.6926761
63	0xbec63a2a	-0.3871625
64	0x3f19c7d2	0.60070527
65	0x3e54bbee	0.20774814
66	0x3ebb0ae3	0.36531743
67	0x3ea3687c	0.31915653
68	0x3e98612b	0.29761633
69	0xc0056c1d	-2.0847237
70	0x3ebfe185	0.37476745
71	0x3e979e71	0.2961307
72	0x3efa22cc	0.48854673
73	0x3eb0b024	0.34509385
74	0xc003de65	-2.060449
75	0x3e7f811f	0.249516
76	0x3eb7c289	0.35890606
77	0xbd413aaf	-0.047175106
78	0x3e4d4a37	0.20047842
79	0x3edfc674	0.43706095
80	0x3e9b3a1c	0.3031777
81	0x3e28e42b	0.16493289
82	0xbf88a423	-1.067509
83	0x3f0d4965	0.55190116
84	0x3e8ba4bc	0.2727412
85	0x3f1bfa10	0.6092844
86	0x3ed82b28	0.42220426
87	0x3ea104e9	0.3144906
88	0xbfce3017	-1.6108426
89	0x3e92aadc	0.2864598
90	0xbea611be	-0.3243541
91	0x3ecf12af	0.40443942
92	0xbf2da47a	-0.67829096
93	0x3e62913e	0.22125718
94	0xbff3f246	-1.9058311
95	0x3f220d0a	0.63301146

weight f4 [24, 96]
0	0xbe192ad8	-0.1495775
1	0xbe0941a7	-0.1340395
2	0x3f12b488	0.5730672
3	0xbdcfc5ab	-0.10145124
4	0xbd9d40df	-0.07678389
5	0xbd9b44af	-0.0758146
6	0x3ed8b1af	0.42323062
7	0xbde168eb	-0.1100634
8	0x3f86606d	1.0498177
9	0xc008518a	-2.1299767
10	0x3f479adc	0.7797067
11	0xbe56b0ad	-0.20965834
12	0x3f4c6026	0.7983421
13	0x3eee4160	0.46534252
14	0x3f5ad1a2	0.85476124
15	0xbe967c67	-0.29391786
16	0xbe3f3863	-0.18673854
17	0x3f3cbcd7	0.73725647
18	0x3f2ea156	0.6821493
19	0xbe57d7e7	-0.21078454
20	0x3b6aa9c2	0.003580675
21	0xbe018df9	-0.12651815
22	0x3ecf9a35	0.40547338
23	0xbe5e5203	-0.21710972
24	0x3f68c307	0.9092259
25	0x3f09f7e8	0.538939
26	0xbdbb1df9	-0.09136576
27	0x3d987b3c	0.0744538
28	0xbe014673	-0.1262453
29	0x3eeb30ee	0.45935768
30	0x3ee79f79	0.45238855
31	0xbe19b151	-0.15009047
32	0x3f58327e	0.84452045
33	0x3e025727	0.12728558
34	0x3efe14fb	0.49625382
35	0xbd5c55fd	-0.053792942
36	0x3f000515	0.50007755
37	0xbd140274	-0.036135152
38	0xbe391e0a	-0.18077865
39	0xbda068c1	-0.0783248
40	0xbdba03ec	-0.09082779
41	0x3f1c9b02	0.61174023
42	0xbd5ab66a	-0.05339662
43	0xbd64f104	-0.055893913
44	0xbe50234e	-0.20325968
45	0x3f8d2dd4	1.1029611
46	0xbdc74417	-0.09729784
47	0x3fa1c896	1.2639339
48	0xbe1c136f	-0.15241788
49	0xbcb40e61	-0.021979513
50	0xbe1fc720	-0.15603304
51	0x3f4c2ed9	0.79758984
52	0x3f6da5f2	0.9283134
53	0xbcd9e416	-0.026598018
54	0x3e24445e	0.16041705
55	0xbd9ee929	-0.077593155
56	0xbdf667e0	-0.12031531
57	0x3f078a14	0.52945065
58	0xbdc1b6e0	-0.09458709
59	0xbe2b83b6	-0.16749462
60	0x3df0b653	0.117535256
61	0xbda9373e	-0.0826249
62	0x3dd0e3d0	0.10199702
63	0x3c0f4238	0.008743815
64	0x3f7cb313	0.98710746
65	0xbe79e534	-0.2440384
66	0xbe225f54	-0.15856677
67	0xbdbea91b	-0.09309598
68	0xbe65683b	-0.22403042
69	0x3f8025f3	1.0011581
70	0xbddd041b	-0.10791799
71	0xbdada338	-0.08478397
72	0xbd405458	-0.046955436
73	0xbd9f6d28	-0.07784492
74	0x3f84c017	1.0371121
75	0xbe84ddd6	-0.25950497
76	0xbe4095b6	-0.1880711
77	0x3f68fe8b	0.910134
78	0xbe36523b	-0.17804806
79	0xbe302454	-0.17201358
80	0xbda8b98d	-0.08238516
81	0xbdbede28	-0.09319717
82	0x3f8e8274	1.1133561
83	0xbd2daea1	-0.042402867
84	0xbe181bb1	-0.14854313
85	0x3f9e90d7	1.2387952
86	0xbe5b627a	-0.21424285
87	0xbe4419a1	-0.19150402
88	0x3ee04e53	0.43809757
89	0xbe8f2108	-0.27954888
90	0x3f10a93d	0.5650824
91	0xbc9421be	-0.018082496
92	0x3f19dfd6	0.6010717
93	0xbe65f940	-0.22458363
94	0x3f9558ca	1.1667721
95	0xbe34ad6f	-0.17644285
96	0xbe7c9ec4	-0.2466994
97	0xbddf312a	-0.10898049
98	0x3ffd358b	1.9781965
99	0xbeddf0da	-0.43347818
100	0xbe71a564	-0.23598248
101	0xbe78d08c	-0.24298304
102	0x3f849764	1.0358701
103	0xbcfb7c24	-0.030698843
104	0x40250047	2.578142
105	0xc097c58e	-4.7428656
106	0x3fc481e8	1.5352144
107	0xbe72f16c	-0.23724908
108	0x404b4e88	3.1766682
109	0x3f96bcb5	1.1776339
110	0x3fe22312	1.7666953
111	0xbc423989	-0.011854538
112	0xbe9f4386	-0.31106204
113	0x3fe73fab	1.8066305
114	0x40311e9f	2.767494
115	0xbe22acf7	-0.15886293
116	0xbe7c4a64	-0.24637753
117	0xbed63aa2	-0.41841608
118	0x3fa92216	1.3213527
119	0xbe70a5ec	-0.23500794
120	0x3f9b7c55	1.2147318
121	0x400d622c	2.209117
122	0x400f788c	2.2417326
123	0xbf0cdb05	-0.550217
124	0xbe02dd35	-0.12779696
125	0x3fb643cf	1.4239444
126	0x3f4494a9	0.7678934
127	0xbeb05510	-0.34439898
128	0x3fc16da1	1.5111581
129	0xbeff0fc4	-0.49816716
130	0x3ff803db	1.9376177
131	0xbef71274	-0.48256266
132	0x3f825ea4	1.0185132
133	0xbedb159a	-0.42789918
134	0xbebc9f28	-0.36840177
135	0xbeadfb7f	-0.3398094
136	0xbf0e0705	-0.5547946
137	0x3feb293a	1.8371956
138	0xbeb1f4b0	-0.34756994
139	0xbe8faf3d	-0.28063384
140	0xbe2d576f	-0.16927885
141	0x3fdef1e2	1.7417567
142	0xbeaa5b5f	-0.33272836
143	0x3f900465	1.1251341
144	0xbe8d253d	-0.27567473
145	0xbeb41b78	-0.35177207
146	0xbe83037d	-0.255886
147	0x3f961afd	1.1726986
148	0x4017294e	2.361896
149	0xbe7b59c4	-0.24545962
150	0x3f87574d	1.0573517
151	0xbec9d531	-0.39420465
152	0xbe340408	-0.17579663
153	0x3fad5836	1.3542545
154	0xbe16b0fe	-0.14715955
155	0xbe7a43a4	-0.24439865
156	0x3fd6ddea	1.6786473
157	0xbe9a2ebe	-0.30113786
158	0xbffdf29c	-1.9839664
159	0x40033964	2.0503778
160	0x3fa9903e	1.3247144
161	0xbd868e85	-0.06570152
162	0xbe6e5683	-0.23275189
163	0xbe4dac01	-0.20085146
164	0xbe840485	-0.25784698
165	0x403de5b7	2.9671457
166	0xbe33afa8	-0.17547476
167	0xbe0cfd65	-0.13768537
168	0xbe9ffa56	-0.3124568
169	0xbeb23fb0	-0.34814215
170	0x401a110d	2.4072907
171	0xbe35e480	-0.17762947
172	0xbe94dd06	-0.29074878
173	0x3faa1ffe	1.3291013
174	0xbda14597	-0.07874601
175	0xbeae13b7	-0.33999416
176	0xbe5b767a	-0.21431914
177	0x3f9475e6	1.159848
178	0x400118dd	2.0171425
179	0xbe470801	-0.19436647
180	0xbe96aabe	-0.2942714
181	0x3e548db9	0.20757188
182	0xbe3d1f48	-0.18468964
183	0xbdadddcf	-0.08489572
184	0x3fea244a	1.8292325
185	0xbe1b2b16	-0.15153155
186	0x3fc193e8	1.5123262
187	0xbe8d9a6d	-0.2765688
188	0x40121c55	2.2829792
189	0xbeb2e618	-0.34941173
190	0x4002c2a4	2.04313
191	0xbdb6c7d8	-0.08924836
192	0xbe04d83d	-0.12973113
193	0xbe0dd375	-0.13850196
194	0x3ffee0e3	1.991238
195	0xbecd1089	-0.40051678
196	0xbe8c2a75	-0.27376142
197	0xbe8ee805	-0.27911392
198	0x3f94cc9d	1.1624943
199	0xbdd598ea	-0.10429557
200	0x4025be1f	2.589729
201	0xc07aef83	-3.9208686
202	0x3fc9a0d8	1.5752211
203	0xbe976256	-0.29567212
204	0x4066b6f2	3.604916
205	0x3fa20a76	1.2659442
206	0x3fea9bd2	1.8328803
207	0x3d36e587	0.044652488
208	0xbe35bb18	-0.17747152
209	0x3fecd623	1.8502849
210	0x402f4aa6	2.7389312
211	0xbe2a6717	-0.16640888
212	0xbea092af	-0.3136191
213	0xbeb7ab30	-0.35872793
214	0x4014a335	2.3224614
215	0xbea80747	-0.32818052
216	0x3fc9b208	1.5757456
217	0x400b1774	2.1733065
218	0x400d8dec	2.2117872
219	0xbeeac53b	-0.458536
220	0xbe66699b	-0.22501223
221	0x3fc25351	1.5181676
222	0x3ec66261	0.38746932
223	0xbe8641f5	-0.26222196
224	0x3fb0f218	1.3823881
225	0xbef8d2e4	-0.48598397
226	0x3ffe51eb	1.9868749
227	0xbedce8ca	-0.43146354
228	0x3f903a4d	1.1267792
229	0xbee900e3	-0.4550849
230	0xbe91cb16	-0.28475255
231	0xbed23a6a	-0.4106019
232	0xbef11734	-0.47088015
233	0x3fffccd3	1.9984382
234	0xbecda1d9	-0.40162542
235	0xbe705c7c	-0.2347278
236	0xbdcd3dd9	-0.10021562
237	0x4006a20d	2.1036408
238	0xbead67d7	-0.33868286
239	0x3fa50816	1.2893093
240	0xbe58823a	-0.21143427
241	0xbeb508f8	-0.35358405
242	0xbddfb3a2	-0.10922934
243	0x3fa9935e	1.3248098
244	0x402ce6ef	2.701595
245	0xbe39a188	-0.18128026
246	0x3f8b12c5	1.0865103
247	0xbe954f16	-0.291619
248	0xbe9ab456	-0.3021571
249	0x3fb77ea7	1.4335526
250	0xbea435ef	-0.32072398
251	0xbe503c42	-0.20335487
252	0x3fbf3d78	1.4940634
253	0xbe5baa0a	-0.21451584
254	0xc0485341	-3.1300814
255	0x40014c6c	2.0202894

bias f4 [24]
0	0xbf459b9b	-0.7719056
1	0xbf1fbd66	-0.62398374
2	0xbe96c936	-0.29450387
3	0x3e63a0bb	0.22229283
4	0x3e1131a2	0.1417909
5	0x3f68e918	0.9098067
6	0x3e83e260	0.25758648
7	0x3e35a86a	0.17740026
8	0x3e478975	0.1948603
9	0x3e317e9f	0.17333458
10	0x3dc86d8a	0.09786518
11	0x3ee4c1e2	0.4467917
12	0xbee94be3	-0.4556571
13	0x3e860e7c	0.26182926
14	0xbf1df6b6	-0.61704576
15	0x3f160549	0.58601815
16	0x3d7004a8	0.05859819
17	0x3e8d27c4	0.275694
18	0x3e7e6570	0.24843383
19	0x3e8abaaf	0.27095553
20	0x3f4baf9f	0.7956485
21	0x3e32e807	0.17471324
22	0x3e68fb43	0.22752099
23	0x3f157d2b	0.58394116

weight f4 [1, 24]
0	0x40386908	2.8814106
1	0x40302c6f	2.752712
2	0x4022a90e	2.5415683
3	0xbf47d40e	-0.78057945
4	0xbf599eb4	-0.85007787
5	0x3fdcd421	1.7252237
6	0xbf35fed9	-0.7109199
7	0xbf44f742	-0.76939785
8	0xbf5272a4	-0.8220618
9	0xbf4c70d1	-0.79859644
10	0xbf44e31b	-0.76909035
11	0x4014223f	2.3145902
12	0x3ffb60f5	1.9638964
13	0x4024cfb2	2.5751767
14	0x4044dbc1	3.0759127
15	0x4003db33	2.0602539
16	0x403a6da0	2.912941
17	0xbf49be84	-0.7880633
18	0xbf4c86e6	-0.7989334
19	0xbf556091	-0.83350474
20	0x3ff26b8f	1.8939074
21	0xbf363f3e	-0.7119025
22	0xbf3bf2a7	-0.73417133
23	0x3fe8b44e	1.8180025
