data/q_value_net_1_simple_spread_2670000_pH-MARL.pth (torch, 114935 bytes, 7 tensors)

weight f4 [160, 80]
00000000: d737 4f3d 65dd 70bd 2d76 de3d 4e05 c8be
00000010: dcf7 15be 424e ab3e b3bf 10be fa3b efbd
00000020: 6eb6 07be 2275 d1be 565e 333e 8ea7 a73e
00000030: 7187 c63d 3139 03bd cc0e 8e3d 8828 c93c
00000040: 1e41 cabd 48a8 2ebd 2d1d f6bc 7e90 a8bc
00000050: 06e7 ff3d 4ad0 463e d2cb 15be 87e5 08bc
00000060: b72f e5bc 8200 cabd 0e41 80be fbca 00bf
00000070: 5dae 0b3e 8d34 893e 3262 02bd 8a15 27be
00000080: bc25 9fbc c268 2c3c 12a3 0abd e82a 95bd
00000090: 958b f53b 7bc4 1d3b 3bf7 493e 6685 a1bd
000000a0: a80a 0a3d a01a 9ebb eb0a 60be 87fd 3bbe
000000b0: 865e bf3e aee7 a13d 7da0 483e 9930 443e
000000c0: c295 48bb 0eda 87bd 8ef8 f0bd 4a49 25bd
000000d0: a643 a7bc fbaf a63d 2573 8abe fb98 bdbd
000000e0: 435c c3be 2198 ebbe db93 7ebc 6538 e9bc
000000f0: 8acd 2bbd 83cb 29bd 7e22 f4bd 8de7 b2be
00000100: 7d29 dc3d 4c1b bebd 1ae2 193e 3ce7 003d
00000110: 92fd 9bbc 93a5 e73a 1da2 463e 6d36 b63d
00000120: 6b20 d23a 4a32 d2bd 0d79 6c3d 8845 d3bb
00000130: d032 ad3c 29c1 fabc e044 24bd 4c80 59bd
00000140: 1c60 0e3e 74bc 533d 5f07 463d 5277 4b3d
00000150: 97cd 813d c11e c1bc 18e1 293e 9301 d1bd
00000160: 5f80 86bd 4ad2 b13d bbfc 1f3d b069 06bd
00000170: a9b4 c23b 62f8 4b3d d6d5 b63d c80b f8bd
00000180: baac fdbd 15a7 91bc 575b 973d 1501 253e
00000190: 2391 a2bd 0309 f6bd 6a7a 963d 993f 11be
000001a0: abd7 d43d 3650 f0bd 34c9 da3d e7ae 473c
000001b0: 32b1 543e d796 43bd abfd b23c 7978 283d
000001c0: b3e4 cd3d 5f44 0fbe f951 093e e7f9 403c
000001d0: a7b4 0e3e d1a6 b63b 33e6 4cbd 7a07 4c3c
000001e0: dd72 dabb cecb a23c 9296 963d a975 063d
000001f0: b523 04be e46c d43d ff4d 133d 2b56 6abd
00000200: e2d2 7f3d 8e11 063e 9847 c8bc 2921 803e
00000210: c7b4 f1bd 0bdd fb3d b783 4abc 9788 303e
00000220: 6164 93bd 4243 1f3e 2ede 06bd 227d 1b3d
00000230: e52e 333e 5251 083e 7a9c c8bd 0bc6 2b3e
00000240: bfd9 c53d d538 8a3c e23b 02bc 3e69 ab3c
00000250: d337 6bbc 682a 56bd 50e2 103e 01dc 29be
00000260: e33e d73c 197c 403d b8db 8f3d e147 a7bd
00000270: 313c 17bd 3cdf c9bb d820 d8bb 317a d53d
00000280: 6310 643c b5ac 153d 227b 95bc bffb cd3d
00000290: 8521 10be e3c3 ef3d fcb6 2b3d 1bd5 50bd
000002a0: 06a6 bd3d eb0f f0bb 5dc3 4c3e 7eb0 16be
000002b0: 88da 2dbe 8f2d 83bc d3e6 6f3d c43d b6bd
000002c0: 9508 333d 9ed8 303d 542b 163e 9195 663c
000002d0: ce44 01be 21c9 a73d 4d64 88be 0f8c 4f3e
000002e0: 21a2 593e c696 38be d158 113d d6fc 533d
000002f0: 912b 1e3e b00c 41be b51a 33bd f7c0 a4bc
00000300: 7822 263d 2f16 94ba b197 0cbe 92ba 153d
00000310: 105f 823d 5c1a 333b 354f e4bd 43c7 fc3d
00000320: 1bb8 53be d558 ac3c bc64 b23d b3b4 8ebd
00000330: 8f7b 6c3e e74e 0fbe 337c 9e3e 2bf0 80be
00000340: 2cd5 973d d91b e33d 03cb 84bd 1597 f33c
00000350: ac7f 913d 4497 dd3c a638 673d 0a61 263b
00000360: 0104 26bd ba56 283d 1c54 9cbe 6af7 d93d
00000370: 238f 4b3e 383d 4d3e 493e 223d 73dd 6abd
00000380: 6494 5f3e 8115 06be bf30 06bc fb63 66bd
00000390: a11a 7b3c 21af 91bd 083c acbd 79a1 0e3d
000003a0: 6aad 3f3d f81c 8b3c f4af 6ebd b143 0c3d
000003b0: 7939 a3bd a659 953d 15e8 fbbc ae15 c03d
000003c0: 3906 0cbf 8a85 823e 293c c33e 1700 433e
000003d0: ea2e 973e 1c45 f9bd d6c3 debd dd4d 43bd
000003e0: 6de2 243d d298 463e a037 88bd 5da4 02bd
000003f0: 586b 8cbd c4a7 4b3d bb4a a2bd 0107 aabd
0.050590362 -0.05880489 0.10862384 -0.39066547 -0.14645332 0.33458143 -0.14135627 -0.116813615
-0.13253185 -0.40909678 0.17516455 0.32745022 0.09693802 -0.032036964 0.06936416 0.02455546
-0.09875701 -0.042640954 -0.030043209 -0.020576712 0.12495236 0.19415393 -0.14628533 -0.008355505
-0.027976854 -0.09863378 -0.25049633 -0.50309724 0.13640733 0.26797906 -0.031831928 -0.1631681
-0.019427173 0.010523023 -0.033846922 -0.07283574 0.007493446 0.002407341 0.19723217 -0.07886772
0.03370157 -0.0048249513 -0.21879165 -0.18358432 0.37376803 0.079055175 0.19592471 0.19159164
-0.003060684 -0.066333875 -0.11766158 -0.040353097 -0.020418 0.08139034 -0.27040973 -0.09257694
-0.38156328 -0.46014503 -0.015538181 -0.028469274 -0.041944064 -0.04145385 -0.11920641 -0.34942284
0.10750101 -0.0928255 0.15027657 0.031470522 -0.01904181 0.0017673246 0.19397779 0.088971
0.001603139 -0.10263498 0.05773263 -0.0064474978 0.021142393 -0.030609684 -0.040104747 -0.05310087
0.1390385 0.051693395 0.048346873 0.04967434 0.06338041 -0.023574235 0.16589773 -0.102053784
-0.065674536 0.086826876 0.039059382 -0.032815635 0.0059419465 0.049797423 0.08927505 -0.12111622
-0.123864606 -0.017779866 0.073904686 0.16113694 -0.07937839 -0.120134376 0.073475674 -0.14184417
0.10392698 -0.11734049 0.10682908 0.012187696 0.2077072 -0.047751274 0.021849474 0.041130517
0.100533865 -0.13990925 0.13410176 0.011778331 0.13936101 0.0055740853 -0.050024223 0.012452954
-0.006666525 0.019872572 0.07352938 0.032827053 -0.12904246 0.10372332 0.035963055 -0.057211082
0.062456973 0.13092634 -0.024448201 0.250253 -0.11802059 0.1229802 -0.012360505 0.17239605
-0.0719688 0.15553 -0.03292673 0.037961133 0.17498358 0.13312271 -0.097954705 0.16774766
0.096606724 0.016872803 -0.0079488475 0.020924207 -0.014356571 -0.052286536 0.14148831 -0.16587831
0.026275104 0.04699335 0.0702433 -0.08168007 -0.036922637 -0.006160645 -0.006595712 0.10423697
0.0139199225 0.03654166 -0.01824719 0.100577824 -0.14075287 0.11707284 0.041922554 -0.050984483
0.09260182 -0.0073261163 0.199964 -0.14715764 -0.16977894 -0.016012935 0.05856974 -0.088984996
0.043709356 0.043175332 0.14664966 0.014073745 -0.12623903 0.08192659 -0.26639023 0.20268272
0.21253254 -0.18026266 0.035485093 0.051754795 0.15446307 -0.18852496 -0.04372664 -0.020111544
0.040560216 -0.0011298115 -0.1372974 0.03655488 0.06365788 0.0027328944 -0.1114792 0.12342694
-0.206757 0.021038452 0.0871062 -0.069680594 0.23094009 -0.13994943 0.3095413 -0.25183234
0.07413706 0.11089296 -0.06484034 0.029735127 0.071044296 0.027049668 0.05645051 0.002538743
-0.040531162 0.041098334 -0.3053292 0.106428936 0.19878821 0.20042884 0.03961018 -0.057340097
0.2183395 -0.1309414 -0.008190333 -0.056247693 0.015326173 -0.07113481 -0.084098876 0.03482196
0.04679624 0.016981587 -0.05827327 0.034244243 -0.079699464 0.0729249 -0.030750314 0.09379135
-0.54696995 0.25492507 0.38131836 0.19043003 0.2952798 -0.12171385 -0.108771965 -0.047681678
0.040255 0.19394234 -0.066512346 -0.03189503 -0.06856412 0.04972054 -0.0792441 -0.08302117

bias f4 [160]
00000000: 9aa2 3d3d fbce 333f 0f4c fbbc 7a2d 1f3e
00000010: 634b a2bd d524 99bc 6ce0 25be 29f1 75bf
00000020: 500c 11be c5e7 4bbe e215 273f ac3b ef3e
00000030: d786 803f d6ce 5abe 2fc3 433f 8383 f33d
00000040: 9cb3 823e 5473 1f3f 1ae4 413f 4f00 66be
00000050: 08ae 9cbd 9954 143d 71cc 0cbe 2f3c 483f
00000060: 969d 033f 8433 8bbe 4e6f 46bf 8a95 d4bd
00000070: 8594 463f a9f3 1bbe e77a 8d3e 1cb4 e5bd
00000080: fd4a 833f e6a8 c6bd a25b f03e 7b51 24bf
00000090: 6363 aabe 2a74 f83d a46b da3e a5ef 433f
000000a0: e1cc bcbe 86f0 173d 1764 103f ab74 323f
000000b0: f700 573f dcaf 67bd 9a6e 243e c975 d93e
000000c0: 6cfe 95be 11fd b4be 904a d63e d41f 983e
000000d0: fac7 1b3c 7fed 313e f8b3 f3bc e3a0 4b3f
000000e0: d68a c63e 410a 603f 3b54 d23e 56d8 64be
000000f0: f488 673c 6f31 e03e 7fbb 14be 3211 9e3e
00000100: cd71 84bf 5d63 543f 8882 b3bd 1b34 c53e
00000110: 37b1 013e 942b 9ebe 6b6b 133f e8c9 313f
00000120: 6cdb 81be 88fd 123d 9927 5d3f dd80 bd3e
00000130: 7e07 373e 1ee2 f03c 68ed 253f 1a07 18be
00000140: 7468 593f eb1e 193e 81ca f83d 36e0 8dbe
00000150: 6a00 9ebe 327a 15bf 0b90 f5be 4e79 21be
00000160: 1110 3f3e 8e9d a03e fb94 a43e 40c2 3d3f
00000170: b2d0 8c3e c7fe d63c 08ae c13e 222b c83d
00000180: d35b e7bc 037e 923f f009 503f 2c2b 35be
00000190: 227b 07bf 85bd 8a3f e389 b9be 77c0 bd3d
000001a0: c999 273e 9fb5 2eba 0e99 fc3e db82 933f
000001b0: bdfc ff3e 3efa 5e3f a726 5abe dc1b b5be
000001c0: 0150 2e3e eecf 043f be7d 2c3f dfa7 053e
000001d0: e487 3e3d 462e 9ebe 4090 0ebf 2340 cdbc
000001e0: c088 343f 1332 9bbe 70db cdbd 1dfb b0bd
000001f0: 9278 5cbd 84a4 4c3e 6b38 283e 2261 463e
00000200: b2b5 0c3f e6ae 75be a254 18bd 859d 723e
00000210: 93cb 6f3e 3abd e0bb 3249 aebd 2d40 263e
00000220: c3ce 203f 7c31 863f 9556 123e bed0 183f
00000230: 9b61 7a3f 14f8 403e ef0e 223f a9c0 a53f
00000240: f6b6 41bf b575 d13e cd1f cabe fd8a a03e
00000250: beef 1fbe 7112 493f 56cd a33e 60d5 83be
00000260: 8442 f73c d3c2 cbbe 299f 1ebf 13b7 8cbc
00000270: e186 1c3e d140 313f de00 2c3f bbb8 e3be
0.046297647 0.702377 -0.030675916 0.15544692 -0.07924535 -0.01869432 -0.16198891 -0.96071106
-0.14164853 -0.19912632 0.65267766 0.46725214 1.004115 -0.21367964 0.764697 0.11890318
0.25527656 0.6228535 0.7573868 -0.22461055 -0.07650381 0.03621349 -0.13749863 0.7821683
0.5141233 -0.2718774 -0.7751359 -0.10380085 0.7757037 -0.15229668 0.2763283 -0.11215994
1.025726 -0.097001836 0.4694491 -0.6418683 -0.3327895 0.121315315 0.42660248 0.76537544
-0.3687506 0.037094615 0.56402725 0.6970927 0.8398585 -0.056564197 0.16057816 0.42472675
-0.2929567 -0.35349324 0.41853762 0.29711783 0.009508127 0.17375754 -0.029748902 0.7954237
0.38777798 0.87515646 0.41079888 -0.2234815 0.014131773 0.43787715 -0.14524649 0.30872494
-1.0347229 0.82964116 -0.08765131 0.38516316 0.12665258 -0.30892622 0.5758578 0.6944871
-0.25362718 0.035886317 0.86388546 0.37012377 0.17873952 0.029404696 0.6481538 -0.14846459
0.8492501 0.149532 0.121479996 -0.27710122 -0.3085969 -0.5838958 -0.4796146 -0.1576893
0.18658473 0.31370205 0.32144913 0.74124527 0.27502972 0.026244534 0.37828088 0.09773852
-0.028242027 1.1444706 0.81265163 -0.1769225 -0.5292226 1.0839087 -0.36238012 0.092652254
0.16367258 -0.0006664637 0.4933552 1.1524309 0.49997512 0.8710059 -0.21303807 -0.35372818
0.17022707 0.51879776 0.6737937 0.13052319 0.046516314 -0.3089468 -0.5568886 -0.025054997
0.70521164 -0.3031164 -0.1005162 -0.08641646 -0.053825922 0.19984633 0.16427772 0.1937299
0.54964745 -0.239925 -0.037190087 0.23692901 0.23417501 -0.006858495 -0.08510055 0.16235419
0.62815493 1.0483851 0.14290841 0.59693515 0.97805184 0.18844634 0.63304037 1.294942
-0.756698 0.40910116 -0.39477387 0.3135604 -0.15618798 0.78543764 0.31992596 -0.2574873
0.030183084 -0.39797077 -0.6196161 -0.01717714 0.15285827 0.69239527 0.67188823 -0.44476876

weight f4 [80, 160]
00000000: 702b 20bd db06 82be 9335 efbe 8331 f7bd
00000010: 2edf 26bd 28a0 6c3e ac1d c9bd 1227 18bf
00000020: 87a0 15be 12f6 18bf da11 40be 1a31 2fbe
00000030: 9b02 16be 5027 30bf 7e09 9bbe 68bb 72be
00000040: 62be c13d ba5a b4bd 28eb 02be 23cd 3d3e
00000050: b55f fbbe eebd 06be 0dbf 80bd 0ae1 91be
00000060: c3b2 ad3d b1f8 6c3e c794 923e 600f ac3e
00000070: c113 b8bd d9ed 68be 8775 783d 07cd f6be
00000080: f278 e8bc 7a5f a53e 0150 c0be 259b 51be
00000090: ec98 d2be 4aee 113e dd66 923d 774e bfbe
000000a0: 82cf 48be 41d2 b4bd bf6c e1bd 010c 4fbe
000000b0: 6bc1 83be 2521 cdbb ebb0 1d3d 4eff d3be
000000c0: 51be be3e b30e 863e 5012 8b3e 29bc 883e
000000d0: 1474 87bb 6f01 363e 4c60 543d 5e79 00be
000000e0: df02 31be af89 acbe a60f b2be 22bc bd3e
000000f0: 3cef ac3e 36e9 2b3e 3ed7 8f3d cd90 bbbe
00000100: 1062 b8bf 13e3 d1bd fb2e 1d3e 0383 d23d
00000110: bd0d 023e a3d7 ebbb 9119 f2bd baa5 0cbe
00000120: e8e9 433e c605 e13e a47b e7bd 4085 903e
00000130: 476b 76bd 7b21 37bd 09b5 08bd 6f71 7dbf
00000140: 3067 67be 0945 aabd d53b 6ebe 3c8b 09bd
00000150: 1490 babf ec03 b0be 7259 adbd bc76 9cbb
00000160: bb93 bdbe 899b 0c3c 9ea2 67be 313d 10be
00000170: 82b2 0c3f 3674 fd3c d9c2 573d d816 0b3f
00000180: a9ab 90be ebf8 a5be 281c eabe ed64 f53e
00000190: ab1c 253e 1cdf 69be 0764 52be 4685 90be
000001a0: 40e5 e6bd 179f 373a 4f0b 8b3d 2988 9dbe
000001b0: e300 733d 852b bbbe aed2 3fbf 21f7 38bf
000001c0: f7e8 d6bc ce81 3ebe 87db b53e 9558 903c
000001d0: 913e 08bd 1b4c 8c3c 7445 fbbe 2c69 423d
000001e0: ae02 073d fdda 5abf 5f37 b33e 4c79 bdbe
000001f0: b5d8 9b3e 9e9b 99be 234f 403e 9752 ecbc
00000200: 363e d83c 58df e2bd 2b64 5fbe d7d8 0dbf
00000210: 4ea4 953e 985c 9f3e 437b 3abe 6299 d1bd
00000220: 1634 9bbe 07a7 9fbe d38e 283d 01e2 c7bd
00000230: 3ffc 06bd 6660 783e 9a7e 4cbe c461 65be
00000240: 302a 05be 8a52 0dbe 319c 85be 7970 7abe
00000250: 0998 d53d c178 0fbe f746 95be 8652 89be
00000260: 2ba6 afbd 607f 0e3e 4b80 bebd 5faa d2bd
00000270: d385 50be 187b 80be 5b78 7bbe f3e7 02bf
00000280: 229f 9b3e 8d37 1b3d 1f22 f9be 21fa d43d
00000290: 3244 c2bd f8d3 373e b475 743d c856 19bf
000002a0: 7f0c 9ebd 7997 d93d 584a e13d d079 07be
000002b0: e0d3 b23d 0471 9cbe 4424 d33d 21aa 353e
000002c0: 30cf 273e b15a 723e 398d ca3c 11a1 403d
000002d0: c397 983c 8d51 ec3c 8aae a03d a411 843c
000002e0: a4c7 96bb 39c9 2cbe e8fe 893d bbf7 ec3b
000002f0: b796 1b3e 5e01 03be 0522 c43d 2433 c9be
00000300: 1df0 1c3e 1162 083e f474 9a3d 1aed e2be
00000310: 5788 e53c c176 b63d 8d48 2d3e 1dab 8e3d
00000320: 3194 05be d129 8c3d de58 f03d 86d8 643e
00000330: 97d2 0a3e 4098 953c 7b03 1fbb 1460 823c
00000340: 89aa 873d 0ca8 ca3c 7e22 343d ce19 bd3d
00000350: 05f3 ab3d 9f0e 833d 5156 84bd e816 a33d
00000360: 18a7 093e 34de be3a 7d19 003e 8c95 f9bd
00000370: b4d8 41bd 0a62 7c3e 4eef 983b 59a8 843d
00000380: 33c4 13bf f8af ac3d 0e23 dc3d 87fb afbc
00000390: af95 a5bd 3cda f93d 4b47 073e 6078 0a3e
000003a0: 9db1 26bd 4821 013c a9e9 ed3c c716 be3d
000003b0: 5bdf 79bc f8ce 0f3e 6bc3 fa3d a0f5 cfbd
000003c0: 91bd fa3d 1f13 083e a0f8 e93d ad74 643d
000003d0: ddf5 61be 59cc 2ebf 96c0 8f3c ae1d a3bd
000003e0: 5074 59bd 0065 be3d 037c 6d3d 4fcc e1bc
000003f0: b444 3d3e 8acb c43d 28b1 2a3d b821 073e
-0.039103925 -0.25395855 -0.4672056 -0.120699905 -0.040740184 0.2310797 -0.098201126 -0.59434617
-0.14612018 -0.59750473 -0.1875681 -0.17108575 -0.14649431 -0.68809986 -0.3028068 -0.23704302
0.09460141 -0.08806367 -0.12785017 0.18535285 -0.49096456 -0.1315839 -0.0628644 -0.28492004
0.08481362 0.23141743 0.28629133 0.3360548 -0.08988143 -0.22746982 0.060658958 -0.48203298
-0.028377984 0.32299405 -0.37561038 -0.20469339 -0.41132295 0.14251056 0.07148526 -0.3736455
-0.19610408 -0.08829165 -0.1100707 -0.20219423 -0.25733504 -0.0062600547 0.0384988 -0.4140572
0.37254575 0.2618309 0.2716241 0.26706055 -0.0041337106 0.17773984 0.05184965 -0.12546298
-0.17286251 -0.33698794 -0.34777564 0.37057596 0.3377627 0.16788182 0.07023476 -0.36633912
-1.4404926 -0.10248389 0.15349953 0.10278895 0.12700553 -0.0071973368 -0.11821283 -0.13735095
0.19132197 0.43949717 -0.113028795 0.28226662 -0.0601609 -0.044709664 -0.033375774 -0.9900121
-0.22597957 -0.08313949 -0.23265012 -0.03358005 -1.4575219 -0.34377992 -0.08464326 -0.0047748964
-0.37026772 0.008582004 -0.22620627 -0.14085843 0.5495988 0.030939203 0.052676056 0.5433173
-0.28255966 -0.32416472 -0.45724607 0.47928563 0.16124217 -0.22839016 -0.2054597 -0.2822668
-0.11274195 0.0007004602 0.06789266 -0.30767944 0.059327018 -0.3655664 -0.74930847 -0.7225209
-0.026234133 -0.18604204 0.3551905 0.017620364 -0.033262793 0.017126134 -0.49076426 0.04746358
0.03296154 -0.854904 0.35003182 -0.37006605 0.30438772 -0.3000154 0.18780188 -0.028847976
0.026396852 -0.11077756 -0.21815555 -0.55408996 0.29226917 0.3112533 -0.18211083 -0.102343336
-0.30313176 -0.3118212 0.041151833 -0.09759904 -0.032955404 0.24255523 -0.1997017 -0.22400576
-0.13004375 -0.13801017 -0.26095727 -0.24456967 0.10429389 -0.14010908 -0.29155704 -0.26820773
-0.08576616 0.13915777 -0.09301814 -0.10286402 -0.2036355 -0.25093913 -0.2455763 -0.51135176
0.30394846 0.037894774 -0.48658845 0.10399271 -0.094856635 0.17951953 0.059682563 -0.5989804
-0.07717227 0.10624594 0.11000508 -0.13230062 0.08731818 -0.30554974 0.103096515 0.1774068
0.1638763 0.23667409 0.024725543 0.047028605 0.018627053 0.02884748 0.07845791 0.016121693
-0.0046014357 -0.16873635 0.06738073 0.00723168 0.15194212 -0.1279349 0.09576801 -0.3929683
0.15325971 0.1331866 0.07541838 -0.4432152 0.028019113 0.08909369 0.16922207 0.06966231
-0.13044812 0.06843913 0.117357 0.22348222 0.13556896 0.018261075 -0.002426355 0.015914954
0.06624324 0.024738334 0.043978207 0.092334375 0.08395962 0.06399273 -0.06461776 0.079633534
0.13442647 0.0014562071 0.12509723 -0.12186727 -0.047325805 0.24646774 0.004667199 0.06477422
-0.5772125 0.08432001 0.10748874 -0.021482242 -0.080851905 0.12199828 0.1321079 0.13522482
-0.04069673 0.00788147 0.029042082 0.09281688 -0.015251006 0.14043796 0.12244304 -0.10154271
0.12243188 0.13288544 0.114243746 0.055775333 -0.22066446 -0.6828056 0.017547887 -0.07964645
-0.05308944 0.09296608 0.057979595 -0.027563242 0.1848324 0.096091345 0.041672856 0.13196456

bias f4 [80]
00000000: 1c57 e13e 587e 4f3e 9ba6 053e 8bc9 e43e
00000010: aa05 8a3e 5ec3 983e bca9 163f e49a c83e
00000020: a780 2a3f 19f6 e63e fb12 d53d a51b c53e
00000030: ba76 3d3e bd7f 8e3e 1bfb 303e 1173 4c3f
00000040: ab08 693f f0fc 333f 01a9 a23a 6b71 0f3d
00000050: 5e88 ab3e 912c 3a3c b40f a93e c1be 853e
00000060: 4870 193f 096d 553e 75d2 563d ccd7 2f3f
00000070: c1d7 0e3f a3be 2f3e 6bf6 ca3d 4354 ec3e
00000080: f397 f63e 43c4 773e 02f2 1dbe 9f45 a53e
00000090: 3a92 9fbd 849e 153f 96d5 1a3e 5642 3b3e
000000a0: cb1a e73e 0bdd 713f 33e7 663f 7002 1d3e
000000b0: 4fb2 863d 41e2 583f 6e43 8e3e d208 363f
000000c0: 7166 a43e 0d08 a13e 9169 ccbd 7f07 5a3e
000000d0: c2eb 3a3d 4cf6 ee3e 2d25 2d3e cf7e 883e
000000e0: 9951 963d 7903 a33e d0aa 3d3e 50b2 acbd
000000f0: 75bf 3c3e d08a 623d a356 353e f9ec 173e
00000100: 71a5 fb3d 81f5 533e 2b14 413e d75f 3c3f
00000110: 2801 023f 694e c33e 2842 833e 4695 963f
00000120: 9dbb 293e c3dc 8e3e d599 1f3e 0505 443e
00000130: e578 2e3f 311c 293f ad4a c43e fc33 f03d
0.44011772 0.2026304 0.13051836 0.44685015 0.26957446 0.29836553 0.58852744 0.39180672
0.6660256 0.45109633 0.10404011 0.38497654 0.18502322 0.27831832 0.17283289 0.7986308
0.9102885 0.70307827 0.0012409986 0.035020273 0.33502477 0.0113631645 0.33019793 0.26122096
0.5993695 0.20842375 0.0524468 0.68688655 0.55797964 0.17162566 0.09910282 0.46158037
0.48162803 0.24195962 -0.1542435 0.3227968 -0.077915624 0.58445 0.15120539 0.18287024
0.4513763 0.9447791 0.9019653 0.15332961 0.065769784 0.84720236 0.2778582 0.7110721
0.32109407 0.31451455 -0.09981073 0.21291922 0.045634992 0.46672285 0.16908713 0.26659247
0.07339782 0.31838587 0.18522191 -0.08432448 0.1843241 0.055308163 0.1770883 0.14836492
0.12287415 0.20699121 0.1885535 0.7358374 0.50783014 0.3814576 0.2563641 1.1764305
0.16575475 0.27902803 0.15586026 0.1914254 0.6815322 0.6605864 0.38338223 0.11728665

weight f4 [20, 80]
00000000: 5762 afbf 8d1f dcbf ea29 39c0 796b d1be
00000010: 8fef fdbf 6d39 b4bf 01ca d4bf d448 6bbf
00000020: bea0 65bf 651e dbbf ff71 c5bf c33b b0bf
00000030: 83a0 86bf 9c67 14c0 894e abbf 2c76 e03e
00000040: 0e90 ab3e 7fab a83e bd6c c8bf e6cd 9abf
00000050: 0042 a0bf c7f0 0dbf 87e1 ffbf f992 7bbf
00000060: 0636 8fbf e765 f4bf 7183 3bbf b995 3abf
00000070: 4cf1 23c0 0d15 84be f8de 26c0 43de 8fbf
00000080: 57c5 c0bf 62b8 f3bf 3893 febf b67a 98bf
00000090: 4f88 83bf a067 a2bf 7088 cfbf f5f4 02c0
000000a0: 0bd2 a3bf 85e0 00bf 3f5f 0a3f dcbe a9bf
000000b0: 73d8 85bf 338c 103f ac17 b1bf 037a 38bf
000000c0: 79f1 97bf 732b 12c0 1f90 00c0 7e15 b1bf
000000d0: 7264 2ac0 4a60 d3bf efde 0cc0 9e9b d6bf
000000e0: d8fc f0bf c383 95bf c64c fcbf 8c57 19c0
000000f0: 7d00 21c0 75ef b3bf 2585 2bc0 ccd0 cabf
00000100: 1f83 a6bf 5ba4 afbf e436 a7bf 6bb9 94bf
00000110: 2c3f e9bf eb58 e4bf 948c 26c0 6ac7 1bbe
00000120: 9dd4 f8bf 50e3 6bbf 90cf e0bf ce14 69bf
00000130: 192f a1bf 6eba c3be 4d04 a4bf ff61 27c0
00000140: df6c 7a3e 53a5 84bd a48c 22bd 36d5 d9be
00000150: 30ed de3d 119f 89bd c22e abbd 9868 da3b
00000160: fe28 87bd 460a dd3c 8a83 af3d c832 cc3d
00000170: 03b8 553e eb72 343e fe33 6fbe fa39 20bf
00000180: f2aa 2dbf d07c e3be 0079 d43e 906f d83e
00000190: 916d 653e 1cf9 233e e226 c7be 01bb 623d
000001a0: 67b3 aabd b200 3b3d 1d3e ba3d 4ee4 94bc
000001b0: 47b4 b63d 0810 dfbe cc53 a9be 27de f23d
000001c0: 7170 153e 4b4c 97bc 1c1e 68bf 18b1 0e3d
000001d0: 68fb dabe bb84 23bd ec58 9bbc fb68 663c
000001e0: 022a 0c3e 0094 20be c911 64bf a64e ab3a
000001f0: 4fe4 af3c 0b2f 46bf 4c5a cdbe b690 17ba
00000200: 6b3a 713e 1941 8fbe 1f27 013e 0626 1bbd
00000210: 3599 803d 38fd 1abf d2fb 8cbd 5178 20bc
00000220: 82b2 7dbd ac80 633c ba85 733d 7387 c3be
00000230: 109c 913d 5833 debe 79a0 dbbb 9d51 933d
00000240: b778 b1bd ac09 1cbf dd80 333e 5cd9 fbbd
00000250: 9fec 5ebd 8aa7 51be ef59 2fbd 1457 9dbe
00000260: 5af6 433d 4887 043d 803f 2d3e 0b28 b5be
00000270: 6a46 d4be 3bf4 f8be 6bfe 4f3b 43f6 9c3d
00000280: 6029 8dbe 0176 283e 9d46 6e3e a67f 3b3d
00000290: c2b7 233f 58e0 b93e be41 36bc e771 343f
000002a0: 6add c93e a0f0 b23d 3f61 a5bf 0931 c83e
000002b0: 03c0 44be 8b51 453e 4f3c e63c bcc7 42bf
000002c0: 7bf6 30bf b842 46bf ff54 0cbf fcf2 cbbe
000002d0: d508 853d c4ea 31bf 79c0 043d eee6 913d
000002e0: 130e db3e c75b 4d3e 6071 81bb b3c1 c93e
000002f0: 3559 50bd 605a 6bbe 9d17 8fbd a131 133e
00000300: 0710 bdbc 08e6 e23e ca4c 5ebf a182 6cbe
00000310: 2a99 23bf db83 d03e 2e06 d23c 89c0 873b
00000320: ff7c 90bb b5ba f23e 4202 38bf b648 593e
00000330: 1d48 1dbe fcb1 46bf 662e 9f3d 2121 e13e
00000340: f803 99bf 3fc3 b2bf 3160 78be e12d 5fc0
00000350: e689 9c3d 1501 35bf 6b5e f1be b776 993e
00000360: ac58 c4bd 5770 0d3f d2c7 a73e d7ff 003e
00000370: 2816 0a3e 0537 4fbf a576 553e 3878 08bf
00000380: b7bb 94bf 6a15 85be 9d99 93be 2c22 ef3e
00000390: a248 6fbd 1a54 9bbd 15f1 a03e 05fa 223f
000003a0: 5f3b 1d3b 33c9 7a3e 442b c8bf 05dc 87bf
000003b0: 33c4 4ebf 7cb8 49bf a756 ad3e f38a 663e
000003c0: 7498 ebc0 0565 afbe 7d29 05bf 3b64 8a40
000003d0: 3a17 44c0 2d01 24bf d5c7 f0bf 7457 7bc0
000003e0: 2f31 fabd 9048 66bf e370 d5bf d596 54c0
000003f0: fea7 f9c0 1ee5 0ebf dc85 83c0 8fed b43f
-1.3701886 -1.7197129 -2.8931832 -0.40902308 -1.9838732 -1.4080025 -1.6624147 -0.91908
-0.896984 -1.7118651 -1.5425414 -1.3768238 -1.0517734 -2.3188238 -1.3383342 0.43840158
0.33508343 0.3294334 -1.5658184 -1.2094085 -1.2520142 -0.5544552 -1.99907 -0.9827114
-1.1188362 -1.9093598 -0.7324744 -0.7288471 -2.5616026 -0.2579731 -2.607359 -1.1239704
-1.5060223 -1.9040644 -1.9888678 -1.1912448 -1.0275973 -1.2687874 -1.6213512 -2.046201
-1.2798475 -0.5034259 0.54051584 -1.3261371 -1.045668 0.5646393 -1.3835349 -0.72061175
-1.1870567 -2.283902 -2.0087965 -1.3834684 -2.6623807 -1.651376 -2.2011068 -1.6766241
-1.8827162 -1.1680835 -1.9710929 -2.3959684 -2.5156548 -1.4057451 -2.6800015 -1.584497
-1.3008765 -1.3722032 -1.3063626 -1.1619085 -1.8222404 -1.7839636 -2.6023302 -0.15212789
-1.9439884 -0.92143726 -1.7563343 -0.9104737 -1.2592498 -0.38228172 -1.2813812 -2.6153562
0.24455594 -0.064768456 -0.039684907 -0.4254548 0.10885084 -0.06719793 -0.08358528 0.0066653006
-0.065996155 0.026982438 0.08570011 0.09970623 0.20870976 0.17621963 -0.23359677 -0.62588465
-0.67838967 -0.44431162 0.41498566 0.42272615 0.22405078 0.16012996 -0.38896853 0.055354122
-0.083349995 0.04565496 0.090938784 -0.01817527 0.08921104 -0.43566918 -0.33071744 0.118587784
0.14593674 -0.018468997 -0.90670943 0.03483686 -0.42769933 -0.039921504 -0.0189633 0.014063115
0.136879 -0.15681458 -0.8908964 0.0013069704 0.02147117 -0.7741553 -0.40107954 -0.00057817565
0.23557441 -0.27979353 0.1261258 -0.03787806 0.06279222 -0.6054263 -0.068839684 -0.009794311
-0.061937816 0.013885658 0.059453703 -0.38189277 0.07109845 -0.43398547 -0.0067024794 0.07193301
-0.08665603 -0.6095226 0.17529626 -0.122973174 -0.05442488 -0.20474067 -0.042810377 -0.30730498
0.04784236 0.032355577 0.16918755 -0.35382113 -0.41459972 -0.48623833 0.0031737338 0.07664158
-0.2757063 0.16451265 0.23269124 0.045776032 0.6395227 0.36303973 -0.011124073 0.704863
0.39426738 0.08737302 -1.2920302 0.3909991 -0.19213872 0.19269387 0.02810493 -0.7608602
-0.691261 -0.77445555 -0.54817194 -0.3983382 0.06495825 -0.6949885 0.03241012 0.071241245
0.42784175 0.20054542 -0.003950283 0.39405593 -0.050866324 -0.22983694 -0.06986926 0.143744
-0.023078931 0.44316125 -0.8683592 -0.23096706 -0.63905585 0.40725598 0.025637712 0.004142825
-0.004409432 0.4740807 -0.71878445 0.21219143 -0.1535954 -0.7761533 0.07772522 0.43970588
-1.1954336 -1.3965834 -0.24255444 -3.4871752 0.076434895 -0.70704776 -0.47142348 0.29973385
-0.09587225 0.5524954 0.32769638 0.12597595 0.13485014 -0.8094333 0.2084604 -0.5330844
-1.1619786 -0.259929 -0.28828135 0.4670576 -0.058418877 -0.075844005 0.3143393 0.6366275
0.0023991687 0.24490814 -1.5638204 -1.061402 -0.80768126 -0.78797126 0.33855173 0.22513942
-7.36236 -0.3425676 -0.5201643 4.324735 -3.0639176 -0.64064294 -1.8810984 -3.9272127
-0.12216412 -0.8995447 -1.6675075 -3.321706 -7.801757 -0.55818355 -4.1100903 1.4134997

bias f4 [20]
00000000: 11c1 0e40 7cfe c5be 7c64 3c3f fd47 4740
00000010: f3b8 393f 700d 0940 7e87 f73f 49a0 cfbe
00000020: b99b 5f3f 9357 ac3f ed81 763f 48a1 503f
00000030: 4694 0b40 3cb5 523f 0d74 4a3f 9aca 503f
00000040: 980b 343f 734e 3d3f c145 6e3f 3166 2b3f
2.2305338 -0.3867072 0.73590827 3.1137688 0.72547835 2.1414452 1.9338224 -0.40551975
0.8734699 1.3464226 0.96292 0.81496096 2.180925 0.8230779 0.7908333 0.81559145
0.7033019 0.7394783 0.93075186 0.66952807

weight f4 [1, 20]
00000000: e9da 2ec0 3dfd c8bf ce64 8942 3f33 4ac0
00000010: 0861 8942 afde 8bc0 d903 8ac0 8f6b a2bf
00000020: 692d 8c42 aedc 54c0 d9e8 8b42 52fb 8842
00000030: fce2 9fc0 a3c3 7c42 84f5 8a42 ff50 8b42
00000040: ea8b 8b42 6841 8942 e807 8d42 ebe8 8942
-2.7321112 -1.5702282 68.696884 -3.1593778 68.689514 -4.370933 -4.3129697 -1.2689074
70.08869 -3.3259692 69.95478 68.49086 -4.996458 63.19105 69.47952 69.658195
69.77327 68.62775 70.51544 68.95492
