data/q_value_net_1_simple_spread_3980000_GSA.pth (torch, 114831 bytes, 7 tensors)

weight f4 [160, 80]
000000 81 67 24 3f ad 69 50 be ba a8 58 3f 67 35 63 bf
       0.64220434 -0.20352812 0.84632456 -0.8875336
000010 d2 91 ec be 53 01 46 3f 19 7e 06 be c1 e1 44 3e
       -0.46205002 0.7734577 -0.1313404 0.19226743
000020 53 7d 29 bd 6d cf 56 3e 33 5b 1c be a7 a3 89 3e
       -0.041379284 0.20977564 -0.15269165 0.2688267
000030 6a 7f 0a bf 26 c7 0c 3f de 9d 1f bf 63 26 26 3f
       -0.5410067 0.54991376 -0.6235026 0.64902323
000040 df 8d cb be 09 a4 cd 3e ac 40 6d 3d 99 8b 00 3f
       -0.39756677 0.4016421 0.057923004 0.5021301
000050 4b ab 49 be 5e 04 26 3e 93 6b 59 be 7d e1 4b 3e
       -0.1969425 0.16212603 -0.21232443 0.19910236
000060 47 95 11 3e 6b d4 5c be 00 1b 5e 3e bb b2 08 be
       0.14217101 -0.21565406 0.21689987 -0.1334943
000070 f7 9b 0f 3e 49 09 4a be 7d aa 29 3f 60 c1 14 bf
       0.1402434 -0.19730105 0.6627577 -0.58107567
000080 73 fb 34 3e 66 21 9d bc d5 80 1f 3d 52 91 e1 bc
       0.17674045 -0.019180965 0.038941223 -0.027535114
000090 76 be e2 3d 20 72 e1 3e c1 7e 75 be 41 16 8c 3d
       0.11071484 0.44032383 -0.23974134 0.06840182
0000a0 66 07 6a be 31 1a 6d 3e 8e 0a 28 3e 6b f6 ce bd
       -0.22854385 0.23154522 0.16410276 -0.10105594
0000b0 23 c8 0e 3e 92 48 8e be df 38 0a 3e a9 f5 65 be
       0.13943534 -0.27789742 0.13498257 -0.22456993
0000c0 eb eb f4 3e 76 59 06 bf 09 6a aa 3b 87 50 bd 3d
       0.4783624 -0.52480257 0.0052006287 0.09243875
0000d0 05 38 c2 bc 0b 02 31 bd 36 f8 d0 3d 41 7d da 3e
       -0.023708353 -0.04321484 0.102035925 0.42673686
0000e0 7c c0 1c be ab a0 64 3e c8 54 94 be 37 4b 9b 3e
       -0.15307802 0.22326915 -0.28970933 0.30330822
0000f0 58 bd 99 3e ce c0 50 be 0c 3f 5a 3e 52 70 25 be
       0.3002727 -0.20386049 0.21313113 -0.16156128
000100 bf 2c 9e 3c 71 ab ad bd e1 1a c5 3e 54 f4 02 bf
       0.019308446 -0.084799655 0.3849707 -0.51154065
000110 4c 65 7a bd ab 3a 1b 3e 8b b5 a8 bd 3d 64 f3 3a
       -0.06113176 0.15159099 -0.082377516 0.0018569302
000120 11 3a 09 3e 46 09 06 be 10 ac ef bc 97 8e f2 3c
       0.13401057 -0.13089475 -0.02925685 0.029609008
000130 e1 45 c4 bc eb 9a 0e 3d ef d9 a2 bc 9b 36 d8 3c
       -0.023959102 0.03481571 -0.01987931 0.026393225
000140 60 4a 8e 3e a7 57 b6 3e a4 d3 43 3f f0 ce 60 3f
       0.2779112 0.35613748 0.7649481 0.8781576
000150 fa 5b 82 3c 5a c2 5f bd f2 3c 7a ba 01 74 eb 3d
       0.015912998 -0.054628707 -0.0009545825 0.11496735
000160 d1 a2 97 3d 62 fd 63 be fc 97 11 bd 6f 46 0c be
       0.07404102 -0.22264627 -0.035545334 -0.13698743
000170 b9 2b 1a 3d 8a 61 d7 3d 25 3a ce bd 3a 6d 80 bd
       0.037639353 0.10516651 -0.10069684 -0.06270833
000180 3a 2c 21 3d 48 a5 11 3d 5b 3a ee 3e 93 a8 9c 3e
       0.03934882 0.035558015 0.46528897 0.30597362
000190 83 44 76 3f 23 ee 9b 3f 77 f2 03 be 73 db 71 be
       0.9619829 1.2182049 -0.12885462 -0.2361887
0001a0 2c f4 07 be 28 bf 52 3d a5 96 c6 bd 87 f6 2f be
       -0.13276738 0.051451832 -0.09696702 -0.17183886
0001b0 4f d9 d6 bc 7a 51 1d be 5e b5 3a 3d 72 49 f6 bd
       -0.026226668 -0.15363112 0.04558312 -0.12025727
0001c0 18 24 49 bb 24 33 98 3d 85 7e cb bd c8 fe 93 bd
       -0.003069168 0.07431629 -0.09936241 -0.0722633
0001d0 2d 6c d3 3e 5c ae bf 3e cd 55 3c 3f a4 af 5b 3f
       0.4129347 0.37437713 0.7356842 0.8581488
0001e0 e3 70 52 be 40 af b4 bd 94 e1 4a 3d 13 e5 f0 3a
       -0.20550875 -0.08822489 0.049531534 0.0018378816
0001f0 da 19 1d be 58 9e 21 be af a9 35 be 5f 21 08 be
       -0.15341893 -0.1578306 -0.1774051 -0.1329398
000200 0c 73 50 bd c0 ce a3 bd 3c 2d 18 bd 35 8f b9 3d
       -0.050890967 -0.07998419 -0.037152514 0.09060518
000210 f5 97 c5 bb b7 87 65 bb 91 de df 3e d5 7d 00 3f
       -0.0060300776 -0.003502352 0.43724492 0.50192004
000220 f0 ba 43 3f b8 ab 5b 3f 8f d1 c7 bd e1 af 11 bd
       0.7645712 0.85808897 -0.09756767 -0.03556812
000230 0f 02 83 3c 3f cf 3b 3e 1c aa e6 bd 5c aa df bd
       0.015992193 0.18340777 -0.112629145 -0.10921165
000240 e6 a2 74 3d 90 98 fa bd df 4e e6 bd 48 35 3f 3d
       0.059725665 -0.1223613 -0.11245512 0.046681672
000250 30 a4 85 bc 1f d6 24 bd 44 6e bb 3d cc a2 97 3d
       -0.016313642 -0.040243264 0.09151891 0.07404098
000260 73 d8 bc 3d c5 8f ba 3d ad a1 d4 3d 24 23 2d 3e
       0.09220972 0.09109453 0.103824 0.16907936
000270 2a d8 cd 3d 33 77 d9 3d 76 a5 d7 3d 1e ca ca 3d
       0.10050996 0.106184386 0.10529606 0.09901832
000280 10 58 fe 3d 89 95 39 bc 7f e7 93 3e 38 a9 56 be
       0.1241914 -0.011327156 0.28887555 -0.2096299
000290 98 5a 95 bd 6c 04 48 3d bd bd a2 3d 10 97 86 3d
       -0.0729267 0.048832342 0.07946346 0.06571782
0002a0 ab ba bf 3d 32 5e f0 bc a2 fa c7 bd 36 32 06 bd
       0.09361776 -0.02934179 -0.09764601 -0.03276273
0002b0 4d 0e 03 be d9 b5 96 3d 34 7a aa bd 2e 3d c2 3d
       -0.12798424 0.073589034 -0.0832409 0.09484325
0002c0 72 0f a6 3c e3 23 26 3d 78 87 1d 3e e2 ca 8f 3d
       0.020271037 0.040561568 0.15383708 0.07021119
0002d0 04 48 63 3d ae 58 09 3e b2 22 bb bd d1 f3 cf bd
       0.0554886 0.13412735 -0.09137477 -0.10153926
0002e0 82 c0 83 3d 80 93 99 bd 63 a4 24 bd 40 79 2d be
       0.06433202 -0.074988365 -0.040195834 -0.16940784
0002f0 b4 9c 58 bd 66 11 58 3d 70 4f 0b 3e 00 af de b9
       -0.05288382 0.052750967 0.13604522 -0.00042473525
000300 02 45 70 3d bd eb 95 bb 71 2f 59 3c eb 85 06 be
       0.05865956 -0.0045752213 0.01325594 -0.13137023
000310 d5 eb 7e 3e f7 87 d4 3d 72 fb e0 3d 09 ef 5d 3d
       0.2489465 0.10377496 0.109854594 0.05418304
000320 79 0c 4b 3d 64 fa 2c 3c 22 22 9b 3d 64 84 b2 bd
       0.04957244 0.010557745 0.0757487 -0.08716658
000330 65 63 d0 3c 77 2e a5 bc 3a 81 67 bd bc 9c 58 bc
       0.02543802 -0.020163758 -0.056519724 -0.013220962
000340 81 7b 99 3d 56 94 1d 3d 46 54 46 bd e6 6a 2f 3d
       0.074942596 0.038471542 -0.048420213 0.042826556
000350 b4 ec 4a bd 3f 4d 96 3c be be 86 3e 0c 6f 9f bc
       -0.049542144 0.01834738 0.263174 -0.019462131
000360 75 88 34 3e 34 96 7d be 02 bc 84 3c dc cc 47 3d
       0.17630179 -0.24764329 0.01620293 0.048779353
000370 e7 d3 3d 3e 12 c8 0b 3d 88 f4 46 bd 27 1b 53 bd
       0.18537866 0.03412635 -0.048573047 -0.051539566
000380 cc da 92 bc c4 fd 84 bc f9 5b f7 bd 36 4d 46 3d
       -0.017926596 -0.016234286 -0.12078089 0.048413478
000390 df 0b ef bd 7f df c7 3d ac bd e9 bd 33 9f 8d bd
       -0.11672186 0.09759425 -0.1141313 -0.069151305
0003a0 b7 79 28 3d 5b 7e 85 bc db 4e a1 bb bf f9 8c bc
       0.0411317 -0.016295603 -0.0049227304 -0.017208932
0003b0 d9 69 70 bb 60 0a 85 bc 96 82 1c 3c 57 8c 3a bd
       -0.0036684184 -0.016240299 0.0095526185 -0.045543995
0003c0 53 3b 4d 3e 1f 17 8e 3e 3a 2b 9d bd c3 a0 fb bd
       0.20042162 0.27752015 -0.076742604 -0.12286522
0003d0 77 83 54 3e 42 c1 77 bd af 31 81 3d 75 9a 18 3e
       0.20753275 -0.06048704 0.063083045 0.1490267
0003e0 8a eb aa 3d 8e 13 7f 3d cb a3 55 3e 24 31 68 3d
       0.08345707 0.06227451 0.20863263 0.05668749
0003f0 18 73 8e 3e e1 16 97 3e 96 88 f7 bd 87 45 1f 3e
       0.27822185 0.29509643 -0.120865986 0.15553866

bias f4 [160]
000000 33 12 5d be ff 4d b0 3e 22 46 69 3f 40 ce 7b bf
       -0.21588974 0.34434506 0.9112264 -0.9836159
000010 64 f2 b5 3e 32 4f 0c bf 37 74 a1 3f 27 b4 ea be
       0.35536492 -0.5480834 1.2613591 -0.4584057
000020 2b c4 17 bf 68 ac 16 bf 1e ed 9a be e1 52 2c 3f
       -0.59283704 -0.5885682 -0.3025903 0.67313963
000030 9f 32 03 3c cb 5b 19 bf 8a f3 80 3f 36 4e c4 3f
       0.0080076745 -0.5990569 1.0074322 1.5336368
000040 9b 02 ec 3e c2 76 8f bc 9d 6e b2 bd 2e 2c 1b bd
       0.46095738 -0.017512683 -0.08712504 -0.03788393
000050 d6 5f 46 bd 78 5f 02 bf 50 76 60 bf 5b 4c 39 3f
       -0.04843124 -0.50926924 -0.8768053 0.72382134
000060 b9 87 d4 3e 6c 85 a4 be 1b af aa 3e 3a 59 75 bd
       0.41509798 -0.32133043 0.3333672 -0.059899546
000070 94 cd 23 bf 93 85 02 bd 6e e2 3a be 00 c1 8f 3c
       -0.6398556 -0.031865668 -0.18250439 0.017548084
000080 33 84 87 bf b1 ad 72 3f 8e 3b ff 3e b1 46 ef bc
       -1.0587219 0.9479628 0.49850124 -0.029208513
000090 b5 a8 a5 3f 73 ea 45 be 79 93 74 3b 98 42 4b 3e
       1.294211 -0.19327717 0.0037319346 0.19849622
0000a0 58 77 ba bf 05 10 58 bf 7b bb 1e 3d 39 93 f2 be
       -1.4567671 -0.84399444 0.038753014 -0.47377947
0000b0 12 01 2b 3f 60 1e 3c bf 0d 90 05 bf 65 2c 2c bf
       0.6679851 -0.7348385 -0.5217293 -0.6725524
0000c0 32 4f 9b 3e f7 45 37 be 50 f1 dd 3e f9 d1 8b be
       0.3033386 -0.17897783 0.4334817 -0.27308634
0000d0 1f 28 1f 3f 29 e8 2f 3f 84 0b 6b 3f 14 bc 8a bf
       0.62170595 0.68713623 0.91814446 -1.0838647
0000e0 71 64 50 be 2e 97 14 3e 66 25 ad bf b7 64 28 3e
       -0.20350815 0.14510795 -1.3527038 0.1644467
0000f0 b1 60 50 be 29 56 8f be d6 63 06 bf 62 b7 80 3f
       -0.20349385 -0.27995422 -0.5249609 1.0055964
000100 36 41 a4 3d 44 f0 ae 3f a4 5e fd be 55 2d 17 bd
       0.080202505 1.3667073 -0.49486268 -0.036908466
000110 95 89 30 bf f0 ab ec be ce 21 5c 3e cf 1a e7 be
       -0.68959934 -0.46224928 0.2149727 -0.4513764
000120 ec 28 c0 bd 48 9b dc be 18 21 5e 3f c7 51 49 3f
       -0.09382805 -0.4308722 0.8676925 0.7864041
000130 c0 8f 7b 3f 55 e4 88 bf 5e 9f 17 be 85 86 25 3f
       0.9826622 -1.0694681 -0.14806888 0.64658386
000140 c4 86 c7 be f3 14 5a 3f 09 c3 2a bf c5 0c 62 bf
       -0.38970006 0.85188216 -0.6670385 -0.88300735
000150 08 18 09 bf 91 57 e0 3d 7c 74 4c 3f 8d c2 c4 be
       -0.53552294 0.10954202 0.7986524 -0.3842968
000160 1f 7d 94 3e a1 2c b5 be dc ad c5 3e a4 0b fb be
       0.2900171 -0.35385612 0.38609207 -0.4903232
000170 dc 65 82 be 17 6c b2 3d 33 b3 4b 3f 9c fe 93 3d
       -0.25468338 0.08712023 0.7957031 0.07226297
000180 fd c5 e6 bf e7 8f 8a 3e de c5 8e be 02 39 88 3f
       -1.8029171 0.27062914 -0.27885336 1.0642397
000190 e0 05 8c 3f 45 ad 33 bc 92 84 21 3f 77 ff 10 3c
       1.0939293 -0.010966604 0.6309291 0.00884997
0001a0 c8 14 82 3e e3 81 39 3f 96 ee d8 be 2f ab c5 bd
       0.2540648 0.72463816 -0.42369527 -0.09651791
0001b0 79 05 4a be 2e 3a 53 3f f2 f2 c8 3e 5a 61 10 bf
       -0.1972865 0.8251065 0.39247853 -0.56398547
0001c0 e8 3f a4 be df 4e 83 3f cf fd f0 3c 35 58 97 3c
       -0.32080007 1.0258445 0.0294179 0.018474678
0001d0 b8 2b 56 bf 14 60 30 bf 89 44 86 3e 3c ae 72 3e
       -0.8366046 -0.68896604 0.26224163 0.23699278
0001e0 54 e0 c8 3e 11 4e 7f bf 1e 90 99 3f 46 30 74 bd
       0.3923365 -0.99728495 1.1997106 -0.05961635
0001f0 ba 97 13 bf 69 4a 08 3f 6c 2a 3b bf a5 bf 34 bf
       -0.5765339 0.5323854 -0.73111606 -0.70604926
000200 5e 2d d9 be 2a 45 f4 bd 72 f3 d3 bd 2a e3 79 3e
       -0.42417425 -0.119272545 -0.10349168 0.24403062
000210 9e 01 79 3f 05 a1 91 3f 82 c0 51 bd 78 7e cb 3e
       0.9726809 1.1377264 -0.05120898 0.39744925
000220 fa 0d 6f bf 16 c8 0a bf 65 85 25 be 1b be 5a bc
       -0.933807 -0.54211557 -0.16164167 -0.013350989
000230 ec bd bb 3f e6 cc 59 39 37 89 3b be bd 2a 76 3c
       1.4667335 0.00020771063 -0.18314062 0.015024838
000240 5c c2 02 be 4b fc 30 bf 73 17 61 be bc 2e 7c 3f
       -0.12769455 -0.6913497 -0.21981601 0.9850881
000250 31 4f 40 3f 92 d9 05 bf 10 89 11 bf a5 3e 63 3f
       0.75120836 -0.5228511 -0.56849766 0.8876746
000260 27 55 16 3f 65 91 fd 3d db 29 e1 bd 32 22 9b 3e
       0.5872368 0.123812474 -0.109943114 0.30299526
000270 45 67 f0 bc f5 1a bb bf 28 f7 3b bf 6a 88 7f 3f
       -0.029346118 -1.4617602 -0.73424006 0.99817526

weight f4 [80, 160]
000000 74 e5 0d be 0a 88 6a bf 51 92 7c 3d 9a c7 64 bd
       -0.1385706 -0.9161383 0.061662976 -0.055854417
000010 c2 50 c8 be 46 12 e5 be 7b f0 84 3d c2 bd 5f 3e
       -0.39124113 -0.44740504 0.064911805 0.2184973
000020 3b 08 c4 bd 81 c8 23 bd 82 c2 1a 3d 85 89 0a be
       -0.09571882 -0.039986137 0.037783153 -0.13529022
000030 03 f5 77 be 99 3f 15 bf 8b 85 57 3d 9d 3b d7 be
       -0.24214558 -0.5830017 0.05261759 -0.4203767
000040 ed cf af 3c 40 66 cc be 6d 1f 82 3d 89 85 52 bd
       0.021461451 -0.3992176 0.0635365 -0.05139688
000050 42 e0 b0 3b ae 83 bc 3c 34 17 89 be 24 57 54 3e
       0.0053978274 0.023012009 -0.26775515 0.20736367
000060 0e f7 c4 be f0 85 e9 3d 41 af 24 bb 63 d2 1f 3e
       -0.38469738 0.114025 -0.0025128874 0.156076
000070 d3 8e 50 be 1a d8 d9 be 90 ad 56 bb 0f c7 a9 be
       -0.20366983 -0.42547685 -0.003275726 -0.33159682
000080 67 59 8f 3d 8a a1 83 bf b5 d3 95 bc 7c ae 3e 3e
       0.06999474 -1.0283673 -0.018289426 0.18621248
000090 c9 6a 51 bf bb 10 08 be 7a 46 ad be 71 d0 f6 be
       -0.81803566 -0.13287632 -0.33842832 -0.48205903
0000a0 a2 0a 2a be 93 98 2b bf 32 9d 26 3e cc 01 5e be
       -0.16605619 -0.67029685 0.16270903 -0.21680373
0000b0 be cf ac bc a9 78 f2 3e a9 d9 50 3e b1 40 1f bf
       -0.021095153 0.4735768 0.20395531 -0.62208086
0000c0 34 8b 90 bd a8 f6 83 bf 51 4c 0d be 15 55 85 3e
       -0.07057801 -1.0309649 -0.13798644 0.26041475
0000d0 91 5d 51 be dd 98 d9 3c fd 88 59 be 7b 2d 49 3d
       -0.20445849 0.026562149 -0.21243663 0.04911564
0000e0 04 78 0d 3e c0 78 9f be 31 8d ee 3e a5 27 92 3e
       0.13815314 -0.31146812 0.46592095 0.2854587
0000f0 2e 43 94 3e 00 cf 74 3d ef a7 9c 3d 06 81 53 3d
       0.28957504 0.059767723 0.07649218 0.05163672
000100 04 3c d5 bd a7 2b b4 be 0e 57 a8 bd b7 96 03 3f
       -0.10411838 -0.35189554 -0.08219729 0.5140185
000110 7b 2e a9 be 96 37 2e 3e b4 7c 00 bf 5e 8a 1b 3e
       -0.33043274 0.17013392 -0.5019028 0.15189502
000120 16 f6 2d be db 61 70 bb e1 75 e2 be 6e c9 a5 3d
       -0.16988406 -0.003667942 -0.4423056 0.0809506
000130 95 ea 08 bf 0e 2b 6d be ca 57 b2 bd c3 67 48 bd
       -0.53482944 -0.23160955 -0.08708151 -0.04892708
000140 de 70 94 bd e9 19 6d be 52 3f 36 3f cf 15 54 3d
       -0.0724809 -0.23154415 0.7119037 0.05177861
000150 60 9d b1 bd 87 56 9e be 71 f3 cb be 75 2b 1e 3f
       -0.08672595 -0.3092539 -0.3983417 0.6178506
000160 7e ff 97 be 1e 65 12 bf 03 d3 f4 be 84 1a fb 3c
       -0.29687113 -0.5718554 -0.4781724 0.030652292
000170 59 38 71 bf 09 d2 44 3c 53 75 24 bf 22 4a 7e 3e
       -0.94226605 0.012012967 -0.6424152 0.24832967
000180 2b 59 13 be fb 4d 2f bf e8 b6 f3 be d7 a8 0d bf
       -0.14389484 -0.68478364 -0.47600484 -0.55335754
000190 e9 2e 5f bc 86 96 a9 3d 79 e3 18 bf b6 3d 8d 3e
       -0.013622024 0.08280663 -0.59722096 0.27586144
0001a0 5a 42 c7 be c9 1b 48 3e e3 57 9c bf 54 48 0f bd
       -0.3891781 0.19541849 -1.2214321 -0.034981087
0001b0 69 52 e7 be 7a 20 86 bc 68 d1 38 bf e7 0e 4c 3e
       -0.4518006 -0.016372908 -0.7219453 0.1992756
0001c0 ef a4 9e be 7b ea 95 be d2 6b 3c bf 32 7b 3c 3e
       -0.3098521 -0.29280457 -0.7360202 0.1840637
0001d0 29 33 89 be d4 1d 3b bd 70 4d b8 3d ba bd 14 3e
       -0.26796845 -0.045682743 0.08999145 0.145255
0001e0 53 36 82 3e d1 3b e1 bf c2 3d 6f be 6d 88 37 3d
       0.2543207 -1.759638 -0.23363402 0.04480784
0001f0 0d 67 c9 3d c2 95 47 bf 9c ed 23 bc 2d 6d 0a 3f
       0.098341085 -0.7796289 -0.010005381 0.5407284
000200 c7 f4 12 be e2 9f bb 3e 7b 5d cb bc cb 8a c2 39
       -0.14351188 0.36645418 -0.024824848 0.00037105972
000210 eb c4 e0 bd 04 a6 e6 bd 27 fd c5 3e 2b c4 e6 bc
       -0.10975059 -0.11262134 0.38669702 -0.028169712
000220 d1 e9 a8 bf 56 5e ae be 2c ec 8c 3e 78 4d 18 be
       -1.3196355 -0.34056348 0.27523935 -0.14873302
000230 09 c0 8e be aa 60 97 be b8 1e a9 be e4 e0 81 3e
       -0.27880886 -0.29565936 -0.3303125 0.2536689
000240 a5 3b 12 3e 71 fe 69 be fe bd 75 3f 29 5c bd bd
       0.14280565 -0.22850968 0.9599303 -0.09246094
000250 4e 18 bf 3d e5 d8 b2 be 34 a4 61 be 9c 1c 92 bd
       0.093308076 -0.34931102 -0.22035295 -0.07134363
000260 ec 18 1b 3f 33 82 98 3d 67 96 4d bd 69 61 00 be
       0.605849 0.074467085 -0.050192263 -0.12537159
000270 9d dd b0 be 4b 53 44 bd c1 f1 8f 3e 28 7a 16 bf
       -0.34544078 -0.047930997 0.2811413 -0.58780146
000280 1e 0e e9 bc 53 84 36 be 8a 36 6f bd 98 d2 94 be
       -0.028449114 -0.17823915 -0.058401622 -0.2906692
000290 47 ca c5 bd 22 06 21 3d 45 42 e4 3a f6 82 cb 3d
       -0.09657722 0.03931249 0.0017414769 0.09937088
0002a0 bc b9 99 be 23 94 50 be 92 bc 46 be 8a f6 05 bf
       -0.30024517 -0.2036901 -0.19407871 -0.52329314
0002b0 2a 28 2c 3d e0 da 85 3e 8b 77 73 bd 86 68 85 3d
       0.04203049 0.2614355 -0.059440177 0.06514077
0002c0 33 f5 37 3e 03 f7 96 bd b2 c0 0f bd db e2 a5 3e
       0.1796463 -0.073713325 -0.035095878 0.3239964
0002d0 c5 af 96 be 26 08 3e bd 44 45 46 3d 06 f9 ed 3c
       -0.29430977 -0.04639449 0.0484059 0.029049408
0002e0 5c 48 5d be 2f 8a a4 3d 9c e8 3b bd 00 28 83 3d
       -0.21609634 0.08034169 -0.04587613 0.06404114
0002f0 6c b9 9e 3e c4 b7 8d 3e 0e 78 e4 3d 7c f6 29 3e
       0.3100084 0.27679265 0.11155711 0.16597933
000300 69 f1 8e 3d 8b 33 9a 3e 86 37 79 3d ed b8 c3 3d
       0.06979639 0.3011745 0.060843967 0.09556756
000310 43 84 a9 3d 2b 64 57 be 18 0f 9b be 8a 63 0c be
       0.0827718 -0.21034305 -0.30284953 -0.13709846
000320 ea a7 2b be 13 ae 90 be 72 85 a4 3d 89 64 33 3e
       -0.16763273 -0.28257808 0.08033265 0.1751882
000330 37 ed 9a bd 24 f7 51 be 0b 0d 42 3c 92 e1 5f 3f
       -0.075647764 -0.20504433 0.01184393 0.8745357
000340 99 c5 99 be e2 81 e5 3e 8e fb 45 3d d8 e5 c4 3c
       -0.30033568 0.44825655 0.048335604 0.02403538
000350 6c b1 91 bd 35 d1 03 bd 9d 35 81 bd b0 13 0f be
       -0.07113919 -0.032181937 -0.06309054 -0.13972354
000360 27 e2 a2 bc 57 29 2a be d4 66 06 be d3 e2 ca bb
       -0.019883228 -0.16617332 -0.13125163 -0.0061915903
000370 15 24 7f be 78 d4 0a be 57 23 c2 3e d0 3d 55 bd
       -0.24916108 -0.13557613 0.37917587 -0.052060902
000380 c0 c8 0e 3e 2b 96 33 3e 99 b9 60 be af 1b e1 3d
       0.13943768 0.17537753 -0.219458 0.10991608
000390 d3 e8 d1 bd 41 5d 31 bd 3d 2c 30 3e 96 c7 93 3d
       -0.10249486 -0.043301824 0.17204376 0.07215802
0003a0 14 d1 90 be 3c 4f 17 3f 54 a9 7b 3e 3e 29 2f be
       -0.28284514 0.5910528 0.24576312 -0.17105576
0003b0 4d 3d 16 be 25 dc f5 be d4 32 02 be 52 c7 ce be
       -0.14671822 -0.4801952 -0.12714702 -0.40386444
0003c0 d6 d8 22 3c 5e 9c b6 bd 43 6c 21 3e 93 c9 2e be
       0.009939393 -0.089165434 0.15763955 -0.17069082
0003d0 75 b8 96 3c 57 74 50 be cb 72 42 3d cd 06 7f 3e
       0.018398503 -0.2035688 0.047472756 0.24904938
0003e0 1d e4 cd bd 64 46 b3 3d aa 07 83 be b8 9f 86 3d
       -0.10053275 0.0875366 -0.25591785 0.06573433
0003f0 3b a0 06 3f e7 43 d7 3a 99 66 17 be 8d d3 80 3d
       0.5258824 0.0016423435 -0.14785232 0.0629035

bias f4 [80]
000000 e6 3e 17 be 34 5e 5a bd af 32 4c 3e d7 da 83 3e
       -0.14770088 -0.053312495 0.1994121 0.257529
000010 2f f0 a4 3e d9 8c 70 3f cc fe 4f be a7 81 f1 3e
       0.32214496 0.93964916 -0.20312041 0.4716923
000020 5c cd ad bc 5e fc cb 3e 75 53 26 3f 55 72 f0 3e
       -0.021216087 0.39840978 0.64971095 0.46962228
000030 7a c6 82 3e 3c 9c a2 3e 4b 83 b0 3e 58 ef 06 3f
       0.2554205 0.31759822 0.3447517 0.5270896
000040 8c 5a 7f 3e d4 27 2a 3f 9d 7f ce 3e 84 6d ac 3e
       0.24936885 0.6646702 0.40331736 0.33677304
000050 40 d6 28 3f 8a 80 50 3e 4c 54 9c bc 24 ad 73 3e
       0.6595192 0.20361534 -0.019083165 0.23796517
000060 4f ef db 3e 88 ed 80 3f 01 3d 7b 3d b4 f9 aa 3e
       0.42956015 1.0072489 0.061337475 0.33393633
000070 12 0d 60 3e 75 1d b5 3e 77 0e e1 3e 87 c9 97 3e
       0.21879986 0.35374036 0.43956348 0.2964594
000080 a6 1c 78 3d ab c1 26 3f f5 0f 5a be 6c 11 b9 3e
       0.060574196 0.65139264 -0.2129515 0.36146104
000090 65 8e b5 3e 8c 5f 82 3e 36 9e b9 3e e0 47 35 3f
       0.354602 0.2546352 0.36253518 0.708128
0000a0 24 75 16 3f a9 fc 25 3e b0 e6 18 3f 2c b0 c6 3e
       0.5877249 0.16209663 0.59727 0.38806283
0000b0 68 41 6f 3e f3 3e b6 3e 9f 5b a0 3e fd a0 c2 3e
       0.23364794 0.355949 0.313199 0.3801345
0000c0 2c 1a e6 3e ad da 4f bc d7 8b 9e 3e 42 38 1b bf
       0.44941843 -0.012686414 0.30966064 -0.6063272
0000d0 66 99 ff 3e 13 a1 44 3e e2 bf 8a 3e ef 0d 87 3e
       0.4992172 0.1920207 0.2709952 0.26377818
0000e0 e3 b5 8a 3e ed f3 c9 3e fc 16 82 3f 89 02 0e be
       0.27091894 0.39443913 1.0163264 -0.13868155
0000f0 f6 c9 2c 3e b6 46 11 3f 9d 98 25 3e 0a 60 4c 3f
       0.16873917 0.5674852 0.16171499 0.79834044
000100 69 63 20 3e aa c4 5a 3f b5 02 a9 3e bf 96 4d 3f
       0.15662922 0.85456336 0.33009878 0.80308145
000110 89 f9 52 3e b7 4d 28 3f 9f a8 00 be b2 ee 33 3f
       0.20603003 0.65743583 -0.12564324 0.70286095
000120 b8 f4 93 3e df 06 23 3f a0 a2 2e be 32 76 46 3f
       0.28897643 0.6368236 -0.17054224 0.775241
000130 ce 36 d4 be 8b 5e bf 3e b6 c7 88 3e ca eb 80 3f
       -0.41448063 0.37376818 0.26714867 1.0071957

weight f4 [20, 80]
000000 93 fa 2f bf 7d 02 c4 3f fb 68 58 c0 2d cf 89 c0
       -0.6874172 1.5313259 -3.3814075 -4.30654
000010 24 fe ac 3c 3f 38 a6 3e dd e5 90 bf 1a 00 86 3e
       0.021117277 0.32464787 -1.1320149 0.26171952
000020 1f 28 0d c0 1b 73 1e 3e c9 15 53 3f d3 63 7a 3f
       -2.2055738 0.15473597 0.82455117 0.9780857
000030 6f 53 bb bd 55 90 4e 3f dd 67 b0 bf 69 ae f1 3e
       -0.09146773 0.80688983 -1.3781697 0.47203377
000040 38 47 8c 3f 24 a0 db 3a 36 9b 56 be 4d e2 98 3e
       1.0959234 0.00167561 -0.20957646 0.29860154
000050 83 a8 5a 3e b1 e4 a1 3d 65 41 cb 3f ab 69 ce 3c
       0.21353345 0.079049475 1.5879332 0.02519687
000060 f8 eb a3 bc 03 f2 b0 3e 6a ff 25 be 92 4b f8 3c
       -0.02000998 0.3455964 -0.16210714 0.030309472
000070 6e 06 fe 3f 83 f7 eb bc b5 e0 2c 3d 71 88 ef 3f
       1.9845712 -0.028804546 0.042206485 1.8713514
000080 0e 34 cd 3f 24 b3 31 3e dd e1 4a be 32 3b 6f 3e
       1.6031511 0.17353493 -0.19812723 0.23362425
000090 54 5b ce be 9a a9 85 3e 6e 0b 75 3f 03 f5 6d 3e
       -0.40304053 0.26105958 0.95720565 0.23237996
0000a0 11 98 5f 3f fa 0e 73 3e ba 2a 1c 3f 31 ea b7 3e
       0.8734141 0.23736182 0.61002696 0.3592086
0000b0 ea f6 ee 3b 5f 16 09 3e 47 29 f9 3e 71 32 37 3e
       0.007292618 0.1338744 0.48664305 0.17890336
0000c0 91 62 72 3d fb cc ca 3d 56 0a 8b 3f cd f1 c5 bf
       0.05917603 0.09902378 1.0862529 -1.5464417
0000d0 52 12 ba 3e b3 f6 71 bd 9f 4e 1a bd b9 58 45 be
       0.36342102 -0.05907316 -0.037672635 -0.19272126
0000e0 44 58 c9 bf 96 be b4 3e dc 28 cc 3e aa 8c cd bf
       -1.5730062 0.35301656 0.39874923 -1.6058552
0000f0 6a 49 85 3f 7e 45 31 3f 76 1e 0e 3e b9 5d 76 3e
       1.0413029 0.6924666 0.13878807 0.2405919
000100 fa 16 28 bf 1b c4 85 3d ed 97 fd 3e d8 23 a7 3e
       -0.6566006 0.06531545 0.49529973 0.32644534
000110 31 5e ed bf 11 10 48 3e 5a d1 61 be 2c c5 05 3d
       -1.854437 0.19537379 -0.22052518 0.03265874
000120 53 9d ef 3e 12 f5 8a bc 7b ed 66 bc 69 cd 3f 3e
       0.46799716 -0.016962562 -0.014094706 0.18730702
000130 83 ba 3e 40 1e d8 ba 3d 23 60 1f be e4 63 bb 3e
       2.9801338 0.09123252 -0.15564017 0.36599648
000140 b9 8b 3d bf b6 bd ad 3f a0 b0 60 c0 3a fd 89 c0
       -0.74041325 1.357352 -3.5107803 -4.3121614
000150 ea dd f4 bb a3 5a 8f 3e fa 62 82 bf e9 51 6c 3e
       -0.0074727433 0.27998838 -1.0186455 0.23078121
000160 03 51 16 c0 58 8d 01 3e 75 d5 1f 3f 4c 8b 78 3f
       -2.3486946 0.12651575 0.62435085 0.9708755
000170 93 9f 11 be f6 a8 3d 3f 42 d2 ab bf cd c0 bd 3e
       -0.14221029 0.7408594 -1.342354 0.37061158
000180 ad 92 74 3f a9 4b d5 3b c4 2f 39 be 97 a0 0e 3e
       0.9553631 0.0065092635 -0.18084627 0.13928448
000190 ca fb 98 3e c8 68 10 3c 28 0a bd 3f ed da 4a bd
       0.298796 0.008814044 1.4768724 -0.04952519
0001a0 18 ff 04 be a4 9d 40 3e 84 11 57 be 31 39 0c be
       -0.12987936 0.18810135 -0.21002775 -0.13693692
0001b0 3b f1 08 40 cc a1 ef bd 55 6e e3 bd 18 48 df 3f
       2.1397235 -0.11700782 -0.111050285 1.7443876
0001c0 e4 aa d5 3f 5d 43 9e 3b 86 b9 0e be 23 7e e7 3c
       1.6692777 0.0048298077 -0.13937959 0.028258389
0001d0 84 fa a1 be 9e 58 64 3e 29 ec 85 3f df c3 12 3d
       -0.3163644 0.2229943 1.0462695 0.03583133
0001e0 fc 73 86 3f 28 d4 7d 3e 5a 96 27 3f 7e c1 6c 3e
       1.0504146 0.24787962 0.65463793 0.23120686
0001f0 56 57 80 bc e2 dd e0 3d 3a 44 c0 3e 31 7d 27 3e
       -0.015666645 0.10979821 0.37552053 0.1635635
000200 54 1b a8 3c 43 e1 82 3e dc 41 86 3f a6 38 b3 bf
       0.020520844 0.25562486 1.0488849 -1.4001663
000210 11 25 ee 3e 1a be 83 bd 17 03 12 be 12 14 c8 be
       0.46512654 -0.06432743 -0.14258991 -0.39077812
000220 80 44 bc bf 60 21 ad 3e 3b 2f 9b 3e a1 3d ca bf
       -1.4708405 0.33814526 0.3030947 -1.5800058
000230 83 dd 96 3f 7d c5 30 3f a9 ec 0a 3e eb 8a 99 3d
       1.178635 0.69051343 0.13566841 0.074971996
000240 59 a2 37 bf 41 2f 53 3d 26 ec 15 3f f3 9c 67 3e
       -0.717321 0.051558737 0.5856346 0.22618465
000250 e5 b0 da bf f5 79 87 3c de a1 3f be b4 09 e4 3d
       -1.7085234 0.016537646 -0.18714091 0.11134663
000260 38 5b f2 3e 83 60 38 3c 34 96 ca 3a de e7 30 3d
       0.4733522 0.011253479 0.0015456141 0.043189876
000270 b9 88 3a 40 6c 34 51 bd b8 67 6b be f2 64 9c 3e
       2.914595 -0.051075384 -0.22988784 0.30545765
000280 ed 6e 50 bf 5e 10 b7 3f 61 db 62 c0 3e 4c 89 c0
       -0.8141926 1.430187 -3.5446398 -4.290557
000290 fe 1b e1 bd 7d 5a 0c 3e fd 96 94 bf c8 d3 0e 3e
       -0.10991667 0.13706394 -1.1608578 0.13947976
0002a0 ed ee 15 c0 c3 d0 42 bd 4d e4 0c 3f c5 4f 84 3f
       -2.3427079 -0.047562372 0.5503586 1.0336844
0002b0 50 bc 13 be 4f 93 2a 3f e1 cf bf bf 75 a8 b0 3e
       -0.14427304 0.66631025 -1.4985315 0.34503523
0002c0 66 6a 4f 3f a6 c3 8f bc 1d 07 c1 be 8b d1 46 3e
       0.81021726 -0.017549347 -0.3770074 0.19415872
0002d0 08 05 c2 3d 37 06 63 bc 7a 4f e5 3f 20 0e a9 bd
       0.09473616 -0.013856462 1.7914879 -0.08254647
0002e0 0c 6c 59 be cf cc af 3e 2c 4b 20 be 4e d7 3a be
       -0.21232623 0.34335944 -0.15653676 -0.18246195
0002f0 ec bf e3 3f 6a bf b3 bc 4b 4d 0c be e8 ef bd 3f
       1.7792945 -0.02194186 -0.1370136 1.4838839
000300 da 5c ae 3f a4 27 bf bd 5d 95 78 be b2 a3 e0 3d
       1.3622086 -0.09333733 -0.24275728 0.109687224
000310 fb d6 a9 be 35 3e 00 3e f1 f2 6d 3f f7 37 2f bd
       -0.3317183 0.1252373 0.92948824 -0.04277798
000320 0f 5a 48 3f c1 29 8e 3e 13 b3 0e 3f 3c 37 60 3e
       0.7826242 0.2776623 0.55741996 0.2189607
000330 be 1a ae 3d 95 a2 d1 3d 7d 5f a5 3e c4 c8 3a 3e
       0.085011944 0.10236088 0.32299414 0.18240649
000340 a8 5f aa bd cb db 19 3e c1 a2 74 3f 7d 5d c9 bf
       -0.08319026 0.1502525 0.9556084 -1.5731655
000350 f4 d5 a8 3e 51 90 f8 bd 43 3e 4d be 55 62 f1 be
       0.32975733 -0.12136901 -0.20043282 -0.47145334
000360 08 ff c1 bf 8a 79 3a 3e 08 8b 9f 3e f5 ff dc bf
       -1.5155954 0.18210426 0.3116076 -1.7265612
000370 88 d5 7e 3f 81 c5 1c 3f eb 56 1e bd 7a 6a 47 3d
       0.9954457 0.6123887 -0.03865711 0.04868553
000380 2a c3 16 bf b6 8c dc bc 7a d4 fa 3e 86 de 83 3e
       -0.58891547 -0.026922565 0.48990232 0.2575571
000390 77 ee f2 bf b8 32 14 bd 23 69 ad be 06 7f c3 3d
       -1.8979024 -0.03618118 -0.33869275 0.09545712
0003a0 63 c7 9c 3e a2 ce 35 be 13 fc f8 bd 5a e0 bd 3d
       0.3062087 -0.17754605 -0.12157454 0.09271307
0003b0 e1 f3 34 40 41 9c 30 3d cb 86 89 be 8c 75 63 3e
       2.8273852 0.043117765 -0.2686065 0.2221281
0003c0 d2 d0 08 bf df db d5 3f 1b 2d 62 c0 03 4e 86 c0
       -0.53443635 1.6707724 -3.534003 -4.197023
0003d0 ae 87 31 3d bf 07 5a 3e 21 73 7b bf 4b 60 3b 3e
       0.043342285 0.21292017 -0.9822255 0.18298452
0003e0 7b 6f 1a c0 43 c3 1d 3e 9c 28 54 3f 7c 41 82 3f
       -2.4130542 0.15406518 0.82874465 1.0176234
0003f0 a4 ef a2 bd 1c 39 4e 3f 3e 09 ab bf d9 5f fd 3e
       -0.07955864 0.8055589 -1.3362195 0.49487188

bias f4 [20]
000000 cb 52 06 3f 61 f3 f1 3e 35 68 e9 3e 5d e4 29 3f
       0.5247008 0.47255996 0.45587316 0.6636408
000010 83 6e 48 3d 1e 34 e4 3d 93 eb 01 3e 19 a9 d0 3d
       0.048933517 0.11142753 0.1268752 0.10188503
000020 57 b8 bb 3d 94 45 df 3b 50 e9 52 3e 0a 00 72 3d
       0.091660194 0.0068137143 0.20596814 0.05908207
000030 af 37 84 3d fd 7e a4 3e 1e f8 35 3d e2 cd 0c 3d
       0.06455933 0.32128134 0.044426076 0.034376033
000040 40 17 8e 3d 47 1a ab 3e ac d2 0b 3e f6 ae 07 3f
       0.06938028 0.33418486 0.13654584 0.53001344

weight f4 [1, 20]
000000 60 30 9c bf 55 6f 97 bf 85 79 99 bf 0d f3 92 bf
       -1.2202263 -1.1830851 -1.199021 -1.1480423
000010 ff be 4a 3f e3 ab 45 c0 a8 64 16 3f ba d8 2d 3f
       0.79197687 -3.0886161 0.5874734 0.67908823
000020 80 f5 22 3f 36 17 4c 3f 3f 00 fe bf 59 41 19 3f
       0.63655853 0.7972292 -1.9843825 0.5986534
000030 fa ec 13 3f fb c7 df bf 4b f2 1f 3f 29 c4 53 c0
       0.5778347 -1.7482904 0.62479085 -3.3088477
000040 56 87 29 3f bc 6d 94 bf 92 85 18 c0 b9 60 90 bf
       0.6622213 -1.1595988 -2.3831525 -1.1279517
