data/q_value_target_net_2_food_collection_3990000_GSA.pth (torch, 138025 bytes, 7 tensors)

weight f4 [176, 88]
-0.015075641 0.25223738 0.22312413 0.08647997 -0.049641788 -0.059887655 0.060798295 0.061374534
0.087176844 0.08065959 0.1624243 -0.016450148 -0.5210456 0.22439843 -0.14615859 -0.0368303
0.11276197 -0.07039982 0.09070194 -0.10742764 0.00435151 0.27217072 0.19180606 -0.08460633
0.09258054 -0.057398155 0.049159337 0.078793734 0.07116509 -0.007076174 -0.014144037 -0.06706485
-0.3790464 0.2511353 0.023865335 -0.10922268 0.16973 0.048290864 0.08174773 -0.073468395
0.10496921 0.34839126 0.60012406 -0.18379086 -0.06695308 -0.048199452 -0.135903 -0.04000493
0.0839264 0.05729488 -0.0957403 0.083962634 -0.5106529 0.2627606 -0.17630623 0.03165574
-0.17012131 -0.028831165 -0.2657175 0.029305533 0.049020033 0.23434429 0.04981326 -0.06446888
-0.02923826 0.0010716742 -0.07335447 -0.067204304 -0.011484419 -0.07714846 -0.010734805 0.01907555
-0.34232673 0.13379163 -0.031291205 -0.08584546 -0.03819138 -0.05557923 0.1435265 -0.05750613
0.017333955 0.0160596 0.028354542 0.0028093336 0.063703485 -0.003621018 0.0016254274 0.0075326706
-0.40432194 0.2645491 -0.06510707 -0.04950058 -0.25728098 0.5748564 -0.034826677 -0.101872824
0.032054614 -0.15389901 -0.015586521 0.056724306 0.017670998 -0.15342095 0.014885011 -0.034533154
0.05462134 0.005292853 -0.032857306 0.17479607 -0.27724788 0.29575622 -0.1260405 0.07280959
-0.08761373 0.49098176 0.05323625 -0.15429777 -0.009203267 -0.04297734 -0.04890268 -0.19012243
0.13606066 -0.058837824 0.0028333832 0.06451434 0.008724888 0.0679071 0.06919952 0.004728605
-0.41355848 0.33223253 -0.18422511 0.13741004 -0.3124735 0.40764222 -0.03147343 0.0033207063
-0.051086724 -0.13862398 0.0927768 -0.11093167 0.06988348 0.013903915 -0.0072513022 -0.025454262
0.059291698 0.08037761 -0.024162846 -0.056816485 -0.32751802 0.42754522 -0.1374744 0.17930378
-0.09526524 0.54147434 0.008222013 -0.10735674 0.019429052 0.06866497 -0.1208894 -0.07868826
0.0027024976 0.044823308 0.06636345 -0.096728295 -0.0053128893 -0.11675072 0.007399125 0.012404173
-0.0115617495 0.0029847675 -0.015309954 -0.004127222 -0.016294114 0.026037509 -0.014298625 0.019908426
0.79098415 0.21853262 0.7868967 0.7792569 -0.04048356 -0.046361577 0.022908736 -0.04636496
-0.07938719 0.059504285 0.043971274 -0.06747472 -0.13836163 -0.11990562 -0.19701652 -0.048683934
-0.012203904 -0.34564507 -0.19996665 -0.031720433 0.61411494 0.10726138 0.08309549 0.21609484
0.14737542 -0.058017485 -0.029366212 -0.0004898735 -0.012833168 -0.04303123 0.004690245 -0.051947366
0.09576561 -0.080853164 0.1867323 -0.06924215 0.02402353 -0.24167639 -0.13122274 -0.10861361
0.69087756 -0.25766852 -0.16119899 -1.298443 -0.022758067 0.08508021 -0.014487862 0.040898073
0.10111788 0.23584239 0.09347194 0.102065496 -0.059243094 0.07163743 0.14123382 0.40402165
-0.15606977 0.3384232 -0.0060611647 0.27453846 0.32048768 0.0064115985 -0.24057081 -0.42092285
0.1284717 -0.009406869 0.04185304 -0.032430112 0.08638383 -0.06432019 0.017402612 -0.12001229
0.10974881 0.05196765 0.19169961 0.0016551752 -0.07607298 0.1895091 0.06692142 -0.14972408
00000000: d2ff 76bc 4225 813e a77a 643e 691c b13d
00000010: 3055 4bbd c24c 75bd a207 793d dd63 7b3d
00000020: c689 b23d db30 a53d 8e52 263e 76c2 86bc
00000030: 3f63 05bf b4c8 653e 99aa 15be 5edb 16bd
00000040: bfef e63d c82d 90bd f0c1 b93d 0603 dcbd
00000050: 1d97 8e3b f659 8b3e cf68 443e 1546 adbd
00000060: de9a bd3d 541a 6bbd 4d5b 493d 9c5e a13d
00000070: 01bf 913d 40df e7bb 64bc 67bc 4c59 89bd
00000080: 5f12 c2be ce94 803e 3c81 c33c 24b0 dfbd
00000090: b3cd 2d3e a4cc 453d 5b6b a73d 9976 96bd
000000a0: 19fa d63d 5760 b23e bba1 193f ac33 3cbe
000000b0: b21e 89bd ca6c 45bd 282a 0bbe 36dc 23bd
000000c0: 9be1 ab3d 09ae 6a3d 7e13 c4bd 9af4 ab3d
000000d0: 26ba 02bf 8f88 863e 9f89 34be 73a9 013d
000000e0: 4834 2ebe 562f ecbc 200c 88be 2812 f03c
000000f0: 3bc9 483d f3f7 6f3e fd08 4c3d 4308 84bd
00000100: 1385 efbc 6b77 8c3a de3a 96bd 69a2 89bd
00000110: 2529 3cbc 0300 9ebd 09e1 2fbc 5444 9c3c
00000120: 7345 afbe ac00 093e 352b 00bd bfcf afbd
00000130: 916e 1cbd 0ca7 63bd 9cf8 123e 8c8b 6bbd
00000140: f0ff 8d3c 6c8f 833c c947 e83c cc1c 383b
00000150: f976 823d 9a4e 6dbb 4b0c d53a 9fd4 f63b
00000160: 4903 cfbe fb72 873e db56 85bd 1fc1 4abd
00000170: 55ba 83be ca29 133f 6ba6 0ebd b3a2 d0bd
00000180: b34b 033d b497 1dbe 9b5e 7fbc bf57 683d
00000190: c5c2 903c 621a 1dbe 43e0 733c a372 0dbd
000001a0: a0ba 5f3d ab6f ad3b 6295 06bd befd 323e
000001b0: 6ff3 8dbe 5c6d 973e c310 01be 321d 953d
000001c0: d46e b3bd f661 fb3e 410e 5a3d 3c00 1ebe
000001d0: 4dc9 16bc 0209 30bd 2d4e 48bd 74af 42be
000001e0: 7c53 0b3e eeff 70bd 48b0 393b 1820 843d
000001f0: d5f2 0e3c e112 8b3d 7ab8 8d3d 6af2 9a3b
00000200: f0bd d3be 621a aa3e 82a5 3cbe 38b5 0c3e
00000210: 87fc 9fbe 7bb6 d03e 49ea 00bd 35a0 593b
00000220: 5040 51bd 72f3 0dbe c301 be3d 2530 e3bd
00000230: 121f 8f3d 3fcd 633c 559c edbb 7585 d0bc
00000240: dadb 723d 049d a43d 29f1 c5bc 67b8 68bd
00000250: 71b0 a7be 35e7 da3e 17c6 0cbe 699b 373e
00000260: 6c1a c3bd 109e 0a3f 9fb5 063c dadd dbbd
00000270: ad29 9f3c 38a0 8c3d dd94 f7bd 4f27 a1bd
00000280: 631c 313b a598 373d 8fe9 873d 7c19 c6bd
00000290: bf17 aebb 001b efbd 5c74 f23b df3a 4b3c
000002a0: 7e6d 3dbc 179c 433b 9ad6 7abc a63d 87bb
000002b0: 3c7b 85bc 9d4c d53c c844 6abc ff16 a33c
000002c0: f07d 4a3f 04c7 5f3e 1072 493f 617d 473f
000002d0: 17d2 25bd a3e5 3dbd 1aab bb3c 2fe9 3dbd
000002e0: c095 a2bd c4ba 733d 391b 343d 3030 8abd
000002f0: acae 0dbe 1491 f5bd b3be 49be ce68 47bd
00000300: e2f2 47bc 64f8 b0be 0fc4 4cbe 49ed 01bd
00000310: a336 1d3f dbab db3d f82d aa3d f747 5d3e
00000320: 95e9 163e bea3 6dbd 6991 f0bc db6a 00ba
00000330: 3542 52bc 8441 30bd a0b0 993b c3c6 54bd
00000340: c320 c43d 5896 a5bd c136 3f3e d4ce 8dbd
00000350: fecc c43c 047a 77be 415f 06be d070 debd
00000360: 5add 303f 21ed 83be 5911 25be 6133 a6bf
00000370: 206f babc 883e ae3d 7f5e 6dbc bd84 273d
00000380: e416 cf3d ab80 713e 376e bf3d b707 d13d
00000390: e3a8 72bd a5b6 923d 999f 103e eddb ce3e
000003a0: c1d0 1fbe ce45 ad3e bc9c c6bb 4e90 8c3e
000003b0: f616 a43e 6318 d23b 3258 76be 3383 d7be
000003c0: 168e 033e 451f 1abc 186e 2b3d 70d5 04bd
000003d0: 01ea b03d 4eba 83bd ec8f 8e3c 01c9 f5bd
000003e0: fcc3 e03d 08dc 543d e74c 443e 77f2 d83a
000003f0: 27cc 9bbd ac0e 423e 190e 893d 4551 19be

bias f4 [176]
-0.24513327 0.85114324 0.44500643 -0.017601395 -0.9772015 0.22544268 0.24249949 -0.07897698
0.25158903 -0.55944145 -0.34539038 -0.71645284 -0.47543463 -0.7590519 -1.622159 -0.04193927
0.97470164 -0.24666688 -0.5531876 -1.935702 -0.023172889 -0.26868844 -0.08702977 -0.8491416
0.5892737 -0.23380098 -0.5902966 -0.06654815 -0.04331712 -1.1456681 0.48356327 0.20280764
-0.691171 -1.806871 -1.0408204 0.055510905 -1.1841015 -0.20213388 0.061265793 -1.0092502
0.033516455 -0.36165017 -0.32101902 -0.7698416 -0.26238975 -0.3297157 -0.6617809 0.030389296
-0.29683766 0.39517543 -0.9031719 0.04698581 -0.0051395725 -0.3913025 1.1513052 0.24304077
0.036402825 -0.108663745 -1.1733533 0.83163476 0.53749156 -0.6825407 -0.489248 0.45158073
-0.010288394 0.22308245 0.09877753 0.33096215 0.26825967 0.26708516 0.30472785 0.73676556
0.778616 0.2654775 -0.8611807 -0.18371119 -0.41552016 1.0040355 0.1122268 0.19527489
-0.52436835 -0.9971467 -0.80024123 0.02966752 -0.7408013 0.39975262 -0.75767714 0.11078201
0.8117129 0.7841391 0.77776074 -0.6420854 -1.0309614 0.27878386 0.26842788 1.2805626
0.18714534 1.3872571 -1.2552403 0.00032369175 -0.39232597 0.38490131 0.0024734165 -0.003616752
0.2019935 -0.33925137 -0.2612856 0.37804118 -0.20874542 -0.3538594 0.36374897 -0.22129348
-0.85576904 0.35331327 -0.42410228 -1.1057613 0.021802941 -0.1768668 -0.08516825 -0.9071709
0.8911561 -0.027842479 0.09502182 -1.1636947 0.19257073 -0.9741874 0.6170598 -0.3471511
0.4597599 0.44006735 0.4329398 1.1006633 -0.50607586 -0.39785168 -1.9602059 0.42465535
0.70698154 -1.2533355 -0.49637228 -0.32579696 0.80945134 -0.68944037 -1.483952 -0.5093853
0.091629036 -0.060972217 -0.53340226 -0.9330551 -0.30547115 0.11866033 -0.87720865 0.795023
-0.2184236 -0.34732997 -0.3943471 -0.30659562 -0.66814667 -0.4043313 1.297855 0.22228582
-0.48609602 0.0733578 -0.011735974 -0.17676884 0.6323623 1.1446435 -0.73909366 -0.075064436
-0.8944022 -0.21003523 -0.1100824 0.048770316 -0.5979322 -0.5688054 -0.23061852 -0.908451
00000000: 3704 7bbe 86e4 593f e2d7 e33e cd30 90bc
00000010: e129 7abf 72da 663e c951 783e afbe a1bd
00000020: 47d0 803e 8e37 0fbf 02d7 b0be 7469 37bf
00000030: 2b6c f3be 3a51 42bf e8a2 cfbf 83c8 2bbd
00000040: 0c86 793f 3e96 7cbe b49d 0dbf 15c5 f7bf
00000050: 12d5 bdbc 8891 89be aa3c b2bd 5861 59bf
00000060: a4da 163f 8669 6fbe ae1d 17bf 654a 88bd
00000070: 4b6d 31bd 41a5 92bf 9b95 f73e ceac 4f3e
00000080: 95f0 30bf 8d47 e7bf 9a39 85bf 675f 633d
00000090: a390 97bf 2ffc 4ebe d7f1 7a3d 1c2f 81bf
000000a0: 8d48 093d 362a b9be 9b5c a4be 5714 45bf
000000b0: f357 86be 7fd0 a8be 796a 29bf f9f2 f83c
000000c0: 1bfb 97be 6f54 ca3e 4636 67bf 3174 403d
000000d0: dc69 a8bb cd58 c8be f85d 933f aedf 783e
000000e0: 211b 153d 198b debd 7130 96bf 04e6 543f
000000f0: 0c99 093f fdba 2ebf b77e fabe 9735 e73e
00000100: a790 28bc ba6f 643e e04b ca3d df73 a93e
00000110: 5559 893e 63bf 883e 4a05 9c3e ab9c 3c3f
00000120: 6153 473f abec 873e 5776 5cbf c91e 3cbe
00000130: 0fbf d4be 3c84 803f 2ad7 e53d 24f6 473e
00000140: 013d 06bf 0245 7fbf 9cdc 4cbf 4d09 f33c
00000150: 27a5 3dbf 60ac cc3e 21f7 41bf aee1 e23d
00000160: 6bcc 4f3f 57bd 483f 541b 473f b55f 24bf
00000170: 8bf6 83bf c2bc 8e3e 616f 893e 7ae9 a33f
00000180: 07a3 3f3e a491 b13f b7ab a0bf 2cb5 a939
00000190: f3de c8be c911 c53e 0b19 223b 0807 6dbb
000001a0: 62d7 4e3e 5bb2 adbe 3ac7 85be 9d8e c13e
000001b0: 5cc1 55be 0f2d b5be 4e3d ba3e c29a 62be
000001c0: ae13 5bbf 7ae5 b43e ef23 d9be 9689 8dbf
000001d0: 159c b23c 921c 35be b16c aebd 5a3c 68bf
000001e0: ce22 643f e915 e4bc cd9a c23d f3f3 94bf
000001f0: 4331 453e 5864 79bf a2f7 1d3f cabd b1be
00000200: a665 eb3e 8250 e13e 49aa dd3e 89e2 8c3f
00000210: 308e 01bf 37b3 cbbe 07e8 fabf 6d6c d93e
00000220: befc 343f 4c6d a0bf 8224 febe dcce a6be
00000230: 3438 4f3f 2a7f 30bf 24f2 bdbf 1367 02bf
00000240: 01a8 bb3d 01be 79bd 0d8d 08bf b3dc 6ebf
00000250: b766 9cbe 3004 f33d bf90 60bf a186 4b3f
00000260: 70aa 5fbe 3cd5 b1be dde7 c9be 1afa 9cbe
00000270: a90b 2bbf 8304 cfbe 1d20 a63f e59e 633e
00000280: 94e1 f8be 9d3c 963d 3e48 40bc e402 35be
00000290: 7fe2 213f ae83 923f 3e35 3dbf 62bb 99bd
000002a0: 8bf7 64bf 7a13 57be e272 e1bd 62c3 473d
000002b0: 1612 19bf 3b9d 11bf 4327 6cbe 3f90 68bf

weight f4 [88, 176]
0.101186246 0.03407478 -0.05141018 0.18729693 0.09734394 -0.002084409 -0.007909578 -0.08135834
0.31179368 -0.16410775 -0.058716286 0.17217456 0.0009436339 0.25854912 -0.11955686 0.0068904357
0.06645829 -0.083590254 -0.0770449 0.050555985 0.4299047 -0.13311994 -0.02903092 0.033727895
0.124467045 0.0429618 0.04712926 0.3174648 -0.1651728 0.41186106 0.11684319 0.10256341
0.05621139 -0.31018656 0.05936964 -0.01839848 -0.022411564 -0.2950466 0.052539226 -0.14962056
-0.08831005 -0.03743913 -0.0050060456 0.4451673 0.0800397 -0.12551688 0.13152644 0.14075202
0.23864193 0.46348128 0.124096006 -0.07283444 0.16337135 -0.051491596 0.12948312 0.06741844
-0.019499503 0.124733604 -0.19475885 0.030788248 0.13388278 -0.22956787 -0.12052828 -0.06452578
-0.0003030181 0.08600304 -0.3408061 -0.024141569 -0.026351003 0.33777285 0.04933855 -0.036968376
0.09340108 -0.027091628 0.08291734 0.11819871 0.45061773 0.12136038 -0.07538241 0.22027634
-0.07012663 0.16014731 0.123070836 0.06964672 0.19310698 -0.13171224 0.2706182 -0.110589795
0.09389888 0.33598754 -0.15495956 -0.1767851 0.008900127 -0.12333081 0.09496265 -0.035424236
-0.15389523 -0.118649736 -0.113090985 -0.021197835 -0.00076709216 -0.08417215 0.26384172 -0.018724268
0.045854323 -0.033368375 0.14910522 -0.12418315 -0.02981927 -0.17650786 -0.12016712 -0.051156305
0.004485367 -0.056124706 0.32451448 -0.14217171 0.065199964 -0.06573606 0.05271036 -0.15854117
-0.09334942 -0.23431472 -0.01783157 -0.11519089 0.36094737 -0.008835282 -0.10369156 -0.26568726
-0.366948 0.21694429 0.06952985 0.17612697 -0.12547582 -0.018535944 -0.63654834 0.030153697
0.030211769 -0.35983706 -0.08418908 -0.09024902 0.043350425 -0.112538554 -0.06553574 0.26861084
-0.03348678 -0.085543714 0.4121166 -0.17804863 0.17949265 0.03195496 -0.27249703 -0.12118004
0.12997268 0.07798727 0.043409504 -0.1574215 -0.019749474 -0.025284788 -0.011822867 0.040054742
-0.39180928 0.06923284 0.10764003 0.18580018 0.19307794 -0.1007213 0.056411434 -0.12374879
0.009193526 -0.4353412 0.3872014 -0.10111562 0.012462949 0.0019529645 -0.28319985 0.25433463
0.1579076 0.056032952 -0.047656752 0.48006237 -0.20745549 0.14273265 0.21273273 -0.015560929
0.3046997 0.11921516 0.20884442 0.2747424 -0.41963688 -0.23730691 0.1535834 0.23168139
0.15148336 0.05094589 -0.18029542 -0.10473869 -0.119521745 0.033861853 0.15792221 0.11346754
0.29159117 0.310928 -0.073672175 0.32594818 -0.20409423 0.06748874 0.19182323 0.101980224
0.32714248 0.22157858 -0.207992 0.060100738 0.091976196 0.056700822 0.24643382 0.08003166
0.03299189 0.2991734 0.0717157 0.13981135 0.09975598 0.23438431 0.002639068 0.20821716
0.1886532 0.27821732 -0.35657087 -0.010155036 -0.03576604 0.14668055 0.04146924 0.282576
0.15417828 0.109351546 0.46019188 0.17579441 0.20246501 0.12865384 0.066891715 0.123300634
0.16330825 0.31924024 0.16908172 0.12348077 0.19882113 0.24273117 -0.09422865 0.12473916
0.22430159 0.16286306 0.09744079 0.13831665 0.148577 0.03765939 0.18884242 0.041894615
00000000: bc3a cf3d ff91 0b3d 7b93 52bd c4ca 3f3e
00000010: 425c c73d 949a 08bb 2d97 01bc 349f a6bd
00000020: 6ca3 9f3e dd0b 28be 7d80 70bd 874e 303e
00000030: 335e 773a 8d60 843e 3ada f4bd 2ac9 e13b
00000040: 491b 883d 5e31 abbd b7c9 9dbd cb13 4f3d
00000050: 781c dc3e 9850 08be 40d2 edbc 4326 0a3d
00000060: 94e8 fe3d b6f8 2f3d 9c0a 413d bf8a a23e
00000070: 0f23 29be 74df d23e 7b4b ef3d c40c d23d
00000080: ea3d 663d c6d0 9ebe 942d 733d 69b8 96bc
00000090: 7598 b7bc 5910 97be 5f33 573d 2236 19be
000000a0: e6db b4bd c659 19bd c109 a4bb f8ec e33e
000000b0: dbeb a33d 7f87 00be deae 063e 4c21 103e
000000c0: 8d5e 743e 6b4d ed3e 0c26 fe3d 392a 95bd
000000d0: d24a 273e dae8 52bd 3997 043e ae12 8a3d
000000e0: 6cbd 9fbc 5574 ff3d dd6e 47be a337 fc3c
000000f0: 9118 093e d713 6bbe 88d7 f6bd 1826 84bd
00000100: 67de 9eb9 5d22 b03d 237e aebe 8ac4 c5bc
00000110: 0fde d7bc 90f0 ac3e 3817 4a3d 276c 17bd
00000120: 1149 bf3d 43ef ddbc 91d0 a93d 2a12 f23d
00000130: 5eb7 e63e ca8b f83d 1862 9abd 1f90 613e
00000140: 8d9e 8fbd a8fd 233e 900c fc3d f1a2 8e3d
00000150: d6bd 453e 93df 06be 788e 8a3e e77c e2bd
00000160: 0e4e c03d 8f06 ac3e b8ad 1ebe 2707 35be
00000170: d7d1 113c dd94 fcbd c77b c23d 0119 11bd
00000180: b696 1dbe a2fe f2bd 3f9c e7bd 15a7 adbc
00000190: af16 49ba 7362 acbd 4316 873e a363 99bc
000001a0: bed1 3b3d 47ad 08bd 0aaf 183e bc53 febd
000001b0: 8b47 f4bc 7abe 34be 2e1a f6bd 4689 51bd
000001c0: fcf9 923b 05e3 65bd c326 a63e 7695 11be
000001d0: 8f87 853d a1a0 86bd d2e6 573d 9e58 22be
000001e0: fb2d bfbd 33f0 6fbe 8313 92bc 34e9 ebbd
000001f0: 18ce b83e dcc1 10bc 3e5c d4bd 2908 88be
00000200: 9ce0 bbbe a526 5e3e aa65 8e3d a15a 343e
00000210: bc7c 00be b1d8 97bc d5f4 22bf e304 f73c
00000220: ac7e f73c 903c b8be 536b acbd 7ad4 b8bd
00000230: 3790 313d 9d7a e6bd 9a37 86bd 5c87 893e
00000240: 6f29 09bd 8b31 afbd f200 d33e 6152 36be
00000250: eccc 373e 34e3 023d bb84 8bbe 3e2d f8bd
00000260: 8f17 053e cab7 9f3d 2ace 313d 1a33 21be
00000270: a6c9 a1bc 0b22 cfbc b3b4 41bc 7110 243d
00000280: 3a9b c8be f2c9 8d3d 6072 dc3d 6742 3e3e
00000290: 39b6 453e f846 cebd ad0f 673d 0170 fdbd
000002a0: 71a0 163c 0be5 debe 433f c63e b515 cfbd
000002b0: 6631 4c3c 9dfa ff3a 92ff 90be 2638 823e
000002c0: 88b2 213e cf82 653d ba33 43bd bcca f53e
000002d0: 366f 54be 8228 123e 9cd6 593e 44f3 7ebc
000002e0: 9901 9c3e 1427 f43d 50db 553e 09ab 8c3e
000002f0: a5da d6be 9500 73be f844 1d3e e33d 6d3e
00000300: 741e 1b3e a3ac 503d 5d9f 38be 3d81 d6bd
00000310: d1c7 f4bd bab2 0a3d 5cb6 213e ab61 e83d
00000320: 704b 953e f431 9f3e 70e1 96bd aee2 a63e
00000330: 14fe 50be 8937 8a3d 4f6d 443e 02db d03d
00000340: 387f a73e 7fe5 623e dbfb 54be 312c 763d
00000350: 045e bc3d 1f3f 683d 2659 7c3e a4e7 a33d
00000360: 8122 073d 422d 993e aedf 923d b52a 0f3e
00000370: dd4c cc3d 7102 703e 37f4 2c3b e136 553e
00000380: 4e2e 413e 8072 8e3e 7590 b6be 4f61 26bc
00000390: 697f 12bd 6d33 163e a6db 293d cdad 903e
000003a0: e9e0 1d3e b4f3 df3d 459e eb3e 7303 343e
000003b0: fd52 4f3e d5bd 033e 86fe 883d 0b85 fc3d
000003c0: 473a 273e 7573 a33e c223 2d3e 7ce3 fc3d
000003d0: c497 4b3e 858e 783e f3fa c0bd 3f77 ff3d
000003e0: 51af 653e 93c5 263e 098f c73d e1a2 0d3e
000003f0: 9224 183e bc40 1a3d e85f 413e b099 2b3d

bias f4 [88]
0.21580045 0.07860645 0.33560643 0.28479367 -0.09162721 0.33749 0.26268134 0.20551248
-0.5218418 0.15447812 0.22021568 0.27251995 0.1783116 0.20397928 0.09450588 0.12657413
0.2290114 0.1614612 0.31536794 0.27516383 0.9276736 0.24132712 0.23311883 -0.5291372
0.2583777 0.13459685 0.28151408 0.27341926 -0.084716335 0.18410982 0.18430905 0.23551396
0.19051541 0.28806752 0.24295822 -0.18434364 -0.056449924 -0.648129 0.21102151 -0.94510937
0.19993451 0.2168863 0.2744014 0.23681776 -0.3154945 0.25007495 0.32052687 0.26023266
0.2257168 0.057798453 0.45239684 0.25084177 0.29992202 0.18144567 0.010496045 0.20241204
0.26146406 0.20539887 0.30334657 0.06636957 0.09702758 0.46262002 0.039615877 -0.64013636
0.28104648 0.22322036 0.20385598 0.2519485 0.2237949 0.2934022 0.1693918 0.2420878
0.24034743 0.105962805 0.28788146 0.11410029 -1.3075387 0.3119531 0.2828045 0.25053397
0.1777751 0.2912663 0.25393757 0.18868858 -0.1900177 0.2625584 0.17523378 0.48744464
00000000: cbfa 5c3e 6bfc a03d 9bd4 ab3e 7ad0 913e
00000010: 0ca7 bbbd 7dcb ac3e 2b7e 863e dd71 523e
00000020: 6d97 05bf 832f 1e3e 3880 613e bc87 8b3e
00000030: 5197 363e f2df 503e 4c8c c13d a69c 013e
00000040: f781 6a3e 1656 253e e877 a13e 46e2 8c3e
00000050: 047c 6d3f 751e 773e b4b6 6e3e 8975 07bf
00000060: 154a 843e c2d3 093e 9d22 903e 9cfd 8b3e
00000070: c27f adbd 4987 3c3e 83bb 3c3e 922a 713e
00000080: 7916 433e 967d 933e 0aca 783e 94c4 3cbe
00000090: 0938 67bd c8eb 25bf 0616 583e b0f2 71bf
000000a0: a2bb 4c3e 7117 5e3e 577e 8c3e 5b80 723e
000000b0: 7f88 a1be d309 803e 191c a43e 373d 853e
000000c0: 4e22 673e 12be 6c3d 8fa0 e73e 556e 803e
000000d0: 618f 993e e5cc 393e 9bf7 2b3c 1a45 4f3e
000000e0: 9ede 853e 1554 523e 3e50 9b3e c5ec 873d
000000f0: 65b6 c63d 88dc ec3e 4244 223d fadf 23bf
00000100: 53e5 8f3e e193 643e 9fbf 503e 65ff 803e
00000110: 7e2a 653e d038 963e 0b75 2d3e dde5 773e
00000120: a31d 763e 0703 d93d 3365 933e 6aad e93d
00000130: 6e5d a7bf 51b8 9f3e c0cb 903e fd45 803e
00000140: ad0a 363e db20 953e 1b04 823e 9437 413e
00000150: 0094 42be 0e6e 863e 7c70 333e 5892 f93e

weight f4 [22, 88]
0.43093657 1.1841667 1.2025545 -0.042608526 3.8205564 0.7772158 -0.12270385 0.052523337
21.132908 -4.06917e-05 -0.12611145 -0.024987912 -0.0869592 -0.0066545256 1.2157527 1.0399804
-0.06471603 0.5768212 0.5403763 -0.011192091 1.4318115 0.015170024 -0.09630277 2.3367562
1.168833 0.010546332 -0.02807899 -0.10212846 10.085405 0.0334713 0.045977935 -0.0013626827
0.84239525 0.053584658 -0.055213302 1.2915382 6.977994 1.775748 -0.14164066 13.345812
-0.14242925 -0.1394456 -0.030132368 -0.12546724 3.1852582 -0.061589982 4.7383924 -0.12868945
1.0223814 0.9768801 0.9225492 0.036202747 -0.087792195 -0.047057148 11.978876 -0.034386244
0.8724097 0.027457844 0.5807541 2.7630086 1.1049901 0.88847375 3.5073671 3.1768951
-0.029716996 -0.077737115 0.85692763 -0.1123369 0.50303084 -0.14941816 -0.09457446 -0.086020336
-0.052926075 0.5843174 0.010926471 0.94689846 1.7352933 0.04253145 -0.059331056 -0.019992374
2.7217755 -0.038760453 -0.11658772 -0.13868672 2.9994652 -0.09808517 -0.12738162 10.331664
0.54913265 1.214836 1.1962848 -0.094397984 3.700908 0.8088144 -0.0723733 -0.13332032
21.009266 -0.022699224 -0.10119315 -0.1082257 -0.11746704 0.012909024 1.1623642 1.0783939
-0.05798473 0.5570318 0.5890162 -0.10266392 1.5045037 0.044447757 0.011387936 2.4360456
1.1196234 -0.10191482 0.016350783 0.04257052 9.973608 0.050165482 -0.117471196 -0.1012617
0.83113796 -0.090468846 -0.09221746 1.2686994 6.923444 1.8105367 -0.12266619 13.429425
-0.09470382 0.023868075 -0.0444138 -0.084449396 3.205606 -0.0927908 4.837203 -0.02596248
1.2081653 1.0422662 0.8153404 -0.023221705 0.035476703 -0.058911752 12.153956 -0.024469048
0.85440254 -0.12783311 0.42857152 2.838102 1.2269329 0.91346264 3.5373425 3.068808
-0.0025537673 -0.03515595 0.78273165 0.01761949 0.42991462 -0.119257405 -0.061546344 -0.12759484
-0.0011353256 0.5831122 -0.1549394 1.0038474 1.9148098 0.003437336 -0.07813812 -0.059579257
2.6340117 -0.09210217 -0.042777494 0.031325106 3.1416519 -0.14401503 -0.08158144 10.275634
0.52446353 1.1408496 1.0528036 -0.100313045 3.7593932 0.6600625 0.0032890995 -0.08002746
21.051176 -0.09472608 -0.0026417654 0.024635864 -0.0038241013 -0.08595081 1.3658427 1.0817218
0.06327629 0.65721476 0.6359609 -0.1014316 1.5666853 -0.09462086 0.05347436 2.264757
0.99693584 -0.10223857 -0.048585735 -0.16189612 10.047112 0.0060085035 0.068550855 -0.024639938
0.7428004 -0.06247211 -0.114118144 1.3244238 6.960268 1.6455027 -0.13518347 13.447735
0.04445554 -0.056298956 -0.01705245 0.01939595 3.1127393 -0.0424647 4.709121 -0.12414601
1.0718004 0.98991054 0.71627915 -0.128953 -0.022820098 0.0019312532 11.947357 -0.026317973
0.86615723 -0.035964634 0.5744911 2.8216817 1.1321503 0.87121844 3.3675666 3.1254861
-0.07077588 -0.11629908 0.8185958 -0.11966441 0.4583214 -0.121595114 -0.13108833 -0.0022259876
-0.043556344 0.50311476 -0.051293634 0.8777544 1.8280728 -0.075267896 -0.0740699 -0.15277036
00000000: b8a3 dc3e c692 973f 4eed 993f 4786 2ebd
00000010: ff83 7440 9df7 463f 284c fbbd b622 573d
00000020: 3210 a941 61ac 2ab8 5c23 01be 73b3 ccbc
00000030: aa17 b2bd 350e dabb c99d 9b3f 141e 853f
00000040: d789 84bd 8eaa 133f 1a56 0a3f 085f 37bc
00000050: 9945 b73f b18b 783c 633a c5bd 6a8d 1540
00000060: 529c 953f 86ca 2c3c e905 e6bc ba28 d1bd
00000070: d25d 2141 3419 093d 5c53 3c3d 0b9c b2ba
00000080: 37a7 573f 967b 5b3d 5827 62bd 2051 a53f
00000090: ba4b df40 b64b e33f 400a 11be 7288 5541
000000a0: f9d8 11be d4ca 0ebe 28d8 f6bc 7c7a 00be
000000b0: 45db 4b40 c745 7cbd e9a0 9740 2bc7 03be
000000c0: 65dd 823f d014 7a3f 2f2c 6c3f 5549 143d
000000d0: 65cc b3bd ffbe 40bd 7aa9 3f41 97d8 0cbd
000000e0: 3e56 5f3f 46ef e03c 4dac 143f 22d5 3040
000000f0: 5170 8d3f 0473 633f b478 6040 4052 4b40
00000100: 0f71 f3bc a334 9fbd 9c5f 5b3f e310 e6bd
00000110: a1c6 003f 1301 19be 41b0 c1bd 6e2b b0bd
00000120: 03c9 58bd d395 153f f104 333c f067 723f
00000130: 171e de3f 7535 2e3d 1f05 73bd 0cc7 a3bc
00000140: 9231 2e40 48c3 1ebd 8bc5 eebd e403 0ebe
00000150: 3df7 3f40 e1e0 c8bd 5470 02be 7f4e 2541
00000160: f593 0c3f bf7f 9b3f dc1f 993f bb53 c1bd
00000170: addb 6c40 760e 4f3f 7438 94bd 1f85 08be
00000180: fa12 a841 b9f3 b9bc 5b3e cfbd 70a5 ddbd
00000190: 8f92 f0bd 5f80 533c 5ac8 943f d008 8a3f
000001a0: 6581 6dbd a399 0e3f c4c9 163f 7641 d2bd
000001b0: 9493 c03f da0e 363d 7794 3a3c 2ce8 1b40
000001c0: d24f 8f3f b8b8 d0bd 14f2 853c 6d5e 2e3d
000001d0: e693 1f41 527a 4d3d bd94 f0bd 4b62 cfbd
000001e0: 75c5 543f bb47 b9bd 82dc bcbd be64 a23f
000001f0: da8c dd40 abbf e73f 6938 fbbd edde 5641
00000200: 14f4 c1bd fb86 c33c 3feb 35bd cef3 acbd
00000210: a628 4d40 1a09 bebd 5eca 9a40 44af d4bc
00000220: 29a5 9a3f fb68 853f 26ba 503f 723b bebc
00000230: 0550 113d 734d 71bd 9b76 4241 5073 c8bc
00000240: 20ba 5a3f afe6 02be ba6d db3e 77a3 3540
00000250: 230c 9d3f b0d8 693f d263 6240 5a67 4440
00000260: 1b5d 27bb afff 0fbd 1a61 483f c056 903c
00000270: c51d dc3e 3a3d f4bd 0518 7cbd 39a8 02be
00000280: 35cf 94ba d746 153f 6fa8 1ebe 127e 803f
00000290: 7d18 f53f ee44 613b e106 a0bd 6109 74bd
000002a0: a693 2840 10a0 bcbd 7437 2fbd c14e 003d
000002b0: d310 4940 ad78 13be 2c14 a7bd ff68 2441
000002c0: 3e43 063f 5c07 923f 45c2 863f ed70 cdbd
000002d0: e699 7040 dbf9 283f ef8d 573b 70e5 a3bd
000002e0: cf68 a841 bfff c1bd 7821 2dbb 27d1 c93c
000002f0: c69d 7abb fa06 b0bd efd3 ae3f dc75 8a3f
00000300: 0097 813d 3a3f 283f 55ce 223f 5fbb cfbd
00000310: 2589 c83f 95c8 c1bd ee07 5b3d c7f1 1040
00000320: 3037 7f3f 7562 d1bd d601 47bd 19c8 25be
00000330: f9c0 2041 fbe2 c43b 6464 8c3d b2d9 c9bc
00000340: 2b28 3e3f c1e2 7fbd c6b6 e9bd b886 a93f
00000350: 84ba de40 d59f d23f 896d 0abe ec29 5741
00000360: 0317 363d bc99 66bd 94b1 8bbc 41e4 9e3c
00000370: 1f37 4740 77ef 2dbd 1fb1 9640 4340 febd
00000380: c130 893f c76a 7d3f 125e 373f 410c 04be
00000390: 37f1 babc 1b22 fd3a 6028 3f41 ca98 d7bc
000003a0: 7bbc 5d3f a74f 13bd d911 133f 6f96 3440
000003b0: 4dea 903f 2c08 5f3f 3686 5740 f707 4840
000003c0: f2f2 90bd 362e eebd 7f8f 513f 9d12 f5bd
000003d0: 1aa9 ea3e dc06 f9bd 053c 06be e0e1 11bb
000003e0: 2368 32bd 21cc 003f 4619 52bd 83b4 603f
000003f0: 4afe e93f 0e26 9abd f6b1 97bd d56f 1cbe

bias f4 [22]
0.11799193 0.22268914 0.2223673 0.13029477 0.06863741 0.06142551 0.080524005 0.06651174
0.12844783 0.20948787 0.23397239 0.14381911 0.17598568 0.026329365 0.14867033 0.20983289
0.07110277 0.044242505 0.08270415 0.10992978 -0.20635836 0.041829463
00000000: c1a5 f13d 9f08 643e 41b4 633e fe6b 053e
00000010: c591 8c3d 5199 7b3d c5e9 a43d 4f37 883d
00000020: d487 033e fd83 563e 7596 6f3e 5145 133e
00000030: 9735 343e aeb0 d73c 093d 183e 6fde 563e
00000040: 549e 913d a137 353d cb60 a93d dd22 e13d
00000050: 9b4f 53be 5f55 2b3d

weight f4 [1, 22]
2.3750985 2.35753 2.3310742 2.4403992 -0.88126385 -0.8823346 2.326392 2.426517
2.3648992 -0.8160825 -0.89236027 -0.8135787 2.2951539 2.300309 -0.8348535 2.4129734
-0.89599615 -0.8721897 2.3346748 -0.82253355 4.546508 -0.878957
00000000: 9d01 1840 c6e1 1640 5230 1540 802f 1c40
00000010: 829a 61bf aee0 61bf 9be3 1440 0e4c 1b40
00000020: 825a 1740 c8ea 50bf b971 64bf b246 50bf
00000030: cde3 1240 4338 1340 f5b8 55bf 286e 1a40
00000040: 0160 65bf d347 5fbf 506b 1540 8f91 52bf
00000050: fe7c 9140 5303 61bf
