data/q_value_target_net_1_simple_spread_3990000_GSA.pth (torch, 114901 bytes, 7 tensors)

weight f4 [160, 80]
00000000: 7956 233f dbf4 47be 3c1a 5a3f 83da 63bf
00000010: 4b7f f3be 1841 433f e383 08be 9f79 463e
00000020: 83da 26bd b2fd 4b3e 5c8b 15be 0228 843e
00000030: 7be2 08bf 8fc0 093f e9dd 1dbf 82c6 233f
00000040: d2ce cabe d5a8 c53e fe97 793d 2cc3 fe3e
00000050: e9b6 4cbe 102b 2f3e 7c96 6cbe 7b14 493e
00000060: 693c 0a3e 1278 51be ac6d 5a3e 7001 0cbe
00000070: b492 113e 7a90 4dbe 8e0d 283f cbba 11bf
00000080: 2aad 353e bf09 83bc efe9 083d 4d95 febc
00000090: c8d2 ea3d 79ea e03e d8c9 71be ee92 473d
000000a0: 7903 7fbe fdf6 673e 5715 213e 9998 bcbd
000000b0: efe7 093e 3f38 91be 67e5 0b3e 1bd3 6bbe
000000c0: 006c f13e 9ef9 03bf a938 943b aaca b63d
000000d0: ba6e f5bc 6b6e 4dbd 607f cb3d f27a d63e
000000e0: 504f 27be 8597 6a3e 12db 9bbe 3309 9b3e
000000f0: 8842 983e 1a08 44be 40e9 593e bb4e 26be
00000100: 9333 d23c bb04 b0bd d65b c43e 91ed fdbe
00000110: 53ce 63bd 53db 1e3e 18e8 9bbd a31e 103c
00000120: bf94 073e ed74 04be 0d42 febc 49e7 ab3c
00000130: bceb aabc 69d7 fa3c 4fe6 abbc 9b9a fd3c
00000140: 3bb0 8f3e 25f2 b43e 7036 443f ce42 603f
00000150: 349f 183d b5d9 9bbd fe01 7abc 7153 fb3d
00000160: 342c bb3d 6bcd 70be 038c 2abd f0a3 14be
00000170: a9aa 003d da1d c83d 6d25 d2bd 83e1 8ebd
00000180: 6bae 243d 9a48 023d dad9 ea3e de1e 943e
00000190: a498 713f 2d73 9d3f 79af d1bd 9050 7fbe
000001a0: 859f 14be 5df8 893d cd79 8ebd e28a 36be
000001b0: 422f ddbc 9a3f 20be 7936 543d c305 e7bd
000001c0: 82b8 133b 9299 993d 6149 b9bd 2091 8bbd
000001d0: 5da0 d33e 5df1 b73e 35fb 3e3f d61f 5c3f
000001e0: e3e9 3cbe fe11 d2bd df18 093d 61fe 863c
000001f0: 7384 05be 0efc 28be fa89 3abe 51fd 0bbe
00000200: ae9c 48bd 8e5a 95bd 28fb 2dbd e028 b83d
00000210: 540c 25bb c32b b0b8 cf83 e23e ea02 fc3e
00000220: 3684 4b3f d867 5a3f c834 a1bd fc46 53bd
00000230: 4d5e 88b9 2b25 473e cb3e c2bd 1339 f3bd
00000240: a7cf 543d 88db 03be c90f e8bd 2692 4e3d
00000250: 9778 cebc 93b1 35bd 0c3d b43d 8ba2 903d
00000260: 633a a63d ca53 dd3d 5694 c73d 412e 303e
00000270: 7168 ae3d 8479 cf3d 1497 cb3d 60f1 ab3d
00000280: c8c7 e73d 26ba 87bc 5138 963e 46e4 5fbe
00000290: 11f2 97bd 49a8 6a3d bc41 ab3d cf0a 843d
000002a0: c5d1 c43d 36a2 d8bc a9c2 b6bd 2d26 e7bc
000002b0: b0b8 febd b8f3 8c3d 2057 a8bd e4c5 c13d
000002c0: d0df bb3c 6771 313d 431c 163e d778 713d
000002d0: 13db 133d 6d67 033e 9a5b c3bd 0afc b8bd
000002e0: c134 873d 4569 93bd a49e 26bd 7337 26be
000002f0: 24ac 40bd 5dfb 7a3d 839d 073e 073a 8e3b
00000300: a105 663d 1627 8538 d3c8 473c 33e1 fcbd
00000310: fdac 753e 4305 ca3d 3f6b f63d d653 303d
00000320: d2ec 423d db2b 903c 028e a13d c1bd b4bd
00000330: 944e de3c d4cc 89bc d9fe 49bd 77a5 0dbc
00000340: 7158 973d c682 1e3d e314 3cbd 006b 1c3d
00000350: 2e76 44bd d0d3 ae3c c590 823e 18c4 b2bc
00000360: a9ca 213e a589 8abe c541 543c 79e2 5c3d
00000370: 852d 403e eb7f fa3c 21bc 45bd 65ef 4fbd
00000380: b981 24bc a47d 58bc 3dd0 fcbd d7ff 3a3d
00000390: 44df ecbd e4b4 b73d e0f8 ecbd eec0 93bd
000003a0: fdb3 093d 89c2 9abc b739 25bc 069f c4bc
000003b0: d67a d0bb 2033 b2bc 8000 a9bb 5519 5abd
000003c0: 99f1 493e b2d0 8a3e 155d a0bd dee4 13be
000003d0: e87e 573e bfe8 81bd 6be6 8f3d 0a33 2e3e
000003e0: 0a4e ae3d 6064 7c3d 8323 573e fd63 893d
000003f0: 96e3 8c3e 7938 963e 3d53 f5bd f8bc 183e
0.6380382 -0.19526999 0.8519628 -0.890053 -0.47558054 0.762712 -0.13331561 0.19382332
-0.040735733 0.19920996 -0.14603943 0.25811774 -0.5347058 0.53809446 -0.61666733 0.63974774
-0.39610916 0.3860537 0.060935967 0.4975828 -0.1999165 0.17106271 -0.2310428 0.19636719
0.13499607 -0.2045596 0.21330899 -0.13672423 0.14216119 -0.20074645 0.6564568 -0.5692565
0.17741838 -0.015995858 0.03342622 -0.031077052 0.114659846 0.43928888 -0.23612154 0.048724107
-0.24903668 0.22652812 0.15730797 -0.09208793 0.13467382 -0.28363225 0.13661729 -0.23029749
0.4715271 -0.5155276 0.004523356 0.08925374 -0.029960025 -0.05015413 0.09936404 0.41890675
-0.16338849 0.22909363 -0.30440575 0.30280456 0.2973826 -0.19143716 0.21280384 -0.16240971
0.025659358 -0.08594652 0.38351315 -0.4959531 -0.055616688 0.15513353 -0.07612628 0.008796367
0.13240336 -0.12935229 -0.031037355 0.020984309 -0.02086436 0.030620294 -0.020983843 0.03095751
0.2806414 0.35340992 0.76645565 0.87601936 0.037261203 -0.07609884 -0.015259264 0.122717746
0.091392905 -0.2351586 -0.04163743 -0.14515662 0.031412754 0.09771319 -0.10261045 -0.06976607
0.0402054 0.03180752 0.45869333 0.289298 0.94373536 1.2300774 -0.10238547 -0.24933076
-0.14513977 0.06736825 -0.069568254 -0.17826417 -0.027000073 -0.15649262 0.05180976 -0.11280396
0.0022540395 0.07499994 -0.09047199 -0.0681479 0.41333285 0.35926333 0.7460206 0.8598608
-0.18448596 -0.10257338 0.033470985 0.01647872 -0.13038807 -0.16502401 -0.18216696 -0.13670851
-0.048977546 -0.072926626 -0.04247585 0.08992171 -0.002518435 -8.400485e-05 0.44241187 0.49220973
0.7949861 0.85314703 -0.07871395 -0.051581368 -0.000260102 0.19447772 -0.09484633 -0.118761204
0.051955845 -0.12876713 -0.11331136 0.050432347 -0.025203986 -0.0443588 0.08800706 0.070622526
0.08116605 0.10806997 0.0974509 0.17205144 0.08516014 0.10130599 0.09940925 0.08395648
0.11317402 -0.016568255 0.2933984 -0.21864423 -0.074192174 0.057289395 0.08362147 0.06447374
0.09610323 -0.026444536 -0.08923847 -0.028216446 -0.1243757 0.06882423 -0.08219743 0.09461573
0.02293387 0.04332104 0.14659218 0.058953132 0.036097597 0.12832423 -0.09538956 -0.09032448
0.06601859 -0.07197813 -0.040678635 -0.1623209 -0.047039166 0.061274875 0.1324368 0.0043404135
0.056157712 6.3492145e-05 0.012193876 -0.12347641 0.23991771 0.09864285 0.12032174 0.043048702
0.04758913 0.017599037 0.07888414 -0.08825255 0.027137078 -0.016821302 -0.049315307 -0.008645407
0.07389916 0.038698934 -0.045918357 0.03818798 -0.047964267 0.021341234 0.25501075 -0.02182202
0.15799965 -0.2705814 0.012955134 0.05392692 0.18767364 0.030578574 -0.048275117 -0.050765414
-0.010040694 -0.013213549 -0.12344406 0.045654144 -0.11566022 0.08970049 -0.11570907 -0.07214533
0.033618916 -0.01889159 -0.010084561 -0.02400161 -0.0063622994 -0.021752894 -0.0051575303 -0.053246815
0.19721068 0.27112347 -0.07830254 -0.14442775 0.21044505 -0.06343221 0.070263706 0.17011657
0.085109785 0.061619163 0.2100964 0.067085244 0.27517384 0.2933996 -0.11978767 0.14915836

bias f4 [160]
00000000: f1dc 65be c2c9 ad3e d8b9 693f bcf2 7abf
00000010: 922e b83e 487e 0dbf 9605 a13f 9639 f1be
00000020: 5fc9 18bf 522e 17bf 9142 9abe 4efa 2b3f
00000030: 8998 cebb 9c36 1abf 38b4 803f 9a66 c43f
00000040: 88ef ec3e c5c9 68bc 4666 afbd 3e19 2fbd
00000050: 32ed 3dbd 374b 02bf 41a3 64bf 9fc1 393f
00000060: 98d3 d23e 0f57 a9be 06ae aa3e f0d0 94bd
00000070: ac9d 21bf 79df fabc 22c2 40be c5c8 c83c
00000080: c0f2 89bf 5681 733f 05ac ff3e c4f1 eebc
00000090: 1de5 a53f 8828 42be 1fb9 aa3b 2516 4e3e
000000a0: a3c5 babf 798f 57bf 7a18 1a3d 5e31 efbe
000000b0: ac84 2c3f 7c76 3ebf b6c3 05bf 1cbc 2cbf
000000c0: 6671 993e db3c 36be 83d4 df3e 0293 88be
000000d0: d9a1 1f3f 35cf 303f 1799 6a3f 6001 8abf
000000e0: 5b1e 55be 1414 113e acf9 acbf 2fc4 1d3e
000000f0: 43b7 53be a869 92be 37ca 07bf 19ae 803f
00000100: 3356 973d 3925 af3f 6d47 ffbe 2b30 04bd
00000110: 95df 32bf 5c4a ecbe 733c 5a3e c6b9 e6be
00000120: cc58 bebd 2489 dabe ef6f 603f 0d8f 493f
00000130: aac5 7d3f c59a 89bf 6fa2 10be 30f2 243f
00000140: a25d cbbe 7183 5b3f d1e1 29bf 0759 63bf
00000150: fb2e 0bbf 2df3 d43d 7c5a 4d3f 087f c3be
00000160: 22b0 953e 2667 b3be 9304 c43e f43d f8be
00000170: c5a5 80be 2a64 a53d f741 4b3f 98c2 a53d
00000180: c780 e8bf 170d 8a3e 8fa8 92be c38b 883f
00000190: cf00 8c3f 00a9 1fbc 4d3a 233f 3acc 383c
000001a0: 4dc0 7b3e 0b65 3a3f 7dae dbbe 1c0b d0bd
000001b0: 7728 4dbe a660 533f dd9f c23e 1d37 11bf
000001c0: cfbb a3be 658e 833f f9a4 d23c fb70 973c
000001d0: bea4 59bf dd6a 2fbf 6aec 873e 8c08 713e
000001e0: caec c73e 2c29 7fbf dcd4 993f 90e2 80bd
000001f0: 4ff6 13bf fbc5 073f 04c7 3dbf a51c 34bf
00000200: 7461 ddbe f494 f0bd 9cb0 dfbd 0025 753e
00000210: 350a 793f 2d7e 913f a5d6 54bd c67e cb3e
00000220: 9297 72bf da7c 0bbf 768e 24be 4da0 53bc
00000230: f6ed ba3f ef68 adbb 4232 44be a373 973c
00000240: 9c2e 07be f683 32bf 0969 63be 3ef7 7c3f
00000250: cec0 3f3f b726 06bf e77c 11bf b298 633f
00000260: cffc 133f fe6e f93d cd1b ddbd cdc6 9b3e
00000270: c5e9 15bd 8f4c bbbf 5270 3dbf 5e17 803f
-0.22447564 0.33942991 0.912992 -0.98026633 0.3597303 -0.55270815 1.257983 -0.47114247
-0.5968227 -0.59055054 -0.3012891 0.6717881 -0.0063048047 -0.6023958 1.0054998 1.5343812
0.46276498 -0.014208262 -0.08564429 -0.042748682 -0.046368785 -0.5089602 -0.89311606 0.7256107
0.41177058 -0.33074233 0.33335894 -0.07266414 -0.63131213 -0.030624138 -0.18824056 0.024509797
-1.0777206 0.95119226 0.49935928 -0.029168017 1.2960545 -0.18960774 0.0052100564 0.20125635
-1.4591564 -0.84203297 0.037621 -0.46717352 0.6738994 -0.7439954 -0.52251756 -0.6747453
0.2996933 -0.17796652 0.4371682 -0.26674658 0.62356335 0.6906617 0.91639847 -1.078167
-0.20812361 0.14167815 -1.3513694 0.1540687 -0.20675378 -0.28596234 -0.5304293 1.005313
0.07389488 1.3683234 -0.4985918 -0.0322725 -0.6987241 -0.46150482 0.21312122 -0.4506361
-0.092942804 -0.42682755 0.876708 0.78733903 0.99129736 -1.0750357 -0.14124463 0.6443205
-0.39719874 0.8574744 -0.66360193 -0.8880772 -0.5436856 0.103979446 0.80216193 -0.38182855
0.2923594 -0.35039634 0.3828474 -0.48484766 -0.25126472 0.080757454 0.7939753 0.080937564
-1.81643 0.26963112 -0.28644225 1.0667652 1.0937747 -0.009744883 0.63760835 0.01127916
0.24585076 0.7281043 -0.42906561 -0.10158369 -0.20034967 0.8256935 0.3801259 -0.5672472
-0.31979224 1.027783 0.02571343 0.01848649 -0.85017 -0.68522435 0.26547557 0.23538417
0.39047843 -0.996722 1.2018085 -0.06293213 -0.5779771 0.5303647 -0.741318 -0.7035621
-0.43238413 -0.117471606 -0.109223574 0.23939896 0.972812 1.1366631 -0.051962513 0.39745158
-0.9476253 -0.54487383 -0.1606997 -0.012916637 1.460387 -0.00529205 -0.19159797 0.018487757
-0.13201374 -0.69732606 -0.22208036 0.9881476 0.7490357 -0.52402824 -0.5683121 0.8890487
0.5780763 0.12179373 -0.10796318 0.3042511 -0.036599893 -1.4632739 -0.7399951 1.0007131

weight f4 [80, 160]
00000000: cf09 07be ed33 69bf 81e1 953d f714 84bd
00000010: 8c39 cbbe cab3 f6be fa46 933d 69ed 5c3e
00000020: 08ec debd 3e7f 18bd e023 dc3c 52d4 23be
00000030: 5fdf 7fbe 3d4d 12bf bd72 063d afa7 d1be
00000040: 9e0f d73c d2f9 c3be 67d9 a43d 48e4 40bd
00000050: 5992 e8ba faad 103d 4e0f 6bbe 14ef 683e
00000060: d62f c2be d58c fc3d a627 8abb 16c9 143e
00000070: 93cc 42be f1f5 d5be 2b99 8cb7 263c a6be
00000080: 0b2f 883d 52db 82bf 755e c6bc c972 263e
00000090: c82e 52bf 82d3 f8bd 0162 abbe 846c f8be
000000a0: ff8c 1fbe 666c 29bf b256 1f3e 7122 5ebe
000000b0: fc55 e1bc 6c70 f43e d3b6 4e3e 08cc 1dbf
000000c0: a637 5dbd fbcd 84bf 21bf 14be d96b 873e
000000d0: edab 50be 8e24 0c3d 932b 4dbe 3c50 4c3d
000000e0: 8a99 f93d 92a1 a2be 9646 ed3e 66e7 8d3e
000000f0: 03df 923e 8bbc 9d3d d117 983d e529 73bc
00000100: f50b bbbd 4839 b8be ae22 adbd ec05 043f
00000110: 15c0 a7be 1e5d 2c3e dc2a 01bf 992f 163e
00000120: 1cba 3abe 00ed ac3c 90c9 e8be cd71 9f3d
00000130: a2e1 0dbf 84ce 72be 3984 6ebd 8474 ddbc
00000140: add2 9ebd fc64 61be d836 333f 1743 b63d
00000150: cd48 94bd d4d6 8ebe de0d d1be 2494 253f
00000160: ae8a 9cbe ffd0 04bf 8cf3 f8be 7103 ef3c
00000170: d4db 72bf 6559 6c3c 7901 23bf aa86 803e
00000180: ce3d 22be db73 2ebf 5b95 f2be 381b 10bf
00000190: 982f d9bc 6bd0 8e3d d0d3 1cbf 1bd6 8e3e
000001a0: 0b86 cdbe b5d4 543e 8f2c 9bbf 605d 8abc
000001b0: 411e e2be 3f12 fcbc 1312 3cbf 765a 533e
000001c0: ba07 9cbe 13f9 9cbe e2ed 42bf 5cc7 443e
000001d0: 8440 82be bd52 36bd 807c 9d3d 5435 0a3e
000001e0: 669a 833e c7e3 debf ac42 65be 91b8 873c
000001f0: 10ce 0c3e 17c6 47bf 07e6 19bd 5614 0d3f
00000200: 95bb 21be 3db8 b73e 32b3 cabc 1010 2f3b
00000210: a70c f6bd c02e e9bd efcb c63e ce02 b0bc
00000220: 5b19 a8bf 040b b0be 936b 8f3e 4467 26be
00000230: ce89 88be b4c3 8ebe f24d a2be fa3a 7f3e
00000240: f501 1a3e c804 78be 97e9 753f 7b1d a4bd
00000250: 9ef7 f53d 6e25 b6be eb8e 65be 1238 b5bd
00000260: b6f2 1f3f f44b 903d 5910 12bd 52c6 e2bd
00000270: bae4 a5be 38d3 eebc 1eed 6d3e 80e8 1bbf
00000280: 222c 0fbd ad36 31be e9a7 63bd 8d55 90be
00000290: 9b36 c4bd 2c94 183d ff65 283b 4856 cd3d
000002a0: 9d96 9cbe 47a7 50be 45f5 54be b847 06bf
000002b0: d5eb 083d 8d3b 823e cb39 4ebd 60d3 853d
000002c0: 3880 333e 4920 9fbd cf6e f4bc ec6d 9e3e
000002d0: 8345 9abe 2531 7cbd d8ac 1f3d 6127 193d
000002e0: 6599 63be 030b 9e3d 132f 1abd 922e 9c3d
000002f0: 52cb 9a3e 1cb8 8e3e fdf1 e13d e197 233e
00000300: 1580 873d 47bc 9a3e 768d 853d 5170 b93d
00000310: 088a ae3d dc37 5fbe 2c46 9bbe 03fc 08be
00000320: 7cca 2bbe ce03 93be 6ccf 8f3d 081e 343e
00000330: 1b0a 93bd c0a0 5fbe f1b3 e63b 009b 5f3f
00000340: a33f 98be fd63 df3e f7b4 173d 1705 5a3c
00000350: b70d 96bd a84e 08bd 89c4 6ebd 7b82 11be
00000360: 0718 8cbc 8a25 1cbe fe10 12be 74a5 48bc
00000370: 2c32 80be 8cdb 0abe 87b3 ba3e e788 58bd
00000380: 1b35 1d3e f914 353e a101 68be b170 de3d
00000390: cc16 e3bd 30c0 44bd cb42 353e 8793 863d
000003a0: 0efc 94be 0cca 173f 7a31 7a3e 1157 32be
000003b0: 33df 0fbe ed02 f7be f830 05be 6b21 d0be
000003c0: 076d a23c e53d a2bd 6ccb 1d3e c15e 29be
000003d0: 9b0d 813c 8041 4ebe 0c2d 3d3d 3ee0 823e
000003e0: ca2f d0bd 57fb ad3d 0fca 84be cb71 643d
000003f0: ba3c 043f fcd1 16ba 3cc1 15be 95fe 653d
-0.13187335 -0.9109486 0.07318402 -0.06449311 -0.39692342 -0.48184043 0.07191272 0.2157494
-0.10884863 -0.037230723 0.026872575 -0.15998963 -0.24987553 -0.57149106 0.032824267 -0.40948245
0.026252564 -0.38276535 0.08049279 -0.047092706 -0.001774381 0.035322167 -0.22955057 0.22747451
-0.3792712 0.12331549 -0.0042161522 0.14529833 -0.19023351 -0.417892 -1.6760625e-05 -0.32467765
0.06649598 -1.0223181 -0.024214962 0.16254725 -0.8210263 -0.12149717 -0.3347321 -0.4852029
-0.1558113 -0.6618103 0.15560415 -0.21692826 -0.02750682 0.4774202 0.2018693 -0.6163945
-0.05400815 -1.037536 -0.14526035 0.2644947 -0.20378084 0.03421455 -0.20036153 0.049881205
0.121874884 -0.31763893 0.46342915 0.27715605 0.2868577 0.07701977 0.074264176 -0.014841531
-0.0913314 -0.35981202 -0.0845388 0.51571536 -0.32763734 0.16832396 -0.50456023 0.14666595
-0.18235058 0.021109104 -0.4546628 0.07785378 -0.55422413 -0.23711592 -0.058231566 -0.027033098
-0.07755027 -0.22011179 0.7000556 0.08899515 -0.07240448 -0.27898276 -0.40830892 0.6467917
-0.30574554 -0.518814 -0.48623312 0.029176446 -0.9486668 0.01442561 -0.6367412 0.2510274
-0.15843889 -0.6814553 -0.47379574 -0.5629153 -0.026511952 0.06973346 -0.612607 0.27897725
-0.4014133 0.20784266 -1.2122973 -0.016890228 -0.44163707 -0.03077042 -0.7346508 0.20639977
-0.30474645 -0.3065878 -0.7614423 0.19216675 -0.25439847 -0.0445125 0.07689762 0.13496906
0.25703734 -1.7413262 -0.22388715 0.0165675 0.13750482 -0.78036636 -0.037572887 0.55109155
-0.15794213 0.3588275 -0.02474365 0.0026712455 -0.12014132 -0.1138587 0.38827464 -0.021485712
-1.3132738 -0.34383404 0.2801176 -0.1625033 -0.26667637 -0.27883685 -0.31700093 0.24924842
0.15039809 -0.24220574 0.96059555 -0.080134355 0.1201012 -0.35575432 -0.224178 -0.08848585
0.6247972 0.07045737 -0.03566012 -0.11072983 -0.32401067 -0.029153451 0.23234984 -0.6090164
-0.034954198 -0.17306013 -0.055580053 -0.2819027 -0.09580728 0.037250683 0.002569556 0.100262225
-0.3058366 -0.20376311 -0.20796688 -0.52453184 0.033428032 0.2543606 -0.050348084 0.06534457
0.1752938 -0.0776983 -0.029837994 0.3094324 -0.30131158 -0.061570305 0.038983196 0.03739107
-0.22226484 0.07716944 -0.03764255 0.0762607 0.30233246 0.2787484 0.11032484 0.15975906
0.066162266 0.3022177 0.06521122 0.09054626 0.08522421 -0.21798652 -0.30326974 -0.13377385
-0.1677646 -0.2871384 0.070219845 0.17589581 -0.07179662 -0.21838665 0.0070404937 0.87345886
-0.2973605 0.43630973 0.037037816 0.013306878 -0.07326835 -0.033278137 -0.0582929 -0.1420993
-0.0171013 -0.15248695 -0.14264295 -0.012246478 -0.25038278 -0.13560313 0.36465093 -0.052864935
0.1535229 0.17683782 -0.22656871 0.10861338 -0.110883325 -0.048034847 0.17701261 0.06571107
-0.29098552 0.59292674 0.24432936 -0.17416026 -0.14049987 -0.4824442 -0.13006961 -0.40650496
0.019827379 -0.07921962 0.1540963 -0.16540052 0.015753558 -0.20142174 0.04618554 0.25561708
-0.10165365 0.08495205 -0.25935408 0.055772584 0.5165516 -0.0005753336 -0.14624494 0.05615099

bias f4 [80]
00000000: 5819 17be 0c1f 54bd 096e 4d3e 7c7f 803e
00000010: efe6 a33e 1abd 703f 6ec5 51be 1cc7 f03e
00000020: 49c8 8dbc 97e8 cb3e 0ba0 263f e99e ef3e
00000030: 959a 833e 29d2 a33e ebea b13e 3e14 073f
00000040: f124 7e3e 89a6 2a3f 0910 ce3e 4560 af3e
00000050: 2015 2a3f db10 523e 94a0 a4bc 4f81 733e
00000060: e44d dc3e a107 813f ebbb 7c3d fb32 a93e
00000070: 763e 633e cb79 b53e 45d8 e03e 57b6 973e
00000080: f60f 603d d23a 263f c24e 60be b1c0 b93e
00000090: 51f1 b43e edf4 813e a10a bb3e 9740 363f
000000a0: f4c1 163f bca9 243e 7c3e 193f cde5 c43e
000000b0: 4015 663e 721f b53e b8a4 a73e 5d0b c33e
000000c0: 7b7d e53e cef3 8ebc 8f6b 973e c950 1bbf
000000d0: 640e ff3e c882 493e a4fa 8b3e da79 823e
000000e0: 46c7 8a3e af3e c93e 4a3d 823f 1f87 0ebe
000000f0: 8ad1 2f3e d29a 113f a63b 213e de37 4c3f
00000100: 149e 213e 3018 5b3f 2fb0 a93e c3c3 4d3f
00000110: 3a41 523e 561e 283f ef32 fbbd 1df7 333f
00000120: d43d 943e 95d4 213f 8e61 34be d7c7 453f
00000130: a1de d5be e904 c03e c564 8a3e d30d 813f
-0.14755762 -0.05178742 0.20061506 0.25097263 0.32012126 0.94038546 -0.2048547 0.47026908
-0.017307417 0.3982589 0.65087956 0.46800926 0.25703874 0.31996277 0.3474954 0.5276526
0.2481878 0.6666036 0.4024661 0.34253135 0.66438484 0.20514242 -0.0200961 0.23779796
0.43028176 1.0080453 0.06170265 0.33046708 0.22191796 0.35444483 0.43915 0.29631302
0.05470272 0.649335 -0.21905044 0.36279824 0.3534036 0.25382176 0.36531547 0.71192306
0.588897 0.16080374 0.5986097 0.38456574 0.22469044 0.35375553 0.32742858 0.38094607
0.44822297 -0.01745024 0.29574248 -0.60670143 0.49815667 0.19678795 0.2733966 0.2548359
0.2710516 0.39305636 1.0174954 -0.13918732 0.17169777 0.5687686 0.1574541 0.79772747
0.15782958 0.8558378 0.3314223 0.80376834 0.20532694 0.6567129 -0.12265574 0.7029894
0.2895342 0.63215 -0.17615339 0.77258056 -0.41771415 0.37503746 0.27030006 1.0082344

weight f4 [20, 80]
00000000: b970 33bf e2d6 c33f 879e 59c0 2a1c 8ac0
00000010: e142 ae3c 7e73 a63e 00bb 8fbf 9806 863e
00000020: f562 0dc0 61c6 203e cbf0 523f 2964 7a3f
00000030: fd10 b8bd fb73 4e3f 7d47 b0bf d8e9 f33e
00000040: 30b3 8a3f 0a8c c23a 8bb2 54be b969 9a3e
00000050: 592c 593e aa8c 9d3d f8c5 cb3f eb4e d23c
00000060: 0ed0 9ebc 97e2 b03e 01c9 2ebe 8c23 e53c
00000070: 4576 fc3f d289 dabc 61f1 2e3d 4e6f ef3f
00000080: 8db1 cb3f f83c 313e 9b8f 4abe 4d8f 6f3e
00000090: 32ad ccbe a557 853e fad4 753f f41f 6e3e
000000a0: deb9 5f3f 05ed 733e 43e1 1b3f 6d14 bb3e
000000b0: 58ea 683b 1552 023e 3c7c fe3e 4fde 353e
000000c0: 8323 773d f3e7 d23d 4764 893f 6d48 c7bf
000000d0: e550 b93e 334a 83bd b46a 10bd ba14 4ebe
000000e0: 09d7 c5bf a4ef b33e 9be8 cb3e fa0d cdbf
000000f0: 9121 833f df22 313f 9dfd 0e3e eed8 753e
00000100: 187f 22bf 5ea1 853d f2d3 fb3e 6dca a63e
00000110: 339a eebf 35e6 4a3e 4bb8 63be 6261 043d
00000120: f8ae f13e da50 c8bc 8afe 5cbc 1702 3c3e
00000130: ca00 3f40 55e8 bb3d 4820 1dbe 7a5c bb3e
00000140: d701 41bf 1792 ad3f 29e6 61c0 354a 8ac0
00000150: 94cd efbb de95 8f3e 2138 81bf cb5e 6c3e
00000160: d18b 16c0 87e0 033e 62b0 1f3f ac8b 783f
00000170: 94fe 0fbe 9f8c 3d3f e8b1 abbf 46fc bf3e
00000180: f46a 713f 9304 cf3b 3047 37be 80af 113e
00000190: b13d 983e 014d db3b bd8e bd3f 95e8 48bd
000001a0: c05b 04be 717e 403e 07db 5fbe 1c9e 0ebe
000001b0: 2a29 0840 ac46 ebbd 3066 e2bd ed2e df3f
000001c0: 7828 d43f 8b77 8f3b 7567 0ebe a81e ea3c
000001d0: 704c a0be 4eb4 633e e150 863f a96f 133d
000001e0: 0085 863f feb1 7e3e e34c 273f e315 733e
000001f0: fef7 9ebc 4455 d33d 4297 c53e fd28 263e
00000200: fc9b b13c 03e8 843e d09b 843f 448f b4bf
00000210: 9f63 ed3e de0c 8ebd 4e8a 0fbe 4372 ccbe
00000220: 40c3 b8bf 5052 ac3e e4ee 9a3e d3be c9bf
00000230: a4b5 943f d6a2 303f a6cb 0b3e fd80 983d
00000240: 7b0a 32bf 39e9 523d 190a 153f 06ea 663e
00000250: e1ec dbbf 542a 9e3c dd88 41be 9a57 e33d
00000260: cc6c f43e 4ba8 763b 7c0e 0d3b 31ba 213d
00000270: f1ce 3a40 8014 4fbd fb27 69be 715d 9c3e
00000280: ffe4 53bf bce4 b63f e610 64c0 2499 89c0
00000290: 9fca e0bd 36d1 0c3e 266c 93bf b0e0 0e3e
000002a0: bd29 16c0 9583 39bd 35bf 0c3f f94f 843f
000002b0: 2f1b 12be e076 2a3f 8baf bfbf 13e4 b23e
000002c0: a742 4c3f aa54 91bc b612 c0be 71e0 493e
000002d0: 400c bf3d 8ce5 82bc 08d4 e53f 7314 a8bd
000002e0: 85c8 58be 26bd af3e aa14 29be 103c 3dbe
000002f0: cc2f e23f e050 a2bc 12c9 0bbe b2d6 bd3f
00000300: 63da ac3f 9014 c0bd 1543 78be 5a4c e13d
00000310: e628 a8be a533 ff3d 86bc 6e3f 1c8c 2ebd
00000320: dc7b 483f a798 8e3e 8c69 0e3f d08b 663e
00000330: 6172 a63d cf19 c43d 7db2 aa3e 8a74 393e
00000340: 18ff a7bd 26e9 1d3e 4a56 713f 13b4 cabf
00000350: 9f14 a83e 586f 01be 4ec5 4abe 9cc0 f5be
00000360: c67d bebf 11db 383e c94a 9f3e 2681 dcbf
00000370: b985 7a3f bca2 1c3f 9ed9 1abd ab56 453d
00000380: 742b 11bf c417 ddbc 4a10 f93e fa84 833e
00000390: 782a f4bf 04db 08bd 905c aebe 07cd c23d
000003a0: e4d8 9e3e 177a 3dbe bdbd f7bd aa49 b63d
000003b0: 223a 3540 c8bb 323d 9166 88be 9e66 633e
000003c0: f746 0cbf 41b0 d53f a562 63c0 ef9a 86c0
000003d0: 3b29 323d 5a7e 5a3e 851d 79bf 126d 3b3e
000003e0: 4baa 1ac0 4a16 203e 7d03 543f b841 823f
000003f0: b1ad 9fbd ae1c 4e3f e2e8 aabf 399b ff3e
-0.70093876 1.5299952 -3.4003007 -4.315938 0.021272125 0.3250999 -1.1228943 0.26176906
-2.2091649 0.15700676 0.8239867 0.9780908 -0.08987615 0.8064572 -1.3771816 0.47639346
1.0835934 0.001484276 -0.20771234 0.30158785 0.21208324 0.07692845 1.591979 0.025672397
-0.019386318 0.34547874 -0.17068864 0.027971052 1.9723593 -0.026677046 0.042710666 1.8705842
1.5913559 0.17308414 -0.19781344 0.23394509 -0.39975888 0.2604343 0.960281 0.23254377
0.87392986 0.23820885 0.608906 0.3653902 0.003554007 0.12726624 0.49704158 0.17760585
0.0603366 0.10298147 1.0733727 -1.5568978 0.3619453 -0.06410637 -0.03525801 -0.20125094
-1.5456249 0.3514377 0.398259 -1.601989 1.0244619 0.69193834 0.13963933 0.24008533
-0.6347518 0.06524919 0.4918514 0.32576314 -1.8640808 0.1981438 -0.22238271 0.032319434
0.47203803 -0.024452616 -0.013488421 0.18360172 2.9844232 0.09175173 -0.15344346 0.36593992
-0.7539343 1.3560208 -3.5296729 -4.3215585 -0.007318208 0.28044027 -1.0095254 0.23083036
-2.3522837 0.12878619 0.62378514 0.9708812 -0.14061958 0.74042696 -1.3413668 0.37497157
0.9430382 0.006317684 -0.1789825 0.14227104 0.29734567 0.006692529 1.4809185 -0.049049933
-0.12925625 0.18798234 -0.21860896 -0.13927501 2.1275125 -0.11488089 -0.11054647 1.7436196
1.657485 0.0043782643 -0.13906653 0.028579071 -0.31308317 0.2223675 1.0493432 0.03599516
1.0509338 0.24872586 0.65351695 0.23738818 -0.019405361 0.103189975 0.38591963 0.16226573
0.021680824 0.2595826 1.036005 -1.4106221 0.46365067 -0.06936048 -0.14017603 -0.39930925
-1.4434586 0.3365655 0.30260384 -1.576136 1.1617932 0.6899847 0.13651904 0.074464776
-0.6954724 0.05149195 0.5821853 0.2255021 -1.7181665 0.019307293 -0.18899865 0.11100693
0.47739255 0.0037636932 0.0021523526 0.039484207 2.9188807 -0.05055666 -0.22769158 0.3054004
-0.82771295 1.4288554 -3.5635314 -4.299944 -0.10976147 0.13751683 -1.1517379 0.13952899
-2.3462975 -0.045291502 0.5497926 1.0336906 -0.14268182 0.6658764 -1.4975446 0.34939632
0.79789203 -0.017740566 -0.37514275 0.19714524 0.093285084 -0.015978597 1.7955332 -0.082070254
-0.21170242 0.34323996 -0.16511789 -0.18479943 1.7670836 -0.019813955 -0.13650921 1.4831145
1.3504146 -0.09378922 -0.2424434 0.11000891 -0.32843703 0.12461022 0.93256414 -0.042614087
0.78313994 0.2785084 0.556298 0.22514272 0.08127285 0.09575235 0.333393 0.18110862
-0.08202952 0.1542097 0.9427229 -1.5836204 0.32828233 -0.1264013 -0.19801828 -0.47998512
-1.4882133 0.18052317 0.31111744 -1.7226913 0.97860295 0.6118581 -0.037805192 0.048178356
-0.5670693 -0.026988871 0.4864524 0.2568739 -1.907546 -0.033411995 -0.34054995 0.09511762
0.3102485 -0.18503605 -0.120967366 0.08900769 2.8316731 0.043636113 -0.26640752 0.22207114
-0.54795784 1.6694413 -3.5528958 -4.206413 0.04349635 0.21337262 -0.9731067 0.18303326
-2.4166439 0.15633503 0.8281782 1.0176306 -0.07796801 0.8051251 -1.335232 0.49923113

bias f4 [20]
00000000: f3a7 063f 5b9d f23e 4e12 ea3e 7839 2a3f
00000010: ad47 433d 4335 e73d b9a8 003e 05fe cd3d
00000020: 75f6 b83d e983 bc3b dcaf 523e 06fd 6c3d
00000030: febe 813d 3376 a53e 5eed 303d 72b6 133d
00000040: 9a34 8c3d 35c4 ab3e 5714 0d3e 1604 083f
0.5260002 0.47385678 0.4571709 0.6649394 0.047675777 0.11289456 0.12564363 0.10058216
0.09031383 0.0057530296 0.20574898 0.05785849 0.06335257 0.3231674 0.04319512 0.036062665
0.068459705 0.33548132 0.1377729 0.53131235

weight f4 [1, 20]
00000000: b61a 9cbf ed54 97bf b65a 99bf 96dd 92bf
00000010: 257e 4a3f 20a9 45c0 aa1a 163f c398 2d3f
00000020: 5baf 223f 3cd3 4b3f 8402 febf c7fe 183f
00000030: abae 133f fae6 debf adb0 1f3f 4c42 54c0
00000040: 0143 293f 8d56 94bf 85a4 18c0 654d 90bf
-1.2195652 -1.1822792 -1.1980808 -1.1473873 0.7909873 -3.0884476 0.58634436 0.6781122
0.6354882 0.79619193 -1.9844518 0.5976376 0.576884 -1.7414238 0.6237896 -3.3165464
0.66117865 -1.1588913 -2.3850415 -1.1273619
