data/q_value_target_net_1_food_collection_3990000_pH-MARL.pth (torch, 138129 bytes, 7 tensors)

weight f4 [176, 88]
0	0xbf0df640	-0.5545387
1	0xbe9974c8	-0.2997191
2	0xbe1b9670	-0.15194106
3	0xbe76abb0	-0.24088931
4	0x3e10b4f6	0.14131531
5	0x3de64de7	0.112453274
6	0xbd39806f	-0.0452885
7	0x3c844979	0.016148316
8	0x3e7c925b	0.24665205
9	0x3d953006	0.0728455
10	0x3cec2d6f	0.028830258
11	0xbd040f32	-0.032241054
12	0x3e915c45	0.2839071
13	0x3d42f208	0.0475941
14	0x3e0413e4	0.12898213
15	0x3d94aeda	0.07259913
16	0xbdbce53d	-0.09223411
17	0xbdb11de2	-0.08648278
18	0x3d5569ee	0.052102976
19	0xbd08efeb	-0.03343193
20	0xbf032409	-0.5122686
21	0xbea64092	-0.32471138
22	0x3eb6b1ec	0.3568262
23	0x3f336020	0.7006855
24	0x3c38c113	0.011276501
25	0xbc927a58	-0.017880604
26	0xbe976b03	-0.2957383
27	0xbc01f5cd	-0.007932139
28	0xbdb4dff8	-0.08831781
29	0xbe049610	-0.1294787
30	0xbd924d03	-0.07143595
31	0xbd7e7f97	-0.062133398
32	0xbd9337ec	-0.071884006
33	0x3d4d6aa7	0.05015054
34	0xbd9bba35	-0.076038755
35	0xbde744c5	-0.112924136
36	0xbda702bb	-0.08154818
37	0xbc86d644	-0.016459592
38	0xbdbffd4f	-0.09374487
39	0xbdde6394	-0.10858837
40	0xbefc2a38	-0.4925096
41	0xbe9526d1	-0.29131177
42	0xbf35fc47	-0.7108807
43	0x3e089478	0.13337886
44	0x3ca4645a	0.020067383
45	0xbdd47765	-0.10374335
46	0xbd0bc3e6	-0.03412237
47	0xbb570316	-0.0032808236
48	0x3db79bd0	0.08965266
49	0xbd15dc9f	-0.036587354
50	0xbdb33e99	-0.08752174
51	0x3d38221e	0.04495441
52	0x3e99be3e	0.30027956
53	0x3e3d9b36	0.1851624
54	0xbc9df259	-0.0192806
55	0x3cb5a1fe	0.02217197
56	0x3e49362d	0.19649573
57	0xbd10aa06	-0.035318397
58	0xba6e3d86	-0.0009088147
59	0x3d5a21b2	0.05325479
60	0xbf1cbd05	-0.6122592
61	0xbe84f104	-0.2596513
62	0xbec5943c	-0.38589656
63	0xbeb909a6	-0.36140174
64	0xbcc7c11a	-0.02438407
65	0xbd5c2f8b	-0.053756278
66	0x3df4477d	0.11927698
67	0x3e035437	0.12825094
68	0x3e1ba93a	0.15201274
69	0xbd558715	-0.052130777
70	0x3e646a3b	0.22306149
71	0xbdccea8e	-0.10005675
72	0x3e18fda2	0.14940503
73	0x3e220e62	0.15825799
74	0x3c8011f8	0.015633568
75	0x3c780392	0.01513757
76	0xbc1fd564	-0.009755466
77	0x3c8b1bf5	0.016981104
78	0x3d63af99	0.055587385
79	0x3d629373	0.0553164
80	0xbd12b766	-0.035819434
81	0xbd09262a	-0.03348366
82	0x3df2a249	0.1184736
83	0x3d8917a0	0.06693959
84	0xbe317cea	-0.17332807
85	0xbd22e487	-0.039768722
86	0xbd221224	-0.03956808
87	0xbd9862d2	-0.074407235
88	0xbdc18969	-0.09450037
89	0x3e5060bc	0.20349401
90	0xbe615d51	-0.22008254
91	0xbecebf24	-0.40380204
92	0x3deaa36e	0.11456953
93	0xbe4c4264	-0.19947201
94	0x3dab599c	0.08366701
95	0x3df01718	0.11723155
96	0xbe64cc21	-0.22343494
97	0xbda486db	-0.08033534
98	0xbd138f95	-0.036025602
99	0xbda73a5b	-0.08165427
100	0xbdd35b4e	-0.10320149
101	0x3c48cef0	0.012256369
102	0xbcd0febe	-0.025512096
103	0x3cfee524	0.031115122
104	0x3dae2164	0.085024625
105	0x3e1ef4f6	0.15523133
106	0x3e788061	0.24267723
107	0x3d9209d3	0.0713078
108	0xbe2db763	-0.16964488
109	0x3e77c908	0.24197781
110	0x3c515491	0.01277651
111	0xbe4b7ff6	-0.19873032
112	0x3e0beeb8	0.13665283
113	0x3e173b1d	0.14768644
114	0x3e5510ce	0.20807192
115	0xbd2369eb	-0.039895933
116	0xbda02502	-0.07819559
117	0xbd1d1171	-0.03834671
118	0xbd446b48	-0.047953874
119	0xbd3d1bdd	-0.04616915
120	0xbbe34d0e	-0.006936676
121	0x3d248e0a	0.04017452
122	0x3cfc9c25	0.030836174
123	0xbde6d96e	-0.1127194
124	0x3df619a2	0.12016608
125	0x3e44a577	0.19203745
126	0x3d592aad	0.053019214
127	0xbc1ada7e	-0.009451507
128	0x3dce8d7e	0.10085581
129	0x3de1ac8c	0.11019239
130	0x3f2154a7	0.63019794
131	0x3f1f9e8d	0.62351304
132	0xbd93795c	-0.07200882
133	0x3e3c55e4	0.1839214
134	0xbcb1d81c	-0.021709494
135	0x3dc68d4f	0.09694921
136	0xbdbbac5c	-0.09163734
137	0x3dd87af6	0.10570328
138	0xbe240685	-0.16018112
139	0xbc67583f	-0.014120161
140	0xbad36d70	-0.0016130637
141	0x3db8048e	0.08985244
142	0xbe288067	-0.16455232
143	0xbdcd5c59	-0.100273795
144	0xbe26f54e	-0.16304514
145	0xbccee518	-0.025255725
146	0xbc539cda	-0.012915814
147	0x3cca97d9	0.02473061
148	0x3db1def0	0.086851
149	0x3d472df5	0.048627812
150	0x3ef3f275	0.47645918
151	0x3e5bae32	0.21453169
152	0xbcd3f008	-0.025871292
153	0x3d6c5f84	0.05770828
154	0xbc526407	-0.012841231
155	0x3cce9ee7	0.025222255
156	0xbc3310a6	-0.010929262
157	0xbd57244c	-0.05252485
158	0xbde32fa7	-0.11093073
159	0x3c68fc44	0.014220301
160	0xbe6031b0	-0.21893954
161	0xbd9a98f6	-0.07548706
162	0xbe3964e1	-0.18104888
163	0xbcf0440b	-0.02932932
164	0xbdc38556	-0.09546916
165	0xbd57248b	-0.052525084
166	0xbd9f45ec	-0.077770084
167	0xbdc33382	-0.09531309
168	0xbcad4f2b	-0.021155914
169	0xbd62c001	-0.05535889
170	0xbd62e031	-0.055389587
171	0xbd043cf8	-0.032284707
172	0x3e2ee819	0.17080726
173	0x3d20edac	0.03928916
174	0x3e6c2144	0.23059565
175	0x3d652472	0.05594296
176	0x3e3e7114	0.18597823
177	0x3e76f924	0.24118477
178	0x3f0a1fa7	0.5395455
179	0xbebdf507	-0.37101004
180	0xbdf2c052	-0.118530884
181	0x3e5b880b	0.21438615
182	0xbe8515ee	-0.25993294
183	0xbce51fa0	-0.027969182
184	0x3da740b1	0.08166636
185	0xbdbc705d	-0.09201119
186	0xbe859dc2	-0.26096922
187	0x3d201e13	0.03909118
188	0xbd70393b	-0.05864833
189	0xbea0ed89	-0.31431225
190	0xbe1dabb0	-0.15397525
191	0xbd98202c	-0.07428011
192	0x3d05efe5	0.032699484
193	0xbcc0f047	-0.023552073
194	0xbdfec328	-0.12439567
195	0x3d730d3b	0.05933879
196	0x3d699d6e	0.057034902
197	0x3e2e3a9e	0.17014548
198	0x3e5eb12e	0.21747276
199	0xbcf451cc	-0.02982416
200	0x3e5c1397	0.21491848
201	0x3d2a8aec	0.041636392
202	0xbed3a840	-0.41339302
203	0xbea67c68	-0.3251679
204	0x3e13572c	0.14388722
205	0xbda5180f	-0.080612294
206	0x3c17cef9	0.009265655
207	0xbd2f3ace	-0.04278069
208	0x3d1fca09	0.039011035
209	0xbe048c93	-0.1294425
210	0x3b1ed5b6	0.0024236268
211	0x3d6168df	0.055031653
212	0x3e027179	0.12738599
213	0x3da3b1fa	0.07992931
214	0x3cbc0a8a	0.022954244
215	0xbd4084d5	-0.04700168
216	0x3e6ac064	0.22924954
217	0x3e34bf74	0.17651159
218	0x3e992cea	0.2991708
219	0x3f00dc27	0.50335926
220	0x3e4efedc	0.20214409
221	0x3e33c6ff	0.1755638
222	0xbec9647b	-0.39334473
223	0xbda38f1b	-0.079862796
224	0xbddef752	-0.10887016
225	0xbd886a38	-0.066608846
226	0xbe6a739f	-0.22895668
227	0xbe3bb5ae	-0.18331024
228	0xbe103e1c	-0.14086193
229	0xbea87b4f	-0.32906577
230	0xbd8c64fd	-0.068551995
231	0x3d1d8ba8	0.038463265
232	0xbe1b52a4	-0.15168244
233	0xbe165fc7	-0.14684974
234	0xbcf3b7a8	-0.02975066
235	0xbdaf8dc2	-0.0857196
236	0x3e5fd32d	0.21857901
237	0x3e333f35	0.1750458
238	0x3f25d39b	0.6477601
239	0x3e90e27e	0.282978
240	0x3e22d5fe	0.15901944
241	0x3dd25c29	0.102714844
242	0xbe0310c7	-0.12799369
243	0x3d396c02	0.04526902
244	0x3dd022b4	0.10162869
245	0xbcac8c97	-0.021063132
246	0xbda92fa8	-0.08261043
247	0xbd4fa00c	-0.050689742
248	0xbd1b4e6e	-0.037916593
249	0xbe8a3f6e	-0.27001518
250	0x3debb963	0.11509969
251	0xbd1aec93	-0.03782327
252	0xbe261cce	-0.16221926
253	0xbc04b351	-0.008099393
254	0x3d61fe12	0.05517394
255	0x3da644db	0.08118602

bias f4 [176]
0	0xbf2be574	-0.6714699
1	0xbf0ce13b	-0.55031174
2	0x3ecbd2e5	0.39809337
3	0x3fae2bc5	1.3607107
4	0x3dbd9c36	0.092583105
5	0x3efee9df	0.49787804
6	0x3fa1748d	1.2613693
7	0xbed93d9d	-0.4242982
8	0xbdd9dbad	-0.10637603
9	0x3f834176	1.0254352
10	0x3e081c48	0.13292038
11	0x3e0ecbd9	0.13944949
12	0x3eae4051	0.34033445
13	0xbebffdcc	-0.3749832
14	0x3eb5ab41	0.3548222
15	0xbe09ae3e	-0.13445374
16	0xbf4b0d5a	-0.7931725
17	0x3f5cb90e	0.8621987
18	0x3e951f70	0.29125547
19	0x3d8b6ef5	0.06808273
20	0xbc7b4f80	-0.0153387785
21	0xbe4cb11a	-0.19989434
22	0xbdfb2c30	-0.122642875
23	0xbf1b8b1e	-0.6075915
24	0xbe4a04db	-0.19728415
25	0x3f183f72	0.5947181
26	0x3e39c459	0.18141307
27	0xbe78ac71	-0.24284531
28	0xbe4bc621	-0.19899799
29	0x3f714678	0.9424815
30	0x3e3f24d5	0.18666394
31	0xbda96c98	-0.08272666
32	0x3d9a2b02	0.07527734
33	0x3e237c33	0.15965347
34	0x3ec9855d	0.3935956
35	0xbc8760b3	-0.016525602
36	0x3fb7addc	1.4349933
37	0x3f18c2df	0.5967235
38	0xbea059b2	-0.31318432
39	0x3e031c0e	0.12803671
40	0x3ef58ea9	0.47960404
41	0x3daa5c83	0.083184265
42	0xbee95927	-0.4557583
43	0xbea82916	-0.32843846
44	0x3f8dffaf	1.1093653
45	0x3f24d6a6	0.6439003
46	0xbece0ad8	-0.40242648
47	0xbe8cd4e2	-0.27506167
48	0xbe3ed241	-0.18634893
49	0x3cd88ffc	0.026435845
50	0x3da546de	0.080701575
51	0xbe92c920	-0.2866907
52	0x3f8b678d	1.0890976
53	0xbdd11c77	-0.10210507
54	0xbe80de44	-0.25169575
55	0x3fc0790c	1.503694
56	0x3ca2be86	0.01986624
57	0x3f0d9fe2	0.55322087
58	0x3f247564	0.64241624
59	0xbed9fc3c	-0.42575252
60	0x3e0fa201	0.14026643
61	0x3fd12c4e	1.6341646
62	0xbd9f9ed0	-0.07793963
63	0x3c79be4d	0.015243125
64	0xbf6e4570	-0.93074703
65	0x3ccab686	0.024745237
66	0xbdcde03b	-0.10052534
67	0x3d6c8841	0.05774713
68	0xbe2d1fbe	-0.1690664
69	0x3f4e6384	0.806206
70	0xbe86bede	-0.26317495
71	0xbe9df975	-0.30854383
72	0x3c66db9a	0.014090443
73	0x3f27099a	0.65249026
74	0xbf6ee926	-0.93324506
75	0xbd69e4b9	-0.057102893
76	0xbf128ef9	-0.5724941
77	0x3e2aaa7d	0.16666599
78	0xbd078af4	-0.0330915
79	0x3f2dbaad	0.6786297
80	0x3f5a0888	0.8516927
81	0xbf85b033	-1.0444397
82	0x3e92e0ce	0.28687137
83	0xbdc0c7fa	-0.094131425
84	0xbf3be1f5	-0.7339166
85	0x3e4feb05	0.20304497
86	0x3e277401	0.16352846
87	0x3f3da380	0.74077606
88	0x3bf7f5b0	0.00756713
89	0xbf3c5318	-0.7356429
90	0x3e47807e	0.1948261
91	0xbe0d68ec	-0.13809556
92	0xbdd34a73	-0.103169344
93	0x3e255818	0.16146886
94	0x3fc162e6	1.5108306
95	0xbe3d7404	-0.18501288
96	0xbe5122e5	-0.20423467
97	0x3e99f2af	0.30067965
98	0xbee4278a	-0.44561416
99	0x3d2dd88a	0.042442836
100	0x3ebd0a7e	0.36922067
101	0x3ea82ae0	0.3284521
102	0xbf0f643c	-0.5601232
103	0x3da53c3d	0.0806813
104	0xbd325b56	-0.043544136
105	0x3ddf49cb	0.10902747
106	0xbcbc5a9e	-0.022992428
107	0x3e276bd1	0.16349722
108	0x3e82b9a8	0.2553227
109	0xbecc8e47	-0.399523
110	0xbece369e	-0.40276045
111	0xbccddf4f	-0.025130896
112	0xbc22af3b	-0.0099294735
113	0x3e6edfa1	0.23327495
114	0x3dbec69c	0.093152255
115	0x3ebc2cb1	0.36752847
116	0x3f8342aa	1.0254719
117	0xbf1ef9f1	-0.6210013
118	0x3ec0b4af	0.3763785
119	0xbf587757	-0.845571
120	0xbec9b0ab	-0.393926
121	0x3d06482d	0.032783676
122	0x40041cc4	2.0642557
123	0x3e9f3112	0.31092125
124	0x3d24ba7e	0.040216915
125	0x3ddfdc72	0.109307185
126	0xbfbdca0c	-1.4827285
127	0xbe7ab600	-0.2448349
128	0x3e5f1ca7	0.21788274
129	0x3e4412c1	0.19147779
130	0x3fdcfa75	1.7263933
131	0x4003c1d6	2.0587058
132	0x3e25733a	0.16157237
133	0xbf303c70	-0.6884222
134	0xbf149349	-0.5803724
135	0xbce50f73	-0.027961468
136	0x4000a7f7	2.0102518
137	0x3db8935f	0.09012484
138	0x3ec8160d	0.39079323
139	0xbd2f8071	-0.0428471
140	0x3f8677e2	1.0505335
141	0x3f175c9a	0.59125674
142	0x4023dc60	2.5603256
143	0x3f1771a7	0.59157795
144	0xbf0bf5d4	-0.5467198
145	0xbebd783f	-0.37005803
146	0x3e70714e	0.23480722
147	0xbf04d075	-0.5188058
148	0x3f95cb69	1.1702701
149	0xbd9c5a7d	-0.07634447
150	0xbf7e6c05	-0.99383575
151	0x3e8b9551	0.27262357
152	0xbdbde67a	-0.092724755
153	0xbc1abcb9	-0.009444409
154	0xbea96d79	-0.33091334
155	0xbed1d91b	-0.4098595
156	0xbe5addf7	-0.21373735
157	0xbf973e01	-1.1815797
158	0xbdfb100e	-0.122589216
159	0xbea1216e	-0.31470817
160	0xbee5cde0	-0.44883633
161	0xbd8a95d2	-0.06766857
162	0x3fa9ccf2	1.3265669
163	0xbf875bee	-1.057493
164	0x3e0f2fe1	0.13983108
165	0x3efa1552	0.4884439
166	0x3e55189b	0.20810167
167	0xbe2b56ea	-0.16732374
168	0xbfa18a08	-1.2620249
169	0x3d44c59c	0.048040017
170	0xbf4b197e	-0.79335773
171	0xbe837b40	-0.2567997
172	0x3e057373	0.13032322
173	0xbf0a9514	-0.54133725
174	0x3f3d71e0	0.74001884
175	0x3fcd1106	1.602082

weight f4 [88, 176]
0	0x3d67318d	0.05644374
1	0xbd6beee1	-0.05760086
2	0xbd847e51	-0.064694054
3	0x3d406591	0.04697186
4	0xbe5c0b7e	-0.21488759
5	0x3e153a79	0.14573087
6	0x3d3a1d07	0.04543784
7	0x3e9238a1	0.2855883
8	0xbf062ced	-0.524123
9	0x3d499344	0.04921271
10	0xbecdc2ee	-0.40187782
11	0xbe445948	-0.19174683
12	0x3dfc7fdf	0.12329077
13	0xbdf96c7e	-0.12178896
14	0x3e4ddc66	0.20103607
15	0xbe5a92b2	-0.21345022
16	0x3ee3c5a7	0.44486734
17	0x3ec36a79	0.3816717
18	0x3f82d43d	1.022102
19	0xbdbc4945	-0.091936626
20	0x3f114f8b	0.56762
21	0x3e09d5d0	0.13460469
22	0x3eab0c12	0.33407646
23	0x3dbc7d2a	0.09203561
24	0xbe0a6a02	-0.13517001
25	0xbe396aa3	-0.18107085
26	0x3d871f2f	0.06597745
27	0x3e10f2c5	0.14155109
28	0x3da451a5	0.08023385
29	0xbe97e37c	-0.29665744
30	0x3e0c9cd4	0.137317
31	0x3f2238b8	0.63367796
32	0xbd2735ec	-0.04082291
33	0x3db7a334	0.089666754
34	0x3d1bb34a	0.03801278
35	0x3eb7e964	0.3592025
36	0x3ea3366b	0.31877455
37	0x3e1abd04	0.15111166
38	0x3e192da2	0.14958814
39	0xbdf56d12	-0.11983694
40	0x3ec631cf	0.38709876
41	0x3e1227ca	0.14272991
42	0xbe0409c6	-0.12894353
43	0x3f47997c	0.77968574
44	0xbe152c95	-0.14567788
45	0x3e4abf6a	0.19799581
46	0xbcc62885	-0.024189243
47	0xbdf6576e	-0.12028395
48	0x3e2b81ce	0.16748735
49	0xbdecede2	-0.1156881
50	0x3e5592a8	0.20856726
51	0xbe832e07	-0.25621054
52	0xbe53c092	-0.20678928
53	0xbde66e16	-0.11251466
54	0xbc857c20	-0.016294539
55	0x3d5d87d3	0.05408461
56	0xbe6ebfd8	-0.2331537
57	0x3ebfc57b	0.37455353
58	0xba854afb	-0.0010169441
59	0x3e00c557	0.12575279
60	0x3f3028eb	0.68812436
61	0x3ed0a5e7	0.40751573
62	0x3df22c61	0.11824871
63	0x3db634de	0.08896802
64	0xbe152629	-0.14565338
65	0xba35639c	-0.0006919445
66	0xbeb82aa1	-0.35970023
67	0x3eeec7a7	0.46636698
68	0x3e162ae3	0.14664797
69	0x3d339741	0.04384542
70	0xbc54cbed	-0.012988073
71	0xbdebb493	-0.11509051
72	0x3f4335e0	0.7625408
73	0x3e9377bd	0.2880229
74	0xbd3c4da5	-0.045972485
75	0x3e801060	0.25012493
76	0xbda36d52	-0.079798356
77	0xbe3657b4	-0.17806894
78	0xbe29c2bd	-0.16578193
79	0xbc5346ce	-0.012895299
80	0x3ea34048	0.3188498
81	0xbf2be6d3	-0.67149085
82	0x3ee4ffa4	0.44726288
83	0x3e23c73d	0.15993972
84	0xbe963702	-0.29338843
85	0xbea87f61	-0.32909682
86	0xbe8572fd	-0.26064292
87	0xbda53f4a	-0.08068712
88	0xbdf8910d	-0.12137041
89	0xbd26ae2f	-0.04069346
90	0x3dbff323	0.093725465
91	0x3dff85a6	0.12476663
92	0xbeb8a343	-0.3606206
93	0xbd967e22	-0.07348277
94	0x3e7e8ffe	0.24859616
95	0xbd5032d8	-0.05082974
96	0xbe20dac5	-0.15708454
97	0x3dfbd2dc	0.122960776
98	0x3de5d80b	0.112228476
99	0xbbb2d6b3	-0.005457723
100	0x3e94c36b	0.29055342
101	0x3ea994d2	0.33121353
102	0xbe137df4	-0.14403516
103	0x3f217411	0.6306773
104	0xbe1e0d72	-0.15434816
105	0x3d4d55a9	0.05013052
106	0x3d35b4b3	0.04436178
107	0xbdbbee3a	-0.091762975
108	0xbda68dfa	-0.08132549
109	0xbe1f7cfa	-0.15575019
110	0x3e8c5233	0.27406463
111	0xbeacb15d	-0.33729067
112	0x3e33b5dc	0.17549843
113	0x3eefd379	0.46841028
114	0x3db6deb3	0.08929195
115	0xbc9271b1	-0.017876478
116	0xbced2ed9	-0.028953003
117	0xbe5141f6	-0.20435318
118	0x3e7ece49	0.24883379
119	0xbe1a48df	-0.1506686
120	0x3f2d65a6	0.6773323
121	0x3d7d6820	0.06186688
122	0x3cd910ad	0.02649721
123	0xbc89c162	-0.016815845
124	0x3c3b4223	0.011429342
125	0xbe1b4350	-0.15162396
126	0xbd0d4020	-0.034484982
127	0xbdb23d23	-0.08703067
128	0xbdef4e79	-0.11684889
129	0xbdc2b714	-0.09507576
130	0xbd646915	-0.055764277
131	0x3e751b48	0.23936188
132	0x3dbf0266	0.09326629
133	0xbea48d78	-0.32139182
134	0xbdb8235e	-0.08991121
135	0xb8bc203e	-8.970544e-05
136	0xbdb76979	-0.08955664
137	0xbf011428	-0.5042138
138	0xbd3817b4	-0.04494448
139	0x3e9e4ef2	0.30919605
140	0x3e02cdc6	0.12773809
141	0x3ebc430c	0.36769903
142	0xbcbec301	-0.023286344
143	0xbda7cd07	-0.08193403
144	0x3e20fe21	0.15721942
145	0x3c627d98	0.013823889
146	0xbe262d48	-0.16228211
147	0x3e43773f	0.19088458
148	0xbe0bba7b	-0.13645355
149	0xbdbb281a	-0.09138508
150	0x3e4f62ae	0.20252487
151	0x3ee74d76	0.45176286
152	0xbe2c4220	-0.168221
153	0x3eb734c3	0.35782441
154	0x3ea8b9a3	0.3295413
155	0x3f47d9c0	0.78066635
156	0x3e9b0040	0.30273628
157	0x3db12f1e	0.08651565
158	0xbc567172	-0.013088571
159	0x3d8508b5	0.06495801
160	0xbe4261ad	-0.18982573
161	0xbcc3d71c	-0.023906283
162	0xbd23cef6	-0.039992295
163	0x3cc6e49a	0.024278928
164	0x3f51dbbd	0.8197592
165	0x3da0f914	0.07860008
166	0xbe2007ba	-0.15627947
167	0x3ead1399	0.33804014
168	0x3d3e5e8a	0.04647688
169	0x3d1ab8ff	0.037774082
170	0xbd247435	-0.040149886
171	0xbdaef42f	-0.08542668
172	0x3d9f7e6f	0.07787787
173	0xbe486cff	-0.19572829
174	0x3e665efb	0.2249717
175	0xbdeff9ca	-0.11717565
176	0x3e187c2e	0.14891121
177	0x3e0985df	0.13429974
178	0x3f2906a8	0.6602578
179	0x3ef03c00	0.46920776
180	0x3da4be8f	0.08044159
181	0xbbbf451c	-0.005837096
182	0x3e38c385	0.18043335
183	0xbe8919ed	-0.26777592
184	0x3e9c126c	0.30482805
185	0x3ea71581	0.32633594
186	0x3eba6133	0.36402282
187	0xbec77ebd	-0.3896388
188	0x3ea1fe97	0.3163955
189	0x3ebaf541	0.3651524
190	0x3d0247d0	0.031806767
191	0xbe8b6c4e	-0.27231067
192	0xbe47b71b	-0.19503443
193	0xbea1c6bf	-0.31596944
194	0xbe8cc9d5	-0.27497736
195	0xbc09e442	-0.008416237
196	0xbea01d45	-0.3127233
197	0xbeb674b7	-0.3563592
198	0xbdffab5c	-0.12483856
199	0x3e958743	0.2920476
200	0x3e84f124	0.25965226
201	0x3e3edcb1	0.18638875
202	0xbef47e76	-0.47752732
203	0xbe9bd01f	-0.3043222
204	0x3bbef992	0.005828091
205	0x3ee98809	0.456116
206	0xbd9bc37a	-0.076056436
207	0x3c06d489	0.008229383
208	0xbd8b35aa	-0.06797345
209	0x3e8174b4	0.2528435
210	0x3e6e2643	0.23256783
211	0xbe1a187c	-0.15048403
212	0x3d930f0c	0.07180604
213	0x3e325a2a	0.17417207
214	0xbe7429dc	-0.23844093
215	0x3dcc32b6	0.0997061
216	0x3e148499	0.14503707
217	0xbae8e209	-0.0017767559
218	0xbe88904e	-0.26672596
219	0xbf1245fa	-0.57138026
220	0x3e41b2f7	0.18915926
221	0x3dbcc0fe	0.09216498
222	0x3e44facc	0.19236296
223	0x3cd4bbfb	0.025968542
224	0xbe1cc1aa	-0.15308252
225	0xbed5dcfe	-0.41770166
226	0xbcb31687	-0.021861328
227	0x3ddfe7ed	0.10932908
228	0x3eac005c	0.33594024
229	0x3e308711	0.17239024
230	0x3f0d03ab	0.5508372
231	0xbdd7219b	-0.105044566
232	0x3e7027a2	0.23452619
233	0x3da46d7d	0.08028696
234	0xbb1f22f6	-0.0024282313
235	0xbe02cf43	-0.12774377
236	0xbeb662de	-0.35622305
237	0x3d29f6a2	0.041494973
238	0x3c16a0e0	0.009193629
239	0x3e5648cc	0.20926207
240	0x3d1ecf4c	0.038771912
241	0x3d5ad220	0.053423047
242	0x3ebeb551	0.37247708
243	0xbb230f70	-0.0024881028
244	0x3da687f3	0.08131399
245	0x3efb7519	0.49112776
246	0x3e9834fd	0.29727927
247	0x3e558d5c	0.20854706
248	0xbf5275d4	-0.8221104
249	0x3f04809b	0.51758736
250	0x3ddfa92c	0.10920939
251	0x3dfefdc9	0.124507494
252	0x3e3af247	0.18256484
253	0x3e9a455a	0.30131036
254	0xbed47134	-0.41492617
255	0x3e5ce669	0.2157227

bias f4 [88]
0	0xbf3acc27	-0.7296776
1	0xbf32ae5c	-0.697973
2	0x3f72b57a	0.9480816
3	0x3f5a1240	0.851841
4	0x3f5772c5	0.841595
5	0xbf26f177	-0.65212196
6	0xbf437312	-0.7634746
7	0x3f7b2a46	0.9811138
8	0x3f874306	1.0567329
9	0xbf0d9cf1	-0.553176
10	0x3f6ef4ac	0.9334209
11	0xbeb920d6	-0.36157864
12	0xbf7c9298	-0.98661184
13	0xbf13a9e9	-0.5768114
14	0x3f6f24e6	0.9341568
15	0x3f79db2a	0.9760004
16	0x3f83484d	1.025644
17	0x3f731234	0.9494965
18	0xbf0fd4b8	-0.5618396
19	0x3f8095e4	1.0045743
20	0x3f7cbafa	0.98722804
21	0xbf6c18b6	-0.92225206
22	0xbf2140c5	-0.62989455
23	0xbf10eb18	-0.56608725
24	0xbfbcd017	-1.4751004
25	0x3f4f59f1	0.80996615
26	0xbf0d1c0f	-0.5512094
27	0x3f6d4c5e	0.9269465
28	0xbf4935e7	-0.78597873
29	0x3f7c6dc7	0.98605007
30	0x3f6d38b8	0.9266467
31	0x3f71aefb	0.94407624
32	0xbe5023a5	-0.20326097
33	0xbf495d8f	-0.78658384
34	0x3f747388	0.95488787
35	0x3f73bcc2	0.95209897
36	0xbde94ccd	-0.11391602
37	0x3f75e2b3	0.9604904
38	0xbe667595	-0.22505791
39	0x3f4f5a6b	0.8099734
40	0x3f79f92a	0.9764582
41	0x3f804c8d	1.0023361
42	0xbd808c44	-0.062767535
43	0xbf4dce9c	-0.80393386
44	0x3f75cc30	0.9601469
45	0x3f673996	0.90322244
46	0x3f6ca910	0.9244547
47	0xbeee1aeb	-0.46504912
48	0x3f7028c4	0.93812203
49	0x3f812a2b	1.0090994
50	0x3f6bb953	0.9207966
51	0xbf0472c3	-0.5173761
52	0x3f6e584e	0.9310349
53	0xbeb7f758	-0.35930896
54	0xbfa218c1	-1.2663804
55	0xbe87e342	-0.2654057
56	0x3f750108	0.957047
57	0x3f58e32a	0.84721625
58	0x3f7779e1	0.9667035
59	0x3f7b8cd0	0.9826174
60	0xbf490138	-0.78517485
61	0x3f67113e	0.90260684
62	0xbf2ca1ae	-0.67434204
63	0xbf210284	-0.62894464
64	0x3f819748	1.0124292
65	0xbf443c6e	-0.7665471
66	0xbf7ae6e0	-0.9800854
67	0x3f748791	0.9551936
68	0xbf170625	-0.5899375
69	0x3f6838b3	0.90711516
70	0x3f70c9f7	0.94058174
71	0x3f821ead	1.0165612
72	0xbf583f05	-0.8447116
73	0x3f5c531a	0.860643
74	0x3f65757d	0.896324
75	0xbf6d8672	-0.9278327
76	0xbf41b10a	-0.75660765
77	0x3f793bec	0.9735706
78	0xbf3e970e	-0.7444924
79	0xbf09d013	-0.5383312
80	0xbf5fc856	-0.87415063
81	0xbf415668	-0.7552247
82	0x3f77fa98	0.9686675
83	0xbe22bb15	-0.15891679
84	0xbf1285f7	-0.57235664
85	0x3f671355	0.90263873
86	0x3f5e35f6	0.8680109
87	0xbf2b584e	-0.6693162

weight f4 [22, 88]
0	0x3ff32914	1.8996911
1	0x3ff0dd2b	1.8817495
2	0x3d502ba4	0.05082287
3	0xbdebe4cc	-0.11518249
4	0xbcee4d6e	-0.029089656
5	0x3f92d5f9	1.1471549
6	0x3fc26279	1.5186301
7	0xbdadfb80	-0.084952354
8	0x3ddb9249	0.10721261
9	0x4013bf20	2.3085403
10	0x3d17a927	0.03702655
11	0x3f9025a2	1.1261485
12	0x3fa80c54	1.3128762
13	0x401a5de9	2.4119818
14	0xbbd0d4e9	-0.006373037
15	0x3d8a15dc	0.067424506
16	0x3ae63f7b	0.0017566526
17	0xbdbaea43	-0.09126713
18	0x3fe53772	1.7907546
19	0xbdfa20b0	-0.12213266
20	0x3d0847a8	0.03327146
21	0x3e78d51c	0.24300045
22	0x3fb785c2	1.4337695
23	0x3f449bd5	0.7680028
24	0x3fa9aedb	1.3256487
25	0xbcffda97	-0.031232161
26	0x3f7a7013	0.9782726
27	0x3d648133	0.055787276
28	0x40596afe	3.3971553
29	0x3cf3d162	0.029762927
30	0xbd8fa1f7	-0.07013314
31	0x3d6f35c0	0.05840087
32	0x3ffa3497	1.9547299
33	0x4016b111	2.3545573
34	0x3a5075f3	0.0007952146
35	0x3dd2fd23	0.10302188
36	0x40105e9d	2.2557747
37	0xbd80ea26	-0.0629466
38	0x3fd75451	1.6822606
39	0xbe19f516	-0.15034899
40	0x3d9ad5f7	0.07560342
41	0xbd20b443	-0.03923441
42	0x3f9aa42f	1.2081355
43	0x3fb144e2	1.3849146
44	0xbd2a43b9	-0.04156849
45	0x3dccae6d	0.099942066
46	0xbde7496e	-0.112933025
47	0x3ee92b12	0.45540673
48	0x3d41d7e6	0.047325037
49	0xbd88dc16	-0.06682603
50	0x3cf3039d	0.029664809
51	0x40242aef	2.5651205
52	0x3b92d4a7	0.0044809165
53	0x40143057	2.3154504
54	0x3f9e03ec	1.2344947
55	0x3f4a5756	0.79039514
56	0x3cc7c79d	0.024387175
57	0x3c3ae55b	0.011407222
58	0xbda9dced	-0.082940914
59	0xbd7967cc	-0.060890004
60	0x4022e61e	2.5452952
61	0xbde3a0fd	-0.111146905
62	0x3ffaff0a	1.9609082
63	0x3ef54e3d	0.47911254
64	0xbbf90f3b	-0.0076006926
65	0x3fbca49f	1.4737738
66	0x3f9fe808	1.2492685
67	0xbe0de278	-0.13855922
68	0x3f9d2870	1.2277966
69	0xbd800a7c	-0.06252
70	0xbdbf20ad	-0.09332404
71	0x3d29227b	0.04129265
72	0x3fcca65d	1.598827
73	0xbc4aaf79	-0.0123709375
74	0xbd0cc79a	-0.034370042
75	0x3f5b70b5	0.8571885
76	0x3f74c25b	0.9560906
77	0x3d691a87	0.056910064
78	0x409f4a8d	4.9778504
79	0x3f950dbe	1.1644819
80	0x3fa96aef	1.3235759
81	0x3fdb67a6	1.7141006
82	0xbdc25385	-0.09488586
83	0x4022bbc3	2.54271
84	0x3fa019bc	1.2507854
85	0xbd16e779	-0.036841843
86	0xbd12cc1a	-0.035839178
87	0x410b018f	8.6878805
88	0x3feb8ce6	1.8402374
89	0x400018c1	2.0015109
90	0x3d6a56e4	0.05721177
91	0xbb909dfc	-0.0044133645
92	0xbd980be3	-0.07424142
93	0x3f9e31a1	1.2358896
94	0x3fb345e1	1.40057
95	0xbdd7e866	-0.10542373
96	0xbd901220	-0.07034707
97	0x401847de	2.3793864
98	0xbd2e7886	-0.04259541
99	0x3f8b47d3	1.0881294
100	0x3fb38e28	1.4027758
101	0x401a83fd	2.414306
102	0xbd108734	-0.03528519
103	0x3d5d9409	0.054096255
104	0x3c64579a	0.013936901
105	0xbce77b9f	-0.02825719
106	0x3fd34667	1.650586
107	0xbde0ce57	-0.10976856
108	0xbd9217da	-0.071334556
109	0x3ed4a4d8	0.41532016
110	0x3fa144ff	1.2599181
111	0x3f577fe1	0.841795
112	0x3f9b650a	1.214021
113	0xbdc1108e	-0.09426986
114	0x3f883581	1.0641328
115	0x3d81f536	0.063455984
116	0x40550fcc	3.3290892
117	0x3d8183a6	0.06323938
118	0xbd9a1aa3	-0.07524612
119	0xbd7e83d2	-0.062137432
120	0x40034d40	2.05159
121	0x4012382c	2.2846785
122	0x3cada852	0.021198425
123	0x3cf22627	0.029559208
124	0x40193a9b	2.394202
125	0xbcaf7fca	-0.02142324
126	0x3fe193f6	1.7623279
127	0xbd9e0678	-0.077160776
128	0x3c2bab19	0.010477805
129	0x3d44734f	0.04796153
130	0x3fb186f4	1.386931
131	0x3facbb04	1.3494573
132	0x3b4f19de	0.0031601111
133	0xbdb0813a	-0.08618398
134	0x3dc88b6b	0.09792217
135	0x3f2204cc	0.6328857
136	0x3dc547f7	0.09632867
137	0xbc5bfb98	-0.013426684
138	0xbdc48387	-0.09595399
139	0x4022e6af	2.5453298
140	0x3bb1c0fe	0.005424618
141	0x40117364	2.272668
142	0x3fa9a130	1.3252316
143	0x3f3b338d	0.73125535
144	0xbcdb7329	-0.026788311
145	0xbc79689e	-0.015222697
146	0x3c3df8a9	0.01159493
147	0xbd8ccaef	-0.06874644
148	0x401afe76	2.421781
149	0x3cc6153e	0.024180051
150	0x40038ea6	2.0555816
151	0x3ef7ea09	0.48420742
152	0x3c9ca2c1	0.019120576
153	0x3fd3a57d	1.6534878
154	0x3f96861c	1.1759677
155	0xbd1defd3	-0.038558792
156	0x3f88985f	1.06715
157	0x3cb21355	0.021737734
158	0xbd8b3826	-0.06797819
159	0x3cd3efe6	0.025871228
160	0x3fccc764	1.5998349
161	0xbdf06556	-0.11738078
162	0xbd8d27e9	-0.06892378
163	0x3f6eb57d	0.9324568
164	0x3f73b73b	0.9520146
165	0xbdac1ddd	-0.084041335
166	0x409b51ee	4.853751
167	0x3f9618fe	1.1726377
168	0x3fa15f2e	1.2607172
169	0x3fcdaebc	1.606895
170	0x3d781af2	0.060572572
171	0x4030087b	2.7505176
172	0x3f9bbbf4	1.2166734
173	0xbc916b61	-0.017751398
174	0x3d200c98	0.03907451
175	0x410ab9c2	8.670351
176	0x3fe311dd	1.7739826
177	0x3fece16d	1.8506294
178	0xbda07b8b	-0.07836064
179	0xbddb9f40	-0.10723734
180	0x3cb9dce0	0.02268833
181	0x3f94cc53	1.1624855
182	0x3fb437f0	1.4079571
183	0xbdb7198d	-0.0894042
184	0x3d060c86	0.032726787
185	0x4017fd09	2.374819
186	0xbe0c36f7	-0.13692842
187	0x3f6dfa93	0.9296047
188	0x3fb209c6	1.3909233
189	0x4011e104	2.2793589
190	0xbd5f82a9	-0.054567967
191	0xbce89b7d	-0.028394455
192	0x3de318a0	0.11088681
193	0xbd2af705	-0.041739482
194	0x3fe4b2d1	1.786707
195	0xbaf8a707	-0.0018970676
196	0x3d665675	0.056234796
197	0x3e6c27dc	0.2306208
198	0x3faa46e4	1.3302884
199	0x3f3cffcb	0.7382781
200	0x3fa1931b	1.2623018
201	0x3d6a1a54	0.057154015
202	0x3f853e7f	1.0409697
203	0xba8c0037	-0.0010681216
204	0x4051654a	3.2718072
205	0xbd7dc6df	-0.061957236
206	0x3d7222cd	0.05911522
207	0x3d2c0de1	0.042005423
208	0x40045111	2.067448
209	0x40146ac0	2.3190155
210	0xbd7c5438	-0.061603755
211	0x3caa43d2	0.020784292
212	0x400eb4f9	2.2297957
213	0xbd300a14	-0.04297836
214	0x3fe477cd	1.784906
215	0xbdcdb81e	-0.10044883
216	0xbc91984e	-0.01777282
217	0x3d9f08a6	0.077653214
218	0x3fa4bcba	1.2870095
219	0x3fb201da	1.3906815
220	0xbd4ce546	-0.05002334
221	0xbd48573d	-0.048911322
222	0xbd1ecb50	-0.038768113
223	0x3f02cbf1	0.5109244
224	0x3d2f44e5	0.042790312
225	0xbd9e90be	-0.07742451
226	0x3be77c7e	0.007064401
227	0x40178f0e	2.3681064
228	0x3e097c21	0.13426258
229	0x401acaef	2.418636
230	0x3fa8c75b	1.3185838
231	0x3f593f72	0.84862435
232	0xbcc480f4	-0.02398727
233	0xbd68f1c4	-0.05687119
234	0xbbedc74f	-0.0072564255
235	0x3d1cc84f	0.038276967
236	0x40186c34	2.3816042
237	0x3cbc9a55	0.02302281
238	0x40066a18	2.1002254
239	0x3ee9e6b1	0.45683816
240	0xbda081c1	-0.078372486
241	0x3fc74971	1.5569288
242	0x3fa1dcfa	1.2645562
243	0xbd2a1c3b	-0.04153083
244	0x3f8776d1	1.0583135
245	0xbc9d5411	-0.019205125
246	0xbcd152ea	-0.025552232
247	0x3b599b9b	0.003320432
248	0x3fbff559	1.4996749
249	0xbd8120a2	-0.06305052
250	0xbcb08689	-0.021548526
251	0x3f6f5527	0.9348931
252	0x3f6177c0	0.8807335
253	0xbcd4c7ea	-0.025974233
254	0x409dbf9f	4.9296412
255	0x3f8e6df8	1.112731

bias f4 [22]
0	0xbee9aaa0	-0.4563799
1	0xbef8b8b1	-0.48578408
2	0xbed77f93	-0.4208952
3	0x3f60b600	0.8777771
4	0xbf135203	-0.57547015
5	0x3f81f93b	1.0154184
6	0x3f5458ae	0.82947814
7	0x3f81d1f7	1.0142201
8	0xbedd1abf	-0.43184468
9	0x3f82f1a2	1.022999
10	0xbed62326	-0.4182369
11	0xbf025da0	-0.5092411
12	0x3f81e1ca	1.014703
13	0x3f82868d	1.0197312
14	0xbf01c211	-0.50686747
15	0x3f807fd5	1.0039011
16	0x3f729d4b	0.9477126
17	0xbf17f8a3	-0.59363765
18	0x3f84ebe3	1.0384487
19	0xbeef1c13	-0.46701106
20	0x3f7b97cb	0.9827849
21	0x3f76e0b2	0.9643661

weight f4 [1, 22]
0	0x3f6cf49e	0.92560756
1	0x3f793a94	0.9735501
2	0x3f91a4aa	1.1378376
3	0xbf092070	-0.5356512
4	0x3f84233a	1.032325
5	0xbefe2f5b	-0.49645504
6	0xbf2a329b	-0.6648347
7	0xbf149a64	-0.5804808
8	0x3f804a01	1.0022584
9	0xbf08f50f	-0.5349893
10	0x3f77612f	0.96632665
11	0x3f84892f	1.0354365
12	0xbef50679	-0.478565
13	0xbf1b4354	-0.6064961
14	0x3f75ab25	0.9596427
15	0xbf04afac	-0.51830554
16	0xbefafd26	-0.49021262
17	0x3f806495	1.0030695
18	0xbefb91ac	-0.49134576
19	0x3f6def37	0.9294314
20	0xbf03a431	-0.5142241
21	0xbf0e1d8b	-0.5551383
