data/q_value_net_1_food_collection_3980000_GSA.pth (torch, 137827 bytes, 7 tensors)

weight f4 [176, 88]
0	0xbecb40e0	-0.39697933
1	0xbe6bd152	-0.23029068
2	0xbf883c7d	-1.064346
3	0xbf7ba137	-0.9829287
4	0x3e8687de	0.26275533
5	0x3e955a82	0.29170614
6	0x3e40b8c9	0.1882049
7	0x3e5c6d61	0.215261
8	0x3e80f82a	0.25189334
9	0x3e191c27	0.14952146
10	0x3e86022c	0.26173532
11	0x3e8337f1	0.25628617
12	0x3e63aaa5	0.22233064
13	0x3e42ae3d	0.19011779
14	0x3e818f3f	0.253046
15	0x3ec66e3c	0.38755977
16	0x3ed27412	0.4110418
17	0x3e44990c	0.19199008
18	0x3ebbbfef	0.3666987
19	0x3ebfa567	0.3743088
20	0x3d3a6e1d	0.04551517
21	0x3d9db8a7	0.07701235
22	0x3ece04b9	0.40237978
23	0x3eabcb8f	0.3355374
24	0xbdba8dd0	-0.0910908
25	0x3d31119c	0.043229684
26	0xbcacf7ae	-0.021114197
27	0x3d6d53c9	0.057941232
28	0xbd65976a	-0.056052603
29	0xbab2df3d	-0.0013646852
30	0x3d6afea0	0.057371736
31	0x3b4e8551	0.0031512568
32	0x3d042d8c	0.03227
33	0x3ce97c23	0.028501576
34	0xbece7f67	-0.40331575
35	0xbe76fe3e	-0.24120423
36	0xbdb5f34e	-0.08884297
37	0x3c83850f	0.016054658
38	0x3d17ab52	0.03702862
39	0x3d37e56a	0.04489652
40	0xbd72cbab	-0.059276264
41	0x3d89a5fc	0.06721112
42	0x3ebf9061	0.3741484
43	0x3ea85732	0.32879025
44	0x3cca713e	0.024712201
45	0xbe05b506	-0.13057336
46	0x3dd691fc	0.10477063
47	0xbd5d3fe0	-0.054015994
48	0xbdfe4a98	-0.124165714
49	0x3d340891	0.043953482
50	0x3dc40ce1	0.09572769
51	0x3d6386c5	0.055548448
52	0xbdc383a1	-0.095465906
53	0x3c95475a	0.0182225
54	0xbec6453d	-0.387247
55	0xbe67ec2e	-0.22648689
56	0x3c97fdff	0.018553732
57	0x3d4c28ea	0.049843706
58	0x3c8ae65c	0.016955547
59	0x3dfaafed	0.122405864
60	0x3e49d172	0.19708803
61	0x3d971193	0.07376399
62	0x3f7b1473	0.9807808
63	0x3f5891b8	0.8459735
64	0xbdf7f719	-0.12107677
65	0xbd65639c	-0.056003198
66	0xbe265440	-0.16243076
67	0xbda1e499	-0.0790493
68	0xbdeeac72	-0.11653985
69	0xbd8d2ab0	-0.068929076
70	0xbe3d6b3b	-0.18497936
71	0xbe06f9b1	-0.13181187
72	0xbdada5a5	-0.0847886
73	0xbe308da3	-0.1724153
74	0xbece0cd5	-0.40244165
75	0xbedfd992	-0.4372068
76	0xbda27f8f	-0.07934486
77	0x3dac497a	0.08412452
78	0xbe3fbffd	-0.18725581
79	0xbdf2273c	-0.118238896
80	0xbe33fb9e	-0.17576453
81	0xbe2238b7	-0.15841947
82	0x3d3b2d51	0.045697514
83	0x3d8b4a8c	0.06801328
84	0x3d3b09c9	0.04566363
85	0x3d1d845f	0.038456317
86	0x3e0b5c04	0.1360932
87	0x3ddb3eba	0.107053235
88	0x3f37d1a6	0.71804273
89	0x3f518cbc	0.8185537
90	0xbd433272	-0.04765553
91	0x3e97c5f6	0.2964322
92	0x3e4dcdaf	0.20097993
93	0x3e52bc93	0.20579748
94	0x3cf303aa	0.029664833
95	0xbc4209ba	-0.011843139
96	0x3e633b0a	0.2219049
97	0x3d412648	0.04715565
98	0x3e4dd946	0.20102414
99	0x3ced8de8	0.02899833
100	0x3e572ff6	0.2101439
101	0x3cdc37cd	0.026882077
102	0xbd726b71	-0.059184495
103	0xbe3fed24	-0.18742806
104	0xbe14e78e	-0.14541456
105	0xbd934ae9	-0.07192022
106	0x3ede473e	0.43413728
107	0x3f008190	0.50197697
108	0x3f15abca	0.58465254
109	0x3f8d4b56	1.1038616
110	0xbdcd7f14	-0.10034004
111	0x3e85980e	0.2609257
112	0x3e4ff095	0.20306619
113	0x3c58b540	0.013226807
114	0x3e80c2ed	0.25148717
115	0xbbdf258d	-0.0068098963
116	0x3e35979a	0.17733613
117	0xbd21c781	-0.039496902
118	0x3df707aa	0.12062009
119	0xbd3de361	-0.046359424
120	0x3da3d9a3	0.08000495
121	0xbc8d75cc	-0.017268084
122	0x3cbb9e04	0.022902496
123	0x3c412323	0.011788162
124	0xbd5a1eaa	-0.0532519
125	0x3dd02552	0.10163368
126	0x3edd256f	0.43192622
127	0x3edb066f	0.42778346
128	0x3f438b90	0.7638483
129	0x3f6086b3	0.87705535
130	0x3e403718	0.18771017
131	0x3d40e102	0.047089584
132	0xbc0a1300	-0.0084273815
133	0x3db8dcec	0.090265125
134	0x3d976bee	0.07393633
135	0x3e1e3d29	0.15453018
136	0x3d462fee	0.048385553
137	0x3da8a6a2	0.08234908
138	0xbc90e7ca	-0.01768865
139	0x3df974f6	0.12180512
140	0xbd22ef06	-0.03977873
141	0x3deedcf8	0.1166324
142	0xbd20b5fb	-0.03923605
143	0x3e1dcdc8	0.1541053
144	0x3db92f32	0.09042205
145	0x3cabcd5e	0.02097195
146	0x3eff52ec	0.49867952
147	0x3ec59ff9	0.38598612
148	0x3fbbc28d	1.4668747
149	0x3fe30a98	1.7737608
150	0x3fac958b	1.3483137
151	0x3fb6c8f6	1.4280078
152	0xbe86149a	-0.26187593
153	0xbe6c9f90	-0.23107743
154	0xbe32bc3e	-0.17454621
155	0xbe25a4ca	-0.16176143
156	0xbe33e52f	-0.17567895
157	0xbe4c5947	-0.19955932
158	0xbe1f81c2	-0.15576842
159	0xbd0bee66	-0.0341629
160	0xbe719e4c	-0.23595542
161	0xbe124917	-0.14285694
162	0xbf152393	-0.58257407
163	0xbee73256	-0.4515559
164	0xbeeb5c8d	-0.45969048
165	0xbeb35ad5	-0.35030237
166	0xbf1cc0a9	-0.61231476
167	0xbe7d7c31	-0.24754407
168	0xbce36558	-0.027758285
169	0x3d0e1626	0.03468909
170	0xbca7e16c	-0.020493232
171	0x3c8cb5c6	0.01717652
172	0x3c5dc9e0	0.0135369
173	0x3c009c28	0.007849731
174	0x3e307112	0.17230633
175	0x3e392d18	0.18083608
176	0x3c342f9b	0.010997678
177	0x3d36eca4	0.04465927
178	0x3f81c296	1.0137508
179	0x3f864986	1.0491188
180	0xbe02ec91	-0.12785555
181	0xbe1f30d9	-0.15545978
182	0xbe81a909	-0.25324276
183	0xbd5663de	-0.052341335
184	0xbe845ea3	-0.25853452
185	0xbd52dc42	-0.051479585
186	0xbf1bd759	-0.6087547
187	0xbf07560e	-0.52865684
188	0xbe2681fa	-0.1626052
189	0x3c39df68	0.011344768
190	0xbe0b299a	-0.13590088
191	0xbe21ea73	-0.15812092
192	0xbdc5d3ce	-0.09659539
193	0xbe005d7a	-0.12535658
194	0xbe8f9385	-0.28042236
195	0xbec29d66	-0.3801071
196	0xbe6997aa	-0.22811761
197	0xbe46e6be	-0.19423959
198	0x3dc749ac	0.09730849
199	0x3e3f6a63	0.18692927
200	0x3de1e00f	0.11029064
201	0x3d2fd580	0.04292822
202	0x3c8f0b93	0.017461574
203	0x3bfd58d9	0.0077315387
204	0x3db43436	0.08799021
205	0x3da65600	0.08121872
206	0xbec1e3f5	-0.3786923
207	0xbeef675d	-0.46758547
208	0x3e1272f2	0.1430166
209	0x3deb0fa1	0.1147759
210	0x3e5d5f23	0.21618323
211	0x3e6dd76a	0.23226705
212	0xbda48c58	-0.08034581
213	0x3da3dacb	0.08000716
214	0x3d529f6f	0.05142158
215	0xbd7cb655	-0.061697323
216	0xbe503d69	-0.20335926
217	0xbe95e93f	-0.29279515
218	0x3dc81697	0.09769934
219	0x3e2b3499	0.16719283
220	0x3d961a93	0.073292874
221	0x3e0032e5	0.12519415
222	0xb9644547	-0.00021769582
223	0x3ddfc598	0.1092636
224	0x3d4e373a	0.050345637
225	0xba263643	-0.0006340483
226	0xbee96cd3	-0.4559084
227	0xbea31f2d	-0.31859723
228	0x3d420659	0.047369335
229	0x3dd0702c	0.10177645
230	0x3d6f86f0	0.058478296
231	0x3e0dae12	0.13835934
232	0xbd3acf88	-0.045608073
233	0xbd8f37db	-0.069930755
234	0x3d9bc5f3	0.07606115
235	0xbd41b151	-0.047288243
236	0xbe68a135	-0.22717746
237	0xbe147505	-0.14497764
238	0x3e1062da	0.14100209
239	0x3dc08fda	0.094024375
240	0xbd4a9505	-0.049458522
241	0x3c9df1e8	0.019280389
242	0x3e1a4c51	0.15068175
243	0xbd7bca7c	-0.0614724
244	0x3d8d582f	0.06901585
245	0xbda23a73	-0.079213046
246	0xbefda1a4	-0.49537385
247	0xbeee735d	-0.4657239
248	0x3d9feecd	0.078092195
249	0xbd88c22f	-0.066776626
250	0x3e614ba7	0.22001515
251	0x3e54fd61	0.20799781
252	0x3b97bbf1	0.0046305587
253	0xbd6c3a25	-0.05767264
254	0xbd9d447e	-0.076790795
255	0x3e53e216	0.20691714

bias f4 [176]
0	0xbeab1056	-0.334109
1	0xbf092a18	-0.53579855
2	0xbd993da1	-0.07482458
3	0x3e89436a	0.26809245
4	0xbf400e2d	-0.7502163
5	0x3ea2c818	0.31793284
6	0xbf82f0e8	-1.0229769
7	0xbf2b1b88	-0.66838884
8	0xbeb7e2f5	-0.35915342
9	0xbe00bd92	-0.12572315
10	0xbfa61036	-1.2973697
11	0x3eb2763d	0.34855834
12	0xbf021340	-0.50810623
13	0xbf7e093d	-0.99232846
14	0xbea088bd	-0.31354323
15	0xbebbbd0d	-0.36667672
16	0xbdc9d639	-0.09855313
17	0xbf8b197c	-1.0867152
18	0x3f0f6251	0.56009394
19	0xbf96115e	-1.172405
20	0xbd0b6d6e	-0.034039907
21	0xbe8768aa	-0.2644704
22	0x3df4a824	0.11946133
23	0xbe6842f4	-0.2268179
24	0x3ee4217c	0.44556797
25	0xbf74449c	-0.9541719
26	0x3ee4252e	0.44559616
27	0x3f9f7c73	1.2459854
28	0xbfcdb59b	-1.6071047
29	0xbf4eeb6d	-0.8082798
30	0xbeb267c9	-0.34844807
31	0x3eccbfaa	0.39989978
32	0x3f2b866c	0.67001987
33	0xbf0ec665	-0.55771476
34	0x3ef2d584	0.47428524
35	0x3f66d012	0.9016124
36	0x3f3d43e4	0.7393172
37	0x3f527767	0.82213444
38	0xbf10349b	-0.5633027
39	0xbe487997	-0.19577633
40	0xbf32c118	-0.6982589
41	0x3e5e8109	0.2172891
42	0xbf2f4667	-0.684668
43	0xbde15949	-0.11003358
44	0xbf0dd251	-0.5539904
45	0xbe97ba59	-0.2963436
46	0xbda8e55d	-0.082468726
47	0xbc48e53d	-0.012261686
48	0x3e477618	0.19478643
49	0xbe033692	-0.12813786
50	0x3dedaedc	0.116056174
51	0xbd2b886b	-0.041878145
52	0xbedf92ab	-0.43666586
53	0xbfa55637	-1.2916936
54	0x3e443897	0.19162212
55	0xbf8d78ee	-1.105253
56	0x3efeba70	0.49751616
57	0x3edc44c7	0.43021223
58	0x3faf3dc6	1.3690727
59	0xbe1f887a	-0.15579405
60	0x3cd84566	0.02640028
61	0xbf1f0c01	-0.6212769
62	0xbef73e63	-0.48289785
63	0xbffc8779	-1.9728843
64	0xbf620a30	-0.88296795
65	0xbea82da2	-0.32847315
66	0xbf71cfc7	-0.9445767
67	0x3f97691c	1.1828952
68	0xbe532c8f	-0.20622467
69	0x3da2353b	0.07920309
70	0xbf5b1dfb	-0.8559262
71	0xbea9fa73	-0.3319889
72	0xbf647ba8	-0.89251184
73	0x3ef5eea2	0.48033625
74	0xbeaff4dc	-0.343665
75	0xbf32f5ca	-0.69906294
76	0xbf045628	-0.51693964
77	0xbc0116f8	-0.007879011
78	0x3eb3052a	0.34964877
79	0x3df65c0d	0.12029276
80	0xbf483500	-0.7820587
81	0xbf1822c0	-0.59428024
82	0xbe44cdbf	-0.19219111
83	0xbf9215e3	-1.1412929
84	0xc00462c4	-2.0685282
85	0xbeb81e9a	-0.35960847
86	0x3dd5492c	0.10414347
87	0xbc5382a0	-0.012909561
88	0xbf73c834	-0.9522736
89	0xbfefc746	-1.8732688
90	0xbf020007	-0.5078129
91	0x3e8180d6	0.25293607
92	0x3c44bb5b	0.01200756
93	0xbcd6da4f	-0.026227145
94	0x3e859661	0.26091293
95	0x3f948271	1.1602308
96	0x3eaae149	0.33375004
97	0x3f464755	0.77452594
98	0xbead1d62	-0.3381148
99	0x3edf58b1	0.43622354
100	0x3d278ddd	0.040906776
101	0xbf999518	-1.1998625
102	0xbf3310d4	-0.6994755
103	0x3e634be1	0.22196914
104	0xbf371fb6	-0.7153276
105	0xbeea6fe0	-0.4578848
106	0x3f08e6c6	0.5347713
107	0xbdb7a5e4	-0.08967188
108	0xbf827039	-1.0190498
109	0xbd8e1387	-0.06937318
110	0x3b6de8df	0.0036302132
111	0xbd89d242	-0.067295566
112	0x3ea56649	0.323046
113	0xbf6b1ed9	-0.91843945
114	0xbf6bd3a6	-0.92119825
115	0xbebcdf95	-0.3688933
116	0xbe8c3d4e	-0.27390522
117	0x3ed9d534	0.42545474
118	0x3cf5ab6d	0.029988969
119	0x3e952a4c	0.29133832
120	0xbe021df8	-0.12706745
121	0x3fa93cbe	1.3221662
122	0xbcea6d7b	-0.028616657
123	0x3dae5234	0.08511773
124	0x3f71bd19	0.94429165
125	0x3f5685c6	0.8379787
126	0x3ea54b0b	0.32283816
127	0xbecfeee0	-0.40611935
128	0xbef2e839	-0.47442797
129	0xbe975152	-0.2955423
130	0x3d270853	0.040779423
131	0x3f1f253e	0.621662
132	0xbe079142	-0.13239005
133	0x3ec83263	0.39100942
134	0x3c65b7a2	0.014020832
135	0x3e25b355	0.16181691
136	0xbf9c2239	-1.2197944
137	0xbf0879e6	-0.53311
138	0xbeda43c5	-0.4262983
139	0xbe93e901	-0.28888705
140	0xbf3b9f7a	-0.73290217
141	0x3f420d4a	0.7580153
142	0xbf5b061c	-0.855562
143	0xbf530339	-0.8242679
144	0x3f6910e8	0.9104142
145	0x3eaa6eec	0.33287752
146	0xbe3ecfc2	-0.18633941
147	0xbea29c1d	-0.3175973
148	0xbf6cc091	-0.92481333
149	0x3f71607a	0.94287837
150	0x3c9f4358	0.019441292
151	0xbe3de747	-0.18545257
152	0xbf108d5b	-0.5646569
153	0xbe95d39a	-0.29263002
154	0x3ec398ed	0.3820261
155	0xbf0e22db	-0.55521935
156	0xbed4f3c2	-0.41592222
157	0xbea3db86	-0.3200342
158	0x3cc80b48	0.024419442
159	0x3efe0c31	0.49618676
160	0xbf871e02	-1.0556033
161	0xbfa9817e	-1.3242643
162	0x3f81eb90	1.0150013
163	0xbe1f94ba	-0.15584078
164	0xbf3947d4	-0.72375226
165	0xbecc2a47	-0.39876005
166	0xbf221c40	-0.63324356
167	0xbe9acc98	-0.30234218
168	0xbccfd4d6	-0.025370043
169	0xbed38c49	-0.41317967
170	0xbd109b9e	-0.035304658
171	0x3e40a276	0.18811974
172	0xbebc33f4	-0.36758387
173	0x3f457ef0	0.77146816
174	0xbfc5f4c9	-1.5465328
175	0xbf521614	-0.8206494

weight f4 [88, 176]
0	0xbe89d6f5	-0.26921812
1	0xbcbf8596	-0.023379128
2	0x3f446095	0.7670987
3	0x3f2f2268	0.68411875
4	0x3de07ca7	0.109612755
5	0x3ef407dd	0.4766225
6	0xbf00d8a1	-0.5033055
7	0x3f1153c3	0.56768435
8	0x3db56e26	0.088589
9	0xbdd70443	-0.1049886
10	0x3ef69fa6	0.48168677
11	0x3f2b2665	0.6685546
12	0xbe7d0069	-0.24707188
13	0xbb560365	-0.0032655832
14	0x3f05e453	0.5230152
15	0x3ef4a1c9	0.47779682
16	0x3f345a61	0.7045041
17	0xbe0ddb31	-0.13853146
18	0x3f254a84	0.64566827
19	0xbd3e3473	-0.04643674
20	0x3e897f6c	0.26855028
21	0x3f3c98e1	0.73670775
22	0x3f5107dc	0.8165262
23	0x3efd7882	0.49506003
24	0x3f1ca1ac	0.6118419
25	0x3c6250c5	0.013813202
26	0x3f097d66	0.5370697
27	0x3f008f7d	0.50218946
28	0x3f325d05	0.69673187
29	0x3f7323ad	0.9497631
30	0x3e87395d	0.26410952
31	0x3f41eb7e	0.7574996
32	0x3ef40716	0.47661656
33	0x3d8e4891	0.06947435
34	0x3f132b7a	0.57488215
35	0x3f1da5ff	0.61581415
36	0x3f31b921	0.6942311
37	0x3ef75e26	0.48314017
38	0x3e5129ed	0.2042615
39	0x3ef080bf	0.46973225
40	0x3ef52fa0	0.47887897
41	0x3f245021	0.64184767
42	0x3f2402cf	0.64066786
43	0x3ec5f56b	0.38663802
44	0xbe1897de	-0.14901683
45	0xbe0efa0a	-0.1396257
46	0x3f064aba	0.52457774
47	0x3f27d3e9	0.65557724
48	0x3efe48e7	0.49664995
49	0xbe4791cd	-0.19489212
50	0x3d2ca679	0.04215095
51	0x3ecb28fd	0.3967971
52	0xbe9f2543	-0.31083116
53	0xbdda9dc3	-0.10674622
54	0x3f05906d	0.521735
55	0x3ee95ad1	0.455771
56	0x3f0d7a2e	0.55264556
57	0x3f0edad7	0.55802673
58	0x3f1e6aa4	0.6188147
59	0x3e5b8325	0.21436746
60	0xbe9489db	-0.29011425
61	0xbef4960b	-0.47770724
62	0x3effd3c7	0.4996626
63	0x3e90d9ef	0.2829127
64	0x3faa5c45	1.3309408
65	0xbd7d5548	-0.06184891
66	0xbd9ab4f9	-0.07554049
67	0x3f4c145f	0.79718584
68	0x3eaa08a8	0.3320973
69	0x3ecad8e0	0.39618587
70	0x3f91351f	1.1344336
71	0x3f730b70	0.9493933
72	0x3ea38762	0.31939226
73	0x3f12c42f	0.573306
74	0x3f41620f	0.7554025
75	0x3edc5da9	0.43040207
76	0x3e5191a6	0.20465717
77	0x3f1e64b6	0.6187242
78	0x3ed6cc45	0.4195272
79	0x3f09f062	0.5388242
80	0x3f176f10	0.5915384
81	0xbf0be690	-0.54648685
82	0x3f260dd0	0.64864826
83	0x3d95207a	0.07281585
84	0xbea08e08	-0.3135836
85	0xbe0139a3	-0.12619643
86	0x3f0fa0cb	0.56104726
87	0x3f0d5a92	0.55216324
88	0x3f77cc41	0.9679604
89	0x3ddf880a	0.10914619
90	0xbe2eca73	-0.17069416
91	0x3f27b3e4	0.65508866
92	0x3eb5fcc4	0.35544407
93	0x3f29362d	0.6609829
94	0x3ebf2e97	0.37340233
95	0x3f1a65b4	0.60311437
96	0x3f068221	0.5254231
97	0x3f2a2b39	0.664722
98	0x3f25464a	0.6456038
99	0x3e47a59b	0.19496767
100	0x3edfdda7	0.43723795
101	0xbf13a5d5	-0.57674915
102	0x3e9becbe	0.30454057
103	0x3eee2ec3	0.4652005
104	0x3e17630c	0.14783877
105	0x3eb321f2	0.34986836
106	0x3e52bead	0.2058055
107	0x3f037c29	0.5136133
108	0x3f7f84f3	0.9981224
109	0x3f47c9fa	0.78042567
110	0x3f340ba6	0.70330274
111	0xbeaa1211	-0.3321691
112	0x3ef1e27f	0.47243115
113	0xbeb80197	-0.35938713
114	0x3ea02524	0.31278336
115	0x3f15f1e1	0.585722
116	0x3f33b8f5	0.702041
117	0x3e9c9014	0.30578673
118	0x3f0b9187	0.5451893
119	0x3e17c8f6	0.14822754
120	0x3f023f25	0.508776
121	0x3f2d0ec3	0.6760065
122	0x3e1cd035	0.153138
123	0x3f19d540	0.6009102
124	0x3f329c3d	0.6976965
125	0x3f4a3540	0.78987503
126	0x3f12b783	0.57311267
127	0x3f044fa0	0.51684
128	0x3eb043fa	0.34426862
129	0xbe00b121	-0.1256757
130	0x3f3650ba	0.7121693
131	0x3edde049	0.43335178
132	0xbec8c539	-0.3921297
133	0x3f2eec79	0.6832958
134	0x3f061345	0.5237315
135	0x3f1a00d6	0.60157526
136	0x3e7f4115	0.2492717
137	0x3d034876	0.032051526
138	0x3ef56950	0.4793191
139	0x3f0cf392	0.5505916
140	0x3edd9fc1	0.43285945
141	0x3f2049dc	0.626127
142	0x3f86320f	1.0484027
143	0xbd0f44aa	-0.034977593
144	0x3f1e0de2	0.61739933
145	0x3f273562	0.6531583
146	0x3ed6264e	0.418261
147	0x3f11abf6	0.56903017
148	0x3eac471b	0.33648
149	0x3ed4eafd	0.41585532
150	0x3ec15ee1	0.377677
151	0x3ec39c49	0.38205174
152	0xbdf4474d	-0.11927662
153	0x3f234321	0.63774306
154	0x3d645099	0.055740926
155	0x3e0407a0	0.12893534
156	0x3c969d42	0.018385533
157	0x3eaf407d	0.34228888
158	0x3e3cc056	0.18432745
159	0x3efae9c6	0.4900648
160	0xbd12d1e7	-0.03584471
161	0x3d93fb9f	0.07225727
162	0x3e9a7878	0.30170035
163	0x3f0f9780	0.56090546
164	0x3d8f721a	0.07004185
165	0x3f576219	0.8413406
166	0x3ede156c	0.4337572
167	0x3f22eb24	0.63640046
168	0xbe885ead	-0.26634732
169	0x3dd2c90e	0.102922544
170	0x3f1b7827	0.6073021
171	0xbf127a74	-0.572181
172	0x3e0ce55d	0.1375937
173	0x3f34f724	0.70689607
174	0xbe400ce0	-0.18754911
175	0x3ea5460b	0.3228
176	0xbe48253d	-0.19545455
177	0xbe4c3c1c	-0.19944805
178	0xbdfa3ee5	-0.122190274
179	0x3d871450	0.06595671
180	0x3e8fa916	0.2805869
181	0xbe3d3254	-0.1847623
182	0x3e8f7236	0.28016824
183	0xbc8cc57c	-0.017184012
184	0x3d6f3a7b	0.05840538
185	0xbe91f2ca	-0.28505546
186	0x3ea9b300	0.3314438
187	0x3df7f31a	0.12106915
188	0xbe1f1d79	-0.15538587
189	0xbd14de74	-0.03634496
190	0x3ddf76cd	0.10911331
191	0xbe84ede9	-0.2596276
192	0xbd21be95	-0.039488394
193	0x3d23a8f8	0.039956063
194	0xbb74d8db	-0.0037360701
195	0xbe154a40	-0.14579105
196	0xbd11eff6	-0.035629235
197	0x3d43001d	0.04760753
198	0x3d90eef3	0.07076826
199	0xbdbbb475	-0.09165279
200	0xbd859643	-0.06522801
201	0x3da418b7	0.080125265
202	0x3b634498	0.0034678336
203	0x3e587a2d	0.21140356
204	0x3e03ad17	0.12858997
205	0x3cee7757	0.02910964
206	0x3e883de7	0.26609728
207	0x3e920367	0.2851822
208	0x3e6621e5	0.22473867
209	0x3d270ed3	0.04078562
210	0x3bff7b7a	0.007796702
211	0x3ce93e1c	0.028471999
212	0x3d894885	0.06703285
213	0x3dad95f0	0.08475864
214	0x3d7a8afe	0.06116771
215	0xbe280877	-0.16409479
216	0x3f1caf82	0.61205304
217	0xbdd2db4a	-0.10295732
218	0xbc25bf44	-0.010116402
219	0x3df03664	0.11729124
220	0xbed07cd2	-0.4072023
221	0xbdd6d808	-0.104904234
222	0xbd2235d2	-0.03960211
223	0xbd75bdf4	-0.059995607
224	0xbdd91b70	-0.106009364
225	0xbc8970a9	-0.016777353
226	0x3dbcb6e0	0.09214568
227	0x3d6986cb	0.057013314
228	0x3ec93ece	0.3930573
229	0x3e9dfe0f	0.30857894
230	0xbd3e6cc8	-0.04649046
231	0xbddbc323	-0.10730579
232	0x3d82a486	0.063790366
233	0x3d81baf5	0.06334487
234	0x3c016a69	0.007898905
235	0x3ecd34bb	0.40079293
236	0x3e94fa17	0.29097053
237	0xbe0e7691	-0.13912417
238	0xbd5c00ef	-0.053711828
239	0xbe99a7ba	-0.30010778
240	0x3d763cca	0.060116567
241	0xbd29141c	-0.041278943
242	0xbeacfe6d	-0.3378786
243	0xbda1c241	-0.07898379
244	0x3b0e05fb	0.0021671045
245	0x3dc9a74a	0.09846361
246	0x3e84b96e	0.25922722
247	0xbe4834d1	-0.19551398
248	0x3e487d84	0.1957913
249	0x3df8547c	0.12125489
250	0xbe6fe8de	-0.23428676
251	0x3d5bf9d7	0.053705063
252	0xbda39500	-0.07987404
253	0x3e747599	0.23872985
254	0xbda4684e	-0.08027707
255	0x3dc0416e	0.0938748

bias f4 [88]
0	0x3e451574	0.19246465
1	0x3e65dd25	0.22447641
2	0x3e9da182	0.30787283
3	0x3eaa74d2	0.33292252
4	0x3e0b2e9a	0.13591996
5	0x3ed80b6c	0.42196214
6	0x3ece7f3d	0.4033145
7	0x3bda3690	0.0066593364
8	0xbbbbe459	-0.0057340083
9	0x3e54743c	0.20747465
10	0x3e0b4e8a	0.13604179
11	0x3e226226	0.15857753
12	0x3e05e847	0.13076888
13	0x3d966375	0.07343189
14	0x3eb771db	0.35829052
15	0x3e339d85	0.17540558
16	0x3e912574	0.28348887
17	0x3e063f7a	0.13110152
18	0x3e9984ff	0.2998428
19	0x3e7b36aa	0.24532571
20	0x3ec95119	0.39319685
21	0x3f15d0f7	0.5852198
22	0x3e93099d	0.28718272
23	0x3e431acf	0.19053195
24	0x3e3e5fe7	0.18591271
25	0xbf2ebb21	-0.68254286
26	0x3d9907f7	0.07472222
27	0x3e272cc8	0.16325676
28	0xbd85603a	-0.065124944
29	0xbcf4d362	-0.029885951
30	0x3e163ef5	0.14672454
31	0x3dc31a5e	0.095265135
32	0x3dfafcf0	0.12255275
33	0xbf422d56	-0.7585043
34	0xbeb5f186	-0.3553583
35	0x3ddd3d8c	0.10802755
36	0x3de6d0b5	0.112702765
37	0x3da79879	0.08183379
38	0x3e0b5cec	0.13609666
39	0x3e5d116e	0.2158868
40	0x3df19611	0.11796201
41	0xbd83b1fb	-0.064304315
42	0x3e30bb6c	0.17258996
43	0x3e72d9f6	0.23715958
44	0x3e5388b6	0.2065762
45	0x3ec4c4fc	0.38431537
46	0x3c8046cf	0.015658764
47	0x3d776cca	0.060406484
48	0x3eca1628	0.3947003
49	0x3db21f1a	0.086973384
50	0xbf8eb964	-1.1150327
51	0x3e2a6834	0.16641313
52	0xbe32a843	-0.17446999
53	0xbd1958a0	-0.037438035
54	0x3e61c60c	0.22048205
55	0x3e127fec	0.14306611
56	0x3e3cf3af	0.18452333
57	0x3de18511	0.110117085
58	0x3eb2b3a8	0.34902692
59	0x3e203e2b	0.15648715
60	0xbdad6e49	-0.08468301
61	0x3db17fc7	0.0866695
62	0x3decd540	0.11564112
63	0x3e5b8704	0.21438223
64	0x3e796d81	0.24358179
65	0x3e3fb3cb	0.1872093
66	0x3e0c481a	0.1369938
67	0x3d1f3dcc	0.038877293
68	0xbe84f1d6	-0.25965756
69	0x3daca6e9	0.08430273
70	0x3f5b6ca1	0.8571263
71	0x3da956fa	0.082685426
72	0x3e5a4661	0.2131591
73	0x3cd13be6	0.025541257
74	0x3d41d73b	0.0473244
75	0x3d870f48	0.065947115
76	0x3db30717	0.08741587
77	0x3e146177	0.14490305
78	0x3e941510	0.2892232
79	0x3e89d5c8	0.26920915
80	0x3db81512	0.08988394
81	0xbf6958ab	-0.9115092
82	0xbf0f925b	-0.56082696
83	0x3e07ae9e	0.13250205
84	0x3c68720e	0.014187349
85	0x3d887ca1	0.06664396
86	0x3e25de20	0.16198015
87	0x3db9a52f	0.090647094

weight f4 [22, 88]
0	0xbd85fa60	-0.06541896
1	0x3f9701a5	1.1797377
2	0x3f13523b	0.5754735
3	0x3f049083	0.5178301
4	0x3cce5ada	0.025189806
5	0x417fe254	15.992756
6	0xbd7166c4	-0.058935896
7	0xbe016e66	-0.1263977
8	0xbd18e304	-0.037325874
9	0x3eefcd6f	0.4683642
10	0x3d03a21d	0.032137025
11	0x3f28979f	0.65856355
12	0x3e21948a	0.1577932
13	0xbd8e5dfd	-0.069515206
14	0x3f6425fe	0.8912047
15	0x3f18bd0c	0.5966346
16	0x3f8696ef	1.0514811
17	0x3d622b91	0.05521733
18	0x3ffb0e8b	1.9613813
19	0x3c76767f	0.0150429
20	0x3f4bea80	0.79654694
21	0xbd4aa91b	-0.049477678
22	0x3dc6aea2	0.09701277
23	0xbd373c86	-0.044735454
24	0x3d1091c9	0.03529528
25	0x40263eb7	2.5975778
26	0xbd516ba0	-0.05112803
27	0x3e0daf3d	0.1383638
28	0xbe264670	-0.16237807
29	0xbdc59df0	-0.09649265
30	0xbe28ad54	-0.1647237
31	0x3e7992db	0.24372427
32	0xbc506039	-0.012718254
33	0x4178dd50	15.554031
34	0x4032841b	2.789313
35	0xbd72555c	-0.059163436
36	0x3f304d1a	0.6886765
37	0xbde546e0	-0.11195159
38	0xbde814de	-0.11332105
39	0x3df30292	0.118657246
40	0x3cd97929	0.026547031
41	0x3f592bdf	0.84832567
42	0xbe0556fb	-0.13021462
43	0x3dd06c50	0.10176909
44	0x3dbf7c09	0.0934983
45	0x3f917538	1.1363897
46	0xbdc1c12d	-0.094606735
47	0xbdc67dc4	-0.09691957
48	0x3d911066	0.07083206
49	0x3d574b96	0.05256232
50	0x3fbde7ab	1.4836324
51	0x3e6cc82e	0.23123237
52	0x40f099a2	7.518754
53	0x40388be4	2.8835382
54	0xbe62d5bc	-0.22151846
55	0x3dc171df	0.09445547
56	0x3e0e4ab6	0.13895687
57	0x3df17a97	0.1179096
58	0xbcca52b5	-0.02469764
59	0x3d42a8cf	0.04752427
60	0x3fedc246	1.8574913
61	0x3e65ec23	0.2245336
62	0xbd075f2f	-0.03304976
63	0x40092195	2.1426747
64	0xbdb74a16	-0.08949678
65	0x3d888e37	0.0666775
66	0x3f5aeda9	0.8551889
67	0x3d02e1bb	0.031953555
68	0x40b77bdb	5.733869
69	0xbdd091d8	-0.101840675
70	0x3ea51171	0.3223987
71	0xbdaf73da	-0.08567019
72	0xbc098277	-0.008392922
73	0x402717ec	2.610835
74	0x3fec0ac1	1.8440782
75	0xbdcb380a	-0.09922798
76	0xbe1e47cd	-0.15457077
77	0x3d639134	0.0555584
78	0x3f4303cb	0.7617766
79	0x3e1ed401	0.1551056
80	0x3e12dd3a	0.14342204
81	0x4124faa6	10.311193
82	0x3fa3dab2	1.2801116
83	0xbe3ae341	-0.18250753
84	0xbcaf2872	-0.02138159
85	0xbcb9dfc6	-0.022689711
86	0xbe1acc7d	-0.15117069
87	0xbda277e4	-0.079330236
88	0x3f302e15	0.68820316
89	0xbf9abdbe	-1.2089155
90	0xbf0f01f4	-0.55862355
91	0xbf40feb4	-0.75388646
92	0x3f2fa8df	0.6861705
93	0xc1853cab	-16.654623
94	0x3f555249	0.8332868
95	0x3f4d8f89	0.8029714
96	0x3f5761e2	0.8413373
97	0xbef55c84	-0.47922146
98	0x3f0429a3	0.5162603
99	0xbf4135e3	-0.7547285
100	0x3f1aff25	0.6054557
101	0x3f428820	0.7598896
102	0xbf3a5126	-0.7278007
103	0xbf129537	-0.57258934
104	0xbf643f94	-0.8915951
105	0x3f1d89b4	0.61538243
106	0xc0099edd	-2.1503212
107	0x3f1d6c8f	0.6149377
108	0xbf55e78d	-0.83556443
109	0x3f4d834e	0.8027848
110	0x3f14a041	0.5805703
111	0x3f4076d6	0.7518133
112	0x3f51a204	0.8188784
113	0xc0359a39	-2.837538
114	0x3f5152ba	0.81766856
115	0x3f0ca9d2	0.54946625
116	0x3f44cd0c	0.76875377
117	0x3f5c9b69	0.8617464
118	0x3f46ad13	0.7760784
119	0x3f0c591d	0.54823476
120	0x3f2cca62	0.6749631
121	0xc18623d0	-16.767487
122	0xc0516fb7	-3.2724435
123	0x3f40a8b4	0.7525742
124	0xbf614d97	-0.8800902
125	0x3f5ffc91	0.8749476
126	0x3f42cf0e	0.7609719
127	0x3f2865a6	0.65780103
128	0x3f3db2ae	0.7410077
129	0xbf267033	-0.6501495
130	0x3f6a5403	0.9153444
131	0x3ed6518d	0.41859093
132	0x3f19505b	0.5988824
133	0xbf6ca572	-0.9243995
134	0x3f19bf04	0.6005709
135	0x3f45b95f	0.7723598
136	0x3f2db25a	0.6785027
137	0x3f1ad972	0.60488045
138	0xbfd2f02f	-1.6479548
139	0x3efd75a6	0.4950382
140	0xc1048aa8	-8.283852
141	0xc0484214	-3.129033
142	0x3f6bdfd5	0.92138416
143	0x3f32a619	0.69784695
144	0x3f0b75c4	0.5447657
145	0x3ebe7424	0.37197983
146	0x3f635f9b	0.8881776
147	0x3f1a56cb	0.60288686
148	0xc0017d0f	-2.023258
149	0x3ef3cb50	0.47616053
150	0x3f565cb8	0.8373523
151	0xc013a212	-2.306767
152	0x3f2a3fa5	0.66503364
153	0x3f3a6717	0.7281355
154	0xbf2d7abe	-0.67765415
155	0x3f4074b9	0.75178105
156	0xc0ca6f20	-6.326065
157	0x3f368701	0.7129975
158	0x3eaab182	0.33338553
159	0x3f23c6dc	0.6397531
160	0x3f54b2d1	0.8308535
161	0xc035d949	-2.841387
162	0xbffa1ebb	-1.9540628
163	0x3f4b7b3a	0.79484904
164	0x3f567cd4	0.8378422
165	0x3f1c7300	0.61112976
166	0xbf08f818	-0.5350356
167	0x3f15b50e	0.5847939
168	0x3f18eba3	0.59734553
169	0xc1357897	-11.341941
170	0xbfc9570e	-1.5729692
171	0x3f50a8b5	0.81507427
172	0x3f37d68a	0.71811736
173	0x3f35f1bd	0.7107199
174	0x3f39458b	0.7237174
175	0x3f349720	0.705431
176	0x3f49e7d4	0.78869367
177	0xbf9c1f86	-1.219712
178	0xbed7ea35	-0.42170873
179	0xbf67d4df	-0.9055919
180	0x3f2e8feb	0.6818835
181	0xc184ff84	-16.624763
182	0x3f43fa8d	0.76554185
183	0x3f3f5736	0.7474245
184	0x3f424024	0.7587912
185	0xbf087f36	-0.5331911
186	0x3f1d3fae	0.6142529
187	0xbf12685a	-0.5719048
188	0x3ee7e1a7	0.45289347
189	0x3f34617c	0.7046125
190	0xbf573309	-0.8406225
191	0xbf24569a	-0.64194643
192	0xbf6034b0	-0.87580395
193	0x3f116bf8	0.5680537
194	0xc0097d19	-2.1482604
195	0x3f359ee3	0.70945567
196	0xbf520ad9	-0.820478
197	0x3f3317dd	0.6995829
198	0x3f1b2640	0.6060524
199	0x3f28eed0	0.659894
200	0x3f2d5178	0.67702436
201	0xc035a1c9	-2.8379996
202	0x3f3be1e5	0.7339156
203	0x3f1cbc5a	0.612249
204	0x3f4ab879	0.7918773
205	0x3f455f65	0.77098686
206	0x3f51f92f	0.8202085
207	0x3ed76851	0.42071775
208	0x3f2ebd54	0.6825764
209	0xc185aec8	-16.710342
210	0xc04a2d8a	-3.1590295
211	0x3f3af7be	0.73034275
212	0xbf49178c	-0.78551555
213	0x3f643f93	0.89159507
214	0x3f440e82	0.7658464
215	0x3f29e6c8	0.6636777
216	0x3f09ef3d	0.53880674
217	0xbf4ae06f	-0.7924871
218	0x3f648713	0.89268607
219	0x3f081384	0.5315478
220	0x3f29de0f	0.6635446
221	0xbf816d21	-1.0111428
222	0x3f3855c0	0.72005844
223	0x3f38dbcc	0.72210383
224	0x3f27ef99	0.6559997
225	0x3f1dfba4	0.617121
226	0xbfbf60b1	-1.4951383
227	0x3f135b8e	0.57561576
228	0xc106f5e3	-8.435031
229	0xc04d4fc3	-3.2079933
230	0x3f53bbe3	0.8270857
231	0x3f2d5529	0.6770807
232	0x3f385c68	0.72016
233	0x3ead4e92	0.33849007
234	0x3f2f0b9f	0.6837711
235	0x3f275afd	0.6537321
236	0xc00267a4	-2.0375757
237	0x3f12733f	0.572071
238	0x3f23791f	0.6385669
239	0xc00c0e9d	-2.188392
240	0x3f1fe585	0.62459594
241	0x3f3d1312	0.73857224
242	0xbf23ccaa	-0.6398417
243	0x3f45f11b	0.7732102
244	0xc0cca55c	-6.3951855
245	0x3f316864	0.6929991
246	0x3eab1d0d	0.334206
247	0x3f282054	0.6567433
248	0x3f3dd618	0.74154806
249	0xc034fe87	-2.828035
250	0xc001c41f	-2.0275953
251	0x3f47f064	0.7810118
252	0x3f3c13f7	0.73467964
253	0x3f407876	0.7518381
254	0xbef52dd2	-0.4788652
255	0x3f06fd06	0.52729833

bias f4 [22]
0	0x3ec215b4	0.37907183
1	0x3c93608d	0.017990375
2	0x3e23fd37	0.16014563
3	0x3abdfa22	0.0014494101
4	0xbd4fdb1d	-0.050746072
5	0x3f0340fb	0.5127103
6	0x3ecd587b	0.40106568
7	0x3ebe00c6	0.37109965
8	0x3e0ffecc	0.14062041
9	0x3eeaadd0	0.45835733
10	0x3e381277	0.17975794
11	0x3e15ce93	0.14629583
12	0x3f1f6363	0.6226103
13	0x3f08837c	0.5332563
14	0x3ea0002b	0.31250128
15	0x3ed615bf	0.41813466
16	0xbcc7b2f9	-0.024377333
17	0x3ec95f36	0.39330453
18	0x3f021587	0.508141
19	0x3eb119fc	0.34590137
20	0x3eb3b03a	0.35095388
21	0x3ebb61f4	0.3659817

weight f4 [1, 22]
0	0x401ed46e	2.4817157
1	0xbf575ec3	-0.8412897
2	0xbf59b648	-0.85043764
3	0xbf738f71	-0.9514075
4	0x4092f634	4.592554
5	0x40192e8d	2.3934662
6	0x401b3214	2.4249315
7	0x40133a58	2.300436
8	0xbf7c47c3	-0.98547
9	0x40121313	2.2824142
10	0xbf51ab81	-0.8190232
11	0xbf66ed0a	-0.9020544
12	0x406c34f4	3.690732
13	0x40106bd6	2.2565818
14	0x404ccaf0	3.1998863
15	0x409d2f60	4.912033
16	0x40a3b9b1	5.1164174
17	0x40133ff0	2.3007774
18	0x400a8a6e	2.164699
19	0x409bc67c	4.867979
20	0x401602da	2.343924
21	0x4015ab2d	2.3385727
