data/q_value_target_net_2_simple_spread_2690000_pH-MARL.pth (torch, 115005 bytes, 7 tensors)

weight f4 [160, 80]
000000 4d 7b b0 3e 97 7d 8e bb ca 3b 9d be 73 fb 68 bc
       0.3446907 -0.0043484676 -0.30709678 -0.014220106
000010 73 af b1 3d 44 c7 85 3e 4a 24 6f 3e e0 f4 5d 3e
       0.086760424 0.2612859 0.23353687 0.21675444
000020 04 d1 f5 3d 1b 52 93 be ef 0b 1e 3e fd eb 5e 3e
       0.12002757 -0.2877358 0.1543424 0.2176971
000030 53 e4 2c 3d 49 65 54 bd 05 1b 45 3e 0e b1 cf bd
       0.042209934 -0.051854406 0.19248588 -0.101411924
000040 1a f8 bf 3d 9f 90 9f 3c 94 15 b5 3e 5b 0b 5a 3d
       0.093734935 0.01947814 0.35368025 0.053233486
000050 73 55 47 be d8 c9 d3 3d 00 4a 01 3e f1 f2 75 3e
       -0.1946619 0.10341233 0.12625885 0.24018456
000060 c5 2c de 3d cc 11 4e 3d 38 a2 17 bc ca 44 41 be
       0.10848383 0.05030994 -0.009254985 -0.18873897
000070 fd 73 4e 3e c2 7e 1d 3e c0 f1 79 3d cc 9a 00 bd
       0.20161434 0.15380386 0.061021566 -0.031397626
000080 a0 7f 3c 3e 71 bc bd 3d df 31 4a 3d 26 25 00 3d
       0.1840806 0.09264458 0.049363967 0.031285428
000090 62 0a a9 3e 1c c0 46 3d c1 a7 70 3e be 0c 26 3f
       0.33015734 0.048523054 0.23501493 0.64863193
0000a0 21 e1 67 3c 54 c8 ab 3d ec d0 43 3e 99 25 93 bd
       0.014152796 0.08387819 0.19122666 -0.071849056
0000b0 11 02 9c 3e 4f 24 b5 bd 91 cd 5d 3e a3 1d 53 bd
       0.30470327 -0.08844816 0.21660449 -0.051541936
0000c0 f9 3c 41 be 55 2c c8 3d 80 c3 ba bd 95 62 a2 bd
       -0.18870915 0.09774081 -0.0911932 -0.07928959
0000d0 ca 96 e6 bd 30 24 19 be 1e 5e c9 3e f8 01 a7 bc
       -0.112592295 -0.1495521 0.39329618 -0.020386681
0000e0 5b 1e 73 be fe 90 15 bd 28 2f 62 3e 96 bb 2b 3e
       -0.23742048 -0.03651523 0.22088301 0.16770777
0000f0 db e9 21 3e 05 da 53 3e eb b9 74 3b 34 32 a5 be
       0.15811865 0.20688637 0.003734226 -0.32264864
000100 4e fb c4 3e 9b 5b cf 3d bf 8d 82 3d f1 b6 cc 3d
       0.3847298 0.10124894 0.06374692 0.09995831
000110 76 79 1c 3d 24 28 85 3d 6b d1 12 3e a8 79 e7 3d
       0.03820177 0.06501797 0.14337699 0.11302501
000120 49 a4 9c bd ba 00 3f 3d 33 21 c7 bd 9f ea 92 bb
       -0.076485224 0.046631552 -0.09723129 -0.0044835354
000130 07 10 ac 3d ce 2d 32 3d 8c f5 7e bc 3a 50 0a bd
       0.084014945 0.043500714 -0.015561473 -0.033767916
000140 5d ba bf 3e bb b1 d2 bc af 70 fc 3f 6c a8 df be
       0.3744687 -0.025719514 1.9721888 -0.43683183
000150 56 18 8b 3d 48 5e 5d be 94 a2 aa be 8b 27 1c 3d
       0.06791751 -0.21617997 -0.33327162 0.03812365
000160 a2 e0 bb be ec 42 cb 3d a5 9b 51 bf cf 4c 4f bc
       -0.3669482 0.09924874 -0.8187812 -0.01265259
000170 07 22 6f be 57 5c 96 3d db 32 b5 be b6 1c 8b 39
       -0.23352824 0.07341831 -0.35390362 0.00026533537
000180 bb 71 fe be 29 b7 8f 3e fa 7b 35 3b d7 3b 77 bd
       -0.49696144 0.28069428 0.0027692304 -0.060359802
000190 82 71 b9 3e ab 19 23 bd cf 14 9e 3e 79 47 eb 3d
       0.36219412 -0.0398194 0.3087525 0.11488242
0001a0 ad c2 ee 3c cf d9 04 be 51 4e 6e bd 7d d2 19 3c
       0.029145563 -0.12973712 -0.058180157 0.009388563
0001b0 3c 58 b2 be d8 0f 1a be 72 8f c0 3e 09 1e 09 bd
       -0.34832942 -0.15045106 0.3760944 -0.03347591
0001c0 bb cb 06 be 72 5c 71 3c 2e 68 50 be 64 ff 17 3e
       -0.13163655 0.014731513 -0.20352241 0.14843518
0001d0 5f 60 4c 3d be 15 62 3d 5f d5 6f 3d af de 68 3d
       0.049896594 0.055196516 0.058553096 0.056852993
0001e0 97 af 0c 3e 6d 32 a7 bd 5e 6b ca bc dc 5b 07 3e
       0.13738857 -0.08163915 -0.0247094 0.13218635
0001f0 a7 b0 7e 3c a1 8f 03 3c 1c 96 db be 11 9f 58 be
       0.015545047 0.008029849 -0.42887962 -0.21154429
000200 34 fb 96 3e 3c c5 57 bd fd fb d1 ba e6 a3 95 bc
       0.29488528 -0.05267833 -0.0016020533 -0.01826663
000210 c8 49 4f be f9 aa b8 3d 8a c9 fa be 17 ca d6 3d
       -0.20242989 0.090169854 -0.48981887 0.10487764
000220 15 45 e3 bf 96 51 57 3f 3b 73 38 3f ca d4 32 be
       -1.7755457 0.84108865 0.7205083 -0.17463985
000230 15 a9 c2 3e f4 6c 81 bd 0f eb 83 3e 20 78 59 bd
       0.38019624 -0.06319609 0.25765273 -0.053093076
000240 36 d0 25 3e 29 dd 16 3f 2f 92 03 3f 2b 52 88 be
       0.16192707 0.58931214 0.51394933 -0.2662519
000250 b2 07 ab 3e 5e fd 06 be 47 90 55 3e cd b5 02 be
       0.3340431 -0.1318259 0.20855819 -0.12764664
000260 1e d1 92 3e a5 b9 ca bd 56 f5 42 3d 15 da 43 bc
       0.2867517 -0.0989869 0.04759725 -0.01195385
000270 c9 52 a9 bc f0 ec 44 3d 48 3b 4d be ca f4 1e 3e
       -0.020669358 0.048077524 -0.20042145 0.15523067
000280 1a 06 1d bd 90 a0 a3 3d f4 89 5a bc 57 b9 6b 3e
       -0.038335897 0.07989609 -0.013338555 0.2301992
000290 0c d9 20 be e4 65 a7 3d 30 2f e1 3d ac a9 e4 bb
       -0.15707797 0.08173731 0.109953284 -0.0069782343
0002a0 5e 75 d8 bd 75 b5 96 bc 1a 5c d5 bd e3 a0 89 3d
       -0.10569261 -0.018397072 -0.104179576 0.0672014
0002b0 d4 89 ea 3c d3 b9 ac bc e9 8b ad bb 9e 25 9e 3d
       0.028630175 -0.021084702 -0.0052962196 0.07722019
0002c0 d9 88 46 3b e0 63 48 3c 3d bf 09 be 92 fa 6b be
       0.003029397 0.012230843 -0.13451858 -0.23044804
0002d0 7b 23 08 3f 5c 2e 4d 3f 47 8d 3b bd 27 62 aa 3d
       0.5317914 0.80148864 -0.04578903 0.08319502
0002e0 b9 25 45 bc 91 5a ef bc 9b 55 d7 3c 49 b4 a4 3d
       -0.01203292 -0.02921799 0.026285937 0.08042199
0002f0 e3 9b 32 bc 9e f8 cc 3d f7 fe 19 3e 04 86 d0 bd
       -0.010901424 0.100083575 0.15038668 -0.101818115
000300 8b 02 50 3e 45 c1 b4 bb 13 ec 37 3e 6f d5 18 3c
       0.2031347 -0.0055162036 0.17961149 0.00932823
000310 bc 88 14 bc 05 00 85 3e 3e e2 6d be 06 77 36 bf
       -0.009065803 0.25976577 -0.23230836 -0.71275365
000320 9a 6e ea bc 90 aa 42 3d 74 45 f6 3d 85 60 24 be
       -0.028617192 0.047525942 0.12024966 -0.16052444
000330 33 92 aa bd 3d 1b 93 be c1 39 bf bc 67 82 6e bd
       -0.083286665 -0.2873172 -0.023342969 -0.05822983
000340 ab a7 46 3d 8b ac 2d be 87 36 23 be 0a 57 50 3c
       0.048499744 -0.16960351 -0.1593877 0.012716064
000350 59 64 9d 3c 32 09 35 be 74 c6 9e 3d 4c 33 c4 bd
       0.019212889 -0.17679289 0.07752696 -0.095800966
000360 d0 cb 1b be 01 f8 e6 3d 76 ae 64 bd 69 58 98 bd
       -0.15214467 0.11277772 -0.05583044 -0.07438738
000370 da fe 4c 3e e6 b2 68 3d ec dc 2d bc a1 f2 32 3d
       0.20019093 0.056811236 -0.010611754 0.04368842
000380 96 b4 07 be 31 ac d4 bc 6d cf 0e 3d 25 b0 cf bc
       -0.13252482 -0.025961014 0.034865785 -0.025352547
000390 ae 0d 85 bd 3f 69 57 bd e0 1e 9b 3d 37 99 38 3e
       -0.0649675 -0.052590605 0.07574248 0.18027197
0003a0 63 12 c8 3c 39 1b 11 3e a7 b1 28 3e 6a 62 23 3e
       0.02442283 0.14170541 0.16474019 0.1595551
0003b0 ed d0 92 bc 9f 2a 63 be 45 1d 8c bd 23 c4 f2 3d
       -0.01792189 -0.22184227 -0.0684152 0.11853816
0003c0 c7 07 88 3d ec a2 c3 3b 52 7a ab 3d 35 b0 03 bf
       0.066421084 0.0059703495 0.0837294 -0.51440746
0003d0 57 31 a6 bb bf 17 14 3d 12 f5 cd 3d 56 7d 68 3e
       -0.0050717997 0.03615546 0.10056509 0.22704062
0003e0 42 fe 87 3d 6f cc 4a 3e a7 be 23 3e c7 0a c9 3d
       0.06640293 0.19804548 0.15990697 0.09816509
0003f0 2a 0d c5 bd 68 cc 85 bd c0 8d 7a 3c c7 d5 81 bd
       -0.096216515 -0.06533128 0.015292585 -0.06339603

bias f4 [160]
000000 60 d9 05 3e ea 38 1c be 6a bc b0 3e 75 d6 19 3f
       0.13071203 -0.15256086 0.3451875 0.6009286
000010 59 88 5a 3e bd fd 98 be 3c cf 5a 3b 2e 6a 84 be
       0.21341075 -0.29881087 0.0033387681 -0.2586226
000020 c6 1d bd 3e e3 f8 04 3e 51 89 bc be 1a f1 bd be
       0.36936778 0.12985568 -0.36823514 -0.37098008
000030 16 2b a5 bd 7f 22 8f 3d 5b 86 f5 bd 8a 15 f6 3e
       -0.080648586 0.069890015 -0.11988517 0.48063308
000040 e2 6e 09 bd 72 06 a3 3e 14 b6 bf 3b 4a d2 62 3f
       -0.03355301 0.31840855 0.005850563 0.88602126
000050 9d c8 9b 3c 1a 10 c4 bd db 35 48 3e 11 e8 2a be
       0.019016558 -0.09573384 0.19551794 -0.16690089
000060 42 77 08 bf a8 6f 78 bf 9f 75 cb 3e 01 af 20 3f
       -0.53306973 -0.97045374 0.39738175 0.62767035
000070 05 76 ff 3e 4b 37 ae bd b5 f9 6b 3e 4b 29 bf bd
       0.4989473 -0.0850664 0.23044474 -0.09334048
000080 a9 7b c4 3e e8 28 7f 3e 19 9a 1b 3c 38 01 4b 3e
       0.38375595 0.24917948 0.009497189 0.19824684
000090 04 52 0d bf 2b 15 56 3e 60 63 9b 3e 6a 7d b1 bd
       -0.5520327 0.20906512 0.30349255 -0.08666499
0000a0 7b 6a 9a be fa 13 69 3e 5f df 34 3e c9 7d 8a 3e
       -0.30159363 0.22761527 0.17663334 0.2704909
0000b0 cd 52 64 3e 81 07 e4 3d 4c 0a cd 3d 10 43 ad 3f
       0.22297211 0.11134244 0.100117296 1.3536091
0000c0 e2 4d 07 3e b2 fc 0c 3f 84 21 c4 3d a1 4a 4d be
       0.13213304 0.5507308 0.09576705 -0.20048
0000d0 f5 60 08 3f 03 e8 ee bd c8 d9 cb 3d 88 37 13 bf
       0.53272945 -0.116653465 0.09953648 -0.5750661
0000e0 c0 e9 16 be 82 92 81 3f a5 84 c6 3e 92 8c 36 3f
       -0.14737606 1.0122836 0.38773075 0.71308243
0000f0 cd 88 af 3e 51 4e b4 3e d7 af 5a bd 9d 04 ff 3e
       0.34284058 0.35216 -0.05339035 0.49808207
000100 ad 24 f4 be dd 62 70 3f ab 4e 2c bf c0 e6 d0 bd
       -0.4768423 0.93900853 -0.6730754 -0.10200262
000110 f7 0d a3 3f 40 0a 60 be 14 57 10 3f 3b 7c bc be
       1.2738637 -0.2187891 0.5638287 -0.3681353
000120 03 f3 41 3f 8d 4d d0 3e cf 8f d8 3b 52 05 84 be
       0.7576143 0.40684167 0.00660894 -0.2578531
000130 7c b7 79 3f 28 85 41 3f c6 96 74 bf 35 1d 0b bf
       0.975456 0.75593805 -0.9554256 -0.5434144
000140 52 e0 8f 3e 55 46 28 3f 6e 52 00 bf b7 78 26 3e
       0.2810083 0.6573232 -0.5012578 0.16256987
000150 a5 d1 c3 3e ac 90 e4 bd 4e ed d9 3d d7 b7 ce 3e
       0.38245884 -0.111604065 0.106409654 0.40374634
000160 82 6b 0a 3f 70 ca 9b 3f 5c 79 e9 3e 15 de 7d 3e
       0.54070294 1.2171154 0.45600402 0.24791749
000170 24 a1 ae bc c8 2b 6c be 5b d3 70 be a4 a9 43 3e
       -0.021317072 -0.23063576 -0.23518126 0.19107682
000180 88 20 21 3d 92 51 d3 be 3b 60 b3 3e 75 ac 7e bd
       0.039337665 -0.4127317 0.35034356 -0.062176187
000190 be 02 9d 3f 7f 8a 86 3f 5e e8 92 3e 34 29 68 3e
       1.2266462 1.0511016 0.28692907 0.22671968
0001a0 40 43 e5 3e 94 d9 e3 bc f4 f8 84 3f 48 ef ef 3c
       0.4477787 -0.02781371 1.0388474 0.029288903
0001b0 9a ec 12 be be 85 06 3e 31 ed 5c 3d f6 26 7b 3f
       -0.14348069 0.13136956 0.05393714 0.98106325
0001c0 4f b0 a5 be 73 fc 8d 3f 1c ed be be 40 de 0a 3e
       -0.32361075 1.1092666 -0.37290275 0.13561344
0001d0 5a 74 5e 3e 50 37 8b be 52 66 ea 3e fe 0a 93 be
       0.21724072 -0.27190638 0.4578119 -0.28719324
0001e0 4b 5b 3e bf 66 63 37 bd 9a d0 51 3a 69 2f 1a 3f
       -0.7435805 -0.044772528 0.00080038013 0.6022859
0001f0 c6 b2 33 3f 79 4e 5d bd 76 38 99 3e e5 24 a8 3d
       0.7019466 -0.054029915 0.2992589 0.08210162
000200 87 47 7c bb f3 ec 2a 3f 1e 98 d3 3e f6 26 44 3f
       -0.0038494782 0.66767806 0.41326994 0.7662195
000210 3f 22 87 be 4c 38 c9 be 78 89 44 bf 08 ac 5e 3f
       -0.26393315 -0.39300764 -0.7677226 0.8698125
000220 c6 f9 26 be 88 fb aa bd 2d 62 44 3f 1f 93 1a 3e
       -0.16306219 -0.08348757 0.76712304 0.15095185
000230 40 03 44 3e 77 7a 7b 3e 2c da 47 3f 98 b3 22 3f
       0.19141865 0.24558435 0.7806728 0.6355529
000240 91 b3 25 bf 95 bc 07 3f d2 a9 8b 3f 16 70 4c be
       -0.6472712 0.5302213 1.09112 -0.19964632
000250 11 fc d8 3e 07 9d fd 3d fb 93 3c 3f 33 bd 81 be
       0.4237981 0.12383466 0.736633 -0.2533966
000260 ba 73 9d 3f a2 2c ea 3e 87 06 34 3f 60 e9 54 be
       1.2300942 0.45737177 0.7032246 -0.2079215
000270 35 54 9e be 0a b4 b3 3e e9 c1 6b bd e9 ce dd be
       -0.3092362 0.35098296 -0.057557974 -0.43321922

weight f4 [80, 160]
000000 d5 ad 2d be 34 c9 d6 bd b5 ca 71 3e 6c 74 cf be
       -0.16960843 -0.10487595 0.23612483 -0.4051851
000010 65 8e 28 bd e7 e9 f0 be f5 87 71 bd 76 09 39 be
       -0.041151423 -0.47053453 -0.05896755 -0.18070015
000020 77 f1 27 3d 4d d6 7c be 73 db ad be ee 63 5f bf
       0.041001763 -0.24691124 -0.3395649 -0.87261856
000030 e8 d0 6f be 38 23 53 3e 90 02 2c 3e 79 1a 10 be
       -0.23419535 0.20618904 0.16797853 -0.14072599
000040 81 ba 77 3d 8d b5 34 be 3c d8 67 3e 82 08 f5 bd
       0.0604806 -0.17647381 0.2264108 -0.11964513
000050 c1 7a 76 3d f2 55 c2 3b e2 85 94 be 5b f4 4b 3e
       0.06017566 0.0059306556 -0.29008394 0.19917433
000060 67 16 53 3d dc 87 f1 be 60 21 7e 3e c3 74 03 3f
       0.051535036 -0.47173965 0.24817419 0.5135004
000070 46 3e 86 3e 1c f4 a0 3b 69 b7 45 3e 71 3a 8f be
       0.26219386 0.0049119126 0.19308247 -0.27974275
000080 4f 39 fa 3d 53 a5 bb bd 21 91 53 be 59 c4 69 bd
       0.12217962 -0.091623925 -0.20660831 -0.057072017
000090 2a 00 01 bf c9 16 3a 3e e2 14 3f be 6e cb f7 3b
       -0.50390875 0.18172754 -0.1866031 0.0075620925
0000a0 2b ea 0c be c8 b0 8b bd 13 39 b5 3d 77 24 0e be
       -0.13761203 -0.06820828 0.08848777 -0.13881098
0000b0 5c 2b 23 bd 8f ed 0f be 49 8f 2e 3d 22 80 e4 bc
       -0.039836273 -0.14055465 0.042617116 -0.02789313
0000c0 bc 47 4b be 51 cd c8 be ad a1 02 3e bc 4d 15 bf
       -0.19851583 -0.39219144 0.12756987 -0.5832174
0000d0 32 5e af bb 2f 3b 4c 3e db 00 94 be 0f d3 49 bf
       -0.005351805 0.19944452 -0.28906903 -0.78837675
0000e0 75 eb 6e be 98 3f e8 3c ab c8 ed 3b 70 ef 42 be
       -0.23332007 0.028350636 0.0072565875 -0.1903665
0000f0 55 d6 91 3e bc b2 93 3c f7 8b fa bd 49 02 b9 3d
       0.28483835 0.018029563 -0.122337274 0.09033639
000100 16 d8 a0 be 2c db 42 3d 8d bc 2f bf 5e 6b 0f 3e
       -0.3141486 0.0475723 -0.6864708 0.14005801
000110 97 ca c3 be 5b 99 1d bf 1b 60 a4 3d 75 9e 50 3e
       -0.382405 -0.61562127 0.08026143 0.20372947
000120 00 32 9c 3d 59 8f b6 bc 4a 09 28 3e 66 e9 c9 be
       0.07626724 -0.02228515 0.16409793 -0.3943588
000130 7c ec 5f be 52 d4 84 3e 0f 9e 5d bf b0 3a 0f bf
       -0.21867555 0.25943238 -0.86569303 -0.55948925
000140 7a 65 5b 3e d3 50 08 be 6a b3 07 bf 0e a3 ba bd
       0.21425429 -0.13312082 -0.5300814 -0.091131315
000150 79 c3 1e 3e 50 5d ac be 52 67 b5 3b 88 d4 0f 3a
       0.15504254 -0.33664942 0.0055359984 0.0005486687
000160 8f c1 d7 3d 1c f7 f0 3c 09 8b 17 3d 57 1e b2 bd
       0.10534965 0.029414706 0.03699783 -0.08697193
000170 2b 76 d2 be ed 42 81 bf 4f 9b 84 be e1 81 2d 3d
       -0.4110578 -1.0098549 -0.2589974 0.04236019
000180 37 ae f8 be 11 dc 88 be 16 25 4e 3d 3f 9b 1c bf
       -0.48570415 -0.26730397 0.050328337 -0.61174387
000190 c0 94 a0 bc 45 7f 59 3c da 16 f0 be a3 fc 30 3d
       -0.01960218 0.013274972 -0.46892434 0.043209683
0001a0 bc 67 de bc 69 e2 86 3e 6c aa 1d 3d 12 ce ca bd
       -0.027149074 0.26344612 0.038492605 -0.09902586
0001b0 26 ce 42 bd 5c 8a fe 3d db 2e e4 3d 0d 71 34 be
       -0.04755988 0.12428734 0.111417495 -0.1762125
0001c0 66 17 f5 bc 44 61 23 3e f3 a5 42 be 83 29 9b 3e
       -0.029918384 0.15955073 -0.19008617 0.30305108
0001d0 e5 fc 50 be bb 06 48 bf bf 36 04 bc 90 34 80 3d
       -0.20408972 -0.7813527 -0.008069693 0.062600255
0001e0 53 34 73 bf 23 0b d2 3d 8f 8c f7 be d8 e4 68 bd
       -0.95001715 0.102560304 -0.48349425 -0.056858867
0001f0 08 43 3c bd 61 e9 e3 bd e4 57 b0 3e e5 18 2c bf
       -0.045962363 -0.11128498 0.34442055 -0.67225486
000200 e9 f2 ed bd 63 cd 1f 3e e0 c8 65 be 94 27 b5 bd
       -0.11618597 0.15605693 -0.22439909 -0.088454396
000210 7f 43 d1 bc 8a 1a b8 be d6 b6 54 be d8 f6 17 be
       -0.02554488 -0.35957748 -0.20772871 -0.14840257
000220 86 ba 94 be 59 55 c1 b9 71 9f 5d bf ca c6 8f bc
       -0.29048556 -0.00036875418 -0.86571413 -0.017550845
000230 2b 38 74 bd 79 63 45 3d 07 ca 6b bd 37 ec 0a 3e
       -0.05962388 0.048190568 -0.057565715 0.13566671
000240 0a 24 04 bf 7e e1 3b 3d 80 53 ca be 2b dc 5e be
       -0.5161749 0.045869343 -0.3951683 -0.21763675
000250 f8 e9 8e bc 25 3e 73 be 9a 69 16 be dd b1 84 3e
       -0.01744555 -0.23754175 -0.14688721 0.2591695
000260 e7 66 1b be 14 2f 08 3d c4 72 eb bd 3a 57 83 3e
       -0.15175973 0.033248022 -0.11496499 0.25652486
000270 ac df ad be 45 df 90 bd 45 d8 57 3e 1b b9 35 be
       -0.3395971 -0.07073835 0.21078594 -0.17746393
000280 33 16 78 3d ed 68 5f 3e 22 15 9c 3e 9b eb 02 3d
       0.060568046 0.2181737 0.30484873 0.031962972
000290 cb 07 36 3e 8d d1 a4 3d 55 7a d2 bd cd ee cd bd
       0.1777641 0.08047781 -0.10277239 -0.10055313
0002a0 38 6e 70 be 1e c9 37 3d 31 f9 30 3e 11 1a a5 3d
       -0.23479545 0.044869535 0.17282559 0.080616124
0002b0 ac c8 3b 3e 3b 58 86 3e d1 87 2c be a3 99 2f 3d
       0.18338269 0.2623919 -0.16848685 0.04287113
0002c0 7d db c2 bd d0 94 d5 bc cf 50 7f 3d 1c d1 61 3d
       -0.0951452 -0.026071936 0.062332924 0.055131063
0002d0 3b 4d de bc dd 4f 00 3e a9 0e 7a 3d c9 17 0e 3e
       -0.027136436 0.12530465 0.061049137 0.13876261
0002e0 cf d4 18 be c6 ba 62 be 1a af 42 3e c3 76 ea 3e
       -0.1492493 -0.22141561 0.19012108 0.45793733
0002f0 78 4e 00 be 9a c6 3b bd 77 cb 61 3c cd 3b 2e 3e
       -0.12529933 -0.045843698 0.01378142 0.17015
000300 e3 14 a5 bd 49 f1 fb bb 85 96 47 3c 0e 76 68 3e
       -0.080606245 -0.0076886755 0.012181883 0.22701284
000310 27 57 3b be b8 ea 33 be c1 dc aa 3d 04 9c 2c be
       -0.18294965 -0.17570007 0.08342887 -0.1685639
000320 82 ec 14 3f 10 9f 52 3e ab 2d 29 3d cf 02 11 3e
       0.5817338 0.2056849 0.041303318 0.14161228
000330 18 eb 9b 3d ff 1e 57 3e ec 78 df bc 98 60 69 3e
       0.076132 0.21007918 -0.02727934 0.22790754
000340 cf 7a 24 bd 66 a5 e8 3e be 1b 81 bd e3 e2 b7 bc
       -0.040156182 0.4543869 -0.063041195 -0.022447055
000350 1d e9 c2 bd 27 6f e8 bd f2 96 55 3e 8e b5 d0 3d
       -0.09517119 -0.113493256 0.20858362 0.10190879
000360 d7 d3 13 be 0d ff 2e 3d dd c7 08 be cd 90 d7 3e
       -0.14436279 0.042723704 -0.13357492 0.42102662
000370 aa 22 84 3d cb 3c 9e 3e 55 8b 1b be 29 4f 59 bd
       0.06451924 0.30905756 -0.1518987 -0.05305401
000380 c9 43 95 bd ff 48 78 3e b4 c9 66 3e 71 bf 27 bd
       -0.072883196 0.24246596 0.22537881 -0.040954057
000390 dc 2a 4c 3e 82 c8 6e be 5a d6 61 3e c5 30 24 3e
       0.19938225 -0.23318675 0.22054425 0.16034229
0003a0 27 c5 6c be 31 b7 d2 3d d4 34 c0 3c 70 0e 0e be
       -0.23122083 0.10288847 0.02346269 -0.13872695
0003b0 36 b5 24 be 93 5c 9e bc f9 1f 28 bd 42 a3 d1 bd
       -0.16084751 -0.019331252 -0.041046117 -0.10236217
0003c0 c4 e2 b8 be 48 72 56 3d b9 da b5 3b ab 63 30 be
       -0.36110508 0.05235508 0.0055497554 -0.1722552
0003d0 f3 9d 26 be 36 3d 86 3c 81 a0 49 bd fe 75 82 bd
       -0.1627119 0.01638661 -0.049225334 -0.063701615
0003e0 38 f2 a0 bc 29 52 87 3e 65 1e 24 3d fb ec d1 bd
       -0.019646749 0.2642987 0.04006805 -0.102502786
0003f0 60 d3 ce 3d 30 d4 6c 3e f6 1e 6a be b4 c6 60 3d
       0.1009891 0.23127818 -0.22863373 0.054876998

bias f4 [80]
000000 d7 f9 90 3e 39 55 17 3e 4a be 64 3d 2f 89 5a 3e
       0.28315613 0.14778604 0.055845536 0.21341394
000010 b5 f7 cd 3e 22 70 fe 3e 73 cc e2 3e b2 af c8 3e
       0.40228048 0.49694926 0.44296607 0.39196545
000020 72 8a 7c 3e eb 92 4f bc c8 c6 3f 3f 2d 28 40 be
       0.24662188 -0.012669305 0.7491269 -0.18765326
000030 48 ec c8 3e 34 eb a7 3e ba f6 48 3d a4 9e 5d 3e
       0.39242768 0.32796633 0.04906342 0.21642548
000040 92 47 47 3e 28 2b 3d 3e 67 20 87 3e 27 db f2 3c
       0.19460896 0.18473494 0.2639191 0.029645516
000050 ef 72 0e 3f c5 2a 71 3e 62 d7 e4 3e 84 bb ae 3e
       0.55644125 0.23551472 0.44695574 0.34127438
000060 d8 90 f9 3d f6 93 93 3e 63 69 51 3e 68 13 f7 3d
       0.1218583 0.28823823 0.20450358 0.12064248
000070 6a ec ef 3d 22 7e 07 3f 4b de 17 3e 6b fc 93 3e
       0.11715014 0.5292684 0.14830892 0.28903517
000080 6f 03 87 3f 31 5c 50 3f 6e 3a b3 3c 60 a8 14 3e
       1.0547923 0.8139067 0.021878447 0.14517355
000090 97 d0 d5 3e a6 0c 34 3e ab 6a ce 3e 9e 8d 53 3f
       0.41760704 0.1758295 0.40315756 0.82637966
0000a0 03 70 7e 3e 3e ad 27 3d d0 96 62 3f 94 67 54 bd
       0.24847417 0.0409367 0.8851137 -0.051856592
0000b0 ab 6a c4 bd b6 f1 3b 3f 92 26 36 3f 5a e5 9a 3d
       -0.09590658 0.73415697 0.71152604 0.075632766
0000c0 71 27 be 3e cd a3 90 3e d4 c6 0e 3e 55 3d 70 3e
       0.37139466 0.2824997 0.13943034 0.23460896
0000d0 83 39 32 3f 2f 98 2f 3e fd 24 77 3e 69 1b 94 3d
       0.69619006 0.17147897 0.24135204 0.072317906
0000e0 ca b1 35 3e ae 17 83 3e ba 4a bc 3e cf 78 4b 3e
       0.17743602 0.25604004 0.36775762 0.19870304
0000f0 3f b6 08 3e e7 02 da 3d cb c5 54 3f 93 c4 e8 3c
       0.13350771 0.10645085 0.8311431 0.028414046
000100 7f 81 c3 bd 9f 05 3f 3e 9e c1 25 3e 77 b1 b0 3e
       -0.09546184 0.18654488 0.1618714 0.34510395
000110 50 17 11 3e a3 b1 69 3e 26 ea 08 3e ee a6 e4 3e
       0.1416905 0.2282167 0.1337057 0.44658607
000120 38 4d d6 3e 9b 6b 5f 3f de 1a 31 3e 07 9a b6 3e
       0.41855788 0.8727357 0.17295405 0.3566439
000130 86 ba bb 3e 22 f9 2d 3f aa 08 82 bd 76 06 4d 3e
       0.36665744 0.6795827 -0.06349309 0.20021996

weight f4 [20, 80]
000000 28 38 5b 3e 8e 4f 36 3d ce a3 b1 3d 84 54 ae 3e
       0.2140814 0.044509463 0.086738214 0.34048855
000010 5d 21 81 3e c9 f5 c6 bd b0 32 11 bf 4c 30 b4 bc
       0.25220767 -0.097148485 -0.5671797 -0.021995686
000020 6e b6 65 be 3d 41 5b bf ee fa 40 bf 01 dc 9a bf
       -0.22432873 -0.8564642 -0.7538289 -1.209839
000030 bc ab 8f be 06 48 54 3f 8e c1 8e bf 7e 84 be 3e
       -0.2806071 0.829224 -1.1152818 0.3721046
000040 30 6f 64 3d a6 3f 47 be 4c c2 ab 3e 67 09 28 bd
       0.0557701 -0.19457874 0.33546674 -0.04102459
000050 a1 45 21 3f 4a f1 e1 3d f3 a5 40 3e c8 0a 34 3c
       0.6299687 0.1103235 0.18813305 0.010988899
000060 5b eb a0 bf d3 ae e5 3d 8a 25 25 bd 80 42 82 3d
       -1.2571825 0.11214986 -0.040319003 0.0636034
000070 3a c7 c2 be fd eb bc 3b e9 7d a4 bf 0b 33 99 3e
       -0.38042623 0.0057654367 -1.2850925 0.29921755
000080 cb e4 01 bf 86 33 04 bd d4 ea e5 bf 2f 4f 4c 3e
       -0.50739735 -0.0322757 -1.7962289 0.19952081
000090 b8 6d 7d bf 6e 5f 81 bd 5d 61 19 3e 9f 59 2a bf
       -0.9899554 -0.0631703 0.14978547 -0.66543
0000a0 7d e3 fe bc dd 2b f1 be 5e d1 4c 3f 49 35 8a be
       -0.031114334 -0.47103778 0.8000697 -0.26993778
0000b0 a6 04 11 3f 6a ce 22 3f c9 01 33 3f 14 6c 54 3d
       0.5664772 0.6359621 0.699246 0.051860884
0000c0 ee e2 2b 3c 11 a7 10 be ba 42 d6 be d6 32 c7 bd
       0.010491116 -0.14126231 -0.41847783 -0.09726493
0000d0 96 84 30 3f ec 55 8c 3e ec e4 b1 3e 6d 4e 90 3c
       0.6895231 0.27409303 0.34744966 0.017615521
0000e0 f0 0b 18 3f cc 46 2f bd 70 55 88 3e de fb 50 3e
       0.59393215 -0.042792127 0.26627684 0.2040858
0000f0 5b 40 62 3e a2 15 73 be 5a 03 44 bf 9c c5 1e bf
       0.22094862 -0.23738721 -0.76567614 -0.6202028
000100 c7 a2 01 c0 b7 b5 4a c0 4b 6b bb 3e 44 62 bc bd
       -2.0255601 -3.167341 0.36605296 -0.0919843
000110 ed 9c e3 3e 91 51 6b 3c ce 96 a1 3e a7 64 5c 3e
       0.44455662 0.014362709 0.31560367 0.21522771
000120 07 37 35 3d 57 7c 0f bf 78 e9 32 be 81 e4 ea bf
       0.04424193 -0.560491 -0.17471874 -1.8350984
000130 13 6b 45 be b9 41 89 bf 2a 54 2f be 27 49 3d 3f
       -0.19279127 -1.0723182 -0.1712195 0.73939747
000140 dd 18 1a be 18 f9 4c bf 0d ba 02 bf 17 16 ab be
       -0.15048547 -0.80067587 -0.5106514 -0.3341529
000150 d8 ff ae 3d 6c ce fc 3c 4b c9 f4 bf aa 98 f4 be
       0.08544892 0.030860148 -1.912393 -0.47772723
000160 05 15 14 c0 da 81 63 bf bc 1f f7 bf df b1 bf bf
       -2.313783 -0.8887001 -1.930656 -1.4976157
000170 5e 96 9c bf b7 93 a1 be cc f7 7f bf 24 8b 85 bf
       -1.2233388 -0.3155801 -0.99987483 -1.0433087
000180 3c 3e 0d c0 ed 48 8c bf 5b a7 fc be b5 a5 9e bf
       -2.2069235 -1.0959755 -0.49346432 -1.239432
000190 15 07 08 c0 23 e1 7f be cd 56 9e 3d 95 4e 13 c0
       -2.1254323 -0.24988227 0.077314 -2.3016713
0001a0 a4 29 76 bf 3e 8d 1d bf f4 14 81 bf 0b 73 79 bf
       -0.9615729 -0.61543643 -1.0084519 -0.97441167
0001b0 3c e0 f2 be c0 98 b2 be ac 6c 85 bf 81 5e 43 bf
       -0.47436702 -0.34882164 -1.0423789 -0.76316077
0001c0 ce f5 90 3e 4f 6a ba bc 90 02 44 bf d3 09 e1 be
       0.28312534 -0.02275577 -0.7656641 -0.43952808
0001d0 f4 3b 07 c0 77 71 2e bf b5 5d 11 3e fc 22 84 bf
       -2.1130342 -0.68141884 0.14195903 -1.0323176
0001e0 95 c2 08 3d 03 20 75 3e ee 17 a9 bf 8d a7 03 c0
       0.033388693 0.23937993 -1.3210428 -2.0571015
0001f0 31 b8 d2 bf da a2 ea bf b0 9d fa bf fe 89 90 be
       -1.6462461 -1.8330948 -1.9579372 -0.2823028
000200 69 b5 4a bf 97 a4 bf bd 6c 1b 85 bf 42 53 61 be
       -0.7918306 -0.09357565 -1.0398993 -0.22004417
000210 65 c2 01 c0 ec 6b 02 bf 73 fe 71 bf 94 e8 8a bf
       -2.02749 -0.50945926 -0.94528884 -1.0852227
000220 99 c4 5b be 8e c7 1f bf d6 d4 1f bf 51 4d 43 bf
       -0.21461715 -0.6241387 -0.62434137 -0.7628985
000230 25 e8 82 bf 3e c7 24 bf 77 0e b2 bf 1c 3a 70 bf
       -1.0227095 -0.6436652 -1.3910664 -0.9383867
000240 78 7a 37 bf a0 63 4b bf 54 76 03 c0 81 7d 5b bd
       -0.7167125 -0.7944889 -2.0540972 -0.053586487
000250 f8 1f c6 bf e8 41 7d bf d0 c5 31 bf cf 38 a3 be
       -1.5478506 -0.9892869 -0.6944246 -0.3187928
000260 8a f2 ea bf f3 48 f0 be e1 0a c6 be 85 5e 8e bf
       -1.8355267 -0.46930656 -0.38680175 -1.1122595
000270 4c 57 87 be a6 88 14 c0 72 09 6c bf 06 a3 a6 bf
       -0.2643379 -2.3208404 -0.9220191 -1.3018501
000280 a4 e6 86 3e 8d 56 de 3c 95 11 6d bc fb 2e 93 3e
       0.2634784 0.02714088 -0.014469524 0.2874678
000290 11 94 4e 3e db 38 c1 bd 4b c2 f4 be 90 4a 23 bd
       0.2017367 -0.094346724 -0.47804484 -0.03986603
0002a0 18 55 5b be d1 4e 2e bf 43 05 27 bf 7c 56 8b bf
       -0.2141918 -0.68089014 -0.65242404 -1.0885768
0002b0 90 98 6c be 7d b6 41 3f e7 4e 7a bf de 80 a3 3e
       -0.23105073 0.7566908 -0.97776645 0.31934255
0002c0 dc 2d 77 3d 96 ad 61 be 9b 84 6d 3e 91 90 36 bd
       0.06034647 -0.22038874 0.23195116 -0.044571463
0002d0 09 47 0e 3f ce 59 5b 3d 87 21 76 3e 3d 2a d7 3c
       0.5557714 0.05355244 0.24036227 0.026265258
0002e0 69 ed 8f bf 9c 7d ba 3d 00 9d 80 bd 9c 91 45 3d
       -1.1244327 0.09105989 -0.062799454 0.048234567
0002f0 89 ca ee be c7 a8 b2 3b f9 c2 8e bf bb 03 87 3e
       -0.46638897 0.0054522487 -1.1153251 0.26370034
000300 92 c2 dd be e5 bf 1e bd 4c 34 bd bf 44 15 38 3e
       -0.43312508 -0.038757224 -1.4781585 0.17976862
000310 27 f0 58 bf 4c 16 ac bc 3d 4c ca 3d d2 41 15 bf
       -0.84741443 -0.021006726 0.098778225 -0.5830356
000320 1a 37 5d 3c e9 ea dd be 7c d9 37 3f 64 1e 2b be
       0.013501907 -0.43343285 0.7181623 -0.16710812
000330 d5 7e dd 3e de f8 18 3f aa d4 16 3f d8 16 28 bd
       0.43260828 0.5975474 0.5891825 -0.04103741
000340 4c 85 3e 3a 0e 21 50 be cd c1 c1 be af 6c 59 be
       0.00072677876 -0.2032511 -0.3784317 -0.21232866
000350 bf af 0e 3f a9 ce 8d 3e 23 ec 99 3e 41 b6 87 3c
       0.5573692 0.27696732 0.3006297 0.016566398
000360 55 78 0b 3f 12 5c 97 3c c5 c1 5f 3e a7 30 30 3e
       0.5448049 0.01847652 0.21851261 0.1720606
000370 c9 c6 1d 3e 89 6b b1 be 67 74 28 bf ef 17 ea be
       0.15407862 -0.34652355 -0.65802616 -0.45721385
000380 3d 67 d7 bf 6a 9d 34 c0 1a 33 9e 3e 6d 0b 28 ba
       -1.6828381 -2.8221078 0.30898362 -0.0006410394
000390 c2 fd c1 3e c8 cd 28 3e 62 d1 8b 3e d1 01 8b 3e
       0.37888914 0.1648475 0.27308184 0.27149823
0003a0 a3 6b f3 3c 7d 05 fc be ce 17 0f be 11 6c cb bf
       0.029714411 -0.49222937 -0.13973925 -1.5892354
0003b0 3d 12 3d be 84 2e 6e bf b2 c7 74 be 97 8a 45 3f
       -0.18463989 -0.9303973 -0.23904303 0.77164596
0003c0 c6 5c 20 be 1a 7d 50 bf f7 9b 29 bf f7 ac 22 bf
       -0.1566039 -0.8144089 -0.6625361 -0.63545173
0003d0 fa 9d 7c be e7 6b b7 be 95 a3 09 c0 0f dd 2a bf
       -0.24669638 -0.3582451 -2.1506093 -0.6674356
0003e0 26 03 24 c0 fb 11 72 bf d6 c7 1d c0 9d f2 96 bf
       -2.5626922 -0.94558686 -2.465322 -1.179279
0003f0 ad 30 8f bf ae 50 12 bf d7 e8 a4 bf 32 28 6a bf
       -1.118673 -0.5715436 -1.2883557 -0.91467583

bias f4 [20]
000000 5c ee 9c 3f 52 84 d7 3f b2 18 72 3f 69 5d c8 3f
       1.2260242 1.6837256 0.9456893 1.5653507
000010 25 a3 01 bf 00 a8 5e 3f 39 1a 69 3f 30 77 6e 3f
       -0.50639564 0.869751 0.9105564 0.93150616
000020 92 c5 65 3f 64 80 0c 40 0e 19 81 3f c9 40 61 40
       0.89754593 2.1953363 1.0085771 3.5195792
000030 0b d1 6c 3f eb 4a 75 3f 15 e6 79 3f c4 a6 84 3f
       0.92506474 0.9581744 0.976167 1.0363393
000040 dc 86 f7 3f 6e 72 1c bf 0c e5 ff 3f 1c aa 90 3f
       1.9338031 -0.61112106 1.9991775 1.1301913

weight f4 [1, 20]
000000 88 5b 8f 42 53 1c 80 c0 1e a1 89 42 e5 3a 89 c0
       71.67877 -4.0034575 68.81468 -4.2884393
000010 f5 0e 9b bf 68 f5 8a 42 81 d7 8b 42 38 cf 8d 42
       -1.211394 69.47931 69.920906 70.904724
000020 d4 15 78 42 85 e4 19 c0 65 fb 8b 42 9e fb 52 c0
       62.021317 -2.4045727 69.991005 -3.2966075
000030 6e 2e 8b 42 bf a2 8a 42 07 35 89 42 0c 41 8d 42
       69.59068 69.31786 68.60357 70.627045
000040 9d 3b 8f c0 fd ee 94 bf 96 c1 9d c0 98 1f 8c 42
       -4.476027 -1.1635433 -4.929881 70.06171
