data/q_value_target_net_2_simple_spread_2670000_pH-MARL.pth (torch, 115005 bytes, 7 tensors)

weight f4 [160, 80]
0	0x3eae5556	0.3404948
1	0xbcd6a088	-0.026199594
2	0xbe87ab27	-0.26497766
3	0xbc8d2fc1	-0.017234685
4	0x3db1e4cc	0.08686218
5	0x3e845a74	0.2585026
6	0x3e713e1c	0.23558849
7	0x3e5eda3e	0.2176294
8	0x3e00a969	0.12564625
9	0xbe8e26e5	-0.2776405
10	0x3e210031	0.1572273
11	0x3e69758c	0.22798747
12	0x3d32029c	0.04345952
13	0xbd3bbe78	-0.045835942
14	0x3e4ecac9	0.20194544
15	0xbdbae974	-0.09126559
16	0x3dd0da90	0.101979375
17	0x3cf69e73	0.030104851
18	0x3eb3c194	0.35108626
19	0x3d236856	0.039894424
20	0xbe551f31	-0.2081268
21	0x3dcc0199	0.09961242
22	0x3dffe521	0.12494875
23	0x3e6fe456	0.23426947
24	0x3de8eff1	0.1137389
25	0x3d20546c	0.03914301
26	0xbb8ec108	-0.004356507
27	0xbe3c6779	-0.18398847
28	0x3e505742	0.20345786
29	0x3e2312dc	0.15925163
30	0x3d74d36c	0.05977194
31	0xbd194194	-0.037416056
32	0x3e45b37c	0.19306749
33	0x3dc682e9	0.09692938
34	0x3d68d584	0.05684425
35	0x3d153ffb	0.03643797
36	0x3eae329a	0.3402298
37	0x3d294838	0.04132864
38	0x3e603245	0.21894176
39	0x3f297469	0.6619325
40	0x3b85cf14	0.0040835235
41	0x3d99e0f3	0.07513609
42	0x3e3b4357	0.18287407
43	0xbda26254	-0.07928911
44	0x3e906886	0.28204745
45	0xbdae9f25	-0.08526448
46	0x3e5624a7	0.2091242
47	0xbd4b2388	-0.049594432
48	0xbe4aecd3	-0.19816904
49	0x3db364b8	0.08759445
50	0xbdcd2a83	-0.10017874
51	0xbdab2918	-0.083574474
52	0xbde953f7	-0.11392968
53	0xbe1808fb	-0.14847176
54	0x3ecd9a04	0.40156567
55	0xbcd880bc	-0.026428573
56	0xbe601470	-0.21882796
57	0xbcd38b96	-0.025823396
58	0x3e595f37	0.21227728
59	0x3e221bd1	0.15830924
60	0x3e1b29b6	0.1515263
61	0x3e4b867a	0.19875517
62	0x3a952b8a	0.0011380774
63	0xbea53273	-0.32265052
64	0x3eb4d4ef	0.35318705
65	0x3dd5c219	0.10437412
66	0x3d635705	0.05550291
67	0x3db6f32e	0.089331016
68	0x3cfbab7a	0.030721415
69	0x3d753506	0.05986502
70	0x3e143033	0.14471512
71	0x3de54340	0.111944675
72	0xbd420c13	-0.047374796
73	0x3d428b97	0.047496404
74	0xbdea8d76	-0.11452763
75	0xb7bb8555	-2.2354225e-05
76	0x3d8b9c1c	0.06816885
77	0x3d774c21	0.060375337
78	0xbce0c1e1	-0.027436199
79	0xbcf1d44a	-0.029520173
80	0x3ebc758a	0.36808425
81	0xbc95cce4	-0.018286176
82	0x3ffb2d9d	1.9623295
83	0xbecc98c8	-0.39960313
84	0x3cf62e13	0.030051267
85	0xbe2c4c97	-0.16826092
86	0xbead93a7	-0.33901712
87	0x3d246cde	0.040142886
88	0xbebc121a	-0.3673256
89	0x3dd28e82	0.102810875
90	0xbf4fb983	-0.81142443
91	0xbcaef0ce	-0.021355059
92	0xbe72defc	-0.23717874
93	0x3d9a3863	0.07530286
94	0xbeb5c67c	-0.35502994
95	0x3c423bb1	0.011855052
96	0xbefeee24	-0.49791062
97	0x3e8f6e08	0.28013635
98	0xbc0daadf	-0.008646696
99	0xbd51ce77	-0.05122229
100	0x3ebbfe25	0.36717334
101	0xbca38142	-0.019959096
102	0x3e9a0b15	0.3008658
103	0x3e084edc	0.13311332
104	0x3cb9d002	0.022682194
105	0xbe03ef5d	-0.12884279
106	0xbd614b40	-0.055003405
107	0x3c39117b	0.011295672
108	0xbead5fb0	-0.33862066
109	0xbe227d20	-0.15868044
110	0x3ec26e22	0.3797465
111	0xbd10d5d1	-0.03536016
112	0xbe041db7	-0.1290196
113	0x3cbeb42b	0.02327927
114	0xbe4d5226	-0.20050868
115	0x3e15bfe1	0.14623977
116	0x3d2cb795	0.042167265
117	0x3d9e0202	0.07715227
118	0x3d70cfce	0.058791928
119	0x3c9d2de4	0.019186921
120	0x3e01d4a3	0.1267877
121	0xbd92dbe6	-0.071708485
122	0xbcef643f	-0.029222606
123	0x3e0061b1	0.12537266
124	0x3c9161a0	0.017746747
125	0xbbd93402	-0.0066285143
126	0xbed80313	-0.42189845
127	0xbe6998ee	-0.22812244
128	0x3e978ec9	0.29601124
129	0xbd839f03	-0.064268135
130	0xbb8a3cef	-0.0042186896
131	0xbcdba9d6	-0.026814383
132	0xbe4f09e5	-0.20218618
133	0x3d9fe6f8	0.07807726
134	0xbefe88b4	-0.4971367
135	0x3de3fc69	0.11132128
136	0xbfdda89d	-1.7317082
137	0x3f558055	0.83398944
138	0x3f355037	0.70825523
139	0xbe175425	-0.14778192
140	0x3ec02eb3	0.3753563
141	0xbd797288	-0.06090024
142	0x3e841ef3	0.25804862
143	0xbd493c05	-0.049129505
144	0x3e3a37cf	0.18185352
145	0x3f13350e	0.5750283
146	0x3f03d052	0.51489747
147	0xbe880909	-0.26569393
148	0x3ea97ce6	0.33103102
149	0xbe04bdda	-0.12963048
150	0x3e55506a	0.20831457
151	0xbdeca7b7	-0.115554266
152	0x3e8c40a4	0.27393067
153	0xbd9a84e0	-0.07544875
154	0x3d8a1538	0.067423284
155	0x3c5750a3	0.013141784
156	0xbccc8b72	-0.024968836
157	0x3d1230c3	0.035691034
158	0xbe4473b2	-0.1918476
159	0x3e297726	0.16549358
160	0xbd32cdb4	-0.043653205
161	0x3d9d0c87	0.07668405
162	0x3cdeffd1	0.027221592
163	0x3e8fc12d	0.2807707
164	0xbe309ca2	-0.1724725
165	0x3dd3456b	0.10315975
166	0x3de806e1	0.11329437
167	0x3bbdaef8	0.00578868
168	0xbde24be1	-0.11049629
169	0xbc5d1350	-0.013493374
170	0xbdcd1d12	-0.1001531
171	0x3da0de57	0.07854908
172	0x3cd77608	0.026301399
173	0xbc64d852	-0.01396759
174	0xbc020c73	-0.007937538
175	0x3da058f3	0.07829466
176	0x3bd254ad	0.0064187855
177	0x3cc09bb8	0.023511752
178	0xbe12615b	-0.1429495
179	0xbe64713d	-0.22308822
180	0x3f1ff301	0.6248017
181	0x3f63552f	0.88801855
182	0xbd3ae2a5	-0.0456263
183	0x3da9db11	0.08293737
184	0x3cf1dbed	0.029523814
185	0xbb746861	-0.003729366
186	0x3cc0464c	0.02347102
187	0x3da2c553	0.07947793
188	0xbbac3883	-0.00525576
189	0x3dd43bad	0.10362945
190	0x3e1c617a	0.1527156
191	0xbddf1982	-0.10893537
192	0x3e4f8397	0.20265041
193	0xbc3a9175	-0.011387219
194	0x3e3d2a00	0.18473053
195	0x3c3e4181	0.011612297
196	0xbc937bee	-0.01800343
197	0x3e843117	0.25818703
198	0xbe94b144	-0.29041493
199	0xbf3fafb3	-0.7487747
200	0xbce617c9	-0.028087514
201	0x3d5b9d1b	0.053616624
202	0x3e01d2ac	0.12678021
203	0xbe17d080	-0.1482563
204	0xbdcaeb59	-0.0990817
205	0xbe8d130e	-0.275536
206	0xbc8bd2e1	-0.017068328
207	0xbd45c69d	-0.048285116
208	0x3d517942	0.05114103
209	0xbe2ec660	-0.17067862
210	0xbe22b792	-0.15890339
211	0x3c9843ca	0.018587012
212	0x3ccbae3d	0.024863357
213	0xbe2c0f9d	-0.16802831
214	0x3d9e0415	0.07715622
215	0xbdad1e5c	-0.08453056
216	0xbe16af97	-0.1471542
217	0x3e03f51e	0.12886474
218	0xbd7bc57a	-0.061467625
219	0xbd9d3fcd	-0.07678185
220	0x3e4cf7c2	0.20016387
221	0x3d7cd04e	0.061722092
222	0xbc966ae2	-0.018361513
223	0x3d27f1a2	0.041001923
224	0xbe025a17	-0.12729679
225	0xbc9caf5f	-0.019126592
226	0x3d00ed43	0.03147627
227	0xbd160cd8	-0.036633343
228	0xbd8f8969	-0.07008631
229	0xbd60c427	-0.054874565
230	0x3d8f8c90	0.07009232
231	0x3e2f9fa1	0.17150737
232	0x3cd42342	0.025895718
233	0x3e39d86d	0.18148966
234	0x3e3ca8de	0.18423793
235	0x3e42f5f7	0.1903914
236	0xbd2f83e6	-0.042850398
237	0xbe44931c	-0.19196743
238	0xbd8e7b16	-0.069570705
239	0x3dcae870	0.09907615
240	0x3d9c2e65	0.076260366
241	0x3c09cd95	0.008410831
242	0x3cad1468	0.021127895
243	0xbf07d215	-0.53054935
244	0x37e217ea	2.6952435e-05
245	0x3ccc0f56	0.024909656
246	0x3dcb4376	0.099249765
247	0x3e6b39fe	0.22971341
248	0x3d867856	0.06565921
249	0x3e484ae1	0.19559814
250	0x3e21454f	0.15749095
251	0x3dc8a16a	0.09796412
252	0xbdca61e5	-0.09881953
253	0xbd8327f1	-0.064041026
254	0x3c723c74	0.014784921
255	0xbd7f8b25	-0.062388558

bias f4 [160]
0	0x3e056897	0.13028179
1	0xbe200159	-0.15625514
2	0x3eb45b71	0.35226014
3	0x3f1acabb	0.6046559
4	0x3e51f802	0.20504764
5	0xbe99b5bc	-0.30021465
6	0x3c037a04	0.008024696
7	0xbe7938df	-0.24338101
8	0x3ebd5810	0.3698125
9	0x3e0a79b3	0.13522987
10	0xbeb86cc8	-0.36020494
11	0xbebdbd3e	-0.37058443
12	0xbdb10c5d	-0.08644936
13	0x3d9f3fd9	0.0777585
14	0xbdeea5b1	-0.11652697
15	0x3ef405c0	0.47660637
16	0xbd0ae621	-0.033910874
17	0x3e9ee2a6	0.31032294
18	0x3c85fac5	0.016354928
19	0x3f638748	0.888783
20	0x3ce110e4	0.027473874
21	0xbd967967	-0.073473744
22	0x3e47b195	0.19501336
23	0xbe1f5b59	-0.1556219
24	0xbf08c44c	-0.53424525
25	0xbf77b02f	-0.9675321
26	0x3ec6d6b4	0.3883568
27	0x3f236565	0.6382659
28	0x3efe9f24	0.4973079
29	0xbdbd294f	-0.092363946
30	0x3e741878	0.23837459
31	0xbda2bbb9	-0.079459615
32	0x3ec4ead0	0.38460398
33	0x3e811903	0.25214395
34	0x3c1ab097	0.009441516
35	0x3e300041	0.17187597
36	0xbf0aa466	-0.541571
37	0x3e5637c0	0.20919704
38	0x3e9e212e	0.3088469
39	0xbdb1e7c8	-0.08686787
40	0xbea212a7	-0.31654856
41	0x3e7062cb	0.23475187
42	0x3e39359f	0.18086861
43	0x3e8a6b73	0.27035102
44	0x3e7229ce	0.2364876
45	0x3e0814a3	0.13289122
46	0x3dd08f08	0.10183531
47	0x3fad99c6	1.3562553
48	0x3e069121	0.131413
49	0x3f0c9838	0.5491977
50	0x3dc53444	0.096291095
51	0xbe557736	-0.20846257
52	0x3f055d81	0.520958
53	0xbde9f937	-0.11424487
54	0x3dfa8f42	0.122343555
55	0xbf13ed6d	-0.5778416
56	0xbe129ec3	-0.14318375
57	0x3f829c00	1.0203857
58	0x3ec82c79	0.3909643
59	0x3f3737dd	0.71569616
60	0x3eb30041	0.3496113
61	0x3eb73f5c	0.35790527
62	0xbd4f60a3	-0.05062927
63	0x3f055b06	0.52092016
64	0xbef2b112	-0.4740072
65	0x3f73363c	0.9500463
66	0xbf2c69f5	-0.6734918
67	0xbdd5d498	-0.1044094
68	0x3fa39df0	1.2782574
69	0xbe5ed445	-0.21760662
70	0x3f12237e	0.57085407
71	0xbeb9c6ff	-0.36284634
72	0x3f448c0c	0.76776195
73	0x3ecd078e	0.40044826
74	0x3b0c337e	0.0021392996
75	0xbe7584f9	-0.23976506
76	0x3f7af125	0.9802421
77	0x3f40d510	0.7532511
78	0xbf7400ee	-0.9531392
79	0xbf0c0714	-0.546983
80	0x3e91edca	0.2850173
81	0x3f2c31d7	0.6726355
82	0xbeffd265	-0.49965206
83	0x3e31b505	0.1735421
84	0x3ec5370f	0.3851857
85	0xbdf031a2	-0.11728217
86	0x3dcc1c38	0.0996632
87	0x3ed8c26c	0.42335832
88	0x3f0e5218	0.55594015
89	0x3f9c697a	1.2219689
90	0x3ee56010	0.44799852
91	0x3e7b5acd	0.24546356
92	0xbbe7ed3d	-0.0070778416
93	0xbe6cbcdd	-0.2311892
94	0xbe71e796	-0.236235
95	0x3e48ac57	0.19596992
96	0x3d313331	0.04326171
97	0xbed19806	-0.40936297
98	0x3eb791a2	0.35853297
99	0xbd6c6094	-0.05770929
100	0x3f9e2927	1.2356309
101	0x3f872de8	1.0560884
102	0x3e98311f	0.29724976
103	0x3e627454	0.22114688
104	0x3ee8a3de	0.4543752
105	0xbcf4b16e	-0.029869761
106	0x3f86113c	1.047401
107	0x3cea8433	0.02862749
108	0xbe0d9305	-0.13825615
109	0x3e03423c	0.12818235
110	0x3d79395d	0.06084572
111	0x3f7b8438	0.98248625
112	0xbea825f3	-0.32841453
113	0x3f8eeb98	1.1165648
114	0xbec0c1a8	-0.37647748
115	0x3e1de097	0.15417705
116	0x3e63487c	0.2219562
117	0xbe92c690	-0.28667116
118	0x3eec12f2	0.46108204
119	0xbe96abc4	-0.29427922
120	0xbf3f3012	-0.74682724
121	0xbd4ec11e	-0.05047714
122	0x3cea2d96	0.02858619
123	0x3f1dc4d2	0.6162845
124	0x3f36a4ec	0.713454
125	0xbd50ee97	-0.051008787
126	0x3e9a23ad	0.30105343
127	0x3db0fbf6	0.08641808
128	0x3c716f93	0.014736074
129	0x3f2e0262	0.67972386
130	0x3ed8070c	0.42192876
131	0x3f45eb78	0.7731242
132	0xbe83a6e4	-0.25713265
133	0xbec9f842	-0.39447218
134	0xbf455937	-0.77089256
135	0x3f6015c0	0.8753319
136	0xbe28d23c	-0.16486448
137	0xbdb03935	-0.086046614
138	0x3f463652	0.77426636
139	0x3e209bf2	0.15684488
140	0x3e413f00	0.18871689
141	0x3e803126	0.25037497
142	0x3f4c3c2d	0.7977932
143	0x3f23972e	0.63902557
144	0xbf264dfa	-0.6496273
145	0x3f084cfd	0.53242475
146	0x3f8c6619	1.0968658
147	0xbe4bcd15	-0.19902451
148	0x3edd5253	0.4322687
149	0x3e05347a	0.130083
150	0x3f3cd165	0.7375701
151	0xbe7d057e	-0.24709126
152	0x3f9dba40	1.2322464
153	0x3eedde54	0.46458685
154	0x3f361e02	0.7113954
155	0xbe4b9f06	-0.19884881
156	0xbea0e4d6	-0.31424588
157	0x3eb407fc	0.35162342
158	0xbd4b9743	-0.0497048
159	0xbede0b5a	-0.43368036

weight f4 [80, 160]
0	0xbe2d8369	-0.1694466
1	0xbdfe9b67	-0.124319844
2	0x3e6ba760	0.23013067
3	0xbecdd8f8	-0.40204597
4	0xbd10d24d	-0.03535681
5	0xbeeecf8f	-0.4664273
6	0xbd6db704	-0.058035865
7	0xbe510d93	-0.20415334
8	0x3d5694db	0.052388053
9	0xbe67e67d	-0.22646518
10	0xbeb17421	-0.34658912
11	0xbf5ebb2c	-0.8700435
12	0xbe6db044	-0.23211771
13	0x3e5529c5	0.20816715
14	0x3e2477d1	0.16061331
15	0xbe1a58ed	-0.15072985
16	0x3d798359	0.06091628
17	0xbe369e45	-0.17833813
18	0x3e730cc4	0.23735338
19	0xbdefe3ad	-0.117133476
20	0x3d6d813f	0.057984587
21	0x3c1a9261	0.0094343135
22	0xbe930dba	-0.2872141
23	0x3e556307	0.20838557
24	0x3d54a395	0.051913816
25	0xbef6e71e	-0.48223203
26	0x3e64764e	0.22310755
27	0x3f0528eb	0.5201556
28	0x3e8053f5	0.25064054
29	0xbc051e9c	-0.008124974
30	0x3e670c88	0.22563374
31	0xbe87f60e	-0.26554912
32	0x3dfecb64	0.124411374
33	0xbd964ec5	-0.07339243
34	0xbe568070	-0.20947433
35	0xbd468f8c	-0.04847674
36	0xbefe447e	-0.4966163
37	0x3e4450f7	0.1917151
38	0xbe42bd42	-0.19017509
39	0x3c53d9a6	0.012930309
40	0xbdf98db4	-0.12185231
41	0xbd91911f	-0.07107758
42	0x3db633dc	0.0889661
43	0xbe198f53	-0.1499608
44	0xbd07bba5	-0.033137936
45	0xbe1a938e	-0.1509535
46	0x3d1ebed1	0.038756195
47	0xbca4d184	-0.020119436
48	0xbe4870a7	-0.19574223
49	0xbece3ee6	-0.40282363
50	0x3e15309f	0.14569329
51	0xbf19a958	-0.60024023
52	0xbc867516	-0.016413253
53	0x3e43eead	0.19134016
54	0xbe9cfe60	-0.30662823
55	0xbf4b12ad	-0.7932537
56	0xbe62b022	-0.22137502
57	0x3d0b5725	0.034018654
58	0x3bcc8856	0.0062418384
59	0xbe3f42bc	-0.18677801
60	0x3e8fcb67	0.2808487
61	0x3ce80748	0.028323784
62	0xbdc9c7af	-0.0985254
63	0x3db14136	0.08655016
64	0xbea485e5	-0.32133403
65	0x3d533a9d	0.05156957
66	0xbf316d4d	-0.69307405
67	0x3e0b6d69	0.13615955
68	0xbebfb097	-0.37439415
69	0xbf1fe181	-0.62453467
70	0x3da26b92	0.07930674
71	0x3e596a3c	0.21231931
72	0x3da482dd	0.08032773
73	0xbc654054	-0.013992388
74	0x3e0e29f5	0.13883193
75	0xbeceef4c	-0.40416944
76	0xbe595bd6	-0.21226439
77	0x3e7c9320	0.24665499
78	0xbf5f88ca	-0.873181
79	0xbf1176fd	-0.56822187
80	0x3e55130f	0.20808052
81	0xbe0a176f	-0.13485502
82	0xbf0a0813	-0.5391857
83	0xbdbbcdb8	-0.09170097
84	0x3e18055f	0.14845799
85	0xbeaf4e56	-0.34239453
86	0x3bf13c4b	0.007361924
87	0x3be7e41b	0.007076753
88	0x3ddeb050	0.10873473
89	0x3d10d8fa	0.035363175
90	0x3d22b99f	0.039727803
91	0xbdb97ba0	-0.09056783
92	0xbed732c9	-0.42030933
93	0xbf83ea7b	-1.0305933
94	0xbe8028ea	-0.25031215
95	0x3cf8f1b3	0.030388689
96	0xbef28538	-0.47367263
97	0xbe86a831	-0.26300195
98	0x3d219173	0.03944535
99	0xbf1ce48c	-0.61286235
100	0xbc874db0	-0.016516536
101	0x3c9da2e7	0.019242717
102	0xbeec407b	-0.46142945
103	0x3d48ef85	0.04905655
104	0xbce6ebab	-0.028188547
105	0x3e8cba3a	0.2748583
106	0x3d30504a	0.04304532
107	0xbde2ba12	-0.11070646
108	0xbd391bdf	-0.045192596
109	0x3dc7f54e	0.09763585
110	0x3dd9eaa8	0.1064046
111	0xbe30d683	-0.1726933
112	0xbd091e38	-0.033476084
113	0x3e21bf51	0.15795638
114	0xbe517dd3	-0.20458154
115	0x3e9e0cd4	0.30869162
116	0xbe5414fc	-0.2071113
117	0xbf472a32	-0.7779876
118	0xbc15cff9	-0.009143823
119	0x3dc0a4b8	0.094064176
120	0xbf774114	-0.96583676
121	0x3df03502	0.117288604
122	0xbef57c5f	-0.4794645
123	0xbd6cc66f	-0.05780643
124	0xbd3883c3	-0.045047533
125	0xbde078a1	-0.10960508
126	0x3eb6c17f	0.356945
127	0xbf2bd437	-0.6712069
128	0xbdd2be57	-0.10290211
129	0x3e155a90	0.14585328
130	0xbe64fce4	-0.22362095
131	0xbda8d2cd	-0.08243332
132	0xbd1e5532	-0.038655467
133	0xbeb882e3	-0.3603736
134	0xbe75a57d	-0.2398891
135	0xbe11d168	-0.14240038
136	0xbe8c9021	-0.27453712
137	0xbba7e27a	-0.0051234337
138	0xbf5dd742	-0.8665658
139	0xbbab823e	-0.005234032
140	0xbd6bba51	-0.057550732
141	0x3d7a744f	0.061146077
142	0xbd5439a9	-0.0518128
143	0x3df88d5d	0.12136338
144	0xbf0634c9	-0.52424294
145	0x3d4fbb32	0.050715633
146	0xbec9ce8c	-0.39415395
147	0xbe4ab7f0	-0.19796729
148	0xbc1e0d5e	-0.009646742
149	0xbe81c860	-0.25348186
150	0xbe124067	-0.1428238
151	0x3e84956a	0.25895244
152	0xbe14b535	-0.1452225
153	0x3d4bbc63	0.049740206
154	0xbde76b14	-0.112997204
155	0x3e78feec	0.24315995
156	0xbea8fa58	-0.33003497
157	0xbd5ff6cf	-0.054678734
158	0x3e4b3284	0.19843489
159	0xbe3e87e2	-0.18606523
160	0x3d769d3b	0.06020854
161	0x3e620812	0.22073391
162	0x3e9cbff4	0.306152
163	0x3d0e2e6a	0.034712233
164	0x3e3c567a	0.18392363
165	0x3daf0fb0	0.08547914
166	0xbdd5a44c	-0.10431728
167	0xbdb69d2e	-0.089166984
168	0xbe6f9a8a	-0.23398796
169	0x3d2892c8	0.041155607
170	0x3e32e094	0.17468482
171	0x3daacd44	0.083399326
172	0x3e45835b	0.1928839
173	0x3e86b97a	0.26313382
174	0xbe332751	-0.17495467
175	0x3d1f87fd	0.038948048
176	0xbdc906cf	-0.09815752
177	0xbc9ee918	-0.019398257
178	0x3d809938	0.06279224
179	0x3d6a19a9	0.057153378
180	0xbcda5248	-0.026650563
181	0x3e031845	0.12802227
182	0x3d55c29a	0.05218754
183	0x3e128abf	0.1431074
184	0xbe13685d	-0.1439528
185	0xbe5ce3e9	-0.21571316
186	0x3e44b107	0.19208156
187	0x3eef7b4a	0.4677375
188	0xbe081354	-0.13288623
189	0xbd47fe09	-0.04882625
190	0x3c79797a	0.015226716
191	0x3e29d97d	0.16586871
192	0xbda6cfcd	-0.081451036
193	0xbb9c9086	-0.0047779707
194	0x3ca356de	0.019938882
195	0x3e692555	0.22768147
196	0xbe2fe728	-0.17178023
197	0xbe3beed1	-0.1835282
198	0x3da25895	0.07927052
199	0xbe2dca15	-0.1697162
200	0x3f15dba7	0.5853829
201	0x3e4d058d	0.20021649
202	0x3d42af72	0.0475306
203	0x3e10a5af	0.14125703
204	0x3d9ed21c	0.07754919
205	0x3e599a59	0.21250285
206	0xbcbd2d90	-0.023093015
207	0x3e69f63a	0.22847834
208	0xbd165adc	-0.036707744
209	0x3ee49375	0.4464375
210	0xbd600b2f	-0.054698166
211	0xbcac92b7	-0.021066053
212	0xbdbf6b94	-0.09346691
213	0xbddecdb1	-0.10879076
214	0x3e51b13e	0.20477769
215	0x3ddfdb58	0.109305084
216	0xbe14a342	-0.14515403
217	0x3d3d9fdb	0.04629503
218	0xbe05b1f2	-0.13056162
219	0x3ed68dfe	0.41905206
220	0x3d93f2b0	0.07224023
221	0x3e9ce3e1	0.30642608
222	0xbe1d81dc	-0.15381569
223	0xbd61b2e6	-0.05510225
224	0xbd961dda	-0.073299125
225	0x3e7982ef	0.24366353
226	0x3e672d6f	0.22575925
227	0xbcecb3a2	-0.02889425
228	0x3e4b1f2c	0.1983611
229	0xbe7cc710	-0.24685311
230	0x3e603130	0.21893764
231	0x3e24c9a8	0.16092551
232	0xbe6867f7	-0.2269591
233	0x3dc05a8e	0.09392272
234	0x3cac63f3	0.021043753
235	0xbe0908a8	-0.13382208
236	0xbe23f1c0	-0.16010189
237	0xbca373d2	-0.019952688
238	0xbd1e4959	-0.03864417
239	0xbdd81ba3	-0.10552146
240	0xbeb8fd57	-0.36130783
241	0x3d683e88	0.05670026
242	0x3c034626	0.00801233
243	0xbe2b120e	-0.16706106
244	0xbe260773	-0.16213779
245	0x3c61f4ca	0.013791272
246	0xbd60d6f6	-0.054892503
247	0xbd881d16	-0.06646173
248	0xbc85e781	-0.016345741
249	0x3e869cc1	0.2629147
250	0x3d1ef136	0.038804255
251	0xbdbb21f9	-0.09137339
252	0x3dc9eaa1	0.09859205
253	0x3e6eb51b	0.23311274
254	0xbe71d340	-0.23615742
255	0x3d66ff8a	0.056396045

bias f4 [80]
0	0x3e944755	0.28960672
1	0x3e18bada	0.14915028
2	0x3d6865f8	0.05673787
3	0x3e5d3750	0.21603131
4	0x3ecfb400	0.40567017
5	0x3efe912c	0.49720132
6	0x3ee15363	0.44008932
7	0x3ec965bb	0.39335427
8	0x3e79f5ad	0.24410124
9	0xbc16cb97	-0.009203813
10	0x3f3f65e0	0.74764824
11	0xbe3bd3b8	-0.18342483
12	0x3ec92f9a	0.3929413
13	0x3ea61433	0.32437286
14	0x3d5964d8	0.053074688
15	0x3e5d95d7	0.2163919
16	0x3e43cca1	0.19121028
17	0x3e3e1814	0.18563873
18	0x3e88e830	0.26739645
19	0x3cf8258d	0.030291343
20	0x3f0f0ed0	0.5588198
21	0x3e6e3b09	0.23264708
22	0x3ee5143a	0.44741994
23	0x3eacb346	0.33730525
24	0x3e00b467	0.12568818
25	0x3e9468e3	0.28986272
26	0x3e504d4c	0.20341986
27	0x3df8c4b9	0.12146897
28	0x3df25252	0.118321076
29	0x3f080b7b	0.5314252
30	0x3e158d76	0.14604744
31	0x3e9567cf	0.29180762
32	0x3f86d12a	1.0532582
33	0x3f4feef5	0.81223994
34	0x3ce0923f	0.027413486
35	0x3e12bf3e	0.14330766
36	0x3ed44c32	0.41464382
37	0x3e35d93d	0.17758651
38	0x3ecf6368	0.40505528
39	0x3f53252a	0.8247858
40	0x3e7f3618	0.24922979
41	0x3d27748c	0.040882632
42	0x3f6312ca	0.88700545
43	0xbd514b4f	-0.05109721
44	0xbdc30b9c	-0.09523699
45	0x3f3c86ef	0.7364339
46	0x3f36dd9c	0.714319
47	0x3d8e1897	0.06938284
48	0x3ebe933b	0.37221703
49	0x3e8e7430	0.2782302
50	0x3e0fcbb3	0.14042549
51	0x3e6850fa	0.2268714
52	0x3f32910b	0.6975257
53	0x3e33b5ca	0.17549816
54	0x3e7ad2b3	0.24494438
55	0x3d999a76	0.07500164
56	0x3e3a9645	0.18221386
57	0x3e812cee	0.2522959
58	0x3ebdcbb9	0.3706949
59	0x3e4e2a04	0.20133215
60	0x3e05ac5f	0.13054036
61	0x3dd36b6a	0.10323222
62	0x3f544e7c	0.8293226
63	0x3d02c64b	0.03192739
64	0xbdbc1feb	-0.09185775
65	0x3e419b65	0.18906935
66	0x3e28fd7a	0.16502944
67	0x3eb10d06	0.3458025
68	0x3e13ba61	0.14426567
69	0x3e6f20c8	0.23352349
70	0x3e0c181f	0.13681076
71	0x3ee26d4e	0.44224018
72	0x3ed46dcd	0.4149002
73	0x3f5efafc	0.8710172
74	0x3e2d39c3	0.16916566
75	0x3eb594ac	0.3546499
76	0x3ebb3c90	0.36569643
77	0x3f2d3964	0.67665696
78	0xbd86eebc	-0.06588504
79	0x3e489c59	0.19590892

weight f4 [20, 80]
0	0x3e75183b	0.23935024
1	0x3d33a0ef	0.04385465
2	0x3dc68590	0.09693444
3	0x3eae409a	0.34033662
4	0x3e816f3e	0.25280184
5	0xbdb93da0	-0.09044957
6	0xbf1132d8	-0.56718206
7	0xbcb4cad1	-0.022069367
8	0xbe58ebc6	-0.2118369
9	0xbf61d5c5	-0.8821681
10	0xbf40e8a9	-0.7535501
11	0xbf9cc579	-1.2247764
12	0xbe8f0d49	-0.27939823
13	0x3f517d2e	0.81831634
14	0xbf90a226	-1.1299484
15	0x3eb9ba18	0.3627479
16	0x3d974530	0.07386243
17	0xbe4cccad	-0.19999953
18	0x3eab61c8	0.3347304
19	0xbd39b11d	-0.045334924
20	0x3f215ee8	0.6303544
21	0x3ddb0125	0.10693578
22	0x3e3d23c6	0.18470678
23	0x3cad86cb	0.021182438
24	0xbfa022b6	-1.2510593
25	0x3de132b8	0.10996002
26	0xbcdb337e	-0.026757952
27	0x3d80ffba	0.06298776
28	0xbec03bf5	-0.37545744
29	0x3b822093	0.0039711683
30	0xbfa47b5f	-1.285015
31	0x3e99045f	0.29886147
32	0xbf01fd1e	-0.5077685
33	0xbd03e22a	-0.03219811
34	0xbfe68643	-1.8009723
35	0x3e4d4918	0.20047414
36	0xbf7d9557	-0.99056
37	0xbd8a9cee	-0.06768213
38	0x3e109e21	0.14122821
39	0xbf2a4b8b	-0.6652152
40	0xbcfdae41	-0.03096688
41	0xbefc4057	-0.49267837
42	0x3f4cdcc3	0.80024356
43	0xbe820891	-0.2539716
44	0x3f12d51b	0.57356423
45	0x3f22c294	0.6357815
46	0x3f3316cd	0.69956666
47	0x3d67da0e	0.056604438
48	0x3c2fd3dc	0.010731664
49	0xbe19920b	-0.14997117
50	0xbed74e2e	-0.42051834
51	0xbd92aa9e	-0.07161449
52	0x3f3078e8	0.6893449
53	0x3e8beddd	0.27329913
54	0x3eb20d62	0.34775835
55	0x3c71a6f0	0.014749274
56	0x3f19e2a5	0.6011146
57	0xbd37d619	-0.044881914
58	0x3e881303	0.26577005
59	0x3e5081ba	0.20361987
60	0x3e5c3e9c	0.21508259
61	0xbe80fdbb	-0.2519358
62	0xbf442389	-0.7661672
63	0xbf221a54	-0.63321424
64	0xc0035799	-2.0522215
65	0xc04ac3a8	-3.168192
66	0x3ebb35cd	0.36564484
67	0xbdd42f63	-0.10360601
68	0x3ee3bcac	0.44479883
69	0xbbdee917	-0.006802689
70	0x3ea18ace	0.31551212
71	0x3e5a9b34	0.21348268
72	0x3d42863d	0.0474913
73	0xbf0f7943	-0.56044406
74	0xbe2b6b95	-0.16740258
75	0xbfeafe9b	-1.835895
76	0xbe44ac95	-0.1920646
77	0xbf8959a4	-1.0730481
78	0xbe19fcee	-0.15037891
79	0x3f3d4807	0.7393803
80	0xbe1a18dd	-0.15048547
81	0xbf4cf918	-0.80067587
82	0xbf02ba0d	-0.5106514
83	0xbeab1617	-0.3341529
84	0x3daeffd8	0.08544892
85	0x3cfcce6c	0.030860148
86	0xbff4c94b	-1.912393
87	0xbef498aa	-0.47772723
88	0xc0141505	-2.313783
89	0xbf6381da	-0.8887001
90	0xbff71fbc	-1.930656
91	0xbfbfb1df	-1.4976157
92	0xbf9c965e	-1.2233388
93	0xbea193b7	-0.3155801
94	0xbf7ff7cc	-0.99987483
95	0xbf858b24	-1.0433087
96	0xc00d3e3c	-2.2069235
97	0xbf8c48ed	-1.0959755
98	0xbefca75b	-0.49346432
99	0xbf9ea5b5	-1.239432
100	0xc0080715	-2.1254323
101	0xbe7fe123	-0.24988227
102	0x3d9e56cd	0.077314
103	0xc0134e95	-2.3016713
104	0xbf7629a4	-0.9615729
105	0xbf1d8d3e	-0.61543643
106	0xbf8114f4	-1.0084519
107	0xbf79730b	-0.97441167
108	0xbef2e03c	-0.47436702
109	0xbeb298c0	-0.34882164
110	0xbf856cac	-1.0423789
111	0xbf435e81	-0.76316077
112	0x3e90f5ce	0.28312534
113	0xbcba6a4f	-0.02275577
114	0xbf440290	-0.7656641
115	0xbee109d3	-0.43952808
116	0xc0073bf4	-2.1130342
117	0xbf2e7177	-0.68141884
118	0x3e115db5	0.14195903
119	0xbf8422fc	-1.0323176
120	0x3d08c295	0.033388693
121	0x3e752003	0.23937993
122	0xbfa917ee	-1.3210428
123	0xc003a78d	-2.0571015
124	0xbfd2b831	-1.6462461
125	0xbfeaa2da	-1.8330948
126	0xbffa9db0	-1.9579372
127	0xbe9089fe	-0.2823028
128	0xbf4ab569	-0.7918306
129	0xbdbfa497	-0.09357565
130	0xbf851b6c	-1.0398993
131	0xbe615342	-0.22004417
132	0xc001c265	-2.02749
133	0xbf026bec	-0.50945926
134	0xbf71fe73	-0.94528884
135	0xbf8ae894	-1.0852227
136	0xbe5bc499	-0.21461715
137	0xbf1fc78e	-0.6241387
138	0xbf1fd4d6	-0.62434137
139	0xbf434d51	-0.7628985
140	0xbf82e825	-1.0227095
141	0xbf24c73e	-0.6436652
142	0xbfb20e77	-1.3910664
143	0xbf703a1c	-0.9383867
144	0xbf377a78	-0.7167125
145	0xbf4b63a0	-0.7944889
146	0xc0037654	-2.0540972
147	0xbd5b7d81	-0.053586487
148	0xbfc61ff8	-1.5478506
149	0xbf7d41e8	-0.9892869
150	0xbf31c5d0	-0.6944246
151	0xbea338cf	-0.3187928
152	0xbfeaf28a	-1.8355267
153	0xbef048f3	-0.46930656
154	0xbec60ae1	-0.38680175
155	0xbf8e5e85	-1.1122595
156	0xbe87574c	-0.2643379
157	0xc01488a6	-2.3208404
158	0xbf6c0972	-0.9220191
159	0xbfa6a306	-1.3018501
160	0x3e92e410	0.28689623
161	0x3cd762ca	0.026292223
162	0xbb95d140	-0.0045720637
163	0x3e92f73c	0.2870425
164	0x3e4f3bfb	0.20237724
165	0xbdbc87b3	-0.0920557
166	0xbef4edb1	-0.47837594
167	0xbd25257a	-0.040318944
168	0xbe4cc7eb	-0.19998138
169	0xbf341ebe	-0.7035941
170	0xbf270692	-0.652444
171	0xbf8ccbda	-1.099971
172	0xbe6a7efa	-0.229
173	0x3f3f5f19	0.7475448
174	0xbf7dd295	-0.9914945
175	0x3e9f8a31	0.3116012
176	0x3d9e8a31	0.07741202
177	0xbe69d87f	-0.22836493
178	0x3e6c57d5	0.2308038
179	0xbd47c496	-0.048771463
180	0x3f0e5e24	0.556124
181	0x3d4e13ae	0.050311737
182	0x3e758efc	0.23980325
183	0x3d1b9611	0.03798491
184	0xbf8eae80	-1.1147003
185	0x3db6f14c	0.089327425
186	0xbd4fe463	-0.050754916
187	0x3d42b0cd	0.04753189
188	0xbeeed92a	-0.46650058
189	0x3b8c66c6	0.0042847125
190	0xbf8ec09a	-1.1152527
191	0x3e868e65	0.26280513
192	0xbeddcc29	-0.43319824
193	0xbd20e71e	-0.03928291
194	0xbfbd8e75	-1.48091
195	0x3e39ace5	0.1813236
196	0xbf591a74	-0.8480599
197	0xbcbfe843	-0.02342618
198	0x3dbc54ea	0.091958836
199	0xbf153cee	-0.58296096
200	0x3c647df4	0.013946045
201	0xbee86ac4	-0.45393956
202	0x3f37efb1	0.71850115
203	0xbe1aefe4	-0.15130574
204	0x3ee0d6c8	0.43913865
205	0x3f18fe27	0.59762806
206	0x3f16f55a	0.58968127
207	0xbd1626ce	-0.0366581
208	0x39fe55f6	0.000485107
209	0xbe5cb35d	-0.21552797
210	0xbec373c3	-0.38174257
211	0xbe3f273a	-0.18667307
212	0x3f0ea85c	0.55725646
213	0x3e8d377b	0.2758139
214	0x3e9a0a4a	0.30085975
215	0x3c442a31	0.01197295
216	0x3f0d65ad	0.5523327
217	0x3c8a4d15	0.016882459
218	0x3e5edd16	0.21764025
219	0x3e2fb262	0.17157891
220	0x3e150d0d	0.1455576
221	0xbeb5d6ab	-0.3551534
222	0xbf2881d1	-0.65823084
223	0xbef00dc0	-0.4688549
224	0xbfda6510	-1.7062092
225	0xc0347c70	-2.820095
226	0x3e9de902	0.30841833
227	0xbc25620c	-0.010094177
228	0x3ec1e1ea	0.3786767
229	0x3e151a4e	0.14560816
230	0x3e8b8a7f	0.27254102
231	0x3e8ae2fc	0.271263
232	0x3d019ef4	0.03164573
233	0xbefbfaa6	-0.49214667
234	0xbe07d5be	-0.1326513
235	0xbfcb8a43	-1.5901569
236	0xbe3e6100	-0.1859169
237	0xbf6e6524	-0.9312308
238	0xbe68c145	-0.22729976
239	0x3f45c34e	0.77251136
240	0xbe205cc6	-0.1566039
241	0xbf507d1a	-0.8144089
242	0xbf299bf7	-0.6625361
243	0xbf22acf7	-0.63545173
244	0xbe7c9dfa	-0.24669638
245	0xbeb76be7	-0.3582451
246	0xc009a395	-2.1506093
247	0xbf2add0f	-0.6674356
248	0xc0240326	-2.5626922
249	0xbf7211fb	-0.94558686
250	0xc01dc7d6	-2.465322
251	0xbf96f29d	-1.179279
252	0xbf8f30ad	-1.118673
253	0xbf1250ae	-0.5715436
254	0xbfa4e8d7	-1.2883557
255	0xbf6a2832	-0.91467583

bias f4 [20]
0	0x3f9ceb20	1.2259254
1	0x3fd78452	1.6837256
2	0x3f71e95a	0.9449669
3	0x3fc85d69	1.5653507
4	0xbf01a325	-0.50639564
5	0x3f5e6d09	0.86885124
6	0x3f6a1300	0.9143524
7	0x3f6e0daa	0.929896
8	0x3f66236d	0.89897805
9	0x400c8064	2.1953363
10	0x3f80f359	1.0074264
11	0x40613b46	3.5192428
12	0x3f6c8bd7	0.9240088
13	0x3f74ee8c	0.95676494
14	0x3f79a31f	0.9751453
15	0x3f847766	1.0348938
16	0x3ff786dc	1.9338031
17	0xbf1c726e	-0.61112106
18	0x3fffe50c	1.9991775
19	0x3f9091b1	1.1294461

weight f4 [1, 20]
0	0x428ed55c	71.41672
1	0xc0801c53	-4.0034575
2	0x428914f2	68.54091
3	0xc0893ae5	-4.2884393
4	0xbf9b0ef5	-1.211394
5	0x428a64be	69.19676
6	0x428b681a	69.70332
7	0x428d0f20	70.52954
8	0x4277e4a7	61.973293
9	0xc019e485	-2.4045727
10	0x428b61b0	69.690796
11	0xc04f58d4	-3.2397966
12	0x428a9d28	69.306946
13	0x428a072a	69.01399
14	0x4288c284	68.37991
15	0x428c93b5	70.28849
16	0xc08f3b9d	-4.476027
17	0xbf94eefd	-1.1635433
18	0xc09dc196	-4.929881
19	0x428b88c9	69.76716
