data/q_value_target_net_2_simple_spread_3550000_pH-MARL.pth (torch, 115005 bytes, 7 tensors)

weight f4 [160, 80]
0	0x3ec67d29	0.38767365
1	0x3db868d5	0.0900437
2	0xbd91fa43	-0.07127812
3	0xbd53425e	-0.051576965
4	0x3d0cffc5	0.03442361
5	0x3e3dddf8	0.18541706
6	0x3e71877a	0.23586836
7	0x3e51f00c	0.20501727
8	0x3dec8261	0.11548305
9	0xbe738fa8	-0.2378527
10	0x3d31c028	0.043396145
11	0x3e8151f3	0.25257835
12	0x3cc376c4	0.023860343
13	0xbd537f75	-0.051635224
14	0x3e023434	0.12715226
15	0xbdb407fd	-0.08790586
16	0x3c7b4fc8	0.015338846
17	0x3d3a8935	0.045541007
18	0x3ebbbec5	0.36668983
19	0x3e2144e9	0.15748943
20	0xbe75c069	-0.2399918
21	0x3de51469	0.111855336
22	0x3de17f9e	0.11010669
23	0x3e32a5a1	0.17445995
24	0x3e6e6f38	0.23284614
25	0x3dc0ad6a	0.09408076
26	0x3b504e5c	0.0031784987
27	0xbe0c0ef2	-0.13677576
28	0x3dea5d27	0.11443549
29	0x3e3c8455	0.18409856
30	0x3da28d11	0.079370625
31	0xbd01821d	-0.031618226
32	0x3e048a1e	0.12943313
33	0x3de073db	0.10959598
34	0xbbd48663	-0.0064857467
35	0x3d67dab4	0.056605056
36	0x3e8e9243	0.27845964
37	0x3e2ef721	0.1708646
38	0x3d850164	0.06494406
39	0x3eae2ec4	0.34020054
40	0x3d53e915	0.051735956
41	0x3c4c247f	0.012459873
42	0x3e88218e	0.265881
43	0xbdcfee69	-0.10152895
44	0x3f0049c1	0.5011254
45	0x3bf43ece	0.007453776
46	0x3e39f68b	0.18160455
47	0xbd18e5a7	-0.03732839
48	0xbdfcac2d	-0.123375274
49	0x3dac832e	0.08423458
50	0xbd15b5e2	-0.03655041
51	0xbdc51a7a	-0.09624191
52	0xbdf289be	-0.118426785
53	0xbe15ac0a	-0.14616409
54	0x3ea95535	0.3307282
55	0x3dd1e0cf	0.10247957
56	0xbec67ca8	-0.3876698
57	0x3d310a52	0.043222733
58	0x3e83dd11	0.25754598
59	0x3dad96d9	0.084760375
60	0x3e6d1dfc	0.2315597
61	0x3e3077ee	0.1723325
62	0x3d8f6ce5	0.07003192
63	0xbe925f13	-0.2858816
64	0x3eabb347	0.33535215
65	0x3e0791e3	0.13239245
66	0x3e118dd6	0.14214262
67	0x3d9754f9	0.07389254
68	0x3dc09ea2	0.09405257
69	0x3d229a2a	0.039697804
70	0x3e18c794	0.14919883
71	0x3de08a9e	0.10963939
72	0xbcc49975	-0.023998955
73	0xbd4dbfff	-0.05023193
74	0xbdf30e41	-0.11867953
75	0xbd98cc69	-0.07460863
76	0x3c34ceda	0.011035645
77	0x3e67a64d	0.22622032
78	0xbe69160e	-0.2276232
79	0xbca8197e	-0.020519968
80	0x3e89fb7a	0.26949674
81	0xbca217a2	-0.01978666
82	0x3f533fb4	0.8251908
83	0xbd2724a1	-0.040806416
84	0x40087b10	2.1325111
85	0xbeba4ae4	-0.36385262
86	0xbe5eb68f	-0.21749328
87	0x3c11f3e8	0.008908249
88	0xbe817bc6	-0.25289744
89	0x3d935e49	0.07195718
90	0xbfc2601c	-1.518558
91	0xbd0d7b85	-0.034541626
92	0xbe11e48c	-0.1424734
93	0x3d657e2f	0.05602854
94	0xbe8212d9	-0.25405005
95	0xbd0f9854	-0.03505738
96	0xbe3f07a1	-0.18655254
97	0x3e00f546	0.12593564
98	0x3ca08a56	0.019597214
99	0xbdac1602	-0.08402635
100	0xbcebc94c	-0.02878251
101	0xbc407acb	-0.011748026
102	0x3f3dba4c	0.7411239
103	0x3dad81ac	0.084719986
104	0x3e05280c	0.13003558
105	0xbe3a39dc	-0.18186134
106	0xbcdcd764	-0.026958175
107	0xbb7475c1	-0.0037301632
108	0xbf426503	-0.7593538
109	0xbdec72f9	-0.11545367
110	0x3e91f2ae	0.28505462
111	0xbc83c59b	-0.016085437
112	0xbdf0d12d	-0.11758647
113	0xbb7bac7d	-0.0038402372
114	0xbdbb3533	-0.09141006
115	0x3ddeaf1d	0.10873244
116	0x3db7329b	0.08945199
117	0x3afc4701	0.0019247235
118	0x3d62497f	0.055245873
119	0x3d44d01e	0.04805004
120	0x3f05d059	0.5227104
121	0xbdcc4cb4	-0.099755675
122	0xbc2908bd	-0.010317025
123	0x3e067785	0.1313153
124	0x3df3da56	0.11906879
125	0x3bbd8263	0.0057833656
126	0xbf547a34	-0.8299897
127	0xbe292887	-0.16519366
128	0x3e47b559	0.19502772
129	0xbc8e2e2d	-0.017356003
130	0xbc803cd7	-0.01565401
131	0x399ff415	0.000305087
132	0xbde129b7	-0.109942846
133	0x3d8aa98d	0.067706205
134	0xbe9aa346	-0.30202693
135	0x3ccd7600	0.02508068
136	0xbf6480f0	-0.89259243
137	0x3c2d1303	0.010563615
138	0x3fae8b91	1.3636342
139	0xbdfa2ba9	-0.12215359
140	0x3e993e72	0.29930454
141	0xbd344437	-0.044010367
142	0x3e3d5405	0.18489082
143	0xbd061a80	-0.032740116
144	0xbff35585	-1.9010473
145	0x3f4e9b1e	0.8070544
146	0x3e506c8c	0.20353907
147	0xbde4544d	-0.111488916
148	0x3e634126	0.22192821
149	0xbdbcab8e	-0.09212409
150	0x3dedb5f8	0.116069734
151	0xbdd76a9a	-0.105183795
152	0x3cab2cfd	0.020895476
153	0x3981c144	0.00024748791
154	0x3c65febb	0.014037783
155	0x3c78693c	0.015161809
156	0xbc74ac18	-0.0149336085
157	0xbbfb50d7	-0.007669549
158	0xbd88ecd1	-0.06685794
159	0xbc82dd91	-0.015974792
160	0xbe61c645	-0.2204829
161	0x3db6dc1a	0.089287
162	0x3c98f88a	0.0186732
163	0x3e0f7f52	0.14013413
164	0x3e964332	0.2934814
165	0xbe1f34a9	-0.15547432
166	0x3e41dabc	0.18931097
167	0xbd45729e	-0.04820501
168	0xbb4d8eb6	-0.003136558
169	0xbba45a22	-0.0050156275
170	0x3cc90a68	0.024541095
171	0x3db03892	0.0860454
172	0x3e44d0ff	0.1922035
173	0xbc403ca6	-0.01173321
174	0x3e1e9ae6	0.15488777
175	0xbc8c514b	-0.017128607
176	0x3df503d5	0.119636215
177	0xbce9e5a7	-0.02855189
178	0xbdbf7600	-0.093486786
179	0xbe5dad20	-0.21648073
180	0xbba5d636	-0.0050609363
181	0x3e63cf7f	0.22247122
182	0xbdea5bf9	-0.11443324
183	0x3c64ea6d	0.013971907
184	0xbedd567e	-0.4323005
185	0xbe71e5a7	-0.23622762
186	0xbcaac682	-0.020846609
187	0x3dba2fbd	0.090911366
188	0xbd30c2f0	-0.043154657
189	0x3dd5ac1d	0.10433219
190	0xbc5812a5	-0.013188039
191	0xbde3ac6f	-0.111168735
192	0x3e5907e9	0.21194424
193	0xbddb19de	-0.10698293
194	0x3e00b997	0.12570797
195	0xbd3141e3	-0.043275725
196	0x3d42a9b8	0.047525138
197	0x3e13b19a	0.14423218
198	0xbe1fabb2	-0.1559284
199	0x3ec79656	0.38981885
200	0xbdcf80f9	-0.101320215
201	0x3d967925	0.07347325
202	0x3cac0f52	0.021003399
203	0xbdf0326e	-0.11728369
204	0xbea1660d	-0.3152317
205	0xbc907024	-0.017631598
206	0xbd68f07e	-0.056869976
207	0x3d3c76c5	0.046011705
208	0xbde4bbbd	-0.11168621
209	0xbd9a1e10	-0.07525265
210	0xbe2c3c43	-0.16819863
211	0x3de9d804	0.11418155
212	0xbcf9d63a	-0.030497659
213	0xbdfd593d	-0.123705365
214	0x3d649a89	0.05581144
215	0xbe0960dd	-0.13415857
216	0xbdf2ca27	-0.11854964
217	0x3e666c2c	0.22502202
218	0xbda6f3cb	-0.081519686
219	0xbdd9ddf3	-0.106380366
220	0x3e2bdff9	0.16784658
221	0x3d2adbf3	0.041713666
222	0xbc4ceb72	-0.012507306
223	0x3dbc3f1a	0.09191723
224	0xbdd8ae2b	-0.10580095
225	0x3dc140ed	0.09436212
226	0xbda76744	-0.08173993
227	0x3c7cce3a	0.015430028
228	0xbc35175f	-0.011052935
229	0x376964a5	1.3911315e-05
230	0x3e0077c6	0.1254569
231	0x3e023c9e	0.12718436
232	0x3d9b8942	0.07594539
233	0xbdf6bfab	-0.120482765
234	0xbcb90ae0	-0.022588193
235	0xbc174e2a	-0.009234944
236	0xbdd6976a	-0.10478099
237	0x3c3300d8	0.010925494
238	0x3dad1dfb	0.08452984
239	0x3d984732	0.074354544
240	0xbd9f2ef8	-0.077726305
241	0x3ceb2daa	0.028708298
242	0xbd598725	-0.0531074
243	0xbf2b3074	-0.6687081
244	0x3e36fbe7	0.1786953
245	0x3e862bfb	0.2620543
246	0x3da97a29	0.08275253
247	0x3e5c3ccd	0.21507569
248	0x3d064c54	0.032787636
249	0x3e1a2e04	0.15056616
250	0x3e138f42	0.14410117
251	0x3e0b1b6f	0.13584684
252	0xbdc080bb	-0.093995534
253	0xbdbfa11b	-0.093569
254	0x3a5af784	0.0008352923
255	0xbd96d8f9	-0.07365603

bias f4 [160]
0	0xbe1af1f1	-0.15131356
1	0xbec60f1a	-0.38683397
2	0xbc813e6e	-0.01577684
3	0x3f15e023	0.5854513
4	0x3e5783bc	0.21046346
5	0xbe90194a	-0.28144294
6	0xbe1fdc08	-0.15611279
7	0xbe797c76	-0.24363884
8	0x3dd3f4c7	0.10349422
9	0xbbe1658e	-0.0068785613
10	0xbe7990ec	-0.2437169
11	0xbe7258fb	-0.23666756
12	0xbe32b992	-0.17453602
13	0x3df20ca1	0.11818815
14	0xbe0d311d	-0.13788266
15	0x3e82e7cd	0.25567475
16	0xbe03b483	-0.12861829
17	0x3eb1fa78	0.34761405
18	0xbdabbb7a	-0.08385368
19	0x3f39e756	0.72618616
20	0xbdeb1b7a	-0.1147985
21	0xbe7278b0	-0.23678851
22	0x3cd54705	0.026034841
23	0xbeae1fa7	-0.34008524
24	0xbe9c11b2	-0.3048225
25	0xbf84a6e1	-1.0363427
26	0x3e6fa4c8	0.23402703
27	0x3f1ae6bd	0.6050833
28	0x3eb012c0	0.34389305
29	0xbe29291e	-0.16519591
30	0x3d747283	0.05967952
31	0xbe2d8c03	-0.16947941
32	0x3e3753ab	0.1790301
33	0x3e5d6502	0.21620563
34	0x3dc01144	0.09378293
35	0xbdcee75a	-0.101027206
36	0xbeaa5758	-0.33269763
37	0x3d7905b1	0.060796443
38	0x3ee7eb31	0.45296624
39	0xbe0c595e	-0.13705966
40	0x3e470065	0.19433744
41	0x3e3d217a	0.18469802
42	0xbc046270	-0.00808011
43	0x3e125cad	0.14293166
44	0x3e05b627	0.13057767
45	0xbeb73049	-0.35779026
46	0xbc71aa74	-0.014750112
47	0x3faa2b05	1.3294379
48	0xbd676248	-0.056490213
49	0x3ef08d94	0.46983016
50	0x3e2a6fc2	0.16644195
51	0xbe71ee8a	-0.23626152
52	0x3efb71f3	0.49110374
53	0xbe68c328	-0.22730696
54	0xbe8ab2ff	-0.27089688
55	0xbebddba4	-0.37081635
56	0xbe16c060	-0.14721823
57	0x3f6073bc	0.87676597
58	0x3dbd3ce1	0.09240127
59	0x3f3b1e46	0.7309307
60	0x3e50dbee	0.20396397
61	0x3e3b5030	0.18292308
62	0xbe2fca1b	-0.17166941
63	0xbe382276	-0.17981896
64	0xbe85edc9	-0.26157978
65	0x3f2664b2	0.649974
66	0xbf1c051a	-0.60945284
67	0xbca3fef3	-0.02001903
68	0x3fa50c5a	1.2894394
69	0xbe6000f3	-0.21875362
70	0xbd3b3fa5	-0.045714993
71	0xbeebf294	-0.4608351
72	0x3f35bc5a	0.70990527
73	0x3d013eed	0.03155415
74	0xbe00864f	-0.12551235
75	0xbea8391e	-0.32856077
76	0x3f7518c7	0.9574093
77	0x3f362d1c	0.7116258
78	0xbf87ec4f	-1.0618991
79	0xbed6aedb	-0.4193028
80	0xbd4258eb	-0.04744808
81	0x3e97f957	0.2968242
82	0xbe980f26	-0.29699057
83	0x3ce4aeac	0.027915321
84	0x3e3f9472	0.18708971
85	0xbe99584e	-0.29950184
86	0xbe872ff5	-0.26403776
87	0x3e7e2682	0.24819377
88	0x3d9d05b4	0.076671034
89	0x3f9c79b6	1.2224643
90	0x3ea577f9	0.32318094
91	0xbd0c85f9	-0.034307454
92	0xbe2fec52	-0.17179993
93	0xbe687619	-0.227013
94	0xbe50835c	-0.2036261
95	0x3cd196bf	0.025584577
96	0xbe14cf73	-0.1453226
97	0xbe8d09f1	-0.27546647
98	0x3e25b2aa	0.16181436
99	0x3a951457	0.001137386
100	0x3f8d9515	1.1061121
101	0x3f6a431d	0.91508657
102	0xbde86553	-0.11347451
103	0x3e60091c	0.21878475
104	0x3ec35da6	0.38157386
105	0xbe0adae0	-0.13560057
106	0x3f44b520	0.76838875
107	0xbd6ebcb0	-0.058285415
108	0xbe2afe0e	-0.16698477
109	0x3c904ab8	0.017613754
110	0xbdfbee30	-0.1230129
111	0x3f66d099	0.90162045
112	0xbe9d1803	-0.30682382
113	0x3f7014f0	0.9378195
114	0xbeda33b6	-0.42617577
115	0xbd27cef6	-0.040968858
116	0xbd8d9270	-0.06912696
117	0xbe8bafb5	-0.2728249
118	0x3e97dc21	0.29660133
119	0xbed21551	-0.41031888
120	0xbf38beee	-0.72166336
121	0xbd57a662	-0.05264891
122	0xbe62534a	-0.22102085
123	0x3ee81ba4	0.45333588
124	0x3ea969c9	0.3308852
125	0xbdd7ba4f	-0.105335824
126	0xbd456ddc	-0.048200473
127	0xbe4dca73	-0.2009676
128	0xbcdd71d9	-0.027031826
129	0x3f042232	0.5161468
130	0x3eab5239	0.33461168
131	0x3f19ef30	0.60130596
132	0xbe95de3d	-0.29271117
133	0xbec51de7	-0.38499376
134	0xbf365a00	-0.7123108
135	0x3f8123d7	1.0089062
136	0xbe14c157	-0.14526878
137	0xbe79968d	-0.24373837
138	0x3f28629b	0.6577546
139	0xbdb6c33c	-0.08923957
140	0xbcb54cce	-0.02213135
141	0x3e730d5a	0.23735562
142	0x3e5d6643	0.21621041
143	0x3f2d9501	0.67805487
144	0xbf17164b	-0.5901839
145	0x3ec268ed	0.37970677
146	0x3f80bcec	1.0057654
147	0xbe9d56a5	-0.30730167
148	0x3e8126b9	0.25224856
149	0xbdf31e40	-0.11871004
150	0x3f343bc2	0.70403683
151	0xbdd651e2	-0.10464837
152	0x3f96f4ee	1.1793497
153	0x3deef574	0.1166791
154	0x3f336426	0.7007469
155	0xbe35f2e0	-0.1776843
156	0xbea57584	-0.3231622
157	0x3e129977	0.14316355
158	0x3d3750d9	0.044754837
159	0xbeba4600	-0.3638153

weight f4 [80, 160]
0	0x3dad0275	0.08447734
1	0x3de19ec4	0.1101661
2	0x3ea5128e	0.3224072
3	0xbeae3376	-0.34023637
4	0xbdcb7205	-0.09933857
5	0xbecbe8ed	-0.39826146
6	0x3e4ba55d	0.198873
7	0xbe78b257	-0.24286781
8	0x3d32162e	0.043478183
9	0xbe69919f	-0.22809456
10	0xbe71c4d6	-0.23610243
11	0xbf58471a	-0.8448349
12	0xbeefbdb2	-0.46824414
13	0x3e9c638b	0.30544695
14	0xbe2e18e5	-0.17001684
15	0x3d38b30a	0.04509262
16	0x3e11d96e	0.14243099
17	0xbe5e1d96	-0.21690974
18	0xbb9fc1ef	-0.0048754136
19	0xbdd42400	-0.10358429
20	0x3ebd1e03	0.3693696
21	0x3dab14f2	0.083536044
22	0xbe8b73c0	-0.27236748
23	0x3db989d4	0.09059492
24	0xbf023c47	-0.50873226
25	0xbefd0eab	-0.49425253
26	0x3eb3404e	0.35009998
27	0x3edfb42f	0.43692157
28	0x3e1e8125	0.15478952
29	0x3e5d3f36	0.21606144
30	0x3e45deb6	0.19323239
31	0xbfcbb8a4	-1.5915723
32	0xbe01216c	-0.12610406
33	0xbda51c24	-0.08062008
34	0xbd57e039	-0.05270407
35	0xbd71ecbd	-0.05906366
36	0xbf0b91e8	-0.5451951
37	0x3dd9be1d	0.10631964
38	0x3d9806bf	0.07423162
39	0x3e6eea3f	0.23331545
40	0xbcfd1337	-0.030892951
41	0x3e0a9ae6	0.13535652
42	0xbdb3f370	-0.087866664
43	0xbc32415d	-0.010879842
44	0xbe7f2551	-0.24916579
45	0xbc3b2c01	-0.011424066
46	0xbd6b69d1	-0.05747396
47	0xbd001cb2	-0.031277366
48	0x3bc82dbf	0.006108969
49	0xbead03a4	-0.3379184
50	0x3dbec336	0.09314577
51	0x3aadcca8	0.0013259845
52	0xbd6cb8cc	-0.057793424
53	0x3e18e32d	0.1493041
54	0xbe0b1c50	-0.13585019
55	0xbfcd6b42	-1.6048357
56	0xbfe4db57	-1.7879437
57	0xbd7ab1c4	-0.061204687
58	0xbcd4fd9b	-0.025999835
59	0xbe52cc1c	-0.20585674
60	0x3e54410f	0.20727943
61	0xbbb2e61f	-0.0054595615
62	0x3e3b152f	0.182698
63	0x3d38be02	0.04510308
64	0xbe5c75cb	-0.2152931
65	0x3d30acda	0.043133594
66	0xbeed459b	-0.46342167
67	0xbd09f27d	-0.03367852
68	0xbebe61dc	-0.37184036
69	0xbf4e0800	-0.8048096
70	0x3dc17b50	0.09447348
71	0x3e03f3fd	0.12886043
72	0x3da83c22	0.082145944
73	0x3c9215b6	0.017832618
74	0x3df1382d	0.11778293
75	0xbe8372d5	-0.25673547
76	0xbe1ebceb	-0.15501754
77	0x3e068cd0	0.13139653
78	0xbf3acc84	-0.72968316
79	0xbece505c	-0.40295684
80	0x3efba2d7	0.49147674
81	0xbd32ffc0	-0.043700933
82	0xbebf45a6	-0.37357825
83	0xbd762b39	-0.060099814
84	0x3d77ba4a	0.060480393
85	0x3d984f23	0.07436969
86	0xbd93df8b	-0.07220372
87	0xbd549c71	-0.051907007
88	0x3df92516	0.12165277
89	0x3dce9278	0.100865304
90	0xbd037232	-0.032091327
91	0x3eb9a06d	0.36255208
92	0xbdb6b904	-0.08922008
93	0xbf963c47	-1.1737145
94	0xbe5e9eb3	-0.21740226
95	0x3d6aa2d0	0.057284176
96	0xbf06bbb1	-0.52630144
97	0xbe61507c	-0.22003359
98	0x3c821920	0.015881121
99	0xbe7dd2be	-0.24787423
100	0xbc6f98ab	-0.014623801
101	0xbcf36d85	-0.029715309
102	0xc00b88b8	-2.1802197
103	0x3db848c9	0.08998258
104	0x3da82e7b	0.082119904
105	0x3e0c36ed	0.13692828
106	0x3ce613d1	0.028085621
107	0xbd9576a6	-0.07298021
108	0x3e0ce2ce	0.13758394
109	0x3d9811d2	0.07425274
110	0xbe32c9ed	-0.17459841
111	0xbe498bb3	-0.19682197
112	0xbc62c696	-0.013841292
113	0x3e466174	0.19373113
114	0xbd3cf960	-0.04613626
115	0x3e93f2bf	0.28896138
116	0xbd5421ab	-0.05178992
117	0xbf33722f	-0.70096105
118	0x3dc375b7	0.09543937
119	0x3df37459	0.11887426
120	0xbf4821d5	-0.78176624
121	0x3e6f28a9	0.23355354
122	0xbfe47477	-1.7848042
123	0x3c559cba	0.013037855
124	0xbd6eba3a	-0.05828307
125	0x3de96f00	0.11398125
126	0x3e57354a	0.21016422
127	0xbe299b1d	-0.16563077
128	0xbe419c09	-0.18907179
129	0x3e2ec496	0.17067179
130	0xbe3ed0fc	-0.18634409
131	0xbd8c1c05	-0.06841282
132	0x3e097cc6	0.13426504
133	0xbe7c681c	-0.2464909
134	0xbcc877c0	-0.024471164
135	0xbd981032	-0.07424964
136	0xbe147a03	-0.14499669
137	0xbd713628	-0.058889538
138	0xbf52c2fe	-0.82328784
139	0x3d8d66ef	0.06904399
140	0x3e27eed4	0.163997
141	0x3d6649fa	0.056222893
142	0xbd8781d0	-0.06616557
143	0x3e1c8e16	0.15288576
144	0xbf2148e6	-0.6300186
145	0xbdb593d9	-0.0886609
146	0xbed0efb8	-0.4080789
147	0x3e7fa55b	0.24965422
148	0xbe607be7	-0.21922265
149	0xbe0426f7	-0.12905489
150	0xbe06fd1e	-0.13182494
151	0x3dcf0891	0.10109056
152	0xbe25f082	-0.16205028
153	0x3b939f11	0.004505046
154	0x3d03e3da	0.032199718
155	0x3cde6f8c	0.0271528
156	0xbe9a8060	-0.30176067
157	0x3dd3d9a1	0.10344244
158	0x3e09a583	0.13442044
159	0x3b79416b	0.0038033377
160	0xbd41139c	-0.04713784
161	0x3e16b681	0.14718057
162	0x3ea4d47d	0.32193366
163	0x3d83bc97	0.06432455
164	0x3deb3e6e	0.11486517
165	0x3da796b0	0.08183038
166	0xbdfde61d	-0.12397406
167	0xbe06e9c7	-0.13175116
168	0xbe76f827	-0.241181
169	0x3dda0a28	0.106464684
170	0x3da73110	0.08163655
171	0xbc446a4d	-0.011988235
172	0x3dc60f21	0.09670854
173	0x3e368048	0.17822373
174	0xbe65ec62	-0.22453454
175	0x3d47629c	0.048678026
176	0xbd734f24	-0.059401646
177	0x3d653841	0.05596185
178	0x3e032fc2	0.12811187
179	0x3d2c0a0a	0.04200176
180	0xbcc088e8	-0.023502782
181	0x3d61cefc	0.055129036
182	0x3cb87716	0.022517722
183	0x3db9e81b	0.09077474
184	0xbe0f1093	-0.13971166
185	0xbe8ab2c7	-0.2708952
186	0x3e40be66	0.18822631
187	0x3ecb6371	0.39724305
188	0xbe1260c1	-0.14294721
189	0xbd879255	-0.066197075
190	0xbd4ddfc9	-0.050262246
191	0x3e4d21c1	0.20032407
192	0xbd6b7036	-0.05748006
193	0xbdaa63f7	-0.08319848
194	0x3c1404de	0.009034364
195	0x3e870c92	0.26376778
196	0xbe892d15	-0.26792207
197	0xbe333f74	-0.17504674
198	0x3d414e79	0.047193978
199	0xbe59f0b4	-0.21283227
200	0x3f06d975	0.52675563
201	0x3e535b95	0.20640405
202	0x3c42be5c	0.0118862055
203	0x3d623199	0.05522308
204	0x3c11735a	0.0088776
205	0x3e1fa79d	0.15591283
206	0xbe2e1800	-0.17001343
207	0x3e75f844	0.24020487
208	0xbe16d1be	-0.14728448
209	0x3ec0cfc9	0.37658527
210	0xbdc8799c	-0.0978882
211	0xbd4bee30	-0.0497877
212	0xbd20dfac	-0.03927581
213	0xbe084cc4	-0.13310534
214	0x3e46336b	0.19355552
215	0x3ce0a009	0.02742006
216	0xbe13768a	-0.14400688
217	0x3d87a66a	0.06623538
218	0xbd43632f	-0.04770201
219	0x3ebaf565	0.36515346
220	0x3deb5135	0.114900984
221	0x3eb0a3fa	0.34500104
222	0xbe0f00fe	-0.13965222
223	0x3bd71e40	0.0065648854
224	0xbe021fa1	-0.12707378
225	0x3e7c847b	0.24659912
226	0x3e0cf63d	0.13765807
227	0xbd5c78bd	-0.053826082
228	0x3e80c4ca	0.25150138
229	0xbddd7fe8	-0.10815412
230	0x3ea9eff6	0.33190888
231	0x3d8c6ee6	0.0685709
232	0xbe6e087b	-0.23245423
233	0xbd83de89	-0.064389296
234	0x3d1fd3d3	0.03902037
235	0xbe00cd44	-0.12578303
236	0xbe17a86d	-0.14810343
237	0xbd91f258	-0.071263015
238	0xbdb5d6fe	-0.08878897
239	0xbe5f9b66	-0.21836624
240	0xbec875c5	-0.3915235
241	0x3d826704	0.06367305
242	0x3e1406c5	0.14455707
243	0xbe6f7fc7	-0.23388587
244	0xbe2b5829	-0.16732849
245	0x3cdc5e9b	0.02690058
246	0xbd79732e	-0.06090086
247	0xbdc3cce8	-0.09560567
248	0xbd602d92	-0.05473096
249	0x3e8f5374	0.27993357
250	0x3d040364	0.032229796
251	0xbe3eeca7	-0.18644963
252	0x3d976d42	0.07393886
253	0x3e929fde	0.28637594
254	0xbde8be4b	-0.113644205
255	0x3c780c10	0.015139595

bias f4 [80]
0	0x3e7f41c1	0.24927427
1	0x3e361bef	0.17784093
2	0x3c7f5842	0.015585007
3	0x3e374b75	0.17899878
4	0x3ee6a071	0.45044282
5	0x3ed237e1	0.41058257
6	0x3eff19dc	0.49824417
7	0x3ed93d3c	0.4242953
8	0x3eb6d143	0.3570653
9	0x3d13eab0	0.036112487
10	0x3f4e9ae2	0.8070508
11	0xbe3df131	-0.18549038
12	0x3e81378e	0.25237697
13	0x3ee3e94b	0.44513926
14	0x3d1dab5f	0.03849351
15	0x3e67504a	0.22589222
16	0x3e801cbd	0.25021926
17	0x3de3c49b	0.11121484
18	0x3e383e35	0.1799248
19	0x3dc77184	0.09738448
20	0x3ee55bdc	0.44796646
21	0x3e22fca0	0.15916681
22	0x3ed00272	0.40626866
23	0x3e4b6c10	0.19865441
24	0x3b9edce8	0.0048481114
25	0x3e786baa	0.2425982
26	0x3e47502f	0.19464181
27	0x3e155ca0	0.14586115
28	0xbbd33151	-0.006445088
29	0x3f1ca4a9	0.6118875
30	0x3e85759c	0.2606629
31	0x3e91077a	0.28326017
32	0x3f8555d5	1.0416819
33	0x3f63c8f1	0.8897849
34	0x3d4a0d35	0.049329
35	0x3e466780	0.1937542
36	0x3ee78b87	0.45223638
37	0x3e3fdb2b	0.1873595
38	0x3ebb92d6	0.36635464
39	0x3f5e3462	0.8679868
40	0x3e729db2	0.23692968
41	0x3d78cec9	0.06074408
42	0x3f48c15f	0.7842006
43	0xbdeb6825	-0.11494473
44	0xbe004f1b	-0.12530176
45	0x3f20aad9	0.6276069
46	0x3f1f0037	0.621097
47	0x3d97c640	0.0741086
48	0x3efda680	0.49541092
49	0x3e954f0b	0.29161867
50	0x3e26e2af	0.1629741
51	0x3e05b060	0.13055563
52	0x3f17a6c9	0.5923887
53	0x3db4d238	0.088291585
54	0x3dec4335	0.11536256
55	0x3e401da9	0.18761314
56	0x3e01e10e	0.12683508
57	0x3e4a9afb	0.19785683
58	0x3eb926ac	0.36162317
59	0x3e078170	0.1323297
60	0x3e17265d	0.14760728
61	0x3ba5fa14	0.005065212
62	0x3f67f65b	0.90610284
63	0xbd028204	-0.031862274
64	0xbdd00c38	-0.101585805
65	0x3d5eb7c4	0.05437447
66	0x3daf4fff	0.0856018
67	0x3ebf0306	0.37306994
68	0x3d3b9b08	0.045802146
69	0x3e75a475	0.23988517
70	0x3d7bff5f	0.061522838
71	0x3ef7017c	0.4824332
72	0x3e9b9efb	0.3039473
73	0x3f5e8928	0.86928034
74	0x3df1c643	0.118053935
75	0x3eeb6757	0.4597728
76	0x3f0c63a7	0.5483956
77	0x3f49cfbc	0.788326
78	0xbe857844	-0.26068318
79	0x3e0d2968	0.13785326

weight f4 [20, 80]
0	0x3d2c355d	0.04204308
1	0x3d64a7f8	0.05582425
2	0x3dfe2b1b	0.124105655
3	0x3eb265f6	0.34843415
4	0x3e69b074	0.22821218
5	0xbe080787	-0.13284121
6	0xbf0ef91a	-0.5584885
7	0xbabe02ff	-0.0014496743
8	0xbe31f85f	-0.17379902
9	0xbe3cc9b5	-0.1843632
10	0xbf3dad30	-0.7409239
11	0xbf83839a	-1.0274537
12	0xbdbd3590	-0.09238732
13	0x3f2700b9	0.6523548
14	0xbf287516	-0.6580366
15	0x3dfbdac2	0.12297584
16	0xbcd9c1a5	-0.026581595
17	0x3dfeec3b	0.12447401
18	0x3ead6d07	0.33872244
19	0xbd06c227	-0.0329
20	0x3f20c6b9	0.62803227
21	0x3df9124f	0.12161695
22	0x3e2ada1a	0.16684762
23	0xbc87dcdb	-0.016584804
24	0xbfc42eb8	-1.5326757
25	0x3eda9638	0.42692733
26	0xbccc45ec	-0.024935685
27	0x3da823eb	0.08209976
28	0xbf3def46	-0.7419323
29	0x3d0d2b40	0.034465075
30	0xbfa318c9	-1.2741939
31	0x3e923195	0.28553453
32	0xbeffaf93	-0.4993864
33	0xbaf5d896	-0.0018756564
34	0xbfab9bdd	-1.3406941
35	0x3e413be0	0.18870497
36	0xbf788efa	-0.97093165
37	0x3d573dcb	0.052549165
38	0x3ee9ad8e	0.45640224
39	0xbf2ec4a9	-0.6826883
40	0x3f0a00b0	0.539073
41	0xbdf901a6	-0.121585175
42	0x3f4afb90	0.79290104
43	0xbebcf882	-0.36908346
44	0x3ee53040	0.44763374
45	0x3f22919f	0.6350345
46	0x3f2fece9	0.6872087
47	0xbe5402cb	-0.2070419
48	0x3d35a570	0.044347227
49	0xbe046efe	-0.12932965
50	0xbec4d0f9	-0.38440683
51	0xbf2ac44f	-0.66705793
52	0x3f3031b2	0.6882583
53	0x3e8b82d2	0.27248245
54	0x3eb32555	0.3498942
55	0x3ca00830	0.019535154
56	0x3eac416c	0.33643663
57	0x3e86a8c5	0.26300636
58	0x3e8e7e9a	0.27830964
59	0x3e3dc8b3	0.18533592
60	0xbdca0f90	-0.098662496
61	0xbd9b75fb	-0.07590862
62	0xbf478c18	-0.7794814
63	0x3adbe4c9	0.0016776557
64	0xbf9cf9c1	-1.2263719
65	0xc012efa7	-2.2958772
66	0x3ebaa30c	0.3645252
67	0x3d9f5f6e	0.07781874
68	0x3edea552	0.43485504
69	0x3d879a2a	0.06621201
70	0x3e9aea2c	0.30256784
71	0xbc4ebce4	-0.012618277
72	0xbaddb938	-0.0016916161
73	0xbf0f1c73	-0.55902785
74	0xbf65d6be	-0.89780796
75	0xbfe7ccc1	-1.8109361
76	0xbe72fbbb	-0.2372884
77	0xbf88bc58	-1.0682478
78	0xbe4ec716	-0.20193133
79	0x3f3d9471	0.7405463
80	0xbe1a18dd	-0.15048547
81	0xbf4cf918	-0.80067587
82	0xbf02ba0d	-0.5106514
83	0xbeab1617	-0.3341529
84	0x3daeffd8	0.08544892
85	0x3cfcce6c	0.030860148
86	0xbff4c94b	-1.912393
87	0xbef498aa	-0.47772723
88	0xc0141505	-2.313783
89	0xbf6381da	-0.8887001
90	0xbff71fbc	-1.930656
91	0xbfbfb1df	-1.4976157
92	0xbf9c965e	-1.2233388
93	0xbea193b7	-0.3155801
94	0xbf7ff7cc	-0.99987483
95	0xbf858b24	-1.0433087
96	0xc00d3e3c	-2.2069235
97	0xbf8c48ed	-1.0959755
98	0xbefca75b	-0.49346432
99	0xbf9ea5b5	-1.239432
100	0xc0080715	-2.1254323
101	0xbe7fe123	-0.24988227
102	0x3d9e56cd	0.077314
103	0xc0134e95	-2.3016713
104	0xbf7629a4	-0.9615729
105	0xbf1d8d3e	-0.61543643
106	0xbf8114f4	-1.0084519
107	0xbf79730b	-0.97441167
108	0xbef2e03c	-0.47436702
109	0xbeb298c0	-0.34882164
110	0xbf856cac	-1.0423789
111	0xbf435e81	-0.76316077
112	0x3e90f5ce	0.28312534
113	0xbcba6a4f	-0.02275577
114	0xbf440290	-0.7656641
115	0xbee109d3	-0.43952808
116	0xc0073bf4	-2.1130342
117	0xbf2e7177	-0.68141884
118	0x3e115db5	0.14195903
119	0xbf8422fc	-1.0323176
120	0x3d08c295	0.033388693
121	0x3e752003	0.23937993
122	0xbfa917ee	-1.3210428
123	0xc003a78d	-2.0571015
124	0xbfd2b831	-1.6462461
125	0xbfeaa2da	-1.8330948
126	0xbffa9db0	-1.9579372
127	0xbe9089fe	-0.2823028
128	0xbf4ab569	-0.7918306
129	0xbdbfa497	-0.09357565
130	0xbf851b6c	-1.0398993
131	0xbe615342	-0.22004417
132	0xc001c265	-2.02749
133	0xbf026bec	-0.50945926
134	0xbf71fe73	-0.94528884
135	0xbf8ae894	-1.0852227
136	0xbe5bc499	-0.21461715
137	0xbf1fc78e	-0.6241387
138	0xbf1fd4d6	-0.62434137
139	0xbf434d51	-0.7628985
140	0xbf82e825	-1.0227095
141	0xbf24c73e	-0.6436652
142	0xbfb20e77	-1.3910664
143	0xbf703a1c	-0.9383867
144	0xbf377a78	-0.7167125
145	0xbf4b63a0	-0.7944889
146	0xc0037654	-2.0540972
147	0xbd5b7d81	-0.053586487
148	0xbfc61ff8	-1.5478506
149	0xbf7d41e8	-0.9892869
150	0xbf31c5d0	-0.6944246
151	0xbea338cf	-0.3187928
152	0xbfeaf28a	-1.8355267
153	0xbef048f3	-0.46930656
154	0xbec60ae1	-0.38680175
155	0xbf8e5e85	-1.1122595
156	0xbe87574c	-0.2643379
157	0xc01488a6	-2.3208404
158	0xbf6c0972	-0.9220191
159	0xbfa6a306	-1.3018501
160	0x3c936b22	0.01799542
161	0x3d571bc2	0.052516706
162	0x3d9ecf68	0.07754403
163	0x3e9c6dd6	0.30552548
164	0x3e48720d	0.19574757
165	0x3ceef1a4	0.029167958
166	0xbeff7320	-0.4989252
167	0x3c4b39d5	0.012403925
168	0xbdfbf97c	-0.12303445
169	0xbdd3b57c	-0.1033735
170	0xbf24e70a	-0.6441504
171	0xbf5945cc	-0.84872127
172	0xbd3cde41	-0.046110395
173	0x3f0c10a1	0.54712874
174	0xbf10e0eb	-0.565932
175	0x3db64491	0.08899797
176	0xbcdc77ab	-0.02691253
177	0x3e93be2f	0.28856036
178	0x3e83cb27	0.2574093
179	0xbc7e434e	-0.015518976
180	0x3f0b2b75	0.54363185
181	0x3d6ca18d	0.057771254
182	0x3e1315a2	0.14363721
183	0xbcff9508	-0.031198993
184	0xbfa5d2a1	-1.2954904
185	0x3eac717c	0.33680332
186	0xbc92a1b0	-0.017899364
187	0x3d91821b	0.07104894
188	0xbf2eb9f5	-0.682525
189	0x3cc20c87	0.023687614
190	0xbf8d0ea4	-1.1020093
191	0x3e85551d	0.260415
192	0xbedf5302	-0.43618017
193	0x3b16c42e	0.0023005116
194	0xbf821356	-1.0162151
195	0x3e2081c4	0.15674502
196	0xbf54b4fe	-0.8308867
197	0x3c9a055f	0.01880139
198	0x3eae891c	0.3408898
199	0xbf191d03	-0.59809893
200	0x3f043fe8	0.51660013
201	0xbdb6a830	-0.08918798
202	0x3f3365b6	0.70077074
203	0xbe91e159	-0.2849224
204	0x3ea566c9	0.3230498
205	0x3f171bcc	0.5902679
206	0x3f1335d0	0.57503986
207	0xbe201b76	-0.15635476
208	0x3d220638	0.039556712
209	0xbe298a05	-0.16556557
210	0xbe81f124	-0.25379288
211	0xbf05eda6	-0.5231575
212	0x3f0e4cc4	0.55585885
213	0x3e8e2b8a	0.27767593
214	0x3e981f74	0.29711497
215	0x3d06afc7	0.032882478
216	0x3eaf7709	0.34270504
217	0x3e81affc	0.25329578
218	0x3e742b98	0.23844755
219	0x3e20020d	0.15625782
220	0xbd71734f	-0.058947857
221	0x3d90221b	0.07037755
222	0xbf2b270b	-0.6685645
223	0x3ded876a	0.11598094
224	0xbf762af9	-0.9615932
225	0xbfeda966	-1.8567321
226	0x3e995d0b	0.299538
227	0x3d8393f5	0.06424705
228	0x3ec0ac25	0.37631336
229	0x3d324449	0.043522153
230	0x3e8bf19a	0.27332765
231	0xbc1aea79	-0.009455317
232	0x3cd1e723	0.02562291
233	0xbefcb898	-0.49359584
234	0xbf310606	-0.69149816
235	0xbfc7bfac	-1.5605369
236	0xbd996d60	-0.07491565
237	0xbf6a1756	-0.9144186
238	0xbe42306e	-0.18963787
239	0x3f45a7d1	0.7720919
240	0xbe205cc6	-0.1566039
241	0xbf507d1a	-0.8144089
242	0xbf299bf7	-0.6625361
243	0xbf22acf7	-0.63545173
244	0xbe7c9dfa	-0.24669638
245	0xbeb76be7	-0.3582451
246	0xc009a395	-2.1506093
247	0xbf2add0f	-0.6674356
248	0xc0240326	-2.5626922
249	0xbf7211fb	-0.94558686
250	0xc01dc7d6	-2.465322
251	0xbf96f29d	-1.179279
252	0xbf8f30ad	-1.118673
253	0xbf1250ae	-0.5715436
254	0xbfa4e8d7	-1.2883557
255	0xbf6a2832	-0.91467583

bias f4 [20]
0	0x3f95b1a4	1.1694837
1	0x3fd78452	1.6837256
2	0x3f668684	0.90049005
3	0x3fc85d69	1.5653507
4	0xbf012641	-0.50448996
5	0x3f53b135	0.8269227
6	0x3f80287c	1.0012355
7	0x3f7b95b6	0.98275316
8	0x3f6c482a	0.92297614
9	0x400c8064	2.1953363
10	0x3f785c2e	0.97015655
11	0x405c40d5	3.441457
12	0x3f6403b0	0.89068127
13	0x3f6c553c	0.9231756
14	0x3f5f3f24	0.8720572
15	0x3f817dba	1.0116494
16	0x3ff786dc	1.9338031
17	0xbf1ce1fa	-0.6128231
18	0x3fffe50c	1.9991775
19	0x3f8b8277	1.089919

weight f4 [1, 20]
0	0x42aea60d	87.32432
1	0xc0801c53	-4.0034575
2	0x42a81360	84.03784
3	0xc0893ae5	-4.2884393
4	0xbf9b5b6f	-1.2137278
5	0x42aac8f0	85.392456
6	0x42a6aa2d	83.332375
7	0x42b82c35	92.08634
8	0x4280eead	64.46616
9	0xc019e485	-2.4045727
10	0x42ade23c	86.941864
11	0xc08455b0	-4.13546
12	0x42ab6cba	85.71236
13	0x42acf86f	86.48522
14	0x42a4442b	82.13314
15	0x42b2ee3e	89.46532
16	0xc08f3b9d	-4.476027
17	0xbf94d4e4	-1.1627469
18	0xc09dc196	-4.929881
19	0x42ae8d90	87.27649
