data/q_value_target_net_1_food_collection_3990000_GSA.pth (torch, 138025 bytes, 7 tensors)

weight f4 [176, 88]
-0.39724365 -0.2308444 -1.0720267 -1.0069339 0.2625782 0.2905822 0.18676475 0.21505725
0.25567672 0.15032503 0.25901914 0.25507107 0.22244905 0.1918886 0.2520235 0.38603482
0.4123954 0.19103342 0.36709064 0.374477 0.044193514 0.07469413 0.410784 0.3435151
-0.0906764 0.042723853 -0.022352213 0.058639556 -0.05049574 0.00059463416 0.054434016 0.0025108857
0.033096366 0.031733755 -0.40229356 -0.23968017 -0.085831024 0.016771937 0.03882407 0.047158245
-0.058336113 0.065390155 0.37486973 0.33359325 0.023613818 -0.13143456 0.10202069 -0.053672805
-0.12004692 0.04563283 0.09132737 0.054554816 -0.096248835 0.02112702 -0.38860047 -0.22553033
0.015541697 0.049126524 0.015697902 0.123917595 0.1970606 0.07294929 0.9753259 0.8380651
-0.12153273 -0.05773458 -0.16472797 -0.0794615 -0.11141443 -0.06797015 -0.18919511 -0.13368267
-0.084893554 -0.16999637 -0.4028337 -0.43737483 -0.08114029 0.08186275 -0.18599832 -0.11975063
-0.17898011 -0.15439045 0.04821937 0.062170606 0.045690384 0.040220708 0.1391368 0.11283444
0.72362286 0.82068926 -0.05786117 0.28385884 0.20039567 0.19344778 0.026166085 -0.0027255304
0.21813561 0.056000434 0.19800942 0.03111491 0.21428353 0.042901907 -0.052632116 -0.17766084
-0.14680982 -0.0685851 0.43040457 0.5058426 0.59386754 1.111721 -0.11270609 0.23868705
0.19992143 -0.0026866246 0.24526893 -0.002115781 0.17110865 -0.03516403 0.11507742 -0.04826735
0.08138547 -0.005687916 0.016350072 0.0020208794 -0.06068137 0.09552385 0.4244244 0.4255119
0.7685647 0.8810967 0.16281779 0.028879218 -0.008493932 0.077097826 0.07092195 0.16178666
0.04514472 0.08937511 -0.02010673 0.12241854 -0.03549631 0.13084914 -0.037840944 0.15076947
0.09785148 0.027081586 0.4957841 0.38745362 1.4750127 1.7967392 1.3486778 1.4226415
-0.25846085 -0.25359318 -0.17664553 -0.15177393 -0.17787328 -0.19075087 -0.15629287 -0.034757406
-0.2255275 -0.122989304 -0.5788437 -0.45542306 -0.45218873 -0.3480309 -0.60941607 -0.24901162
-0.021237954 0.030121533 -0.016864698 0.023045925 0.011195867 0.016423572 0.18070187 0.18322569
0.0047589852 0.045315288 1.0377737 1.0480895 -0.13121717 -0.1500672 -0.2586222 -0.046916444
-0.2549603 -0.050349053 -0.6078115 -0.5360942 -0.17248763 0.009795174 -0.14077678 -0.16426313
-0.09639777 -0.12698638 -0.28063983 -0.3805861 -0.23672973 -0.20010258 0.09953969 0.1882038
0.111403465 0.051095907 0.016976858 0.016437508 0.09439599 0.08656405 -0.37226567 -0.46948707
0.13919026 0.11786899 0.22105932 0.23840937 -0.073585264 0.08605227 0.057902932 -0.054060403
-0.20733699 -0.29413742 0.10071468 0.15143858 0.07045418 0.13063064 -0.004711994 0.11490434
0.053063575 0.001525401 -0.45494947 -0.3253282 0.039405175 0.10167392 0.058280777 0.13998915
-0.052368492 -0.07597586 0.075678654 -0.04601861 -0.23142174 -0.1451875 0.13035853 0.08506513
-0.05189003 0.023675788 0.14663644 -0.056816705 0.0719847 -0.0779727 -0.4940052 -0.4737711
0.07054715 -0.06760965 0.22023222 0.20847681 -0.0018507361 -0.065309756 -0.07640824 0.20564787
00000000: 8563 cbbe 7962 6cbe 2c38 89bf 36e3 80bf
00000010: a670 863e 31c7 943e 423f 3f3e f837 5c3e
00000020: 0fe8 823e ceee 193e 289e 843e ad98 823e
00000030: afc9 633e 727e 443e 3909 813e 5ba6 c53e
00000040: 7d25 d33e 449e 433e 4ef3 bb3e 73bb bf3e
00000050: 4204 353d 3cf9 983d 4852 d23e 36e1 af3e
00000060: 8cb4 b9bd 35ff 2e3d fd1b b7bc 0830 703d
00000070: 9fd4 4ebd 39e1 1b3a 34f6 5e3d ac8d 243b
00000080: 0e90 073d 41fb 013d 6cf9 cdbe b86e 75be
00000090: 2dc8 afbd 4d65 893c fd05 1f3d 0129 413d
000000a0: d9f1 6ebd 46eb 853d edee bf3e bccc aa3e
000000b0: c471 c13c c896 06be 39f0 d03d 04d8 5bbd
000000c0: 29db f5bd 7ee9 3a3d d809 bb3d df74 5f3d
000000d0: 1c1e c5bd 9212 ad3c a4f6 c6be 6cf1 66be
000000e0: 9aa2 7e3c e538 493d e398 803c 82c8 fd3d
000000f0: 41ca 493e 7066 953d f5ae 793f 6f8b 563f
00000100: 27e6 f8bd 187b 6cbd 73ae 28be b6bc a2bd
00000110: 402d e4bd ef33 8bbd 5dbc 41be 1ce4 08be
00000120: acdc adbd 8713 2ebe 3840 cebe 98ef dfbe
00000130: e12c a6bd a8a7 a73d 5876 3ebe d13f f5bd
00000140: 9046 37be 8818 1ebe ad81 453d 9ba6 7e3d
00000150: d725 3b3d 78be 243d e179 0e3e be15 e73d
00000160: 593f 393f b118 523f d6ff 6cbd f255 913e
00000170: 8634 4d3e 2d17 463e 425a d63c d09e 32bb
00000180: f15e 5f3e b660 653d fbc2 4a3e b2e4 fe3c
00000190: 246d 5b3e e9b9 2f3d c694 57bd b9ec 35be
000001a0: 5055 16be 5876 8cbd fd5d dc3e e77e 013f
000001b0: b407 183f e04c 8e3f 73d2 e6bd 616a 743e
000001c0: 34b8 4c3e 1512 30bb c727 7b3e eaa8 0abb
000001d0: 1b37 2f3e 2808 10bd b6ad eb3d fcb3 45bd
000001e0: 6dad a63d b361 babb 96f0 853c bb70 043b
000001f0: 078d 78bd 02a2 c33d 284e d93e b2dc d93e
00000200: a8c0 443f 8e8f 613f b5b9 263e 1c94 ec3c
00000210: 222a 0bbc 77e5 9d3d 873f 913d 67ab 253e
00000220: abe9 383d 4c0a b73d deb6 a4bc 92b6 fa3d
00000230: 9464 11bd 51fd 053e 1bff 1abd 5063 1a3e
00000240: 5b66 c83d 34da dd3c 6ad7 fd3e 5260 c63e
00000250: 37cd bc3f 8dfb e53f 79a1 ac3f 1e19 b63f
00000260: fb54 84be f7d6 81be 91e2 34be a06a 1bbe
00000270: 6a24 36be 3254 43be 3d0b 20be c85d 0ebd
00000280: aef0 66be d1e1 fbbd 1a2f 14bf 362d e9be
00000290: 4885 e7be 1b31 b2be b102 1cbf e7fc 7ebe
000002a0: 38fb adbc 6fc1 f63c d627 8abc cfca bc3c
000002b0: df6e 373c ba8a 863c e909 393e 849f 3b3e
000002c0: 43f1 9b3b 869c 393d c5d5 843f cc27 863f
000002d0: cb5d 06be 37ab 19be 216a 84be 752b 40bd
000002e0: 288a 82be cf3a 4ebd 8999 1bbf 783d 09bf
000002f0: 99a0 30be f07b 203c ca27 10be 9834 28be
00000300: 326c c5bd b808 02be 06b0 8fbe 2edc c2be
00000310: 4769 72be b1e7 4cbe 77db cb3d 7fb8 403e
00000320: 8027 e43d f149 513d 0d13 8b3c f4a7 863c
00000330: af52 c13d 7e48 b13d 9b99 bebe 9c60 f0be
00000340: e487 0e3e 4c65 f13d 605d 623e 9621 743e
00000350: dfb3 96bd 2c3c b03d a02b 6d3d 716e 5dbd
00000360: 2650 54be 2e99 96be 8043 ce3d b712 1b3e
00000370: 484a 903d 0ac4 053e 1267 9abb f752 eb3d
00000380: 3159 593d f7ef c73a 23ef e8be 6b91 a6be
00000390: 5267 213d 6b3a d03d d3b7 6e3d 5159 0f3e
000003a0: 5880 56bd 3b99 9bbd 69fd 9a3d 037e 3cbd
000003b0: d2f9 6cbe 08ac 14be b57c 053e a036 ae3d
000003c0: a48a 54bd baf3 c13c dd27 163e a2b8 68bd
000003d0: b76c 933d 27b0 9fbd 40ee fcbe 2092 f2be
000003e0: 067b 903d ee76 8abd 8e84 613e f27a 553e
000003f0: 6694 f2ba 1fc1 85bd ec7b 9cbd 5b95 523e

bias f4 [176]
-0.33747178 -0.5495073 -0.078016184 0.267215 -0.74566543 0.31948462 -1.0190151 -0.67150015
-0.35752994 -0.12620224 -1.3035092 0.34785938 -0.50744474 -1.003529 -0.31071615 -0.36136606
-0.099132486 -1.0883266 0.55557394 -1.1790806 -0.031083189 -0.26896963 0.11004549 -0.2379043
0.45031098 -0.9634284 0.44852337 1.24627 -1.6217859 -0.80731213 -0.34781685 0.4001118
0.67366266 -0.55245245 0.47828707 0.9062678 0.7350493 0.8241763 -0.5657274 -0.1927772
-0.6960159 0.2226823 -0.68606704 -0.11038826 -0.55188286 -0.2943255 -0.08027523 -0.017147064
0.1949038 -0.12470318 0.11615686 -0.029283391 -0.43670374 -1.2969507 0.19392471 -1.114151
0.49875116 0.43190828 1.3778776 -0.15261924 0.023854854 -0.6224567 -0.49225342 -1.978619
-0.8859344 -0.3299125 -0.9569077 1.1855023 -0.20290698 0.07611509 -0.8633408 -0.34248435
-0.9066118 0.47921857 -0.3490608 -0.710858 -0.515587 -0.0062086117 0.35463378 0.117815845
-0.78565365 -0.5887411 -0.1911591 -1.1474792 -2.0962687 -0.36362615 0.09610956 -0.012368271
-0.95800346 -1.8971803 -0.5049026 0.25422877 0.011289482 -0.031278785 0.26089728 1.1606082
0.32722798 0.7791625 -0.3500337 0.436798 0.039318003 -1.2126671 -0.7063209 0.217294
-0.7145882 -0.46484736 0.53216356 -0.08595025 -1.0253078 -0.08287004 0.0104293125 -0.070467025
0.32625124 -0.9227709 -0.9222732 -0.3650715 -0.27619746 0.42591092 0.028638193 0.29895136
-0.12985395 1.3233534 -0.029487379 0.087196164 0.9432343 0.8395408 0.32549915 -0.40064776
-0.47701842 -0.30307218 0.040440075 0.6155265 -0.12945215 0.39119425 0.011466779 0.1604656
-1.2283407 -0.5457298 -0.42728063 -0.2904337 -0.72742087 0.759028 -0.85458916 -0.8260887
0.91158015 0.33254015 -0.18432263 -0.33864734 -0.92755747 0.94229156 0.021338662 -0.1959261
-0.56590503 -0.29476765 0.3795757 -0.55753255 -0.41875315 -0.3204918 0.02897329 0.4982088
-1.064295 -1.3271613 1.0152857 -0.15759984 -0.7310071 -0.40248185 -0.6361389 -0.30588236
-0.024886228 -0.41647604 -0.039908428 0.18096042 -0.37571964 0.7698908 -1.5573243 -0.81758
00000000: 1ac9 acbe 83ac 0cbf f3c6 9fbd 68d0 883e
00000010: eee3 3ebf 7d93 a33e 166f 82bf 6fe7 2bbf
00000020: 2a0e b7be 293b 01be 64d9 a6bf a01a b23e
00000030: e6e7 01bf a373 80bf 3016 9fbe f904 b9be
00000040: f905 cbbd 494e 8bbf 183a 0e3f 1dec 96bf
00000050: 2ca2 febc 63b6 89be 885f e13d 2f9d 73be
00000060: 298f e63e 3ea3 76bf dba4 e53e c685 9f3f
00000070: ae96 cfbf 02ac 4ebf 0d15 b2be 74db cc3e
00000080: 2875 2c3f 866d 0dbf 0be2 f43e 2b01 683f
00000090: 312c 3c3f 38fd 523f 83d3 10bf 6367 45be
000000a0: 192e 32bf d406 643e 17a2 2fbf 3d13 e2bd
000000b0: 3248 0dbf d5b1 96be 5767 a4bd 0078 8cbc
000000c0: dd94 473e 6164 ffbd a6e3 ed3d b9e3 efbc
000000d0: a297 dfbe 7b02 a6bf 3394 463e 809c 8ebf
000000e0: 505c ff3e 1523 dd3e 4b5e b03f 3848 1cbe
000000f0: 416b c33c 5359 1fbf a408 fcbe 6343 fdbf
00000100: 99cc 62bf 4bea a8be e7f7 74bf 8abe 973f
00000110: d9c6 4fbe 3ae2 9b3d e703 5dbf 1c5a afbe
00000120: b617 68bf 235c f53e 19b8 b2be cafa 35bf
00000130: 82fd 03bf 9c71 cbbb 8f92 b53e 6f49 f13d
00000140: 9920 49bf bdb7 16bf 36bf 43be 99e0 92bf
00000150: 4429 06c0 352d babe 17d5 c43d 4aa4 4abc
00000160: b73f 75bf ced6 f2bf 4c41 01bf 462a 823e
00000170: 85f7 383c 2f1e 00bd 5494 853e cf8e 943f
00000180: 6d8a a73e 3277 473f 9e37 b3be fda3 df3e
00000190: ea0b 213d ad38 9bbf 72d1 34bf 5182 5e3e
000001a0: 41ef 36bf 7900 eebe df3b 083f af06 b0bd
000001b0: 493d 83bf c4b7 a9bd b5df 2a3c 0451 90bd
000001c0: 670a a73e b73a 6cbf 191a 6cbf a7ea babe
000001d0: c169 8dbe ff10 da3e a59a ea3c 2710 993e
000001e0: 6ff8 04be a563 a93f 848f f1bc e793 b23d
000001f0: ce77 713f 25ec 563f d3a7 a63e b421 cdbe
00000200: c23b f4be 472c 9bbe 7ea4 253d 2593 1d3f
00000210: 1b8f 04be 9d4a c83e 28df 3b3c 1851 243e
00000220: 453a 9dbf f3b4 0bbf 87c4 dabe bab3 94be
00000230: 4138 3abf a94f 423f 5bc6 5abf 8d7a 53bf
00000240: 515d 693f b442 aa3e 12bf 3cbe 2f63 adbe
00000250: 6874 6dbf 053a 713f 6bce ae3c daa0 48be
00000260: 27df 10bf c9eb 96be bf57 c23e 74ba 0ebf
00000270: d066 d6be 8017 a4be 6559 ed3c 3915 ff3e
00000280: d23a 88bf 6ce0 a9bf e2f4 813f da61 21be
00000290: 4823 3bbf 1a12 cebe 00da 22bf 9d9c 9cbe
000002a0: 34de cbbc 593c d5be 0577 23bd b04d 393e
000002b0: 535e c0be 9017 453f 6756 c7bf ec4c 51bf

weight f4 [88, 176]
-0.26729694 -0.020231383 0.7678088 0.6832427 0.11099355 0.47704774 -0.50318193 0.5676907
0.08907696 -0.103928395 0.4842799 0.66562104 -0.25063744 -0.0030169955 0.5205674 0.4818758
0.709559 -0.14151347 0.6475802 -0.043167487 0.26919517 0.7398352 0.81803924 0.49428794
0.6132321 0.013786703 0.5391335 0.5016721 0.6863045 0.9501327 0.26732847 0.75871646
0.4769236 0.06660774 0.5760879 0.6146254 0.69517034 0.48350543 0.20800926 0.4717872
0.47990733 0.6421186 0.6408607 0.38861877 -0.14801246 -0.14048791 0.52858055 0.65314937
0.4954519 -0.1949154 0.03879874 0.39615747 -0.3117416 -0.11207045 0.52321833 0.455832
0.55161285 0.5570063 0.6180402 0.21665064 -0.29145384 -0.47933498 0.50247157 0.2860621
1.3239615 -0.058957603 -0.07911246 0.7970939 0.32921186 0.39660984 1.1378486 0.94706106
0.3168374 0.57367766 0.7525845 0.43182772 0.20099472 0.6190635 0.42822865 0.5373935
0.59259194 -0.5461523 0.64776504 0.068696566 -0.3155417 -0.12611051 0.5616501 0.5536079
0.9613942 0.11081295 -0.17071895 0.6530046 0.35650682 0.6604018 0.37468132 0.6040022
0.5274758 0.66688985 0.6384646 0.1983871 0.44167963 -0.5794904 0.29604834 0.46609735
0.14809515 0.35150215 0.20380156 0.5129827 0.99665684 0.7805613 0.7081516 -0.33156517
0.47116384 -0.35886732 0.31313422 0.5855479 0.7033632 0.30590597 0.55105835 0.14827158
0.50577915 0.6758007 0.15268953 0.60050523 0.696154 0.7915743 0.57092994 0.51598305
0.34119642 -0.12810671 0.7112846 0.42926672 -0.39191535 0.68269455 0.5244151 0.60155785
0.2556223 0.028107459 0.47913522 0.5466288 0.43460244 0.6269708 1.0468847 -0.03748175
0.6170979 0.6525613 0.41719794 0.5696969 0.33734164 0.41586006 0.3794516 0.38025546
-0.115780026 0.6383647 0.0546509 0.1274231 0.019091122 0.34286708 0.18499456 0.48637974
-0.036132887 0.07178497 0.30369264 0.56020457 0.07235981 0.8414272 0.43316025 0.63964605
-0.26403475 0.10104869 0.608274 -0.57140845 0.13882786 0.70716214 -0.188285 0.32389918
-0.19401342 -0.20972173 -0.12598847 0.063482895 0.27889153 -0.18402681 0.27771896 -0.015478761
0.058028534 -0.28634495 0.3375748 0.11662399 -0.15883335 -0.028970633 0.11532097 -0.27083755
-0.04715315 0.045676496 -0.008741489 -0.15005358 -0.03662999 0.03755344 0.08009816 -0.094753735
-0.06272598 0.07373791 -0.0014171522 0.21285488 0.1280388 0.037569795 0.27060345 0.28135464
0.21895927 0.043781735 0.0035100016 0.03119241 0.06424735 0.08375975 0.0573154 -0.16744177
0.6184821 -0.10295851 -0.015837587 0.11552987 -0.40077835 -0.10854762 -0.04087749 -0.06323247
-0.10245283 -0.014612764 0.09369658 0.059955135 0.39066407 0.31521448 -0.047200445 -0.11076885
0.062328637 0.06411119 0.008917107 0.39111307 0.2899815 -0.13851517 -0.05326507 -0.29585296
0.058475256 -0.03895113 -0.3418535 -0.07850402 -0.00022265433 0.09690425 0.24801688 -0.18605565
0.19686781 0.12192662 -0.23043063 0.05379954 -0.0776124 0.23798013 -0.09336775 0.09949723
00000000: 25db 88be 49bc a5bc 1e8f 443f fee8 2e3f
00000010: 9650 e33d 9a3f f43e 88d0 00bf 2d54 113f
00000020: fb6d b63d 69d8 d4bd 89f3 f73e 2466 2a3f
00000030: 8d53 80be c9b8 45bb e843 053f 6db8 f63e
00000040: a9a5 353f e8e8 10be d1c7 253f 64d0 30bd
00000050: f3d3 893e d765 3d3f 056b 513f 4f13 fd3e
00000060: c7fc 1c3f a0e1 613c a704 0a3f 956d 003f
00000070: a7b1 2f3f e63b 733f 47df 883e 3e3b 423f
00000080: 552f f43e a469 883d 7f7a 133f 1758 1d3f
00000090: aff6 313f 068e f73e 6100 553e 188e f13e
000000a0: 6ab6 f53e e261 243f 720f 243f 0af9 c63e
000000b0: 9490 17be 10dc 0fbe 0e51 073f cc34 273f
000000c0: dfab fd3e e797 47be 6deb 1e3d 27d5 ca3e
000000d0: 989c 9fbe 3185 e5bd a3f1 053f d062 e93e
000000e0: 8036 0d3f f797 0e3f e237 1e3f aad9 5d3e
000000f0: 7039 95be 656b f5be faa1 003f bb76 923e
00000100: 9277 a93f 877d 71bd b705 a2bd 590e 4c3f
00000110: 758e a83e 7210 cb3e 06a5 913f 9872 723f
00000120: 8338 a23e 8adc 123f 61a9 403f 8618 dd3e
00000130: 8fd1 4d3e f27a 1e3f c940 db3e 9f92 093f
00000140: 1bb4 173f a3d0 0bbf eed3 253f c9b0 8c3d
00000150: af8e a1be 1d23 01be 4dc8 0f3f 3fb9 0d3f
00000160: ee1d 763f e6f1 e23d f3d0 2ebe 4f2b 273f
00000170: 1088 b63e 1810 293f 3bd6 bf3e e39f 1a3f
00000180: a708 073f 4bb9 2a3f 6b72 233f fd25 4b3e
00000190: d523 e23e 7c59 14bf a693 973e 50a4 ee3e
000001a0: 41a6 173e 17f8 b33e 5bb1 503e d652 033f
000001b0: e724 7f3f ded2 473f 6c49 353f e9c2 a9be
000001c0: 633c f13e 75bd b7be 2153 a03e 78e6 153f
000001d0: 9c0f 343f b59f 9c3e 2912 0d3f 81d4 173e
000001e0: be7a 013f 4601 2d3f a55a 1c3e b6ba 193f
000001f0: 2637 323f 9da4 4a3f 7728 123f 7717 043f
00000200: 4cb1 ae3e 682e 03be bf16 363f d9c8 db3e
00000210: 21a9 c8be 12c5 2e3f 1140 063f b2ff 193f
00000220: ede0 823e 9d41 e63c 3651 f53e ddef 0b3f
00000230: 3684 de3e 2981 203f 5100 863f 7786 19bd
00000240: 21fa 1d3f 420e 273f f89a d53e a8d7 113f
00000250: 0bb8 ac3e 9ceb d43e 7b47 c23e d8b0 c23e
00000260: 141e edbd de6b 233f 9fd9 5f3d 337b 023e
00000270: fc64 9c3c 468c af3e 376f 3d3e c406 f93e
00000280: 1400 14bd 0004 933d 9a7d 9b3e 9169 0f3f
00000290: 6131 943d c667 573f 2ec7 dd3e d8bf 233f
000002a0: 902f 87be 9ef2 ce3d d8b7 1b3f d347 12bf
000002b0: e428 0e3e 9408 353f c8cd 40be 1dd6 a53e
000002c0: 74ab 46be 4bc1 56be 1f03 01be 5203 823d
000002d0: dfca 8e3e 8671 3cbe 2e31 8e3e a19a 7dbc
000002e0: 54af 6d3d ce9b 92be 9bd6 ac3e 8fd8 ee3d
000002f0: 36a5 22be d253 edbc 672d ec3d 38ab 8abe
00000300: a923 41bd 4717 3b3d 7638 0fbc a5a7 19be
00000310: 5409 16bd a3d1 193d 810a a43d 3f0e c2bd
00000320: 7b76 80bd e703 973d bdbf b9ba a1f6 593e
00000330: 9a1c 033e c9e2 193d 898c 8a3e b70d 903e
00000340: dc36 603e 7a54 333d 0e08 663b 3a87 ff3c
00000350: 1d94 833d 3b8a ab3d 8ec3 6a3d db75 2bbe
00000360: d854 1e3f e9db d2bd d4bd 81bc ed9a ec3d
00000370: d232 cdbe 374e debd 286f 27bd 0680 81bd
00000380: cad2 d1bd 606a 6fbc fee3 bf3d 8493 753d
00000390: 1f05 c83e cb63 a13e 4155 41bd c7da e2bd
000003a0: 504c 7f3d ba4c 833d 0f19 123c f93f c83e
000003b0: 7578 943e ecd6 0dbe 792c 5abd 0a7a 97be
000003c0: c083 6f3d 388b 1fbd 6c07 afbe b7c6 a0bd
000003d0: 5178 69b9 bc75 c63d 23f8 7d3e 5f85 3ebe
000003e0: b797 493e aab4 f93d 02f6 6bbe e85c 5c3d
000003f0: 40f3 9ebd 10b1 733e 9737 bfbd 34c5 cb3d

bias f4 [88]
0.19279629 0.2230909 0.30827925 0.33516234 0.1366032 0.42307907 0.40349922 0.007014685
-0.005586321 0.20560186 0.13747902 0.15713544 0.13195868 0.07396472 0.35752788 0.1752587
0.28191116 0.13185236 0.30137688 0.24581982 0.3935453 0.58540684 0.28776404 0.1910136
0.18629119 -0.67771363 0.07520539 0.16405903 -0.06464498 -0.02942485 0.14679584 0.096525356
0.12276413 -0.7600948 -0.35360557 0.10828845 0.11244989 0.082117796 0.13631377 0.21691798
0.11868141 -0.06401868 0.17283168 0.23878568 0.20704024 0.38375297 0.015954228 0.06077319
0.39535388 0.08770871 -1.1162391 0.16824229 -0.17360519 -0.032221816 0.22058761 0.14369941
0.18517739 0.11145997 0.3493511 0.15760688 -0.08600332 0.08779734 0.115886115 0.21339506
0.2436708 0.18772508 0.13699174 0.039431717 -0.26031247 0.08454204 0.8610572 0.08313613
0.21338643 0.026076682 0.04685778 0.06605652 0.08763508 0.1453136 0.28631172 0.27078187
0.09097299 -0.9143316 -0.56009614 0.13284513 0.014641758 0.06722155 0.16228266 0.09107911
00000000: 646c 453e f171 643e c7d6 9d3e 669a ab3e
00000010: b6e1 0b3e d29d d83e 7397 ce3e 71db e53b
00000020: 750d b7bb 4b89 523e 4dc7 0c3e 1de8 203e
00000030: 2d20 073e d17a 973d e50d b73e 0477 333e
00000040: a956 903e 4e04 073e 124e 9a3e 31b8 7b3e
00000050: c57e c93e 39dd 153f cf55 933e 1299 433e
00000060: 1ec3 3e3e a47e 2dbf 4905 9a3d 17ff 273e
00000070: 9664 84bd 620c f1bc a651 163e 16af c53d
00000080: c36b fb3d 9395 42bf ca0b b5be 56c6 dd3d
00000090: 214c e63d 602d a83d d695 0b3e bf1f 5e3e
000000a0: 3d0f f33d 3a1c 83bd cafa 303e 3c84 743e
000000b0: 5b02 543e 457b c43e 71b2 823c 4fed 783d
000000c0: d36b ca3e a0a0 b33d ece0 8ebf b547 2c3e
000000d0: 8fc5 31be 06fb 03bd b8e1 613e f025 133e
000000e0: 249f 3d3e 2045 e43d 26de b23e b363 213e
000000f0: 8222 b0bd 17cf b33d b355 ed3d 3c84 5a3e
00000100: d784 793e 013b 403e 9047 0c3e 2783 213d
00000110: ad47 85be 6124 ad3d 3f6e 5c3f 4643 aa3d
00000120: f981 5a3e c49e d53c f2ed 3f3d a448 873d
00000130: 057a b33d 17cd 143e 7397 923e eca3 8a3e
00000140: 0c50 ba3d a311 6abf 7662 0fbf 8e08 083e
00000150: fce3 6f3c 74ab 893d 6d2d 263e af87 ba3d

weight f4 [22, 88]
-0.06547198 1.1812421 0.5760814 0.5177085 0.025250083 16.017464 -0.05898589 -0.12642534
-0.03742017 0.4679086 0.032428496 0.6652918 0.1579079 -0.06943796 0.89071137 0.59488463
1.0512954 0.055329062 1.9538288 0.0149849355 0.7960518 -0.04957684 0.09692427 -0.04477678
0.035233136 2.6046815 -0.051087648 0.1382983 -0.16230242 -0.09654371 -0.16484018 0.24393578
-0.012806753 15.562835 2.7945366 -0.059104424 0.68809056 -0.11197264 -0.11342414 0.11874544
0.026597427 0.8466121 -0.13032186 0.102100156 0.09360732 1.1361189 -0.09462502 -0.096935526
0.0707528 0.05262647 1.4905139 0.23153555 7.5261283 2.8873956 -0.22161868 0.09445228
0.13887247 0.118175596 -0.024741445 0.04762986 1.8574612 0.2246757 -0.033128094 2.1404278
-0.08960973 0.06668182 0.85317564 0.032023612 5.7289023 -0.10196118 0.323183 -0.085592166
-0.008487834 2.6162028 1.84372 -0.09930812 -0.15460587 0.055573467 0.7635832 0.15536818
0.14357753 10.3278885 1.2777582 -0.18247962 -0.021326793 -0.022640051 -0.15125076 -0.07927089
0.68874836 -1.2100556 -0.5589659 -0.75320405 0.68660223 -16.680548 0.8338281 0.80352473
0.8419658 -0.4784423 0.51643175 -0.7608174 0.60584193 0.7602953 -0.7271144 -0.57039255
-0.89113086 0.61575454 -2.1444285 0.6154718 -0.8349211 0.80336523 0.58114004 0.7523653
0.8194624 -2.8456855 0.8181582 0.5500247 0.769211 0.8623286 0.77670485 0.5484959
0.6755299 -16.776909 -3.2784865 0.75301564 -0.87907964 0.87547696 0.761596 0.6581804
0.74144727 -0.6479428 0.9159681 0.41871873 0.59926957 -0.9238315 0.6011174 0.7728746
0.6790454 0.6053246 -1.655024 0.49518627 -8.291742 -3.1340868 0.9219993 0.6983109
0.5453476 0.37220237 0.8887151 0.6032449 -2.0234957 0.47653213 0.8379503 -2.3053708
0.66562825 0.7286247 -0.6750404 0.7522175 -6.3212852 0.71364856 0.33292407 0.6401537
0.8314882 -2.8468676 -1.9533786 0.7954307 0.83837736 0.6116047 -0.5368768 0.584979
0.59771764 -11.358822 -1.5705136 0.8155601 0.71856856 0.7111428 0.7243211 0.70588934
0.78923863 -1.2208544 -0.42204902 -0.90490925 0.6823131 -16.650684 0.7660816 0.7479755
0.7594179 -0.5324086 0.6144235 -0.5779939 0.4532786 0.7050189 -0.8399372 -0.6397492
-0.87533957 0.5684238 -2.1423678 0.70999175 -0.819833 0.7001618 0.606622 0.6604479
0.6776069 -2.846142 0.73440737 0.61281025 0.79233336 0.7715673 0.82083493 0.42098263
0.68314636 -16.719776 -3.1650724 0.7307834 -0.7845024 0.8921236 0.76647073 0.6640572
0.53924704 -0.79027945 0.893311 0.5316732 0.6639294 -1.0105721 0.720603 0.72261757
0.65654004 0.61756694 -1.5022073 0.5757652 -8.442933 -3.2130494 0.8277009 0.6775446
0.720743 0.3387128 0.6843089 0.65409124 -2.037817 0.57244396 0.63916254 -2.1869917
0.62519044 0.7390616 -0.6372279 0.7736489 -6.3903947 0.6936501 0.33374515 0.65714633
0.7421808 -2.833516 -2.026919 0.7815936 0.7352167 0.7523127 -0.4807095 0.5274839
00000000: 2c16 86bd f132 973f 127a 133f 8b88 043f
00000010: 43d9 ce3c c423 8041 309b 71bd a575 01be
00000020: e445 19bd b791 ef3e bed3 043d 9050 2a3f
00000030: 9cb2 213e 7d35 8ebd a905 643f 5c4a 183f
00000040: d990 863f baa0 623d 1017 fa3f 6083 753c
00000050: 0dca 4b3f 1611 4bbd 3b80 c63d db67 37bd
00000060: 9f50 103d 1ab3 2640 4841 51bd 129e 0d3e
00000070: 9b32 26be b5b8 c5bd ddcb 28be 4dca 793e
00000080: 6ad3 51bc 5f01 7941 b0d9 3240 7b17 72bd
00000090: b426 303f e951 e5bd ea4a e8bd cf30 f33d
000000a0: d9e2 d93c 92bb 583f 1873 05be e319 d13d
000000b0: 32b5 bf3d 586c 913f c3ca c1bd 2286 c6bd
000000c0: d8e6 903d da8e 573d 29c9 be3f a817 6d3e
000000d0: 0bd6 f040 17cb 3840 02f0 62be 3270 c13d
000000e0: 9634 0e3e 0c06 f23d 92ae cabc 8717 433d
000000f0: 4ac1 ed3f 6311 663e 53b1 07bd c5fc 0840
00000100: 4e85 b7bd 7a90 883d b869 5a3f 312b 033d
00000110: 2b53 b740 06d1 d0bd 3e78 a53e f24a afbd
00000120: 8e10 0bbc de6f 2740 04ff eb3f 0e62 cbbd
00000130: 0051 1ebe 01a1 633d 307a 433f d618 1f3e
00000140: fd05 133e 083f 2541 958d a33f f0db 3abe
00000150: 87b5 aebc a177 b9bc 7be1 1abe c758 a2bd
00000160: d051 303f 1ae3 9abf 6418 0fbf fbd1 40bf
00000170: 2ac5 2f3f c371 85c1 c275 553f ccb3 4d3f
00000180: 128b 573f 64f6 f4be df34 043f eec4 42bf
00000190: 7518 1b3f b6a2 423f 2b24 3abf 3f05 12bf
000001a0: 2721 64bf 17a2 1d3f 513e 09c0 8f8f 1d3f
000001b0: 64bd 55bf 58a9 4d3f 98c5 143f 039b 403f
000001c0: 4ac8 513f b61f 36c0 d172 513f 6bce 0c3f
000001d0: 03eb 443f 91c1 5c3f 21d6 463f 3a6a 0c3f
000001e0: 87ef 2c3f 1c37 86c1 b9d2 51c0 a2c5 403f
000001f0: 5d0b 61bf 421f 603f f5f7 423f 837e 283f
00000200: 7dcf 3d3f 94df 25bf e37c 6a3f 4d62 d63e
00000210: bb69 193f 3980 6cbf d4e2 193f 1cdb 453f
00000220: ebd5 2d3f 8ef6 1a3f d4d7 d3bf 0e89 fd3e
00000230: faaa 04c1 e194 48c0 2508 6c3f 81c4 323f
00000240: e69b 0b3f 4f91 be3e d582 633f 426e 1a3f
00000250: f480 01c0 05fc f33e e983 563f 328b 13c0
00000260: 9d66 2a3f 2687 3a3f 73cf 2cbf 5391 403f
00000270: f847 cac0 acb1 363f 0675 aa3e 1de1 233f
00000280: 69dc 543f 1433 36c0 4f08 fabf 59a1 4b3f
00000290: e69f 563f 2092 1c3f c270 09bf 2fc1 153f
000002a0: 0604 193f bcbd 35c1 9706 c9bf 8cc8 503f
000002b0: 1cf4 373f 740d 363f 1c6d 393f 2ab5 343f
000002c0: 8b0b 4a3f f544 9cbf cf16 d8be 22a8 67bf
000002d0: 12ac 2e3f 9a34 85c1 ec1d 443f 537b 3f3f
000002e0: 3669 423f ee4b 08bf dc4a 1d3f 69f7 13bf
000002f0: 2214 e83e 1e7c 343f 2006 57bf 9bc6 23bf
00000300: 4116 60bf 3984 113f 8e1c 09c0 05c2 353f
00000310: 93e0 51bf ce3d 333f 944b 1b3f 1d13 293f
00000320: a577 2d3f 3127 36c0 1f02 3c3f 22e1 1c3f
00000330: 5cd6 4a3f 6f85 453f 3d22 523f 098b d73e
00000340: aee2 2e3f 1ac2 85c1 8c90 4ac0 9f14 3b3f
00000350: 26d5 48bf 3662 643f 6d37 443f a7ff 293f
00000360: 180c 0a3f c14f 4abf 08b0 643f bc1b 083f
00000370: 47f7 293f 6d5a 81bf 7079 383f 77fd 383f
00000380: 0213 283f de18 1e3f 5448 c0bf 5965 133f
00000390: 4116 07c1 9aa2 4dc0 35e4 533f 9073 2d3f
000003a0: 9d82 383f c46b ad3e de2e 2f3f 8672 273f
000003b0: 986b 02c0 b08b 123f 28a0 233f acf7 0bc0
000003c0: 7b0c 203f 2433 3d3f 5e21 23bf db0d 463f
000003d0: 1d7e ccc0 0e93 313f a5e0 aa3e be3a 283f
000003e0: 90ff 3d3f 5358 35c0 0ab9 01c0 8516 483f
000003f0: 2937 3c3f 9197 403f 8e1f f6be 2f09 073f

bias f4 [22]
0.37895826 0.018826677 0.16098176 0.0022887993 -0.0515717 0.5126199 0.4009586 0.37102088
0.14146006 0.45819247 0.18059294 0.1471334 0.6201533 0.5331527 0.31209007 0.41734943
-0.024903754 0.39321226 0.5091381 0.34507722 0.35079816 0.3658835
00000000: d106 c23e 673a 9a3c 67d8 243e aeff 153b
00000010: d93c 53bd 0f3b 033f 724a cd3e 73f6 bd3e
00000020: e8da 103e 3498 ea3e 5bed 383e 23aa 163e
00000030: 5ec2 1e3f b27c 083f 45ca 9f3e d3ae d53e
00000040: f502 ccbc 1e53 c93e e056 023f f6ad b03e
00000050: d19b b33e 1555 bb3e

weight f4 [1, 22]
2.4831142 -0.8418755 -0.8510184 -0.95199054 4.5923777 2.3948696 2.4262805 2.301786
-0.986051 2.2837446 -0.81960684 -0.902636 3.714693 2.2579432 3.2007732 4.9115705
5.1162295 2.3022027 2.1630054 4.867797 2.3452537 2.3398638
00000000: 58eb 1e40 2785 57bf 58dc 59bf a7b5 73bf
00000010: c2f4 9240 8b45 1940 2e48 1b40 7650 1340
00000020: d76d 7cbf df28 1240 c1d1 51bf 2713 67bf
00000030: 88bd 6d40 2482 1040 78d9 4c40 962b 9d40
00000040: 27b8 a340 4a57 1340 ae6e 0a40 fec4 9b40
00000050: a318 1640 54c0 1540
