data/q_value_target_net_2_food_collection_1190000_GSA.pth (torch, 163113 bytes, 7 tensors)

weight f4 [192, 96]
00000000: 7b03 d23d 9096 a73e fcc1 e83e 6b0c 273e
00000010: da19 043c ca48 08bf 29cc 99bd 22a9 e1bd
00000020: 829f 073d c7c5 e1bd d6e7 0ebe 21bb bdbc
00000030: dacb 59bd 7d71 8e3d 96f5 2fbd beda 2b3e
00000040: 70b1 65bd f152 d93d ab85 6fbd 9d87 a63e
00000050: b6c6 48be b459 d73b 16e9 1d3d 0e5b e83d
00000060: ecf5 16bd 12a7 bd3e 141f 2ebc 8e3a 06bf
00000070: c06a 213c ca5e e5bb df41 133d cfe3 c6bd
00000080: d84c bebd ceb8 003e e1d8 8bbd 4b62 c73c
00000090: c040 013d a8df 553d 45dd 7c3d de0b cfbd
000000a0: ef7c 2a3d 1c23 7d3e aaa8 cabb aa00 0ebd
000000b0: bb74 333e c3f2 023f 6ec3 8cbd d122 7d3f
000000c0: bd63 20be 0a0a 1cbf 198e aa3c 721a 7fbe
000000d0: 789e 2b3b 08fb 86be 58c9 59bd 8789 1bbe
000000e0: 6f88 50be 2bd2 38be d79d 7dbc da62 863b
000000f0: d2b3 443d 1fe7 2abe b869 523c 96c6 2dbe
00000100: 40c7 f0bd bd35 2ebe 548b 17ba fb41 013e
00000110: 6172 5a3d 5fd0 bc3e 402d 2cbd 5b7a bcbe
00000120: d0a0 24bc 0a35 b03d 54b7 6c3c c968 143d
00000130: ee57 3bbd ba73 f63d 6198 4cbd 1e24 e23d
00000140: 8e78 4a3b a0b3 293e 799a e53d cea0 363d
00000150: 9cf8 df3d 6a92 4fbd 1d43 d83d ad7b d53d
00000160: 1006 113e 4837 573d 4434 f53c 8809 433d
00000170: 3dc7 063c 1feb 1c3e 0dba 9e3a 182c a53d
00000180: 44f1 0e3f d363 1abf d93e 0cbe fa3b 0f3e
00000190: 7fa0 78bd 7473 07bd e969 9a3c 9f31 3cbd
000001a0: 3087 b4bb f98c 35bd 5e4e 973c b2c2 223d
000001b0: 2547 813c 93a4 6fbd 89cb 1d3b a87e 4fbc
000001c0: e726 f73d fdee ec3d 00c9 86be 8510 89be
000001d0: 49fe 433e 20de 5abe df70 0c3f 73df e9be
000001e0: 88fd f73d f7ca 233f 6e53 f3bd 83a7 23bd
000001f0: 0c18 b9bd 857b 82be 46f2 00be a068 74be
00000200: b198 a9bd fe72 e3bc 1fce 86bd 723f 43be
00000210: cadb 093b 5f8a 44bd 4807 adbd 6f35 a9bb
00000220: e0eb 87bd 382b 25be 4fbb 633d a5a3 2fbe
00000230: 0f94 cd3e 4bf3 09bf de97 98bf 94d3 35bf
00000240: 59ae 0f3e 8b49 d93c d916 103c 974b d83c
00000250: f5b1 1d3d c0cb 8bbc 9249 0a3e 4e21 a83d
00000260: 0811 673c 054e 993d c970 19bd 1720 6fbc
00000270: 3774 8c3e d7a5 643e 2b9b fc3d 026f 103e
00000280: 50e3 993e 09ba 0abe 1485 f83e 4565 15bf
00000290: 7bbc 853f 8cd0 b7bf d8ff 80be eca4 213e
000002a0: 4dcc e3bd 3533 ae3d c570 6abd e151 8a3c
000002b0: 9829 24be 31f4 75bc 0916 6fbe ee31 e03d
000002c0: ce14 49be dfa5 5b3e 90d3 92be 56c7 af3e
000002d0: 737b 67bd d40e f93d 0084 f8bd 1395 6a3d
000002e0: 7759 5ebc ae4b 4a3c b11b c43c 407f dd3c
000002f0: 735e 08be bc8d 14be c4b9 f23d 2429 67be
00000300: 60d2 f7bd d606 c93d 6467 a33e 55c0 a73e
00000310: b2de c5be ceac 55be 9f86 193e ec63 9b3d
00000320: b477 26bd 184c 7cbd bac5 a53c 5263 683d
00000330: 0b14 86be fd00 123d 2515 203d 20c3 863d
00000340: 22b8 b53d 70be efbd 4d9c fa3c 9606 82bb
00000350: ebf3 bf3c ab47 113d 3857 06be 5413 f0bc
00000360: 3da5 8f3e a8ca af3e 44b3 e3be 5b34 c7bd
00000370: f7ec 3b3e c089 92bd 681e 24be 185d 58be
00000380: d209 443d 453c 373e e3b2 86be 56aa 3dbe
00000390: 6d7a 173e 635b 7fbd 0b79 f5bd e41c 7e3d
000003a0: ed9d da3c da64 0c3e de14 033e e47f 803d
000003b0: b79e 0ebe b571 01bd 0f61 a53e e6cf 963e
000003c0: f594 03bf 158c 00be def2 b23d e848 d23d
000003d0: f8d6 3bbe 1b0a c5bd 9cb3 f6bc fcbe 6d3e
000003e0: 74cc 9cbe 3c30 82bd 4cd7 ebbc 0feb 9dbd
000003f0: 5802 49bd 152b 93bd 5781 ebbd bb4c 0abd
0.1025457 0.32732058 0.45460498 0.16313331 0.008062804 -0.5323607 -0.075096436 -0.11018588
0.033111103 -0.11024051 -0.13955626 -0.02316052 -0.053172924 0.0695524 -0.04295882 0.16782662
-0.05607742 0.10611523 -0.058477085 0.3252534 -0.19607052 0.0065719727 0.038552366 0.11345492
-0.036855623 0.37041527 -0.010627527 -0.524331 0.009852111 -0.006999825 0.03595149 -0.0971142
-0.092920005 0.12570497 -0.06828476 0.024338862 0.03155589 0.05221525 0.061734457 -0.10109685
0.041623052 0.24720424 -0.006184657 -0.034668602 0.17524998 0.51151675 -0.06873213 0.9888125
-0.15663047 -0.6095282 0.02081971 -0.24912432 0.0026186984 -0.26363397 -0.053170532 -0.15189181
-0.20364545 -0.18048923 -0.0154795265 0.0041011395 0.048023053 -0.16689728 0.012842588 -0.16970286
-0.11756754 -0.17012687 -0.00057809544 0.12622826 0.053331736 0.36877725 -0.04203534 -0.368121
-0.010048106 0.086038664 0.014448006 0.036232743 -0.045738153 0.12033792 -0.049950007 0.11042045
0.003089461 0.16572428 0.11211104 0.04458695 0.1093609 -0.05067674 0.10559676 0.1042398
0.14162469 0.052542955 0.029932149 0.04761651 0.008226213 0.15324067 0.0012109891 0.08065051
0.5583689 -0.6030857 -0.1369585 0.13987723 -0.060699936 -0.03306909 0.01884933 -0.04594576
-0.0055092797 -0.044323895 0.018469986 0.039736457 0.015780995 -0.05850656 0.0024077615 -0.012664475
0.12067967 0.11569021 -0.26325226 -0.26770416 0.19139971 -0.21373796 0.5485973 -0.4567829
0.12108904 0.63981575 -0.11881147 -0.039954673 -0.0903779 -0.25484863 -0.1259242 -0.23868036
-0.08281077 -0.027764793 -0.06582283 -0.19067171 0.0021035546 -0.047983523 -0.084486544 -0.0051638405
-0.066367865 -0.16129768 0.055598553 -0.17152269 0.40152022 -0.5388686 -1.1921346 -0.7102597
0.14031352 0.026524326 0.00879451 0.026403232 0.03849979 -0.017064929 0.13504627 0.08209477
0.014103182 0.07485584 -0.037461076 -0.014595053 0.27432415 0.22328888 0.123342834 0.14104846
0.30056238 -0.1354753 0.4853903 -0.5835765 1.0448145 -1.4360518 -0.25195193 0.15785569
-0.11122952 0.08505861 -0.05723645 0.016884746 -0.16031492 -0.015011833 -0.2334825 0.10947023
-0.19636843 0.21449994 -0.28677034 0.3433177 -0.056514215 0.12161031 -0.12134552 0.057271075
-0.013571135 0.012347145 0.023938986 0.027038217 -0.1331728 -0.14507192 0.11851838 -0.22574288
-0.12100673 0.09815757 0.31914818 0.32763925 -0.38646466 -0.20866701 0.1499276 0.07587418
-0.0406415 -0.061596006 0.020235885 0.056735344 -0.26187167 0.035645474 0.039082665 0.06580186
0.08873011 -0.11706245 0.030592108 -0.0039680703 0.023431739 0.03546874 -0.13119209 -0.029306091
0.28055754 0.34334302 -0.44472706 -0.09726783 0.18352114 -0.0715518 -0.16027224 -0.21129262
0.047860928 0.17894085 -0.26308355 -0.18522009 0.14792795 -0.062343013 -0.11985978 0.06203927
0.026686633 0.13710347 0.12800929 0.06274393 -0.13927732 -0.03160258 0.32300612 0.2945549
-0.51399165 -0.12553437 0.087377295 0.10267812 -0.18343723 -0.09621068 -0.030114941 0.23217386
-0.30624735 -0.06356856 -0.028789185 -0.077108495 -0.0490745 -0.071859516 -0.11499279 -0.033764582

bias f4 [192]
00000000: 581d 893d bfa0 e0be ffae d83e 1381 b13e
00000010: 4680 783f 2f1e 553f 780e 62bd 03e1 053f
00000020: 7a23 803f bfc4 a43e ab38 8f3f 2912 a8bd
00000030: 40bf e33d f310 423e 7467 6b3e a7b8 263f
00000040: 3cfd 183f 716b bb3e f24a 9ebe 338d 1abf
00000050: 343f 613e ec1f 65bf 12a7 04be 090a 84bf
00000060: 8de3 543f 07fd d83e 4c02 02bf 231a 8c3e
00000070: cb41 823e ce81 f3be 9f0a bd3e 71d9 97be
00000080: c919 32bf b1ad 98be 99cf ae3e 1a02 183f
00000090: 2d71 9b3f 5e63 b23f 6372 01bf c6fb 8fbf
000000a0: 269b 7bbe be11 8f3d 834c 123f 6b4e 303f
000000b0: 1166 04bf 779e 7e3d 1c54 3ebd 2797 053f
000000c0: 668a 043f 45d7 f03e 37a9 72be ac66 3bbe
000000d0: e206 a73e fcbd e9be 4a88 55be 6587 21be
000000e0: bdd4 173f 0553 013e 6ad8 903e 45e8 163f
000000f0: 2ba1 a9be 9bf5 d2be aefe c13e 8836 50be
00000100: 2cd0 db3e 73c9 833e e427 6b3e 3c62 82be
00000110: 16c9 cfbc 65d9 f03d ce8c dcbe 818e 8abe
00000120: 4bf6 113f 6048 a63e ea95 58bf ad83 ad3f
00000130: 301a d83e 9b4e 9d3f 1a09 bd3e 7328 86be
00000140: 23d3 5b3e c0e3 cdbe 56f7 463f 5e69 2d3e
00000150: 6c80 373e 6547 243f 8ee4 093e 2db4 163f
00000160: f6e6 793e fffb fc3e d9c0 9bbe ebb0 003f
00000170: 8195 0abe 4879 ed3e 2c9d 923f 53e4 2abe
00000180: 2284 ad3e 12c8 303f d798 39bf e222 5cbb
00000190: c2bb 773e 9075 063f da37 a2be 54e9 69bf
000001a0: 8880 053d f57a 2dbf 22fc aa3e 42f2 fb3e
000001b0: c8ec fabc 5805 51be d893 0f3f c173 123f
000001c0: 39a3 273e e73f d53e 796b 813e 4bf0 cbbe
000001d0: 2024 5bbe 6bcb c93e f89a a5be 71fb 243e
000001e0: 2440 293f dcf0 b83e 5833 c3be e595 b3be
000001f0: 034c ed3e ca63 2fbe fea6 1cbf 69fb 8bbe
00000200: 4308 76be a7f2 4a3f d755 dc3d 5c74 26be
00000210: 988e 203e cdea 093f a9d8 093f 0b35 cfbe
00000220: 8d7a 5b3f 80f8 a7be 69d2 14bf 1e96 cd3d
00000230: 62f4 1a3f ba40 a43e 1bdf 8bbf 75c6 013f
00000240: a7d3 14be 6296 0f3f a2ab 38bf 7501 d03e
00000250: 80b3 0ebf d8df c1be 972a 743f ce20 323f
00000260: 3862 7f3e 93be 51bc ffd1 fe3d 5d0b 23be
00000270: 5d7a 223f 09e6 35be be64 89be 0859 c93e
00000280: f19c 17be e1eb 80bf e79a 8a3f 2d76 f13e
00000290: 0b64 c03f da04 e03e 13e6 fbbd b591 3d3f
000002a0: 96db c13e daf4 f2be 9136 d03e 6eeb b2be
000002b0: ac40 263e 1125 df3e 957c 893d 4236 6a3e
000002c0: a390 e2be 91a7 1f3e 4bbd 803e d1f4 253f
000002d0: 800b 9d3d 3366 4d3f f3ff 173f d194 453f
000002e0: 0ad4 993e 9d31 80be 6dc9 973e 92ab f7be
000002f0: 3255 4fbe 2448 0c3d f197 8e3e fbec 0c3f
0.0669505 -0.4387264 0.4232101 0.34668788 0.9707073 0.8324918 -0.05518958 0.52296466
1.0010827 0.32181355 1.1189169 -0.08206589 0.111204624 0.18951778 0.22988683 0.6512551
0.59761405 0.3660541 -0.30916554 -0.603717 0.21996766 -0.89501834 -0.12954357 -1.0315562
0.83159715 0.42380545 -0.50784755 0.2736369 0.2544082 -0.4755997 0.36922166 -0.29658082
-0.69570595 -0.29820016 0.3414276 0.59378207 1.2143914 1.3936574 -0.50565165 -1.124871
-0.24570903 0.06985806 0.57148 0.68869656 -0.5171824 0.062162843 -0.04646693 0.52183765
0.5177368 0.47039238 -0.23697363 -0.18300885 0.3262244 -0.4565276 -0.20852771 -0.15774305
0.5930899 0.12629326 0.2829011 0.58948165 -0.33130774 -0.41203007 0.37889618 -0.20333302
0.4293226 0.2573963 0.22964436 -0.25465572 -0.02536444 0.11760215 -0.43076175 -0.27061847
0.5701644 0.32477093 -0.8460375 1.3555809 0.4220748 1.2289613 0.36921006 -0.26202735
0.21467261 -0.40212822 0.77721155 0.16934726 0.17920083 0.6417144 0.13466093 0.58868676
0.24404511 0.49411008 -0.3042057 0.50269955 -0.13533594 0.46381593 1.1454215 -0.16688661
0.33889872 0.69055283 -0.7249884 -0.0033590128 0.24192718 0.52523136 -0.31683236 -0.91371655
0.03259328 -0.6776574 0.33395487 0.49208266 -0.030630484 -0.20412195 0.56084967 0.57207876
0.16370858 0.41650316 0.25277308 -0.39831766 -0.214005 0.39413008 -0.32344794 0.16111542
0.66113496 0.3612126 -0.3812511 -0.35075298 0.46347055 -0.1712791 -0.6119231 -0.27340248
-0.24026589 0.7927651 0.1075856 -0.16255325 0.15679395 0.538739 0.5384622 -0.40470156
0.8573387 -0.32806778 -0.5813356 0.10038398 0.6052915 0.32080632 -1.0927461 0.50693446
-0.14533864 0.5608884 -0.7213689 0.40626112 -0.55742645 -0.37866092 0.95377487 0.69581306
0.24939811 -0.012801784 0.12442397 -0.15922303 0.6346796 -0.17763533 -0.26834673 0.39325738
-0.14805962 -1.0071985 1.0828522 0.47160473 1.5030531 0.437537 -0.122997425 0.74050456
0.37862843 -0.47452432 0.4066663 -0.34945244 0.16235608 0.43582967 0.06713215 0.2287226
-0.44250974 0.15591265 0.2514442 0.64826685 0.07668209 0.8023407 0.5937492 0.771802
0.30044585 -0.25037852 0.29645863 -0.48373085 -0.20247343 0.034248486 0.27850297 0.55049103

weight f4 [96, 192]
00000000: c486 7a3e 9eb2 3a3d 4f1a 6d3e b573 803e
00000010: 57fe 713e 1331 273e f14c c23e 4a0c c43e
00000020: c3e4 2f3e 44d2 3a3e 5643 833e edaa c13d
00000030: 261f 463e 0e2c 743e f309 573e 4004 e33e
00000040: a250 5a3e f592 833e 5e3f a93e 9bb7 a83c
00000050: 8579 193e 4a1a 2abf 7530 be3e 5917 1abf
00000060: c1d5 753e 5304 4e3e 5f8d f83d a546 6e3e
00000070: 99b0 593e 95c8 313e 3460 9f3e 4e25 f03e
00000080: 8c3a 9abe 44d2 dd3d 570d 693e 89e1 5c3e
00000090: c272 913e 73b6 9c3e a6e7 2cbd 3064 65be
000000a0: 17dd b93d 2a6a d43d 2688 653e ba2e 883e
000000b0: 3e5d bc3e 8c54 d93e 046c a33e 2437 803e
000000c0: 2f00 c33d 09e1 9c3e 89aa 8c3e 80ba 6c3e
000000d0: 02c6 853e c881 fb3d e9d4 4e3e 0bfe bdbc
000000e0: 3819 603e 43bf 873e 8a5a a03e f467 b23e
000000f0: 08a2 953e b45a 4fbd 2a02 973d dee0 8a3e
00000100: f719 f93d 5da1 8e3e 59e5 923d b57c 9a3d
00000110: fe74 8e3e d41d 573e 360a a73e 42ec d93e
00000120: ec96 9a3e cd75 b0be b76b 5abf c5b4 7a3e
00000130: 152b a83e a7c4 973e e69e ac3e 7cf3 793e
00000140: 7d58 2e3e ec23 333e e93f 8f3d d356 993e
00000150: 8d81 3c3e d2f4 b43e 35a5 713e 0059 d43d
00000160: 75d1 643e 3c34 513e e2bf d23d b200 b63e
00000170: 494c 4c3e f4dc 613e 6a4d 8d3e 2a3a 1d3e
00000180: d041 823e 2881 283e b1e5 90bd b317 953e
00000190: f76b b63e e473 a73e b623 203e 4f31 5cbf
000001a0: 2b67 073e 3329 d8bd f4e6 8d3e 1afc bf3e
000001b0: 506a a73e 7ef1 2c3e 8938 a53c 27ad 713e
000001c0: 9663 a93e 82f8 623e 5334 973e a241 4e3e
000001d0: febf b83e f6fc b23e faf3 a73d c8f5 943e
000001e0: c0e1 5f3d f4c4 843e 1e3b 9a3c ffa3 ba3e
000001f0: ba70 963e ce9b 0e3e eb13 9a3d 8462 a4bd
00000200: 0f35 813d b0a5 913e 3b7d f83e ec5c ca3d
00000210: b3c3 a93e 35b3 a33e 3830 7d3e e22e 493e
00000220: e623 863e c240 7e3e dbd0 49bd 387d 973e
00000230: e174 7b3e 26a1 153e 3627 07be cb00 523e
00000240: c3c9 493e 4fd8 ac3e c9c4 3bbf 828b 753e
00000250: 2766 e93d 8d8f 823e e44e 703e b3e5 a13e
00000260: abdc 913e c34a 763e 94f3 4e3e f45c 613e
00000270: 2b5d e93e 2ae5 f93d 81d5 0f3e 8965 2c3e
00000280: d99b 263e 26fe 0bbf 75df 54be 0db0 823e
00000290: 776b 303e d28c af3e 222f 393d bfe7 023e
000002a0: b9f9 8f3e ef5f b03d 7ce5 2f3e 9137 d13d
000002b0: 5872 0f3e 5e82 b03e 02d6 b83e 9b52 dd3e
000002c0: 6a00 b9be 3cf7 983e c349 5c3e 6856 8a3e
000002d0: b573 493e a1ac b13e 8392 5d3e 2d66 cb3e
000002e0: bc5b 8f3e f54f 143e 3579 8d3e f3a9 c03e
000002f0: 62cd 503e 0c62 5a3e eec5 663e c56a 8f3e
00000300: 2fc9 e93c 00c7 c1bd a3ad 13bd 9441 853c
00000310: 5c37 41bf b69f f4be c6a9 373e 5c51 c7bd
00000320: 8a09 a3be 9357 4abd 1a61 03bf 43d6 f3be
00000330: 9115 84bd 301d 8d3d b3ba bfbc 9bfb 203e
00000340: ca4e 83bd cb51 753d 0a91 103d b033 fc3e
00000350: 48b5 cfbe fdee 8abd ebb1 c53d 6668 053e
00000360: f0fa cc3d 64ff 20be 0643 77be 16f8 853e
00000370: a4c7 603c 2bb1 b03e 52eb 453d db36 8ebe
00000380: 7c12 80bd ee56 b03e 5956 97bc 570e 82be
00000390: d53e 0f3d 4e58 82bd 6250 73be 6ced 9a3f
000003a0: 0a6d 3cbe 7f78 1a3e af24 4ebe 3dd2 bb3b
000003b0: 7f40 4f3e 0944 a8bc 0fc3 80bc acc9 113e
000003c0: 27fb 0c3e 5025 cc38 2434 033e e661 f03d
000003d0: ff36 913d be63 9d3d 12f1 873e b8be 743e
000003e0: 2b6b 22bd f950 00bd 431c a4bd 2d8d 6f3e
000003f0: 6de2 293f 1b41 983e 01cd 223e df6a 163e
0.24465472 0.0455805 0.23154567 0.25088277 0.23632179 0.16327314 0.37949327 0.38290626
0.1717711 0.18244272 0.2563731 0.0945643 0.1934782 0.2384493 0.20999889 0.4433918
0.21319821 0.25698057 0.33056158 0.020595362 0.14987762 -0.66446364 0.37146345 -0.60191876
0.24007322 0.20118837 0.121363394 0.23269136 0.21258773 0.17361672 0.31128085 0.4690346
-0.30122793 0.108311206 0.22758995 0.2157041 0.28407866 0.30607948 -0.042213105 -0.224015
0.09075373 0.10371812 0.22415218 0.2659815 0.36789888 0.42447317 0.31918347 0.2504207
0.095215194 0.30640438 0.27473858 0.23118019 0.2612763 0.12280613 0.20198406 -0.023192426
0.2188462 0.2651311 0.31319076 0.34844935 0.29225183 -0.05062361 0.0737346 0.27124685
0.121631555 0.27857485 0.07172651 0.07543317 0.27823633 0.21007472 0.32624978 0.42563063
0.3019327 -0.34464875 -0.8532061 0.2448302 0.3284537 0.2964222 0.3371498 0.24409288
0.17025943 0.17494172 0.06994612 0.29949054 0.18408795 0.35343033 0.23598178 0.10368538
0.22345527 0.20430082 0.10290505 0.35547405 0.19950975 0.22056943 0.27598125 0.15354219
0.25440836 0.16455519 -0.0707506 0.29119644 0.35629246 0.32705605 0.15638623 -0.8601274
0.13222949 -0.10554733 0.27715266 0.37497026 0.32698298 0.16888997 0.02016856 0.23601209
0.3308379 0.2216511 0.29532108 0.20142224 0.36083978 0.3495862 0.08200832 0.29093766
0.05465865 0.25931513 0.018827017 0.36453244 0.2938288 0.13926622 0.0752333 -0.08026603
0.06308948 0.28446722 0.48533043 0.09881005 0.3315712 0.31972662 0.24725425 0.1964679
0.26199263 0.2482939 -0.049271446 0.29587722 0.24556305 0.14612255 -0.13198552 0.20508115
0.19705872 0.3375878 -0.73347145 0.23979 0.11396437 0.25500146 0.23467594 0.3162056
0.2848867 0.24051957 0.20210105 0.22008115 0.45578894 0.12201913 0.14046289 0.16835608
0.16270389 -0.54684675 -0.20788367 0.2552494 0.17228495 0.34287125 0.045210965 0.12783717
0.2812021 0.08612048 0.17177385 0.102156766 0.14008462 0.34474462 0.36100775 0.43227085
-0.36133128 0.29876125 0.21512513 0.27019048 0.19673045 0.34702018 0.21637921 0.3972639
0.27999675 0.14483626 0.27631536 0.3762966 0.20390847 0.21326464 0.22536442 0.28011146
0.028538315 -0.09461784 -0.036054265 0.016266622 -0.75475097 -0.477781 0.17935857 -0.09732315
-0.31843215 -0.049399924 -0.5132004 -0.47624406 -0.06449426 0.06890333 -0.023404455 0.1572098
-0.06411512 0.059892457 0.03529457 0.49258184 -0.40567994 -0.06783865 0.09653076 0.13028106
0.100088 -0.15722424 -0.24146661 0.26165837 0.013719473 0.34510168 0.048320122 -0.27776226
-0.062535256 0.34441322 -0.018473791 -0.25401565 0.03497203 -0.06364499 -0.23761132 1.2103705
-0.1840097 0.15085028 -0.20131181 0.0057318495 0.20239447 -0.020540254 -0.015718011 0.14237088
0.13767682 9.734428e-05 0.12812859 0.11737423 0.07090568 0.0768504 0.2655111 0.23900878
-0.039652985 -0.03132722 -0.08013203 0.23393698 0.66361123 0.29737172 0.15898515 0.14689206

bias f4 [96]
00000000: f349 763e 911c 6cbf 2953 bcbf 2e4c 373e
00000010: 6c55 14c0 ffeb b03e e6ed cd3d 4d3e 8c3e
00000020: 1dde 923e 023c 093e 4ab0 aa3d 7859 a73e
00000030: 0bfa c63e fb6e 873e 3d5d 3bbf 89cb 5d3e
00000040: 5335 11be 7579 013e 33a6 e73e e063 96bf
00000050: 7757 e2be 5a4c 04bf b8da 9e3e f992 acbf
00000060: 2718 bf3e 3935 073e 2f10 f13e 5971 d33e
00000070: 2a75 08bf 92b3 abbf 056b 303e 607b 35be
00000080: 6c34 d53e 32f7 da39 c2e8 c83e 20b4 9a3e
00000090: 2830 a43e 328f 203d 74d7 b83e bb29 cebe
000000a0: b4d6 b3bf 7457 293e 14d7 f3be c100 203f
000000b0: 808b 903e 561b a3bf 2a0a e53e e529 033f
000000c0: b6d8 acbd 6fa9 c43e 6d67 e83e 5b35 df3e
000000d0: 0bb9 f1bc 84b6 1d3f 16c1 6d3e 600f bdbe
000000e0: f22e c43e 7526 b7bf 9b3a a53e 14bd b73e
000000f0: 66fb d33e d3e5 38bf 49fa f5be 7e31 c2bf
00000100: 1c66 9bbe 9c5e 3d3f 66d0 ae3e 46c9 7f3e
00000110: 9c4b ad3e fe33 dcbf 8971 573e f47d 04c0
00000120: 5ce8 e9bf 532b 9b3e 7a93 30bf fff6 0cbf
00000130: 97c7 9d3e 8502 b73e 4fa9 983e 1408 e43e
00000140: 4989 b03e a581 4fbf 33f5 a7bf 3272 18bf
00000150: 996a ba3e 1b71 dabe 7b84 1dbf 4f0f 01bc
00000160: 5502 f43e 98ed 803e 606c 2f3e 2674 19bf
00000170: 9c50 bebe c309 dd3e e891 cc3e 087d 7b3f
0.24051647 -0.9223109 -1.4712878 0.17900154 -2.3177137 0.3455505 0.10055141 0.27391282
0.28685084 0.13401797 0.08334406 0.32685447 0.38862643 0.2645186 -0.73189145 0.21659674
-0.14180498 0.12643988 0.45243987 -1.174923 -0.44207355 -0.51679003 0.31026244 -1.3482352
0.37323114 0.13203897 0.4708266 0.41297415 -0.5330378 -1.3414176 0.17228325 -0.17722845
0.41641557 0.00041764375 0.3924008 0.3021555 0.3206799 0.03919906 0.36101878 -0.40266213
-1.4049897 0.16537267 -0.4762503 0.6250115 0.2823143 -1.2742717 0.44734317 0.512358
-0.08439772 0.38410518 0.45391408 0.43595394 -0.02950718 0.6160662 0.23218188 -0.36925793
0.38317066 -1.4308611 0.32271275 0.35886443 0.4140274 -0.72225684 -0.48042515 -1.5171354
-0.3035134 0.7397249 0.3414337 0.24979123 0.33846748 -1.7203367 0.21039404 -2.0701876
-1.8274035 0.3030649 -0.6897503 -0.55064386 0.30816337 0.3574411 0.29816672 0.44537413
0.3447974 -0.81057197 -1.3121704 -0.5954925 0.36409453 -0.42664418 -0.61530274 -0.007877185
0.4765803 0.2518127 0.17131186 -0.59942853 -0.37170875 0.4317151 0.39955068 0.9823766

weight f4 [24, 96]
00000000: 4a04 f13e ccee 02c0 f906 46c0 bce2 023f
00000010: 6303 41c0 19db 023f 4dc0 6d3e 724b 103f
00000020: aeb9 ee3e b302 e13e d284 b93e cf53 a83e
00000030: 5fee d23e 4311 ab3e 6966 3ac0 5897 e13e
00000040: b62f 9ec0 a976 e5bf 2e44 003f 5318 f7bf
00000050: eafe 18c0 3def eabf b678 0b3f 6741 03c0
00000060: aa9e ec3e 5ba2 ed3e 5f0c 073f c5da 123f
00000070: 75c8 04c0 8fba 52be 79d9 9a3e 59c5 2bc0
00000080: 5841 033f 6e07 1240 3dff 073f b4de c83e
00000090: e003 0b3f f9a3 d93f 1033 103f 18a2 28c0
000000a0: acb8 f4bf 016a c03e 1cc6 1dc0 3cbc 023f
000000b0: e1e2 fb3e 8bfe 12c0 ccc8 003f caf4 1d3f
000000c0: 3a23 babf 1105 eebf 3b5b 063f bd01 d53e
000000d0: c7da 03c0 f299 fc3e 6e9c f03e deae bb3e
000000e0: 8a31 113f c579 febf ffc6 fb3e fa56 093f
000000f0: fdac 153f 2946 57c0 5761 10c0 e0c1 09c0
00000100: a2e3 d7bf 0e07 26c0 cb26 fb3e 9bf8 f53e
00000110: a15a fc3e ba69 24c0 f950 bf3e b417 49c0
00000120: 51c0 43c0 495e fc3e 1d43 38c0 9cfe 06c0
00000130: 4733 043f 6aeb 013f 2dc3 103f b8d7 d53e
00000140: 7053 ff3e c48b b43e fc44 d1bf c1de e5bf
00000150: 335a fa3e ef7b 20c0 ddf6 cbbf b659 053f
00000160: 054d ea3e 8e08 053f feed 013f f9aa 98c0
00000170: 93f1 eabf f096 ea3e 147a 0e3f 8a02 f1bf
00000180: f05a bb3d d57b 19bd f05e 4b3e 411d 51bd
00000190: 650a 8f3f dfae 33bd 1df7 56bd 9222 e0bd
000001a0: 3005 0cbc b36c e93c c66a 22bc 00f4 c1bd
000001b0: e264 e9bd 043c 81bd 939f 793f e90a dcbd
000001c0: e554 0d3f e028 41bf e44c 1bbc 19b9 c63e
000001d0: 68f8 433f 2df5 9a3e aa16 643b 6d85 043f
000001e0: 69fe dbbd d46a 07be e8d9 c6bd 70a4 cebd
000001f0: 8ed8 983e b4fc 833f 50c6 afbc 287f b9bf
00000200: b8c2 47bd 1ce0 7e3f 4495 08be 0d8f 1ebe
00000210: fbb3 70bd 71c7 c43f 4380 ffbd 8d50 853e
00000220: 6f67 a23e 3db3 9fbd 0901 41bf d190 57bd
00000230: 2cd7 06bd d3f0 603e feb9 a1bd ee2d 9d3c
00000240: c7b4 a23e ac96 fe3f 94a8 84bc 9a10 e0bd
00000250: a349 803f 201f ccbd b57d 14be a552 1d3f
00000260: 3545 93bd d43f 0a3f 054a 873c 4db2 95bd
00000270: 17e0 b3bd 30ab 373f 2dc9 99be 8757 243f
00000280: 7773 b6be 3fa7 3ac0 9628 aabd 0d15 91bd
00000290: 35be 033d bf56 243f 0470 09be 4ba1 6a3f
000002a0: 46ca 143f 67ea 243d 1264 53bd 0c40 753f
000002b0: c59c 8d3d 0f24 b4bd 7651 abbd b9ef debd
000002c0: af6c b7bd ce88 9e3e a078 3b3f 5838 373f
000002d0: d658 23be e9ee 4f3f 5099 c03e a4d7 8bbe
000002e0: 54e9 0dbd a1fd 5bbe d588 1bbe 1702 263f
000002f0: b57b 8c3e dc5f 8abd 344a 0ebe 9dac 313d
00000300: 1dbb ce3e 5373 01c0 4619 3dc0 03bf f83e
00000310: 3e62 43c0 acfb f63e ccf3 d23e 37a1 153f
00000320: 8f44 e63e 94ae da3e fdba be3e 6eb7 ae3e
00000330: 1453 c33e 054f c83e dc6b 3ec0 0075 c13e
00000340: f60a 9ec0 8947 dfbf 4ed3 003f 0217 f0bf
00000350: 29e6 15c0 5fcb e4bf e3ed 033f b669 01c0
00000360: 8761 023f 68ec bc3e cd37 013f 6e84 193f
00000370: aa84 09c0 4a63 abbe e5c8 d63e beb7 2cc0
00000380: 0ea6 123f 2169 0a40 42db f03e b209 ef3e
00000390: bd03 f13e 08e4 d53f 937b 073f 6b3f 25c0
000003a0: c0ca e2bf 4048 f43e 2254 22c0 4f38 ef3e
000003b0: 357c be3e 5796 12c0 425f 0b3f 11d5 1c3f
000003c0: f1da acbf 4c74 e8bf 5791 d63e 84c1 e73e
000003d0: 2ee7 09c0 81d9 003f 5029 f93e e628 e73e
000003e0: ec5e 013f 04a7 f6bf 9cdf d23e 41c2 103f
000003f0: 5cb9 fe3e 9520 55c0 14b8 14c0 d9fa 12c0
0.47073585 -2.045825 -3.0941756 0.5112722 -3.0158317 0.51115566 0.23217888 0.5636512
0.46626037 0.43947372 0.36234146 0.3287644 0.41197488 0.33411607 -2.9125006 0.4406078
-4.943324 -1.7926837 0.50104034 -1.9304298 -2.3905587 -1.835426 0.54481065 -2.0508668
0.462148 0.4641293 0.5275325 0.57365066 -2.074735 -0.20578979 0.30244043 -2.6839201
0.5127158 2.2817035 0.5312384 0.3923241 0.5430279 1.7003165 0.56327915 -2.6348934
-1.9118857 0.37580875 -2.4652166 0.5106847 0.49196532 -2.296786 0.5030639 0.61701643
-1.4542 -1.8595296 0.52482957 0.4160289 -2.060228 0.493362 0.46994346 0.3665685
0.56716216 -1.9880911 0.4917526 0.5364834 0.58467084 -3.3636572 -2.2559412 -2.1524582
-1.6866343 -2.5941806 0.49053034 0.48041233 0.49287894 -2.568953 0.37366465 -3.1420717
-3.058613 0.49290684 -2.8790963 -2.1092901 0.51640743 0.5074984 0.56547815 0.41766143
0.49868345 0.35262883 -1.6349177 -1.7958604 0.48896942 -2.5075643 -1.5934712 0.52090013
0.45761886 0.5196618 0.5075377 -4.7708707 -1.8354973 0.4581828 0.55655026 -1.88289
0.09148204 -0.03747161 0.19860435 -0.05105329 1.1175047 -0.043867942 -0.05248176 -0.10944094
-0.008546159 0.028494215 -0.009913152 -0.094703674 -0.11396195 -0.06310275 0.97509116 -0.107442684
0.55207664 -0.75452995 -0.009478781 0.38813093 0.7655091 0.3026518 0.0034803548 0.5176609
-0.10741884 -0.13224345 -0.09709531 -0.10089958 0.29852718 1.0311494 -0.021456867 -1.449193
-0.048769683 0.99560714 -0.1333819 -0.15484257 -0.058765393 1.5373365 -0.12475636 0.26038018
0.3171954 -0.07797859 -0.75392205 -0.052628342 -0.032920048 0.21966867 -0.07896803 0.01918694
0.31778547 1.9889731 -0.016193666 -0.109406665 1.0022472 -0.09966874 -0.14501078 0.6145423
-0.071909346 0.54003644 0.016514787 -0.07309399 -0.08782976 0.71745586 -0.30036297 0.64196056
-0.35634968 -2.916458 -0.083085224 -0.07084093 0.032163817 0.64194864 -0.13421637 0.91652364
0.58121145 0.040262606 -0.051609106 0.9580085 0.06914667 -0.0879594 -0.08365147 -0.10885567
-0.089562766 0.3096375 0.73230934 0.7157035 -0.15951857 0.8122392 0.37616968 -0.27312958
-0.034646347 -0.2148347 -0.15188916 0.6484694 0.2743813 -0.06756565 -0.13895494 0.043377507
0.4037713 -2.0226638 -2.9546676 0.4858323 -3.0528712 0.48238885 0.41201627 0.5844912
0.4497418 0.42711318 0.37252036 0.3412432 0.3814932 0.39122787 -2.9753332 0.37784576
-4.938838 -1.7443706 0.50322425 -1.8757021 -2.3421729 -1.7874564 0.5153486 -2.022077
0.50930065 0.36899114 0.5047577 0.59967697 -2.1487222 -0.3347419 0.41950145 -2.6987147
0.5728463 2.1626666 0.4704228 0.46687084 0.47073165 1.6710215 0.52922934 -2.5819957
-1.7718124 0.47711372 -2.536385 0.46722648 0.37204137 -2.290426 0.54442227 0.61262614
-1.3504316 -1.8160491 0.4190776 0.45264828 -2.154735 0.50331885 0.4866433 0.4514839
0.50535464 -1.9269719 0.41186225 0.5654641 0.49750793 -3.3301136 -2.3237352 -2.2965605

bias f4 [24]
00000000: a20e 2b3e 0670 22be 9940 0d3e 8449 7d3d
00000010: 77b6 c43d 5ed7 d9be 9933 743e 190a 46bf
00000020: 22cf 50bf 6c2e 86bf edfb 263e 8002 353f
00000030: 3c56 89bf 432f e7bf 1411 ca3d 18df 543e
00000040: 1f6e 90be 5223 243f 77ea 443e f744 2b3e
00000050: 1537 193d 8611 1fbf d8a2 c43d d133 773e
0.167048 -0.15863046 0.13794173 0.061837688 0.09605115 -0.42547125 0.23847808 -0.7735916
-0.8156606 -1.0482917 0.1630704 0.7070694 -1.0729442 -1.8061298 0.09866539 0.20788229
-0.28209016 0.64116395 0.19230066 0.16725527 0.037406046 -0.62136114 0.096013725 0.2414086

weight f4 [1, 24]
00000000: 2333 5abf 2c30 7440 3b5a 52bf 8ecf 54bf
00000010: ce0e 8f40 8c91 0f40 17da 54bf 5c9f 0e40
00000020: 8322 ff3f fdf0 0340 2dee 5cbf d44a 3940
00000030: ebb4 e13f c54a 0a40 94a7 37bf 8bdb 43bf
00000040: 53ba 2241 3f75 6140 8299 44bf c827 50bf
00000050: eecb 2440 450a 1b40 37b8 5abf 73ba 5bbf
-0.8523428 3.8154402 -0.8216893 -0.83129203 4.470557 2.2432585 -0.8314528 2.2284765
1.9932407 2.0615838 -0.8630093 2.8951921 1.7633337 2.1608136 -0.7174008 -0.7650687
10.170489 3.5227811 -0.76796734 -0.813107 2.5749469 2.4225018 -0.8543734 -0.85831374
