data/q_value_net_1_food_collection_1190000_GSA.pth (torch, 163043 bytes, 7 tensors)

weight f4 [192, 96]
0	0xbe98d005	-0.29846206
1	0x3e4074d3	0.18794565
2	0x3d8b4327	0.06799918
3	0x3eb88e6e	0.36046165
4	0x3dd17a22	0.10228373
5	0xbe05c3b9	-0.13062944
6	0xbc5265a5	-0.012841617
7	0xbd366059	-0.044525478
8	0xbcf3eb09	-0.02977516
9	0xbdc6c7a4	-0.09706047
10	0xbf4ba682	-0.79550946
11	0xbe51631a	-0.2044796
12	0x3d61abc5	0.055095453
13	0xbd85eee5	-0.06539706
14	0x3d592feb	0.053024214
15	0xbd729ca9	-0.059231434
16	0x3ecaa0ae	0.39575714
17	0x3cde16af	0.027110426
18	0x3d4d9ba0	0.050197244
19	0x3d24af3a	0.04020617
20	0x3c792b65	0.0152081
21	0xbe065be0	-0.13120985
22	0x3e31e4de	0.17372462
23	0x3e924698	0.28569484
24	0x3f53de25	0.8276084
25	0xbe189ebb	-0.14904301
26	0xbcf9209f	-0.030411063
27	0xbd207a20	-0.039178967
28	0xbd97325a	-0.07382651
29	0xbc64021e	-0.01391652
30	0xbd8992c8	-0.067174494
31	0x3ced03fc	0.028932564
32	0xbf5fc57d	-0.8741072
33	0x3b8528d4	0.004063705
34	0xbe124340	-0.14283466
35	0x3cd7ae16	0.026328128
36	0xbdc22c70	-0.09481132
37	0x3dd08e83	0.10183432
38	0xbecc4ee8	-0.3990395
39	0xbd805712	-0.06266607
40	0xbee5e258	-0.4489925
41	0xbd7bb226	-0.061449192
42	0xbebb72ec	-0.36611116
43	0xbe00ac1d	-0.12565656
44	0xbe85a3ad	-0.26101437
45	0x3df48a2a	0.11940415
46	0xbddf76e8	-0.109113514
47	0x3d718aae	0.058970146
48	0x3e1be740	0.15224934
49	0xba19ca73	-0.0005866654
50	0x3d5cebfd	0.053935993
51	0x3d8d301c	0.06893942
52	0xbd8d5f28	-0.06902915
53	0x3d1c3210	0.03813368
54	0xbf40c075	-0.75293666
55	0xbd1740ea	-0.03692714
56	0x3e188fe0	0.14898634
57	0x3c921837	0.017833812
58	0xbb815a0b	-0.0039475015
59	0x3d52a8f0	0.051430643
60	0x3def10e8	0.116731465
61	0xbb91365f	-0.0044315304
62	0x3ea0682a	0.3132947
63	0xbd180651	-0.0371154
64	0xbd31b379	-0.04338405
65	0xbe216d26	-0.15764293
66	0xbebbff18	-0.3671806
67	0x3d7ae767	0.06125584
68	0xbe62a1a6	-0.22131976
69	0xbea2dc79	-0.31808832
70	0x3c4f7d78	0.012664191
71	0xbd93e4c7	-0.0722137
72	0x3d25cdf3	0.04047961
73	0xbd76aae5	-0.06022157
74	0x3dd7aaba	0.105306104
75	0x3bb2e490	0.0054593757
76	0xbf3d11a1	-0.73855025
77	0xbd930a51	-0.07179702
78	0x3dfa7dc0	0.12231016
79	0xbdd2edb0	-0.102992415
80	0x3d0875b0	0.03331536
81	0x3cf577e8	0.029964402
82	0x3e17973e	0.14803788
83	0x3dbfd82d	0.09367404
84	0x3eb0c806	0.34527606
85	0x3e093747	0.13399993
86	0x3d7620c2	0.060089834
87	0x3e119dbd	0.14220329
88	0xbc24569b	-0.010030414
89	0x3db49468	0.08817369
90	0x3e220903	0.1582375
91	0xbd0788fb	-0.03308962
92	0xbcca867e	-0.024722334
93	0x3c93e0e1	0.018051567
94	0xbd552964	-0.052041426
95	0xbcdf41d1	-0.027253063
96	0xbf109af4	-0.5648644
97	0x3effdd3b	0.49973473
98	0xbecb4968	-0.39704442
99	0x3eb85db2	0.36008984
100	0x3e1115b0	0.1416843
101	0x3b8b241e	0.004246249
102	0x3d382233	0.04495449
103	0x3ce4ef62	0.027946178
104	0x3e336550	0.17519116
105	0xbd917689	-0.07102687
106	0x3dee3b2b	0.11632379
107	0x3ce4445f	0.027864633
108	0x3dc2f8f8	0.09520143
109	0x3d608265	0.054811854
110	0x3e115f95	0.14196618
111	0xbd63ead1	-0.05564386
112	0x3ee01170	0.43763304
113	0x3ede7afa	0.434532
114	0x3eb522fb	0.3537825
115	0xbf06ca5a	-0.52652514
116	0x3e34cc2b	0.17656009
117	0xbe5f43a3	-0.21803145
118	0x3e36b3ac	0.17841977
119	0x3f6db2a4	0.9285071
120	0x3f403bbf	0.75091165
121	0x3f9cf498	1.2262144
122	0xbd612f9b	-0.05497704
123	0xbe80ae8e	-0.25133175
124	0xbe0e8a05	-0.13919838
125	0xbe4d6995	-0.20059808
126	0xbdae03b7	-0.08496802
127	0xbe50973a	-0.20370188
128	0xbe5ae352	-0.21375778
129	0xbe2d4d64	-0.16924053
130	0xbe2effa0	-0.170897
131	0xbe7a357e	-0.24434468
132	0xbe4d64e4	-0.20058018
133	0xbe6125cf	-0.21987079
134	0xbedfb3fe	-0.4369201
135	0xbeaf5e35	-0.34251562
136	0xbe2f2889	-0.17105307
137	0xbf6338b3	-0.8875839
138	0xbecc93ca	-0.39956504
139	0xbf181fab	-0.5942332
140	0x3dbc0f77	0.09182637
141	0x3cdb81c0	0.026795268
142	0x3f6bcce9	0.92109543
143	0xbe937e17	-0.28807136
144	0xbd920b37	-0.07131045
145	0x3ea48852	0.32135254
146	0xbdf3c65d	-0.11903069
147	0x3e180bf5	0.14848311
148	0xbc5125da	-0.012765372
149	0x3e994c31	0.29940942
150	0x3d7664d5	0.060154755
151	0x3e9dc9a3	0.308179
152	0xbac05f80	-0.0014676899
153	0x3e8ca2cc	0.27467954
154	0xbd107e8f	-0.035276946
155	0x3e4e2779	0.20132245
156	0xbee944c5	-0.4556028
157	0x3f00b0ad	0.50269586
158	0x3daad198	0.08340758
159	0x3f57d490	0.8430872
160	0xbe5545c7	-0.20827399
161	0x3e1842ed	0.1486928
162	0xbe96103e	-0.29309267
163	0x3e57e4b6	0.2108334
164	0x3f0b5c0e	0.5443734
165	0x3f4e263c	0.8052709
166	0x3d5ca16a	0.053864874
167	0x3cfa6e78	0.030570254
168	0xbd48f9d7	-0.04906639
169	0x3dac2a9f	0.08406567
170	0x3b4aa887	0.0030923204
171	0x3d7c4831	0.061592285
172	0x3dc6ef3e	0.097136006
173	0x3c1cb181	0.009563805
174	0xbc02c4bb	-0.0079814745
175	0x3d9d05e0	0.07667136
176	0x3e1962d2	0.14979103
177	0x3d0dbeb3	0.034605693
178	0xbe3175c3	-0.17330079
179	0x3e4d4095	0.20044167
180	0x3e9f8226	0.31153983
181	0x3f1d4d43	0.6144602
182	0x3eb5f0f5	0.35535398
183	0xbe3e3d3b	-0.18578045
184	0xbdbccae6	-0.09218387
185	0x3dc6f28f	0.09714233
186	0x3e10116c	0.14069146
187	0x3e70d8f7	0.23520266
188	0x3d07f102	0.033188827
189	0xbd0ee4b9	-0.034886096
190	0x3e1113f4	0.14167768
191	0x3c4fe7c4	0.012689535
192	0xbf3b6767	-0.73204654
193	0xbef7d14a	-0.48401862
194	0xbf9b59e8	-1.2136812
195	0xbfa1c2f5	-1.2637621
196	0x3cf3e878	0.029773936
197	0x3d815cff	0.06316566
198	0xbe02cc4e	-0.12773249
199	0x3e668214	0.22510558
200	0xbcfff461	-0.031244459
201	0x3e034de3	0.1282268
202	0x3ce6def1	0.028182479
203	0x3e2366d7	0.15957199
204	0x3d075052	0.033035584
205	0x3e972b40	0.29525185
206	0x39a29a0c	0.00031013822
207	0x3e6750e5	0.22589453
208	0xbe1e03e0	-0.15431166
209	0x3e721665	0.23641355
210	0xbd963d1b	-0.07335874
211	0x3e9f9d91	0.311749
212	0x3d36914a	0.044572152
213	0x3f0d264d	0.5513657
214	0xbf3ebf89	-0.7451101
215	0xbe953f32	-0.29149777
216	0x3e7c5117	0.24640308
217	0x3f2eb600	0.6824646
218	0xbd0f67ad	-0.035010982
219	0xbb9a8f3b	-0.0047167814
220	0xbe05376f	-0.13009427
221	0xbe0e32a7	-0.1388651
222	0xbd70099d	-0.058602918
223	0x3cad291c	0.021137767
224	0xbdf5a1f9	-0.119937845
225	0xbda4d615	-0.080486454
226	0xbdf45003	-0.119293235
227	0xbde5cdfd	-0.1122093
228	0xbe1a8b1b	-0.15092127
229	0x3a5aeef3	0.0008351646
230	0x3db4a039	0.088196225
231	0xbea9217b	-0.33033356
232	0x3c429686	0.011876708
233	0x3e099f90	0.13439775
234	0x3e7f020e	0.24903128
235	0x3f2355e5	0.6380294
236	0xbf82410d	-1.0176102
237	0xbe98d4e4	-0.29849923
238	0xbed73d34	-0.42038882
239	0xbed9c228	-0.42530942
240	0xbb29ab6a	-0.0025889524
241	0x3d87e193	0.06634822
242	0xbd11f1d0	-0.035631
243	0x3e05d7bd	0.13070579
244	0xbd6a80f3	-0.05725188
245	0xbd525f58	-0.051360458
246	0xba6ec7dc	-0.0009108761
247	0x3d98dc05	0.074638404
248	0xbdfb1044	-0.12258962
249	0xbcc2e738	-0.023791894
250	0x3d4dfecf	0.050291833
251	0x3d742388	0.059604198
252	0x3dc1bbf4	0.09459677
253	0xbeb3390b	-0.35004458
254	0x3df3659e	0.11884616
255	0xbe413cbc	-0.18870825

bias f4 [192]
0	0xbec4dcfd	-0.3844985
1	0xbe8d4012	-0.27587944
2	0x3f4e7bdd	0.8065775
3	0xbeba3063	-0.3636504
4	0x3f681044	0.9064982
5	0x3de48b6b	0.11159404
6	0xbe4455f2	-0.1917341
7	0xbe845b77	-0.25851032
8	0x3f0484ea	0.5176531
9	0x3e0f87cd	0.14016648
10	0xbf2b338d	-0.66875535
11	0x3e947aef	0.2900004
12	0x3e7a531d	0.24445768
13	0x3eb53df9	0.35398844
14	0xbe018614	-0.12648803
15	0x3e54cf71	0.20782258
16	0x3ec80f4d	0.39074174
17	0x3f1d12aa	0.61356604
18	0xbedfb0f3	-0.4368969
19	0x3e86d808	0.26336694
20	0x3ef134b0	0.4711051
21	0xbefc1abd	-0.4923915
22	0xbebb3f9d	-0.3657197
23	0x3eb60cb9	0.35556582
24	0x3efa4f4c	0.48888624
25	0x3f00539f	0.50127596
26	0x3f20291e	0.6256274
27	0x3eb2b102	0.3490067
28	0x3e96f8f2	0.29486805
29	0xbe814067	-0.25244448
30	0x3cfde786	0.030994188
31	0x3d0e47e1	0.034736518
32	0x3f3d4b2f	0.73942846
33	0x3c9cdf84	0.01914955
34	0xbe2ccef4	-0.16875821
35	0x3ccf4298	0.025300309
36	0x3f18c24a	0.5967146
37	0x3eedce1d	0.46446314
38	0x3e0440c8	0.12915337
39	0xbe8480dd	-0.25879565
40	0xbdcb6761	-0.09931827
41	0x3eecef10	0.4627614
42	0x3e9332a9	0.28749588
43	0x3e62aed5	0.22137006
44	0x3f3ac48d	0.7295616
45	0x3f039516	0.5139936
46	0x3e934aa3	0.2876788
47	0x3f0cea51	0.5504504
48	0x3e8163e2	0.25271517
49	0x3ebc39fa	0.36762983
50	0xbe3aab03	-0.18229298
51	0x3f1ba125	0.6079276
52	0xbc4ec12e	-0.0126193
53	0x3f259a18	0.64688253
54	0x3ec90841	0.3926411
55	0xbf38c111	-0.72169596
56	0x3ea9edc9	0.33189228
57	0x3f05481b	0.5206315
58	0xbf4ae711	-0.7925883
59	0x3e8f9b76	0.28048295
60	0xbeca9ee6	-0.39574355
61	0x3e85b6d0	0.26116037
62	0x3c43746c	0.011929613
63	0x3e4a9912	0.19784954
64	0x3f5742de	0.84086406
65	0x3eeeabbc	0.46615398
66	0x3e340ade	0.1758227
67	0x3e657283	0.22406964
68	0xbecc92e0	-0.39955807
69	0x3f09ea9c	0.5387361
70	0x3f897463	1.0738643
71	0x3f05d373	0.5227577
72	0x3e2faaea	0.17155042
73	0x3e82da12	0.25557
74	0x3e9e1c81	0.30881122
75	0xbe70e27b	-0.23523895
76	0x3ed5c109	0.41748837
77	0xbece2ea6	-0.40269965
78	0xbeda9c80	-0.42697525
79	0xbe84889e	-0.2588548
80	0xbe03a724	-0.12856728
81	0x3eec63c0	0.46169853
82	0xbd0f5725	-0.034995217
83	0x3f07e595	0.5308469
84	0xbef4abe0	-0.4778738
85	0x3efcafb4	0.493528
86	0x3f21cc46	0.6320232
87	0xbf01837d	-0.5059126
88	0x3f353cae	0.70795715
89	0x3f0e5507	0.5559849
90	0x3f020dac	0.5080211
91	0x3ec26aff	0.37972257
92	0x3ead30f7	0.3382642
93	0x3f48c943	0.784321
94	0x3f18bc91	0.5966273
95	0x3e2c69f3	0.16837291
96	0xbe248a8f	-0.16068481
97	0x3fc18abe	1.5120466
98	0xbde9aa49	-0.114094324
99	0xbedf2901	-0.4358597
100	0x3dc4fd7b	0.0961866
101	0xbec61c37	-0.386934
102	0x3f961bce	1.1727235
103	0xbe96ebc1	-0.2947674
104	0xbed7890f	-0.42096755
105	0xbef7b04e	-0.48376697
106	0x3e90169f	0.2814226
107	0x3db43a01	0.08800126
108	0xbe21ed40	-0.1581316
109	0x3f09752b	0.5369441
110	0x3e1f536f	0.15559171
111	0xbf087f5c	-0.53319335
112	0xbee389e7	-0.4444115
113	0xbe43a8ec	-0.19107407
114	0xbea707cb	-0.32623133
115	0x3f800a01	1.0003053
116	0x3f12152f	0.57063574
117	0xbe27c3a5	-0.16383226
118	0x3f07439d	0.52837545
119	0x3f0a4486	0.5401081
120	0xbe7b3b63	-0.24534373
121	0x3f15edb1	0.58565813
122	0x3ee77940	0.45209694
123	0xbec0cade	-0.37654775
124	0x3f03705d	0.5134333
125	0x3e622fa9	0.22088493
126	0x3e8aa95e	0.27082342
127	0x3eaabd72	0.3334766
128	0x3e641a20	0.22275591
129	0xbf8272d5	-1.0191294
130	0x3e8befb5	0.2733132
131	0xbecdd0ee	-0.40198463
132	0x3d13db85	0.036098022
133	0x3f89e5b2	1.0773222
134	0xbecefa1f	-0.40425202
135	0x3ed4ff78	0.41601157
136	0xbeb7e4be	-0.35916704
137	0xbf0126e7	-0.50449985
138	0xbec2e963	-0.38068685
139	0xbe0fe776	-0.14053139
140	0x3ea9fa37	0.3319871
141	0x3f1b207a	0.6059643
142	0x3f32ba02	0.69815075
143	0x3ecab1ae	0.39588684
144	0x3e9799f6	0.2960965
145	0xba46c5f6	-0.0007582599
146	0xbf1e1ced	-0.6176289
147	0xbee8fe40	-0.45506477
148	0x3ed35920	0.41278934
149	0x3f1d11c9	0.61355263
150	0x3f2d149f	0.6760959
151	0xbf8ca675	-1.0988299
152	0xbf72f557	-0.9490561
153	0xbf3f6a13	-0.7477123
154	0xbbec00a1	-0.0072022234
155	0x3eebf0f7	0.4608228
156	0x3f07f014	0.53100705
157	0x3ee8844e	0.4541344
158	0x3d07d506	0.03316214
159	0xbd50900f	-0.050918635
160	0xbe8c8f60	-0.27453136
161	0xbe610301	-0.21973802
162	0x3edb438e	0.42824978
163	0x3ef81924	0.4845668
164	0x3e272c73	0.1632555
165	0x3e387a17	0.18015324
166	0xbdf31085	-0.11868385
167	0x3e06f6c4	0.13180071
168	0xbf58bdc1	-0.8466454
169	0x3ea2487f	0.31695935
170	0x3f9dc1b8	1.2324743
171	0x3d4c49e1	0.049875144
172	0x3c2511db	0.010075058
173	0x3f2cace9	0.6745134
174	0x3f205adf	0.6263866
175	0x3f05c321	0.5225087
176	0x3d83a0f8	0.06427187
177	0x3ddbbe53	0.10729661
178	0x3f56e79c	0.8394716
179	0xbe1e479a	-0.15457001
180	0xbe22bdc5	-0.15892704
181	0x3f39f3d2	0.72637665
182	0x3f3c227c	0.7349012
183	0x3e90b859	0.28265646
184	0x3f239d67	0.6391205
185	0xbf82c2a1	-1.0215646
186	0x3ee51e07	0.44749472
187	0xbf6c74c0	-0.92365646
188	0xbe85e960	-0.26154613
189	0x3ea8816a	0.32911235
190	0xbead9d2a	-0.3390897
191	0xbf4aba99	-0.79190975

weight f4 [96, 192]
0	0x3eb0f345	0.345606
1	0x3e50afe3	0.20379595
2	0x3e1e1613	0.15438108
3	0xbb727c5f	-0.00370004
4	0x3e4cd2f3	0.20002346
5	0x3e83144f	0.25601432
6	0x3dddb049	0.10824639
7	0x3e9a4dc0	0.30137444
8	0x3e7e3c68	0.2482773
9	0x3dee4c41	0.11635638
10	0xbe9013f2	-0.28140217
11	0x3eaf434d	0.34231034
12	0x3ebba178	0.36646628
13	0x3e9f73fa	0.3114317
14	0x3df9ad3c	0.12191245
15	0x3e66a821	0.22525074
16	0x3e657275	0.22406943
17	0x3eb67763	0.3563796
18	0xbd551aa4	-0.05202736
19	0x3e749862	0.23886254
20	0x3eceb95f	0.40375802
21	0xbe5fbfc9	-0.21850504
22	0x3d878424	0.06617001
23	0x3e819d14	0.25315154
24	0x3edafd3c	0.42771327
25	0x3ec0ad8e	0.37632412
26	0x3ea5fc0a	0.32418853
27	0x3e8ac1ac	0.27100885
28	0x3ecdd138	0.40198684
29	0xbd8314d5	-0.06400458
30	0x3db7f932	0.08983077
31	0x3e811ef1	0.2521892
32	0x3eb065e8	0.34452748
33	0x3e5844ae	0.21119949
34	0xbd95d384	-0.07315734
35	0x3e65ecee	0.22453663
36	0x3e83758a	0.25675613
37	0x3e909dd3	0.2824541
38	0x3ea19e1f	0.3156595
39	0xbdd339aa	-0.10313733
40	0x3dd22f6f	0.102629535
41	0x3e544149	0.2072803
42	0x3edebd33	0.43503723
43	0x3e5d14df	0.21589993
44	0x3e8286b4	0.25493395
45	0x3ea0aa3f	0.31379887
46	0x3eb736a5	0.35783878
47	0x3eb571ed	0.3543848
48	0x3ea0c602	0.31401068
49	0x3da24921	0.079241045
50	0x3ddbfe12	0.107418194
51	0x3ed173a7	0.40908548
52	0x3e704a5c	0.23465866
53	0x3ee9601e	0.45581144
54	0x3edb7d4c	0.4286903
55	0xbf84aefc	-1.0365901
56	0x3e8c56d1	0.27409986
57	0x3e12eece	0.1434891
58	0xbca05676	-0.019572478
59	0x3eb6f0f8	0.3573072
60	0x3c5a45aa	0.013322273
61	0x3e8f0f49	0.2794135
62	0x3e8ed061	0.27893355
63	0x3e45ddbe	0.19322869
64	0x3eab6992	0.3347898
65	0x3e85bd2f	0.26120898
66	0x3ec317ec	0.38104188
67	0x3ec81878	0.39081168
68	0xbbf0a4ce	-0.007343865
69	0x3e853f88	0.26025033
70	0x3e3d5dc5	0.18492801
71	0x3eda6932	0.42658383
72	0x3e8f6985	0.28010193
73	0x3ee40217	0.44532844
74	0x3ea0f5d7	0.3143756
75	0x3ea193b7	0.3155801
76	0x3e84d1cb	0.2594131
77	0xbdc560dd	-0.09637616
78	0x3d2431fa	0.040086724
79	0x3edbf1a1	0.42957786
80	0x3ddd4e5a	0.1080596
81	0x3e8c9d6d	0.27463856
82	0x3cdbeac3	0.026845342
83	0x3e178f59	0.14800777
84	0xbe1933c2	-0.1496115
85	0x3e269839	0.16269006
86	0x3eb0b260	0.3451109
87	0x3dced706	0.10099606
88	0x3ea743dd	0.32668963
89	0x3e749eca	0.23888698
90	0x3e497d6a	0.19676748
91	0x3e2bd99f	0.16782235
92	0x3e384d09	0.17998137
93	0x3e30fcde	0.17283961
94	0x3ebbe751	0.36699918
95	0x3e35b679	0.17745389
96	0x3e4a3c05	0.19749458
97	0x3e91a6e9	0.28447655
98	0x3d156ec0	0.036482573
99	0xbbcdd023	-0.0062809153
100	0x3e940c41	0.289156
101	0xbdb4d7db	-0.08830234
102	0x3e46ad6b	0.19402091
103	0x3a1dc21f	0.0006018001
104	0x3e01b540	0.12666798
105	0xbdbbae23	-0.09164073
106	0xbd77fb4f	-0.0605424
107	0x3e27705c	0.16351455
108	0x3ca80730	0.02051124
109	0x3ca066b5	0.019580225
110	0x3e346ed7	0.17620407
111	0x3e0d01d7	0.13770233
112	0x3d8b75bf	0.06809568
113	0x3dc124fd	0.09430883
114	0xbefa4908	-0.48883843
115	0x3bc28238	0.0059359334
116	0x3e753977	0.23947702
117	0x3eb39fab	0.35082754
118	0x3e4aa628	0.19789946
119	0x3ecf74e4	0.40518868
120	0x3d81c0e3	0.06335618
121	0x3e9b661d	0.30351344
122	0x3e9ab074	0.30212748
123	0x3e35dd85	0.17760284
124	0x3ee3a36c	0.44460618
125	0x3e4f6866	0.20254669
126	0x3e9ab334	0.30214846
127	0x3ec0a975	0.37629285
128	0x3ea8c4bf	0.32962605
129	0xbf0168f7	-0.5055079
130	0x3e1c1cc5	0.1524535
131	0xbf210292	-0.62894547
132	0x3e090abb	0.13383
133	0x3ec21086	0.3790323
134	0x3e2de034	0.16980058
135	0x3e8dfe7b	0.27733216
136	0x3e26ef67	0.16302262
137	0xbe99facf	-0.30074164
138	0x3e6b44f1	0.22975518
139	0x3d17a62f	0.03702372
140	0x3e995473	0.29947242
141	0x3eb2c555	0.34916177
142	0x3efc3426	0.49258536
143	0x3ee201cc	0.44141996
144	0x3e63523d	0.2219934
145	0x3eca8f63	0.3956252
146	0xbe3c4750	-0.18386579
147	0x3d815df3	0.063167475
148	0x3eb8a87b	0.3606604
149	0x3e9352d0	0.28774118
150	0x3ec8fda0	0.39256
151	0xbe8b1e63	-0.2717162
152	0xbf659b83	-0.8969042
153	0xbbafe566	-0.0053679226
154	0x3e46ade4	0.19402272
155	0x3ec23d8a	0.37937576
156	0x3dd0947a	0.1018457
157	0x3ea76604	0.3269502
158	0x3e44f95e	0.19235751
159	0x3ec0ca09	0.3765414
160	0x3dbeac8c	0.093102545
161	0x3db847ac	0.08998045
162	0x3e8fe505	0.28104416
163	0x3ed7a8b8	0.4212091
164	0x3e80fe83	0.25194177
165	0x3eb98be8	0.36239552
166	0x3db875ab	0.090068184
167	0x3ea95698	0.33073878
168	0xbf64fdf7	-0.8945002
169	0x3ecaf438	0.3963945
170	0x3ee021dd	0.43775836
171	0x3e644550	0.22292066
172	0x3e5cc85d	0.21560808
173	0x3ee89fb8	0.45434356
174	0x3e94c74e	0.29058307
175	0x3e244857	0.1604322
176	0x3e7b851d	0.24562497
177	0x3eb127cd	0.34600678
178	0x3e89cb5d	0.26912966
179	0x3ed52c2e	0.4163527
180	0x3e90fac0	0.28316307
181	0x3ee0fbe3	0.43942174
182	0x3d297abc	0.041376814
183	0x3da63e55	0.08117358
184	0x3e694da7	0.22783528
185	0xbf1ad059	-0.60474163
186	0x3e8bbe63	0.2729369
187	0xbf40ab78	-0.7526164
188	0x3e29ad85	0.16570099
189	0x3ecc76b4	0.39934313
190	0x3e1cef33	0.15325622
191	0xbf6575b4	-0.89632726
192	0x3ed38ade	0.41316885
193	0x3e6755ee	0.22591373
194	0x3e738fc5	0.23785312
195	0xbd714b1b	-0.058909517
196	0x3e874f0e	0.264275
197	0x3e8c2e62	0.27379137
198	0x3dab45e7	0.08362942
199	0x3e2ba6aa	0.16762796
200	0x3ea9ad35	0.3313996
201	0x3cafc4a4	0.02145607
202	0xbebfb936	-0.37445992
203	0x3e9c23dd	0.30496112
204	0x3ec5b5f5	0.38615385
205	0x3ed78c66	0.42099303
206	0x3e4e5f4b	0.20153539
207	0x3e8cc603	0.2749482
208	0x3e925247	0.28578398
209	0x3e9e55f4	0.30924952
210	0xbd29e0c4	-0.04147412
211	0x3ea964f7	0.33084843
212	0x3eb9ad6c	0.36265123
213	0xbe18ea22	-0.14933065
214	0x3d2bf2b6	0.041979514
215	0x3e97ea0f	0.2967076
216	0x3eac10f5	0.33606687
217	0x3e98f066	0.2987091
218	0x3eda5b8a	0.42647964
219	0x3eb5c3f9	0.35501078
220	0x3ebfe964	0.3748275
221	0xbd58cc6e	-0.052929334
222	0x3e0badd8	0.13640535
223	0x3e8385ae	0.25687927
224	0x3eb9b4cf	0.36270759
225	0x3e1a649a	0.15077439
226	0x3cfacc08	0.030614868
227	0x3e9a4320	0.30129337
228	0x3e883b0b	0.26607546
229	0x3e92e3a0	0.2868929
230	0x3e87f26d	0.26552144
231	0xbdaad6ad	-0.083417274
232	0x3e5b7468	0.21431124
233	0x3e342c64	0.17595059
234	0x3ecbb763	0.3978835
235	0x3ea78d3f	0.3272495
236	0x3e9c7041	0.30554393
237	0x3e4837ae	0.1955249
238	0x3ec39b2b	0.3820432
239	0x3ed0a006	0.40747088
240	0x3edf19f5	0.4357449
241	0x3dfc87d4	0.12330595
242	0x3db148ea	0.086564854
243	0x3eee1745	0.46502128
244	0x3e90aa46	0.28254908
245	0x3f0cb124	0.54957795
246	0x3ecfa6df	0.40557
247	0xbf70e113	-0.94093436
248	0x3e7df65e	0.24801013
249	0x3e685722	0.22689489
250	0xbc88af56	-0.01668517
251	0x3e94f80b	0.29095492
252	0xbd9bb266	-0.07602386
253	0x3ea70fa9	0.32629135
254	0x3ec5be87	0.38621923
255	0x3dd61dc7	0.10454898

bias f4 [96]
0	0x3ebe8cb0	0.3721671
1	0x3eacd2ce	0.3375458
2	0xbfc13bcf	-1.5096377
3	0x3eb044db	0.34427533
4	0x3ebb58ab	0.36591086
5	0x3e8767a2	0.26446253
6	0xbe23ea1c	-0.16007274
7	0x3e87c7da	0.26519662
8	0xbf32fc93	-0.6991665
9	0x3f2404f8	0.6407008
10	0xbf6063e9	-0.8765245
11	0x3eb2f4a5	0.34952274
12	0xc015392a	-2.331614
13	0xbecba5c0	-0.39774895
14	0xbfaf66f0	-1.3703289
15	0x3e6b037f	0.22950552
16	0x3e9953ca	0.29946738
17	0xbfe9ce37	-1.8266057
18	0xbef52c20	-0.47885227
19	0x3ece695c	0.40314758
20	0x3f3b7a9a	0.7323395
21	0x3ecc92a5	0.3995563
22	0xbf8d7130	-1.1050167
23	0x3e99478f	0.29937407
24	0xbdd91d38	-0.10601276
25	0xbf041342	-0.51591885
26	0xbe9aa5a7	-0.30204508
27	0x3f1ebdef	0.62008566
28	0x3e7ede0a	0.24889389
29	0xbea883e8	-0.32913136
30	0x3ec6edf9	0.38853434
31	0x3ecce89c	0.40021217
32	0xbf7b9705	-0.9827731
33	0x3f5c7623	0.8611776
34	0xbf9e70aa	-1.2378132
35	0x3f224371	0.6338416
36	0xbe902d5a	-0.281596
37	0x3f0d63b9	0.5523029
38	0x3ed5f00f	0.41784713
39	0x3eaf0a27	0.34187433
40	0x3f1fb062	0.62378514
41	0xbffb4eae	-1.9633386
42	0x3f000255	0.5000356
43	0x3eac18dd	0.3361272
44	0x3e12a390	0.14320207
45	0xbe65fa5c	-0.22458786
46	0x3f033f6c	0.5126865
47	0xbdd47ec6	-0.103757426
48	0x3ec22d72	0.37925297
49	0x3ec7b85a	0.39007837
50	0x3e9221e5	0.28541484
51	0xbf37c1fa	-0.7178036
52	0xbf9c9fdf	-1.2236289
53	0x3f086191	0.53273875
54	0xbf3122a2	-0.6919347
55	0x3ef57396	0.47939748
56	0x3e804e60	0.25059795
57	0xbfc4c12f	-1.5371455
58	0x3eaea130	0.3410735
59	0x3e8921eb	0.2678369
60	0xbf0eb818	-0.55749655
61	0x3e921e8d	0.28538933
62	0x3f314730	0.6924925
63	0xbec650e6	-0.38733596
64	0x3f19c6eb	0.6006915
65	0x3e54eb6f	0.20792936
66	0x3ebb22ad	0.36549893
67	0x3ea3804f	0.3193383
68	0x3e9878fb	0.297798
69	0xc0056f86	-2.0849319
70	0x3ebff92b	0.37494788
71	0x3e97b633	0.29631194
72	0x3efa3aa0	0.48872852
73	0x3eb0c80b	0.3452762
74	0xc003e421	-2.060799
75	0x3e7fb0ad	0.2496974
76	0x3eb7da52	0.35908753
77	0xbd42fbbf	-0.047603365
78	0x3e4d79de	0.2006602
79	0x3edfde64	0.43724358
80	0x3e9b51f9	0.30335978
81	0x3e28f1d6	0.16498503
82	0xbf887c86	-1.0663002
83	0x3f0d5531	0.55208117
84	0x3e8bbcb5	0.2729241
85	0x3f1bedc2	0.60909665
86	0x3ed842e9	0.42238548
87	0x3ea11ca6	0.3146717
88	0xbfce2bfc	-1.6107173
89	0x3e92c297	0.28664085
90	0xbea5b775	-0.3236653
91	0x3ecf2a60	0.40462017
92	0xbf2dad35	-0.6784242
93	0x3e62c124	0.2214399
94	0xbff3e91d	-1.9055516
95	0x3f2200c5	0.63282424

weight f4 [24, 96]
0	0xbe191b52	-0.14951828
1	0xbe093269	-0.13398136
2	0x3f12b906	0.57313573
3	0xbdcfa6d0	-0.10139239
4	0xbd9d22b6	-0.07672636
5	0xbd9b25dc	-0.075755805
6	0x3ed8baf6	0.4233014
7	0xbde14a92	-0.11000551
8	0x3f866082	1.0498202
9	0xc00850da	-2.1299348
10	0x3f479e83	0.77976245
11	0xbe56a112	-0.20959881
12	0x3f4c5dc9	0.79830605
13	0x3eee48c5	0.46539894
14	0x3f5ad5b2	0.85482323
15	0xbe9674ae	-0.29385895
16	0xbe3f2902	-0.18667987
17	0x3f3cbc96	0.7372526
18	0x3f2ea597	0.6822142
19	0xbe57c897	-0.21072613
20	0x3b6e7252	0.0036384058
21	0xbe017eab	-0.12645976
22	0x3ecfa21a	0.4055336
23	0xbe5e430e	-0.21705267
24	0x3f68c6f8	0.909286
25	0x3f09f6bd	0.5389212
26	0xbdbafdb9	-0.09130425
27	0x3d9898e3	0.07451036
28	0xbe01373c	-0.12618726
29	0x3eeb2e9e	0.45934004
30	0x3ee79c36	0.45236367
31	0xbe19a1bc	-0.15003103
32	0x3f583206	0.8445133
33	0x3e026616	0.12734255
34	0x3efe1432	0.49624783
35	0xbd5c189a	-0.0537344
36	0x3f00086d	0.50012857
37	0xbd13c611	-0.036077563
38	0xbe390e69	-0.18071903
39	0xbda04a84	-0.07826713
40	0xbdb9e59c	-0.09076998
41	0x3f1c9f2c	0.61180377
42	0xbd5a7922	-0.053338178
43	0xbd64b325	-0.055834908
44	0xbe5013ea	-0.20320097
45	0x3f8d2d1d	1.1029392
46	0xbdc72594	-0.09723964
47	0x3fa1ca98	1.2639952
48	0xbe1c03c8	-0.15235817
49	0xbcb39532	-0.021921728
50	0xbe1fb7aa	-0.15597406
51	0x3f4c27ca	0.79748213
52	0x3f6da5bd	0.9283102
53	0xbcd96af6	-0.02654026
54	0x3e2430a0	0.16034174
55	0xbd9ecae8	-0.07753545
56	0xbdf6493a	-0.120256856
57	0x3f0789c7	0.52944607
58	0xbdc1981b	-0.0945284
59	0xbe2b744e	-0.16743585
60	0x3df0b5ea	0.11753447
61	0xbda91889	-0.08256633
62	0x3dd1011b	0.10205289
63	0x3c1061cd	0.00881238
64	0x3f7cb24d	0.98709565
65	0xbe79d5b9	-0.24397935
66	0xbe225042	-0.15850928
67	0xbdbe8a59	-0.093037315
68	0xbe6558a8	-0.22397101
69	0x3f8027f2	1.001219
70	0xbddce591	-0.10785974
71	0xbdad8469	-0.08472521
72	0xbd40167e	-0.04689645
73	0xbd9f4d60	-0.0777843
74	0x3f84c22a	1.0371754
75	0xbe84d625	-0.2594463
76	0xbe40864c	-0.1880123
77	0x3f68fec9	0.9101377
78	0xbe3642fa	-0.17798987
79	0xbe301497	-0.17195354
80	0xbda89a82	-0.08232595
81	0xbdbedeb3	-0.0931982
82	0x3f8e81f5	1.113341
83	0xbd2d70f6	-0.042344056
84	0xbe180c65	-0.14848478
85	0x3f9e929d	1.2388493
86	0xbe5b5340	-0.21418476
87	0xbe440a53	-0.19144563
88	0x3ee04e85	0.43809906
89	0xbe8f194b	-0.27948985
90	0x3f10a8a5	0.5650733
91	0xbc93a694	-0.018023767
92	0x3f19e072	0.601081
93	0xbe65e981	-0.22452356
94	0x3f955b82	1.1668551
95	0xbe349dba	-0.17638293
96	0xbe7c9f74	-0.24670202
97	0xbddf31e4	-0.10898188
98	0x3ffd3560	1.9781914
99	0xbeddf0ff	-0.43347928
100	0xbe71a5e0	-0.23598433
101	0xbe78d08a	-0.24298301
102	0x3f8496f6	1.035857
103	0xbcfb7c80	-0.030699015
104	0x4025004c	2.5781431
105	0xc097c61b	-4.742933
106	0x3fc48170	1.5352001
107	0xbe72f1b3	-0.23725013
108	0x404b4db5	3.1766179
109	0x3f96bbe9	1.1776096
110	0x3fe2228b	1.7666792
111	0xbc4239a0	-0.011854559
112	0xbe9f441f	-0.3110666
113	0x3fe74007	1.8066415
114	0x40311e91	2.7674906
115	0xbe22adab	-0.15886562
116	0xbe7c4a7c	-0.24637789
117	0xbed63b01	-0.4184189
118	0x3fa92209	1.3213512
119	0xbe70a5e0	-0.23500776
120	0x3f9b7bc8	1.214715
121	0x400d61de	2.2090983
122	0x400f77f9	2.2416975
123	0xbf0cdb0b	-0.55021733
124	0xbe02ddeb	-0.12779967
125	0x3fb64398	1.4239378
126	0x3f449551	0.7679034
127	0xbeb05544	-0.34440053
128	0x3fc16e28	1.5111742
129	0xbeff0ff2	-0.49816853
130	0x3ff80311	1.9375936
131	0xbef712ee	-0.4825663
132	0x3f825e73	1.0185074
133	0xbedb1602	-0.42790228
134	0xbebc9fb2	-0.36840588
135	0xbeadfbe1	-0.3398123
136	0xbf0e0705	-0.5547946
137	0x3feb2867	1.8371705
138	0xbeb1f55d	-0.3475751
139	0xbe8faf5d	-0.2806348
140	0xbe2d577b	-0.16927902
141	0x3fdef1ed	1.741758
142	0xbeaa5b85	-0.3327295
143	0x3f900436	1.1251285
144	0xbe8d2542	-0.27567488
145	0xbeb41c26	-0.35177726
146	0xbe8303aa	-0.25588733
147	0x3f961aec	1.1726966
148	0x40172947	2.3618944
149	0xbe7b59ce	-0.24545977
150	0x3f875760	1.057354
151	0xbec9d577	-0.39420673
152	0xbe3404b7	-0.17579924
153	0x3fad5794	1.3542352
154	0xbe16b194	-0.14716178
155	0xbe7a43c1	-0.24439909
156	0x3fd6de21	1.6786538
157	0xbe9a2ecf	-0.30113837
158	0xbffdf33a	-1.9839852
159	0x400338b0	2.050335
160	0x3fa98fb9	1.3246986
161	0xbd868f0c	-0.06570253
162	0xbe6e56c6	-0.23275289
163	0xbe4dac94	-0.20085365
164	0xbe8404ab	-0.2578481
165	0x403de506	2.9671035
166	0xbe33b010	-0.17547631
167	0xbe0cfdae	-0.13768646
168	0xbe9ffad9	-0.3124607
169	0xbeb24065	-0.34814754
170	0x401a10f6	2.4072852
171	0xbe35e538	-0.17763221
172	0xbe94ddb1	-0.29075387
173	0x3faa1f7e	1.3290861
174	0xbda145bd	-0.0787463
175	0xbeae1427	-0.3399975
176	0xbe5b7720	-0.21432161
177	0x3f947694	1.1598687
178	0x4001192a	2.017161
179	0xbe470827	-0.19436704
180	0xbe96aad3	-0.29427204
181	0x3e548d4d	0.20757027
182	0xbe3d1f87	-0.18469058
183	0xbdadddd0	-0.08489573
184	0x3fea2416	1.8292263
185	0xbe1b2b91	-0.15153338
186	0x3fc193a4	1.5123181
187	0xbe8d9acb	-0.2765716
188	0x40121bff	2.2829587
189	0xbeb2e6aa	-0.34941608
190	0x4002c251	2.0431101
191	0xbdb6c7fc	-0.08924863
192	0xbe04d84d	-0.12973137
193	0xbe0dd3c1	-0.13850309
194	0x3ffee017	1.9912137
195	0xbecd1118	-0.40052104
196	0xbe8c2aa0	-0.2737627
197	0xbe8ee88c	-0.27911794
198	0x3f94cc3a	1.1624825
199	0xbdd59949	-0.104296274
200	0x4025be98	2.589758
201	0xc07aef66	-3.9208617
202	0x3fc9a070	1.5752087
203	0xbe9762f6	-0.2956769
204	0x4066b66e	3.6048846
205	0x3fa209ed	1.2659279
206	0x3fea9b95	1.832873
207	0x3d36e4b5	0.044651706
208	0xbe35bb5c	-0.17747253
209	0x3fecd6db	1.8503069
210	0x402f4a1d	2.7388985
211	0xbe2a6723	-0.16640906
212	0xbea09348	-0.31362367
213	0xbeb7ab82	-0.35873038
214	0x4014a2e5	2.3224423
215	0xbea807a9	-0.32818344
216	0x3fc9b14b	1.575723
217	0x400b16b5	2.173261
218	0x400d8d99	2.2117674
219	0xbeeac56b	-0.45853743
220	0xbe6669d6	-0.2250131
221	0x3fc253b4	1.5181794
222	0x3ec66291	0.38747075
223	0xbe86420c	-0.26222265
224	0x3fb0f26e	1.3823984
225	0xbef8d34e	-0.48598713
226	0x3ffe51d1	1.9868718
227	0xbedce8ce	-0.43146366
228	0x3f903a3a	1.1267769
229	0xbee90112	-0.4550863
230	0xbe91cb21	-0.28475288
231	0xbed23a6b	-0.41060194
232	0xbef11777	-0.47088215
233	0x3fffcc4b	1.998422
234	0xbecda232	-0.40162808
235	0xbe705caf	-0.23472856
236	0xbdcd3dff	-0.100215904
237	0x4006a245	2.1036541
238	0xbead67d3	-0.33868274
239	0x3fa507ef	1.2893046
240	0xbe58823e	-0.21143433
241	0xbeb5099e	-0.353589
242	0xbddfb3d2	-0.1092297
243	0x3fa992af	1.3247889
244	0x402ce71a	2.7016053
245	0xbe39a189	-0.18128027
246	0x3f8b1337	1.0865239
247	0xbe954f62	-0.29162127
248	0xbe9ab4ea	-0.3021615
249	0x3fb77e0e	1.4335344
250	0xbea43640	-0.3207264
251	0xbe503c6e	-0.20335552
252	0x3fbf3d7b	1.4940637
253	0xbe5baa8f	-0.21451782
254	0xc0485344	-3.1300821
255	0x40014be7	2.0202577

bias f4 [24]
0	0xbf459764	-0.7718413
1	0xbf1fbdba	-0.62398875
2	0xbe96c96a	-0.29450542
3	0x3e63d171	0.22247864
4	0x3e116262	0.14197686
5	0x3f68dcc7	0.9096188
6	0x3e83fab0	0.25777197
7	0x3e35d91f	0.17758606
8	0x3e47ba28	0.19504607
9	0x3e31af4f	0.17352031
10	0x3dc8cef4	0.09805098
11	0x3ee4a955	0.4466044
12	0xbee94c90	-0.45566225
13	0x3e85f603	0.26164255
14	0xbf1df6f3	-0.6170494
15	0x3f15f904	0.5858309
16	0x3d6f40d5	0.058411438
17	0x3e8d4017	0.2758796
18	0x3e7e9623	0.2486196
19	0x3e8ad303	0.27114114
20	0x3f4ba355	0.795461
21	0x3e3318c0	0.1748991
22	0x3e692be8	0.22770655
23	0x3f1570e6	0.58375394

weight f4 [1, 24]
0	0x40386917	2.8814142
1	0x40302c5c	2.7527075
2	0x4022a84f	2.5415227
3	0xbf47d549	-0.7805982
4	0xbf599fed	-0.8500965
5	0x3fdcd533	1.7252563
6	0xbf35ffe5	-0.7109359
7	0xbf44f897	-0.7694182
8	0xbf5273ef	-0.8220815
9	0xbf4c71ee	-0.7986134
10	0xbf44e45a	-0.76910937
11	0x40142280	2.3146057
12	0x3ffb60c1	1.9638902
13	0x4024d017	2.5752008
14	0x4044dc04	3.0759287
15	0x4003dbae	2.0602832
16	0x403a6e28	2.9129734
17	0xbf49bfba	-0.78808177
18	0xbf4c8812	-0.79895127
19	0xbf5561db	-0.8335244
20	0x3ff26c6e	1.893934
21	0xbf364064	-0.71192
22	0xbf3bf3e6	-0.73419034
23	0x3fe8b53b	1.8180307
