data/q_value_net_2_simple_spread_3550000_pH-MARL.pth (torch, 114935 bytes, 7 tensors)

weight f4 [160, 80]
0.38828722 0.090495795 -0.0715261 -0.050010845 0.034680594 0.18480167 0.235342 0.2054419
0.115486525 -0.23813854 0.043109547 0.25320134 0.02380076 -0.051361844 0.1271671 -0.08793353
0.015262963 0.04605933 0.36722097 0.15826494 -0.23924041 0.1120376 0.110310555 0.17381014
0.23204528 0.09438772 0.003245039 -0.13730153 0.11421283 0.18445055 0.07943011 -0.031891514
0.12951596 0.10931275 -0.006500031 0.05684061 0.2790755 0.17133771 0.06382177 0.338904
0.051866945 0.0120959375 0.2653117 -0.101086356 0.501113 0.0070185126 0.18131138 -0.03672074
-0.12339004 0.08426237 -0.036633313 -0.09595869 -0.118513934 -0.14564557 0.33123815 0.10350661
-0.38715404 0.043057356 0.2577587 0.08388984 0.2311301 0.1723194 0.070102386 -0.2865876
0.33498332 0.13262601 0.14221837 0.07337409 0.09406674 0.03946217 0.14928603 0.10912095
-0.024498899 -0.050056767 -0.11915902 -0.07410408 0.010363024 0.22589314 -0.22760668 -0.020845477
0.27035356 -0.019935403 0.8242641 -0.0397091 2.133529 -0.3638957 -0.21753588 0.008697071
-0.25251928 0.07178227 -1.5181886 -0.034752134 -0.14284092 0.055729687 -0.25380543 -0.03525571
-0.18611982 0.12579943 0.019791419 -0.08446756 -0.029155428 -0.011132658 0.74169207 0.084974654
0.13146189 -0.1816961 -0.02631498 -0.0036569044 -0.7588725 -0.11527733 0.28542194 -0.015786637
-0.1170303 -0.0037530405 -0.09087572 0.10895464 0.09047898 0.0015361613 0.055352252 0.048205603
0.52271026 -0.099580586 -0.010567718 0.13129029 0.11961178 0.0057875984 -0.8300827 -0.16509101
0.19478317 -0.01715762 -0.016210053 0.00021789303 -0.11000278 0.06785114 -0.30090174 0.024879117
-0.89426506 0.01133424 1.3637991 -0.122057624 0.29909074 -0.044157702 0.18507946 -0.032868598
-1.9011867 0.806954 0.2031063 -0.11135283 0.22139373 -0.09234632 0.11612965 -0.1053287
0.021711001 -0.00069828756 0.014119562 0.015519429 -0.014489837 -0.0070465826 -0.067426726 -0.015687471
-0.22036248 0.08934599 0.019759594 0.1406295 0.2949379 -0.15514082 0.18942188 -0.049097437
-0.0034195848 -0.0052925404 0.025029577 0.086311564 0.19208504 -0.012542404 0.15469338 -0.017548004
0.12007049 -0.028426062 -0.0935495 -0.217429 -0.00474844 0.22223376 -0.11409703 0.014784232
-0.43082187 -0.23670185 -0.02106799 0.09128762 -0.042512402 0.10524379 -0.013069853 -0.110359415
0.21183348 -0.1066995 0.12629718 -0.04239554 0.047326937 0.14376359 -0.1573571 0.38995436
-0.10093013 0.07392705 0.021373946 -0.11767356 -0.3158288 -0.017258286 -0.05620335 0.046602286
-0.11149184 -0.07483318 -0.16808814 0.11389809 -0.02987324 -0.12317759 0.056617003 -0.13394022
-0.11787828 0.2251762 -0.08170512 -0.10639436 0.16752005 0.04075393 -0.013235565 0.09153395
-0.105472624 0.09486152 -0.08217429 0.015304221 -0.0116421105 -0.0008661971 0.1248324 0.12665644
0.07694861 -0.12005102 -0.022505075 -0.009641003 -0.10502854 0.010392368 0.0845774 0.07493822
-0.07811216 0.028200941 -0.052402515 -0.6690576 0.179183 0.26225054 0.08303743 0.21529174
0.032966387 0.15036479 0.14425366 0.13589849 -0.09377814 -0.093475804 0.0011038317 -0.07381734
00000000: 95cd c63e dc55 b93d 477c 92bd 2cd8 4cbd
00000010: 3d0d 0e3d a63c 3d3e 7efd 703e 5d5f 523e
00000020: 3384 ec3d 97da 73be a393 303d 9ba3 813e
00000030: d0f9 c23c cc60 52bd 1838 023e 7f16 b4bd
00000040: 8211 7a3c b5a8 3c3d 6304 bc3e 3410 223e
00000050: 70fb 74be f873 e53d 80ea e13d 49fb 313e
00000060: 479d 6d3e 594e c13d b8aa 543b c698 0cbe
00000070: 6be8 e93d 9be0 3c3e 41ac a23d ada0 02bd
00000080: d59f 043e 5ddf df3d 36fe d4bb b3d1 683d
00000090: fce2 8e3e 2773 2f3e fdb4 823d d384 ad3e
000000a0: 6f72 543d 0a2e 463c efd6 873e 5d06 cfbd
000000b0: f148 003f 8dfb e53b b1a9 393e 7d68 16bd
000000c0: ebb3 fcbd c091 ac3d d00c 16bd fd85 c4bd
000000d0: 6fb7 f2bd 1d24 15be 0c98 a93e 46fb d33d
000000e0: 0e39 c6be e95c 303d f3f8 833e 70ce ab3d
000000f0: 5ead 6c3e 7f74 303e d791 8f3d 9cbb 92be
00000100: ef82 ab3e 1dcf 073e b1a1 113e 2845 963d
00000110: 10a6 c03d 16a3 213d 70de 183e ce7a df3d
00000120: eab1 c8bc 5308 4dbd a509 f4bd e1c3 97bd
00000130: acc9 293c 8850 673e ba11 69be 22c4 aabc
00000140: c86b 8a3e 924f a3bc f902 533f 02a6 22bd
00000150: bd8b 0840 8a50 babe bac1 5ebe 297e 0e3c
00000160: 354a 81be 9502 933d 0154 c2bf 4158 0ebd
00000170: e444 12be d044 643d c9f2 81be 4b68 10bd
00000180: 3296 3ebe 91d1 003e 9d21 a23c 54fd acbd
00000190: 5dd7 eebc c165 36bc 88df 3d3f 3107 ae3d
000001a0: f29d 063e 8b0e 3abe 8392 d7bc ada8 6fbb
000001b0: 7845 42bf 8516 ecbd d322 923e fa52 81bc
000001c0: 95ad efbd 92f5 75bb 0d1d babd 9c23 df3d
000001d0: 0b4d b93d 0559 c93a 0bb9 623d 3d73 453d
000001e0: 57d0 053f e8f0 cbbd 3924 2dbc f670 063e
000001f0: 05f7 f43d e5a5 bd3b 4d80 54bf 9e0d 29be
00000200: 3d75 473e 238e 8cbc f2ca 84bc 377a 6439
00000210: 2349 e1bd 8af5 8a3d cb0f 9abe 4acf cb3c
00000220: 8eee 64bf 40b3 393c f890 ae3f 59f9 f9bd
00000230: 6c22 993e b5de 34bd 7885 3d3e 39a1 06bd
00000240: 165a f3bf 8a94 4e3f 19fb 4f3e f40c e4bd
00000250: 0ab5 623e 1120 bdbd 62d5 ed3d 93b6 d7bd
00000260: 45db b13c 490d 37ba bc55 673c 3445 7e3c
00000270: c866 6dbc 05e7 e6bb 0617 8abd 0383 80bc
00000280: b4a6 61be 08fb b63d dfde a13c 2e01 103e
00000290: 1a02 973e 3cdd 1ebe cff7 413e 651a 49bd
000002a0: 1d1b 60bb 0c6d adbb d40a cd3c 1ec4 b03d
000002b0: f1b1 443e a87e 4dbc f167 1e3e d5c0 8fbc
000002c0: 84e7 f53d c6dd e8bc e196 bfbd b5a5 5ebe
000002d0: cd98 9bbb 3f91 633e b4ab e9bd 9039 723c
000002e0: af94 dcbe f861 72be c796 acbc 01f5 ba3d
000002f0: 7c21 2ebd 0e8a d73d f022 56bc 1e04 e2bd
00000300: e0ea 583e 4485 dabd 0c54 013e f2a6 2dbd
00000310: e4d9 413d c336 133e 3822 21be 19a8 c73e
00000320: 75b4 cebd 1167 973d 6a18 af3c d6fe f0bd
00000330: 50b4 a1be 4061 8dbc 7c35 66bd 0ae2 3e3d
00000340: d555 e4bd 2342 99bd 4c1f 2cbe 6743 e93d
00000350: bab8 f4bc 8844 fcbd 3be7 673d a027 09be
00000360: 2b6a f1bd 9794 663e 0455 a7bd 49e5 d9bd
00000370: 608a 2b3e 98ed 263d fcd9 58bc 2776 bb3d
00000380: 0802 d8bd c246 c23d ff4a a8bd 8ebe 7a3c
00000390: 8dbe 3ebc 8111 63ba 21a8 ff3d 3ab2 013e
000003a0: 3c97 9d3d 4fdd f5bd 905c b8bc 4cf5 1dbc
000003b0: 3419 d7bd c044 2a3c ea36 ad3d 3679 993d
000003c0: 45f9 9fbd a905 e73c 05a4 56bd 5c47 2bbf
000003d0: c07b 373e b445 863e 870f aa3d 7075 5c3e
000003e0: c307 073d 3af9 193e 3bb7 133e f928 0b3e
000003f0: c10e c0bd 3e70 bfbd 72ae 903a 8c2d 97bd

bias f4 [160]
-0.15137744 -0.38724792 -0.015774595 0.5853854 0.20999251 -0.28172585 -0.15615712 -0.24372645
0.10352133 -0.0070390776 -0.24369283 -0.23661232 -0.17496735 0.11765925 -0.1378564 0.25612742
-0.12863024 0.34766418 -0.084054396 0.7262921 -0.1144705 -0.23681828 0.025483185 -0.3402166
-0.30508006 -1.0367534 0.23351833 0.6052074 0.34398136 -0.16554378 0.059603166 -0.16930428
0.17895427 0.21649794 0.09338539 -0.1013318 -0.3331415 0.060987405 0.4533989 -0.13712105
0.19353907 0.1854206 -0.008166472 0.1429301 0.1303613 -0.35745186 -0.014816735 1.3294879
-0.05646542 0.469599 0.16649969 -0.23633105 0.49127278 -0.22756018 -0.2708715 -0.37063438
-0.14722745 0.8766092 0.0920046 0.7308679 0.20403594 0.18309107 -0.17162037 -0.18104765
-0.26183116 0.64979565 -0.6090709 -0.020156058 1.289475 -0.21870762 -0.045282487 -0.4608232
0.70976615 0.031241646 -0.12541045 -0.32862997 0.9572776 0.7113127 -1.0620733 -0.4192071
-0.04749281 0.29662693 -0.29714486 0.028032959 0.18664663 -0.29944974 -0.2639894 0.24807705
0.07633111 1.2226582 0.3232532 -0.034233198 -0.17204194 -0.22734171 -0.20341997 0.025616284
-0.14562793 -0.27535298 0.16188864 0.0010120418 1.1061646 0.91518974 -0.11349431 0.21882756
0.38177273 -0.13561305 0.7683858 -0.057932414 -0.16656579 0.017855223 -0.123130806 0.90179825
-0.30693424 0.9374971 -0.42610493 -0.040981296 -0.069289416 -0.27312252 0.29620302 -0.410453
-0.72156173 -0.052609 -0.22103076 0.45298463 0.3306503 -0.105201006 -0.048191234 -0.20088913
-0.027189946 0.51573855 0.33498967 0.60115427 -0.29275504 -0.38539574 -0.7122437 1.0082843
-0.14563464 -0.24387446 0.65761983 -0.08925569 -0.021820063 0.23723967 0.21609312 0.6780618
-0.5903434 0.37956974 1.0057 -0.3072845 0.25198936 -0.11890943 0.7037112 -0.104638025
1.1793352 0.116426505 0.70093364 -0.17763457 -0.32350418 0.14321771 0.04411384 -0.36335856
00000000: b002 1bbe 5c45 c6be b939 81bc d1db 153f
00000010: 4708 573e 5f3e 90be a7e7 1fbe 6d93 79be
00000020: fe02 d43d 10a8 e6bb 9d8a 79be 804a 72be
00000030: a42a 33be 55f7 f03d 3a2a 0dbe 2223 833e
00000040: a5b7 03be 0a01 b23e b624 acbd 47ee 393f
00000050: 826f eabd 7e80 72be 1dc2 d03c df30 aebe
00000060: 7433 9cbe 56b4 84bf 6e1f 6f3e dfee 1a3f
00000070: 531e b03e 4f84 29be 7322 743d 1a5e 2dbe
00000080: ca3f 373e a3b1 5d3e d740 bf3d 0c87 cfbd
00000090: 8691 aabe eecd 793d e723 e83e 7669 0cbe
000000a0: 1b2f 463e e6de 3d3e abcc 05bc 455c 123e
000000b0: 6f7d 053e ee03 b7be e4c1 72bc a92c aa3f
000000c0: 4948 67bd 486f f03e e57e 2a3e c400 72be
000000d0: 1b88 fb3e 8905 69be abaf 8abe cac3 bdbe
000000e0: cbc2 16be 7669 603f e86c bc3d 291a 3b3f
000000f0: ccee 503e 3a7c 3b3e 40bd 2fbe 8e64 39be
00000100: bc0e 86be 0259 263f 12ec 1bbf 511e a5bc
00000110: 840d a53f e4f4 5fbe 217a 39bd 05f1 ebbe
00000120: 3cb3 353f 7bee ff3c 996b 00be 3042 a8be
00000130: 2510 753f 9718 363f 05f2 87bf 50a2 d6be
00000140: d287 42bd 7cdf 973e 5f23 98be 60a5 e53c
00000150: 4b20 3f3e 7a51 99be 9e29 87be e907 7e3e
00000160: 7c53 9c3d 1080 9c3f 7281 a53e 1c38 0cbd
00000170: c32b 30be 44cc 68be 534d 50be 3ed9 d13c
00000180: 7d1f 15be 11fb 8cbe 23c6 253e 7da6 843a
00000190: cd96 8d3f e049 6a3f b46f e8bd 5514 603e
000001a0: b777 c33e 26de 0abe efb4 443f 8a4a 6dbd
000001b0: 3990 2abe 1e45 923c 012c fcbd 40dc 663f
000001c0: 7c26 9dbe cfff 6f3f 6d2a dabe 01dc 27bd
000001d0: 9ce7 8dbd b7d6 8bbe eca7 973e e526 d2be
000001e0: 45b8 38bf 897c 57bd e355 62be 9aed e73e
000001f0: ff4a a93e a073 d7bd 2c64 45bd e1b5 4dbe
00000200: 73bd debc 7107 043f c483 ab3e 3fe5 193f
00000210: fde3 95be 9752 c5be 9a55 36bf 760f 813f
00000220: 3f21 15be 3aba 79be c659 283f b0cb b6bd
00000230: fdbf b2bc f5ee 723e 8447 5d3e 7595 2d3f
00000240: bf20 17bf f756 c23e c7ba 803f 6554 9dbe
00000250: c004 813e ca86 f3bd 6b26 343f 764c d6bd
00000260: 75f4 963f 0571 ee3d 6370 333f d6e5 35be
00000270: 57a2 a5be aaa7 123e b7b0 343d 220a babe

weight f4 [80, 160]
0.08553366 0.110238045 0.32239383 -0.33955157 -0.10020046 -0.39827117 0.19894673 -0.24389692
0.04287 -0.22828406 -0.2357155 -0.84520113 -0.46771446 0.30524713 -0.170018 0.045253824
0.1412921 -0.21698536 -0.0044716625 -0.103179134 0.36951128 0.08300555 -0.2724453 0.09092246
-0.50875974 -0.49433234 0.35021025 0.43749613 0.15457077 0.21611132 0.19336277 -1.591883
-0.12623577 -0.08049801 -0.0520157 -0.05981904 -0.54523295 0.10609798 0.07374522 0.23363805
-0.030561611 0.13536178 -0.0885964 -0.010925679 -0.24961686 -0.011531092 -0.057454202 -0.0309294
0.006204336 -0.337643 0.092972 0.0012134721 -0.05759287 0.14946459 -0.1360378 -1.6050996
-1.7880427 -0.06098838 -0.025727542 -0.20557576 0.20759323 -0.005008772 0.18256745 0.04494605
-0.21515189 0.043406222 -0.46374756 -0.033271894 -0.3715986 -0.804957 0.093993425 0.12939315
0.08243293 0.017625764 0.11791015 -0.25639617 -0.1550497 0.13142097 -0.72958976 -0.40255433
0.49095097 -0.043260958 -0.37399602 -0.06017415 0.060493503 0.074388355 -0.07237748 -0.051859558
0.12187609 0.10093866 -0.031869303 0.36293688 -0.0892868 -1.1734908 -0.217312 0.05736297
-0.5264482 -0.21991964 0.016155522 -0.24779297 -0.014628263 -0.02945966 -2.1809676 0.09014502
0.0825368 0.13691856 0.028466256 -0.07357523 0.1380511 0.07468582 -0.1748633 -0.19647731
-0.013123594 0.19382823 -0.046074897 0.2892073 -0.051755678 -0.7008773 0.09552662 0.118380204
-0.78131473 0.23407014 -1.7853061 0.013063072 -0.058132507 0.113056794 0.20988165 -0.16530055
-0.18864155 0.17116489 -0.18621002 -0.06858647 0.13505906 -0.24595402 -0.025096282 -0.073971465
-0.14510337 -0.058598697 -0.822988 0.06898064 0.16442874 0.05674419 -0.06691126 0.15283254
-0.62947255 -0.08843739 -0.40783057 0.24948801 -0.2188917 -0.12921105 -0.1315482 0.10148489
-0.1619517 0.004664401 0.032196864 0.027085103 -0.30265096 0.10385944 0.13494831 0.003864462
-0.04692292 0.14727034 0.32187435 0.06439532 0.11472792 0.08171286 -0.12409897 -0.13164765
-0.24091749 0.10618224 0.08141962 -0.012088697 0.09674539 0.17795353 -0.22421446 0.048765905
-0.05955446 0.055814695 0.12833977 0.041934475 -0.023077898 0.055009354 0.022057625 0.09051712
-0.1392186 -0.27080214 0.1880962 0.39726365 -0.14337651 -0.06600069 -0.04975593 0.20050664
-0.05754014 -0.083416626 0.009090091 0.26342815 -0.26750562 -0.17500886 0.046959497 -0.2126248
0.52644414 0.20630944 0.012388902 0.05557023 0.008522177 0.15562719 -0.17023483 0.24023683
-0.14763969 0.37654302 -0.09779066 -0.049950626 -0.039378904 -0.13270931 0.19355285 0.027812842
-0.14406112 0.06626701 -0.047578115 0.36524758 0.114838056 0.34532732 -0.13968569 0.0062391413
-0.12743624 0.24655786 0.13772003 -0.05358068 0.25145856 -0.10769853 0.3321035 0.06792814
-0.23243803 -0.06448397 0.039108437 -0.12548202 -0.14802118 -0.071253955 -0.08878365 -0.21845797
-0.3913594 0.06379116 0.14431372 -0.2343423 -0.16772954 0.027056182 -0.061114613 -0.09569566
-0.055087965 0.27994823 0.032101024 -0.18653463 0.073711075 0.28667432 -0.11359751 0.015031704
00000000: 462c af3d 7cc4 e13d ce10 a53e b4d9 adbe
00000010: e635 cdbd 33ea cbbe b1b8 4b3e 1dc0 79be
00000020: 7498 2f3d 4cc3 69be 675f 71be 1a5f 58bf
00000030: 4578 efbe 5a49 9c3e 3319 2ebe 135c 393d
00000040: e0ae 103e 6931 5ebe 0687 92bb 954f d3bd
00000050: 9530 bd3e d0fe a93d f37d 8bbe 8e35 ba3d
00000060: 143e 02bf 2119 fdbe c24e b33e 7eff df3e
00000070: cd47 1e3e 494c 5d3e e400 463e d2c2 cbbf
00000080: f343 01be 24dc a4bd 6a0e 55bd cf04 75bd
00000090: 6394 0bbf e649 d93d bc07 973d d03e 6f3e
000000a0: 585c fabc 479c 0a3e 0872 b5bd 9e01 33bc
000000b0: 909b 7fbe e8ec 3cbc 1955 6bbd a75f fdbc
000000c0: be4d cb3b 8bdf acbe 1b68 be3d 5e0d 9f3a
000000d0: 80e6 6bbd 3f0d 193e 7e4d 0bbe e773 cdbf
000000e0: 95de e4bf f4ce 79bd 91c2 d2bc 7482 52be
000000f0: 5293 543e a020 a4bb f6f2 3a3e 5919 383d
00000100: c750 5cbe b9ca 313d 5270 edbe 1c48 08bd
00000110: 2c42 bebe a911 4ebf a07f c03d a37f 043e
00000120: 99d2 a83d e863 903c e07a f13d 5c46 83be
00000130: 59c5 1ebe 3893 063e 65c6 3abf 9a1b cebe
00000140: ed5d fb3e 6732 31bd 687c bfbe 2b79 76bd
00000150: 09c8 773d ec58 983d a53a 94bd b06a 54bd
00000160: 2c9a f93d eeb8 ce3d 6389 02bd ddd2 b93e
00000170: ffdb b6bd f234 96bf 0987 5ebe 6ff5 6a3d
00000180: 4fc5 06bf 9d32 61be 9658 843c 71bd 7dbe
00000190: 62ab 6fbc 6355 f1bc f994 0bc0 f49d b83d
000001a0: 0e09 a93d 6134 0c3e 1132 e93c 9cae 96bd
000001b0: 445d 0d3e e1f4 983d 5d0f 33be 5931 49be
000001c0: 5804 57bc e87a 463e 08b9 3cbd fb12 943e
000001d0: c3fd 53bd b26c 33bf 76a3 c33d 5271 f23d
000001e0: 3e04 48bf 15b0 6f3e e984 e4bf 7f06 563c
000001f0: 5a1c 6ebd 528a e73d 37eb 563e 8c44 29be
00000200: 402b 41be d945 2f3e d7ad 3ebe 1077 8cbd
00000210: ec4c 0a3e 5fdb 7bbe b896 cdbc 5a7e 97bd
00000220: fa95 14be 3005 70bd 57af 52bf b945 8d3d
00000230: 0260 283e 996c 683d c508 89bd 2280 1c3e
00000240: 1d25 21bf aa1e b5bd 2bcf d0be c979 7f3e
00000250: 2525 60be e74f 04be 92b4 06be 4fd7 cf3d
00000260: abd6 25be d5d7 983b dce0 033d 94e1 dd3c
00000270: 11f5 9abe 42b4 d43d e42f 0a3e ea42 7d3b
00000280: 3f32 40bd 09ce 163e b7cc a43e b2e1 833d
00000290: 79f6 ea3d 1259 a73d 9a27 febd a4ce 06be
000002a0: 13b3 76be 1376 d93d 54bf a63d ac0f 46bc
000002b0: 7222 c63d 7339 363e 7a98 65be c2be 473d
000002c0: 61ef 73bd f39d 643d 806b 033e 7cc3 2b3d
000002d0: dc0d bdbc 7d51 613d 31b2 b43c 0a61 b93d
000002e0: 528f 0ebe 94a6 8abe 4a9c 403e 2466 cb3e
000002f0: 4bd1 12be 5f2b 87bd e0cc 4bbd 9d51 4d3e
00000300: 36af 6bbd 56d6 aabd 9bee 143c 0ee0 863e
00000310: 7ff6 88be 8635 33be 9a58 403d 51ba 59be
00000320: 0bc5 063f c842 533e d2fa 4a3c 9c9d 633d
00000330: 9aa0 0b3c bc5c 1f3e 0a52 2ebe a500 763e
00000340: dc2e 17be 3fca c03e 7846 c8bd 0799 4cbd
00000350: c64b 21bd f3e4 07be b832 463e c2d7 e33c
00000360: c284 13be 00b7 873d 45e1 42bd bb01 bb3e
00000370: 3730 eb3d bece b03e c409 0fbe b671 cc3b
00000380: a57e 02be aa79 7c3e 7b06 0d3e 6a77 5bbd
00000390: 2dbf 803e 0c91 dcbd 7809 aa3e e91d 8b3d
000003a0: 3c04 6ebe 2c10 84bd 2b30 203d 5c7e 00be
000003b0: dd92 17be 98ed 91bd 34d4 b5bd 72b3 5fbe
000003c0: 4260 c8be f1a4 823d fac6 133e 6ef7 6fbe
000003d0: 4bc1 2bbe eda4 dd3c 5153 7abd 16fc c3bd
000003e0: eba3 61bd 6055 8f3e 5d7c 033d ef02 3fbe
000003f0: d5f5 963d fac6 923e d0a5 e8bd 8947 763c

bias f4 [80]
0.2493832 0.17782366 0.015558039 0.17897725 0.45043743 0.41088882 0.49823672 0.4241923
0.35677433 0.035896417 0.80699944 -0.18531707 0.25291944 0.44505996 0.038781367 0.22583309
0.25003245 0.111478366 0.17987204 0.09737788 0.44794512 0.15891135 0.4063342 0.19830914
0.0049602343 0.24301438 0.19460915 0.14583762 -0.0060115727 0.6119084 0.26064828 0.28325173
1.0416775 0.8897664 0.049486816 0.19367063 0.45221072 0.18710515 0.3662236 0.8679928
0.23671363 0.060751878 0.7841851 -0.114721745 -0.12535925 0.62758654 0.62109727 0.07369012
0.49549997 0.29209676 0.16288835 0.13081132 0.59235466 0.08833443 0.115325615 0.18738188
0.12677737 0.19771506 0.3617636 0.13236618 0.14718826 0.00517029 0.90611255 -0.031977415
-0.101556554 0.054458216 0.08574634 0.37296817 0.045722928 0.24017277 0.061562166 0.4826236
0.3039583 0.86928654 0.11823429 0.4597656 0.54867685 0.78835714 -0.26120576 0.13793556
00000000: 4f5e 7f3e 6817 363e 25e7 7e3c d045 373e
00000010: bc9f e63e 0560 d23e e218 ff3e bc2f d93e
00000020: 20ab b63e 1f08 133d 8497 4e3f c2c3 3dbe
00000030: a87e 813e e6de e33e 36d9 1e3d ca40 673e
00000040: 4104 803e c54e e43d 6030 383e 0e6e c73d
00000050: 1059 e53e a8b9 223e 090b d03e 8d11 4b3e
00000060: 7689 a23b c3d8 783e 9f47 473e 7556 153e
00000070: bafc c4bb 07a6 1c3f b173 853e 5f06 913e
00000080: b055 853f bbc7 633f b0b2 4a3d 9851 463e
00000090: 2a88 e73e 7e98 3f3e a981 bb3e c734 5e3f
000000a0: 0f65 723e f6d6 783d 5bc0 483f 3cf3 eabd
000000b0: 2d5e 00be 83a9 203f 3b00 1f3f d8ea 963d
000000c0: 2cb2 fd3e b58d 953e 34cc 263e 67f3 053e
000000d0: 8ea4 173f aee8 b43d d62f ec3d 09e1 3f3e
000000e0: edd1 013e d175 4a3e 1439 b93e 008b 073e
000000f0: 85b8 163e 896b a93b fef6 673f c0fa 02bd
00000100: e2fc cfbd 940f 5f3d c79b af3d aff5 be3e
00000110: f747 3b3d daef 753e 9c28 7c3d 711a f73e
00000120: 6ca0 9b3e 9089 5e3f d224 f23d 6666 eb3e
00000130: 1676 0c3f c6d1 493f c3bc 85be fb3e 0d3e

weight f4 [20, 80]
0.042380642 0.055846337 0.123898946 0.3484014 0.22824943 -0.1329206 -0.55853814 -0.001400804
-0.17364389 -0.18424562 -0.74093187 -1.0274694 -0.09276336 0.6522382 -0.6577821 0.12281181
-0.026466653 0.12403753 0.33872092 -0.032987453 0.6279953 0.12162067 0.16671342 -0.01706006
-1.5328454 0.4265808 -0.024962759 0.08213566 -0.7425752 0.034143504 -1.2742109 0.28548244
-0.49941456 -0.0019168488 -1.340506 0.18872353 -0.97087723 0.05263079 0.45637488 -0.682743
0.53926873 -0.1211903 0.7928714 -0.3692336 0.44748798 0.63501304 0.68717015 -0.20643345
0.04427557 -0.12897512 -0.3843046 -0.66752255 0.6882244 0.27250907 0.349905 0.019608144
0.3363231 0.26316306 0.27832633 0.18533486 -0.09852241 -0.07618033 -0.77948856 0.00041070822
-1.2264091 -2.2947626 0.36442286 0.07775947 0.4348481 0.06624032 0.3025822 -0.012479237
-0.0006932496 -0.559057 -0.8979487 -1.8109143 -0.23713909 -1.068274 -0.20112701 0.740534
-0.15048261 -0.80066586 -0.510654 -0.33415386 0.08544857 0.030860327 -1.9123753 -0.47772795
-2.3137343 -0.888699 -1.9306687 -1.4976046 -1.2233425 -0.3155826 -0.9998764 -1.0432984
-2.2068956 -1.0959762 -0.49346045 -1.2394079 -2.1254451 -0.24988087 0.07731356 -2.3016536
-0.96157825 -0.6154377 -1.008432 -0.97440445 -0.4743696 -0.34882316 -1.0423706 -0.7631614
0.28312516 -0.022755593 -0.7656558 -0.4395304 -2.113007 -0.68142766 0.14195715 -1.0322975
0.033388898 0.23937744 -1.3210288 -2.057102 -1.6462309 -1.8330905 -1.9579303 -0.28230438
-0.79183143 -0.093574256 -1.039878 -0.22004211 -2.027535 -0.50945234 -0.9452852 -1.0852143
-0.21461663 -0.62413955 -0.62434083 -0.7628994 -1.0227137 -0.64365673 -1.3910584 -0.93839604
-0.71671396 -0.7944862 -2.0540826 -0.053586245 -1.5478301 -0.9892859 -0.6944294 -0.31879345
-1.8355163 -0.469303 -0.3868032 -1.112266 -0.26433572 -2.3208408 -0.9220179 -1.3018405
0.018352577 0.052588213 0.077332646 0.3055124 0.19580252 0.029114498 -0.4989935 0.012487274
-0.1229239 -0.1033548 -0.64417386 -0.84876984 -0.046686795 0.54695904 -0.5656913 0.08877086
-0.026809359 0.28826267 0.2574381 -0.015549011 0.5435876 0.057725437 0.14343785 -0.03157142
-1.2955259 0.33640778 -0.017773187 0.071135476 -0.6830054 0.023250753 -1.1020187 0.26039943
-0.43620554 0.0023124118 -1.016039 0.15670744 -0.8308552 0.018773016 0.34081888 -0.5981326
0.51673734 -0.088840894 0.70074517 -0.28490642 0.3228674 0.5902503 0.57501113 -0.15571807
0.039483774 -0.16526358 -0.25360203 -0.5234531 0.555812 0.27773672 0.2970991 0.03285194
0.34250313 0.25341675 0.23849265 0.15619522 -0.058633782 0.07031697 -0.6685524 0.11493657
-0.9616228 -1.855565 0.29942438 0.06412801 0.37627372 0.043513454 0.2732907 -0.0094135795
0.026655722 -0.49361977 -0.6915569 -1.5605111 -0.07469292 -0.91444707 -0.18887444 0.77206045
-0.15660276 -0.81441665 -0.6625361 -0.6354525 -0.24669538 -0.3582407 -2.1506388 -0.6674389
-2.562671 -0.94558126 -2.465325 -1.1792659 -1.11869 -0.5715497 -1.2883722 -0.91467
00000000: 5397 2d3d 21bf 643d bbbe fd3d ab61 b23e
00000010: 38ba 693e 561c 08be 5bfc 0ebf 2f9b b7ba
00000020: b4cf 31be e2aa 3cbe b6ad 3dbf 1e84 83bf
00000030: b7fa bdbd 15f9 263f 6864 28bf c284 fb3d
00000040: 98d0 d8bc 6307 fe3d d46c ad3e da1d 07bd
00000050: 4dc4 203f 4214 f93d ecb6 2a3e 8ac1 8bbc
00000060: 4734 c4bf cc68 da3e b37e ccbc be36 a83d
00000070: 6919 3ebf 0fda 0b3d 5819 a3bf c12a 923e
00000080: 44b3 ffbe c63e fbba b395 abbf be40 413e
00000090: 698b 78bf 6293 573d f8a9 e93e 3fc8 2ebf
000000a0: 840d 0a3f 9f32 f8bd 9ff9 4a3f 300c bdbe
000000b0: 251d e53e 3790 223f 62ea 2f3f 4a63 53be
000000c0: 4d5a 353d 0e12 04be 93c3 c4be c2e2 2abf
000000d0: 792f 303f 4f86 8b3e c026 b33e 42a1 a03c
000000e0: 8b32 ac3e 4fbd 863e ca80 8e3e 6cc8 3d3e
000000f0: 1ec6 c9bd 6f04 9cbd 908c 47bf 5354 d739
00000100: f9fa 9cbf 64dd 12c0 a295 ba3e 5b40 9f3d
00000110: 69a4 de3e 01a9 873d 0eec 9a3e b775 4cbc
00000120: 31bb 35ba 5c1e 0fbf f7df 65bf 0acc e7bf
00000130: 97d4 72be 34bd 88bf 3df4 4dbe a393 3d3f
00000140: 1d18 1abe 70f8 4cbf 38ba 02bf 3716 abbe
00000150: a9ff ae3d ccce fc3c b7c8 f4bf c298 f4be
00000160: 3914 14c0 c781 63bf 2720 f7bf 82b1 bfbf
00000170: 7d96 9cbf 0b94 a1be e6f7 7fbf cd8a 85bf
00000180: c73d 0dc0 f348 8cbf d9a6 fcbe eba4 9ebf
00000190: 4b07 08c0 c5e0 7fbe 9256 9e3d 4b4e 13c0
000001a0: fe29 76bf 538d 1dbf 4d14 81bf 9272 79bf
000001b0: 92e0 f2be f398 b2be 666c 85bf 8c5e 43bf
000001c0: c8f5 903e f069 babc 0502 44bf 210a e1be
000001d0: 823b 07c0 0b72 2ebf 375d 113e 5322 84bf
000001e0: ccc2 083d 5c1f 753e 7917 a9bf 8fa7 03c0
000001f0: b2b7 d2bf b6a2 eabf 769d fabf 338a 90be
00000200: 77b5 4abf dca3 bfbd b91a 85bf b852 61be
00000210: 22c3 01c0 786b 02bf 36fe 71bf 4de8 8abf
00000220: 76c4 5bbe 9cc7 1fbf cdd4 1fbf 604d 43bf
00000230: 48e8 82bf b0c6 24bf 340e b2bf b93a 70bf
00000240: 917a 37bf 7363 4bbf 1776 03c0 407d 5bbd
00000250: 4c1f c6bf d741 7dbf 20c6 31bf e538 a3be
00000260: 33f2 eabf 7c48 f0be 120b c6be bb5e 8ebf
00000270: 0357 87be a888 14c0 5d09 6cbf b6a2 a6bf
00000280: 2558 963c bd66 573d 9460 9e3d 1f6c 9c3e
00000290: 7580 483e 8781 ee3c 137c ffbe 6c97 4c3c
000002a0: 87bf fbbd aeab d3bd 94e8 24bf fb48 59bf
000002b0: a73a 3fbd 8205 0c3f 25d1 10bf 7fcd b53d
000002c0: 4d9f dbbc 2a97 933e edce 833e 47c1 7ebc
000002d0: 8f28 0b3f 8271 6c3d 5fe1 123e 0951 01bd
000002e0: cbd3 a5bf a43d ac3e 1399 91bc 7aaf 913d
000002f0: 71d9 2ebf 5d78 be3c f30e 8dbf 1353 853e
00000300: 5556 dfbe d58b 173b 910d 82bf ea77 203e
00000310: edb2 54bf dec9 993c d07f ae3e 381f 19bf
00000320: e648 043f 37f2 b5bd 0964 333f 41df 91be
00000330: e04e a53e a51a 173f ee33 133f 8f74 1fbe
00000340: bdb9 213d db3a 29be 20d8 81be 0601 06bf
00000350: b249 0e3f 8233 8e3e 601d 983e c18f 063d
00000360: 925c af3e d7bf 813e 6b37 743e a4f1 1f3e
00000370: fa29 70bd 5802 903d 4026 2bbf dd63 eb3d
00000380: e92c 76bf 2783 edbf 274e 993e 8c55 833d
00000390: f3a6 c03e 2a3b 323d c2ec 8b3e 6a3b 1abc
000003a0: 1a5d da3c bbbb fcbe df09 31bf d4be c7bf
000003b0: 9af8 98bd 3419 6abf 4d68 41be c1a5 453f
000003c0: 795c 20be 9c7d 50bf f79b 29bf 04ad 22bf
000003d0: b79d 7cbe 536b b7be 11a4 09c0 47dd 2abf
000003e0: cd02 24c0 9d11 72bf e3c7 1dc0 2ff2 96bf
000003f0: 3c31 8fbf 1551 12bf 61e9 a4bf d027 6abf

bias f4 [20]
1.1694809 1.6837349 0.90050894 1.5653498 -0.5044101 0.82692933 1.0014563 0.98275506
0.9229752 2.1953332 0.97015214 3.4417193 0.8906796 0.92316365 0.87193155 1.0116339
1.9338214 -0.6127669 1.9991902 1.0898988
00000000: 8db1 953f a084 d73f c187 663f 625d c83f
00000010: 0521 01bf a4b1 533f b82f 803f d695 7b3f
00000020: 1a48 6c3f 5780 0c40 e45b 783f 2145 5c40
00000030: 9403 643f 7454 6c3f e836 5f3f 387d 813f
00000040: 7687 f73f 4bde 1cbf 77e5 ff3f ce81 8b3f

weight f4 [1, 20]
87.32702 -4.00349 84.040306 -4.2884445 -1.2137979 85.395096 83.33484 92.090225
64.46751 -2.404563 86.944626 -4.136356 85.71493 86.48805 82.135635 89.4685
-4.476097 -1.1627954 -4.929888 87.27934
00000000: 6fa7 ae42 971c 80c0 a314 a842 f03a 89c0
00000010: bb5d 9bbf 4aca aa42 70ab a642 322e b842
00000020: 5def 8042 5ce4 19c0 a6e3 ad42 075d 84c0
00000030: 0b6e ab42 e2f9 ac42 7245 a442 dfef b242
00000040: 303c 8fc0 7bd6 94bf a4c1 9dc0 068f ae42
