data/q_value_net_1_food_collection_3980000_pH-MARL.pth (torch, 137931 bytes, 7 tensors)

weight f4 [176, 88]
000000 b2 7b 0c bf 2e 13 9d be a1 1a 0a be bc e4 86 be
       -0.54876244 -0.30678695 -0.1348672 -0.26346385
000010 cc b0 da 3d 11 7f ee 3d 5c e2 a9 bc 31 c7 e6 3c
       0.106782526 0.1164533 -0.02073782 0.028171154
000020 77 14 5a 3e a6 36 8e 3d 47 c0 67 3c 3d c3 1a bd
       0.21296869 0.06944017 0.014144964 -0.03778385
000030 7b ab 8b 3e e4 6b 5e 3d 71 1d 05 3e a8 54 9b 3d
       0.27279267 0.05430211 0.12999512 0.07584506
000040 d9 fb cb bd d7 b3 b4 bd b3 66 24 3d 82 be 23 bd
       -0.099601455 -0.08823364 0.040137004 -0.039976604
000050 42 9d 02 bf b8 dc a5 be 21 ff b7 3e ba c4 2e 3f
       -0.51021206 -0.32394958 0.35936835 0.6826893
000060 28 8c bd 3b 20 1c a7 bc f4 b3 94 be 9e ef 8e bb
       0.00578453 -0.020399153 -0.29043543 -0.0043620607
000070 e2 9e c9 bd 08 f1 09 be cc 87 9c bd 79 e6 8c bd
       -0.098447576 -0.13470852 -0.07643089 -0.06879897
000080 d4 c3 9b bd 43 35 50 3d 25 cd 9d bd 89 ea ed bd
       -0.076057106 0.050832044 -0.07705144 -0.11617
000090 6b 9f ac bd 9b 21 aa bc 9e 7e c7 bd 11 59 ed bd
       -0.08428844 -0.020767977 -0.09740947 -0.11589254
0000a0 10 91 fe be f5 f7 99 be 1f cd 42 bf 44 07 2a 3e
       -0.4972005 -0.3007199 -0.7609424 0.16604334
0000b0 40 5d 2b 3c 6f b1 cd bd 0c 69 41 bb 5b be 2b 3c
       0.010459244 -0.100436084 -0.0029512076 0.010482396
0000c0 0d 31 19 3d 1c 3e 28 bd 16 33 c3 bd 7d 9f 28 3d
       0.037400294 -0.041074857 -0.09531228 0.041167725
0000d0 dc 5a 97 3e a9 31 46 3e 41 2f 43 bc 95 f9 c3 3c
       0.29561508 0.19354881 -0.011913122 0.02392272
0000e0 9f 04 4c 3e 51 08 fe bc c6 1e a5 bb cb be 46 3d
       0.19923638 -0.031009825 -0.005039069 0.048521798
0000f0 44 8b 1f bf 35 8f 8d be 09 92 cc be 99 cd bc be
       -0.6232188 -0.2764832 -0.39955166 -0.3687561
000100 10 aa fc bc de f3 39 bd ea 49 1d 3e 34 96 16 3e
       -0.03084281 -0.045398585 0.15360227 0.14705735
000110 a1 3f 04 3e 47 93 47 bd 89 1d 5a 3e b2 34 c6 bd
       0.12914898 -0.04872444 0.2130033 -0.096780196
000120 5f e3 17 3e 14 2b 2f 3e 20 18 e2 3c 96 9e b1 3c
       0.14832829 0.17106277 0.027599394 0.021682065
000130 2d 95 c7 bb fd f1 c6 3c 6e 9a 74 3d 3e f6 75 3d
       -0.006090781 0.02428531 0.059717588 0.060049288
000140 1b 19 30 bd 33 8d aa bc 68 3e ed 3d 80 46 3b 3d
       -0.042992692 -0.020819282 0.11584169 0.04572153
000150 a8 f9 36 be 11 00 0a bd 74 12 4c bd 7f 3f b6 bd
       -0.17868674 -0.03369147 -0.049822286 -0.0889883
000160 c1 94 d0 bd 6c be 55 3e cb ab 2f be 53 f2 c1 be
       -0.101846226 0.20873421 -0.17155378 -0.3788019
000170 71 c4 df 3d b2 94 52 be 1e 53 ad 3d df f4 f6 3d
       0.1092614 -0.20564535 0.08463119 0.12058424
000180 a7 0b 62 be 52 cf b1 bd 1c 83 17 bd 89 b2 ce bd
       -0.22074758 -0.08682121 -0.03699027 -0.10092647
000190 6b 6a dd bd d6 cf 47 3c 63 7f d9 bc 86 3c dd 3c
       -0.10811313 0.012195548 -0.02655 0.027006399
0001a0 5c f8 aa 3d ba 5e 26 3e aa b4 77 3e 40 8b 9d 3d
       0.08348152 0.16247073 0.24190012 0.076925755
0001b0 05 14 39 be 15 c3 76 3e 55 c2 09 bb 33 2a 33 be
       -0.18074043 0.24097855 -0.0021020372 -0.17496566
0001c0 93 95 09 3e 1c 0b 19 3e c1 9a 58 3e c3 97 a7 bc
       0.13435964 0.14945644 0.21152784 -0.020458108
0001d0 f4 82 97 bd 17 c6 25 bd 40 71 43 bd 7d 0c 7e bd
       -0.07398024 -0.040472116 -0.047715425 -0.06202363
0001e0 bf 5c 39 bc 82 de 35 3d 93 8e 02 3d 7f 6f de bd
       -0.011313616 0.044401653 0.03187425 -0.1086111
0001f0 76 d4 f3 3d 24 7a 4f 3e 65 e7 56 3d c4 bc bd ba
       0.11905758 0.20261437 0.05246677 -0.0014475812
000200 14 68 c5 3d 3a 34 fa 3d 12 28 25 3f 6c b7 1d 3f
       0.09638992 0.12216993 0.6451427 0.61608005
000210 fe eb 92 bd 92 a2 32 3e 88 32 a1 bc 51 7f bb 3d
       -0.07173918 0.17444828 -0.019677415 0.09155143
000220 e0 8f b6 bd 3d 59 bb 3d 31 cb 22 be cd b9 11 bd
       -0.08914161 0.0914788 -0.15897824 -0.035577584
000230 f3 30 12 bb 20 d2 a7 3d ea eb 26 be 09 30 dc bd
       -0.0022307008 0.08194375 -0.16300932 -0.107513495
000240 c9 d2 25 be de c4 12 bd 9b 14 50 bc 2b 61 c7 3c
       -0.1619369 -0.03583228 -0.012700225 0.024338325
000250 f4 44 ac 3d 3b 49 6a 3d 71 db f7 3e 6d 65 50 3e
       0.08411589 0.057198744 0.48409608 0.20351191
000260 07 3b d4 bc 71 12 4f 3d 93 88 3e bc 18 19 ae 3c
       -0.025907053 0.050554696 -0.0116292415 0.0212522
000270 d3 dc 19 bc 24 4b 7e bd c6 fd e1 bd 84 fe 0a bb
       -0.0093910275 -0.06208338 -0.110347316 -0.0021208832
000280 33 e0 60 be 16 b7 a6 bd 2b 99 38 be 5f 25 0f bd
       -0.21960525 -0.081403896 -0.18027179 -0.03494775
000290 6d 63 c2 bd 19 ed 77 bd 1a b7 9f bd ce 65 c2 bd
       -0.0949162 -0.06052885 -0.07798596 -0.09492074
0002a0 6b 02 8b bc ae 23 3e bd d2 0c 82 bd 9f c0 02 bd
       -0.016968926 -0.046420746 -0.063501015 -0.03192198
0002b0 fd f3 3c 3e c0 ff 2a 3d 69 27 78 3e 59 05 66 3d
       0.18452449 0.04174781 0.24233784 0.056157444
0002c0 1f 73 46 3e e0 05 78 3e 09 51 0a 3f 12 38 a3 be
       0.19379853 0.24220991 0.540299 -0.31878716
0002d0 6b 64 de bd b4 3d 60 3e 67 fe 84 be 5f d6 15 bd
       -0.10858997 0.21898538 -0.25975344 -0.036581393
0002e0 04 18 90 3d 5b 91 b8 bd 21 c4 87 be 21 0e 1f 3d
       0.070358306 -0.09012099 -0.26516822 0.038831834
0002f0 07 8c 48 bd b3 1f a5 be 70 59 20 be c4 2e b1 bd
       -0.048961665 -0.32250747 -0.15659118 -0.08651498
000300 84 04 d0 3c 14 b0 02 bd c3 82 03 be 57 eb 47 3d
       0.025392778 -0.031906202 -0.1284285 0.048808422
000310 cc 31 83 3d ca d6 1b 3e 92 7d 63 3e 02 13 38 bd
       0.064059824 0.15218654 0.2221587 -0.044940002
000320 01 d8 6b 3e 43 91 6d 3d 84 38 d1 be d7 fb a0 be
       0.23031618 0.05799986 -0.4086343 -0.3144214
000330 00 8d 06 3e c9 0f 86 bd 2b 7c e3 3b 98 5f f4 bc
       0.13139725 -0.065459795 0.006942292 -0.029830739
000340 90 58 5e 3d d6 a2 fe bd a3 22 a5 3b 29 c3 89 3d
       0.05428368 -0.12433402 0.0050395294 0.06726677
000350 6e 4c f8 3d 60 b7 ab 3d 3e 57 ac 3c 67 be 38 bd
       0.12123953 0.083845854 0.021037694 -0.045103457
000360 dc ea 68 3e 51 a9 28 3e c0 55 a4 3e f4 92 06 3f
       0.22745842 0.16470839 0.32096672 0.5256798
000370 d7 cd 61 3e 55 3e 40 3e 34 d7 c4 be 23 e9 a2 bd
       0.22051178 0.18773778 -0.38445437 -0.079546236
000380 f0 91 eb bd 80 95 2d bd 1a db 66 be b0 fd 32 be
       -0.11502445 -0.042378902 -0.22544518 -0.17479587
000390 58 b5 f8 bd c9 16 a8 be 9d dc 7a bd a5 c3 3f 3d
       -0.121439636 -0.32829884 -0.06124555 0.04681744
0003a0 6c 07 15 be 67 62 1a be 5a a5 ce bc 90 9e b3 bd
       -0.14553612 -0.150766 -0.02522533 -0.08770478
0003b0 07 75 64 3e 71 6c 23 3e 7f 9d 28 3f d5 ab 96 3e
       0.22310267 0.15959336 0.6586532 0.29427972
0003c0 90 28 34 3e 3c 7e f0 3d a4 2c fb bd 1a 8f 43 3d
       0.17593598 0.11742827 -0.12264374 0.047743894
0003d0 45 da bb 3d c6 c3 05 bc 61 56 ac bd cb a9 b0 bc
       0.09172491 -0.008164352 -0.08414913 -0.021565339
0003e0 c8 21 a8 bc 72 b1 88 be ea fb f3 3d 63 95 df bc
       -0.02052392 -0.2669788 0.11913283 -0.027292913
0003f0 72 26 24 be 07 cd 23 bc c3 74 4f 3d ad 55 aa 3d
       -0.1603029 -0.009997613 0.050648462 0.083171226

bias f4 [176]
000000 3f 6a 29 bf d6 64 0a bf e2 6a c6 3e 13 4d ad 3f
       -0.66177744 -0.54060113 0.3875342 1.3539146
000010 1a 27 d9 3d a1 20 02 3f 2e d5 a1 3f 80 60 d9 be
       0.10603161 0.5083104 1.2643182 -0.42456436
000020 98 52 e5 bd 64 25 80 3f 15 5f f3 3d 34 b5 0b 3e
       -0.11197394 1.0011411 0.1188337 0.13643342
000030 5e c0 b6 3e 40 f9 b6 be 88 70 b4 3e ca d3 0e be
       0.3569364 -0.35737038 0.35242105 -0.13947979
000040 da 11 4a bf 0e 8c 5e 3f 8d 97 a0 3e 90 58 b7 3d
       -0.7893349 0.86932456 0.31365624 0.08952439
000050 7c df 72 bc d3 49 2e be 28 74 c8 bd 1f 48 17 bf
       -0.014823791 -0.17020349 -0.0978778 -0.59094423
000060 1e c4 3a be cf 90 18 3f 6a b1 3b 3e 5f 46 61 be
       -0.18238875 0.5959596 0.18329397 -0.219995
000070 c9 6b 43 be 0b a2 6b 3f 38 f3 4b 3e 73 57 87 bd
       -0.19084086 0.9204413 0.19917 -0.066084765
000080 67 a3 99 3d 1d b4 15 3e f9 93 c2 3e 95 bf 2c ba
       0.0750187 0.14619489 0.3800352 -0.0006589827
000090 64 ab b8 3f cc 61 1b 3f 96 7f 91 be b4 c1 06 3e
       1.4427304 0.606961 -0.28417653 0.1315983
0000a0 81 b8 03 3f cb 3e bc 3d a8 d7 e4 be 8a c1 a3 be
       0.51453406 0.09191664 -0.44695783 -0.31983596
0000b0 20 c0 8e 3f 6a 49 29 3f 20 97 d6 be 53 6d 87 be
       1.1152382 0.66127646 -0.41912174 -0.26450595
0000c0 48 f7 47 be da cd 04 3d 79 4c ba 3d a4 12 90 be
       -0.19527924 0.032422878 0.09096617 -0.28139222
0000d0 85 73 89 3f 65 e4 d5 bd 9c 18 7a be 2a 9c c1 3f
       1.0738379 -0.104439534 -0.2442345 1.5125782
0000e0 50 82 d5 3c 54 35 17 3f 27 e1 26 3f 5e 8b c8 be
       0.026063114 0.5906575 0.65187305 -0.3916883
0000f0 65 59 18 3e bc e3 d1 3f d5 fd a4 bd 38 ca 97 3b
       0.14877851 1.6397624 -0.08056227 0.0046322607
000100 41 4e 6a bf 91 b6 fe 3c 98 b7 a8 bd 2d cd 8c 3d
       -0.91525656 0.031092914 -0.08238143 0.06875072
000110 8d b9 23 be 31 b0 53 3f 19 5f 88 be 3b 2f 9e be
       -0.15988751 0.8269072 -0.26635054 -0.3089541
000120 1d 54 a4 3c fc 5d 2d 3f d0 8c 6d bf 61 33 99 bd
       0.02005964 0.67721534 -0.9279299 -0.07480503
000130 b5 32 0d bf dd bd 2d 3e 16 52 a9 bc 26 65 2f 3f
       -0.551555 0.16966958 -0.020669024 0.68513715
000140 6c f4 5b 3f ee 5b 85 bf 6f 42 a0 3e 14 83 a1 bd
       0.85919833 -1.041868 0.31300685 -0.07886329
000150 14 a2 3e bf 8e 6d 53 3e 18 84 2f 3e a0 f9 3c 3f
       -0.7446606 0.2064726 0.17140234 0.738184
000160 ad 35 c5 bb cf 0b 3d bf 35 d1 4f 3e 35 a4 ea bd
       -0.0060183615 -0.73846143 0.2029465 -0.11457101
000170 43 19 cb bd 68 50 24 3e ee de c0 3f e1 fc 44 be
       -0.09916928 0.16046298 1.5068033 -0.1923709
000180 d9 1c 54 be 20 42 9e 3e cc bb e1 be bd 4a 23 3d
       -0.2071413 0.30909824 -0.4408859 0.039866198
000190 49 05 bf 3e 87 5b c4 3e cf 67 0f bf 3f 2f af 3d
       0.3730872 0.3835108 -0.56017774 0.08553933
0001a0 e2 38 4c bd 13 6f e2 3d c3 77 8e bc 1d d2 1e 3e
       -0.049858935 0.11056342 -0.017391091 0.1550984
0001b0 58 07 80 3e de d2 ca be 01 7e c2 be 50 2a 21 bd
       0.25005603 -0.39614004 -0.37986758 -0.039346993
0001c0 07 6e bf bc 0a fd 83 3e 70 91 a5 3d 99 dd c6 3e
       -0.023367895 0.2577899 0.080843806 0.3884094
0001d0 2a 6e 83 3f ac a6 1e bf ba cf c2 3e c1 b8 5b bf
       1.0267994 -0.6197307 0.38049108 -0.8582879
0001e0 32 31 c1 be 27 96 08 3d 10 21 04 40 24 e9 9f 3e
       -0.37732846 0.03334632 2.064518 0.3123256
0001f0 b4 fa 04 3d 0e 4d fa 3d d7 d1 ba bf 7f 15 8c be
       0.03246565 0.12221728 -1.4595288 -0.2736015
000200 da 7b 6a 3e e4 9f 38 3e 1a cd db 3f 70 d1 04 40
       0.22898808 0.18029743 1.7171967 2.075283
000210 f3 96 37 3e e6 6b 2f bf ab 79 0e bf 4e a8 09 bd
       0.17928676 -0.68524015 -0.556544 -0.033607773
000220 5c 86 00 40 fb 12 ac 3d f5 c2 cb 3e fa 15 02 bd
       2.0082006 0.08402058 0.39797178 -0.03175924
000230 d0 cf 87 3f 87 48 1a 3f 24 1a 24 40 0a cd 1b 3f
       1.0610294 0.6026692 2.5640955 0.6085974
000240 cf 34 0d bf fc 84 c1 be 93 9f 86 3e 28 5c fb be
       -0.55158705 -0.37796772 0.2629362 -0.49093747
000250 40 56 95 3f b9 79 9a bd da 4c 80 bf 99 63 91 3e
       1.1666946 -0.07542748 -1.0023453 0.283963
000260 0e 97 8a bd aa a7 01 bc 9c d5 b0 be c8 19 c8 be
       -0.06767093 -0.007913509 -0.3453797 -0.3908217
000270 aa d8 67 be 32 3a 92 bf bb ff f4 bd bb d2 a1 be
       -0.22641245 -1.142401 -0.11962839 -0.31606087
000280 f7 e8 e4 be 18 f1 8d bd c6 e6 aa 3f bf d2 85 bf
       -0.44708988 -0.069307506 1.3351676 -1.045494
000290 34 f3 1e 3e 3c c1 00 3f 93 d8 56 3e 4a df 22 be
       0.15522462 0.5029485 0.20981054 -0.1590549
0002a0 b0 9f 9f bf 81 ea 34 3d 2c a9 46 bf 26 f3 7d be
       -1.2470608 0.044168953 -0.77601886 -0.24799785
0002b0 0f 6a 0b 3e eb b0 0d bf f6 c3 40 3f 11 30 c9 3f
       0.13614677 -0.5534808 0.7529901 1.5717794

weight f4 [88, 176]
000000 43 a0 69 3d 57 20 55 bd 7d d6 4d bd 7d 3e cc 3d
       0.057037603 -0.052032795 -0.05025338 0.09972856
000010 84 e3 62 be 1f 69 18 3e d8 5b 91 3d 80 6b 8f 3e
       -0.22157103 0.1488385 0.07097596 0.28011703
000020 fd be 04 bf b4 32 be 3d e3 2e cd be 72 06 12 be
       -0.51853925 0.092870146 -0.40074834 -0.14260271
000030 46 03 05 3e 42 e1 c8 bd 67 48 49 3e b7 2a 41 be
       0.1298953 -0.098085895 0.19656526 -0.1886395
000040 df 72 df 3e 47 27 c2 3e 77 ed 81 3f 94 ae b8 bd
       0.43642327 0.3792059 1.0150594 -0.09017673
000050 9e 2c 12 3f c3 4c 03 3e ed 01 b4 3e d8 71 a2 3d
       0.5709933 0.12822251 0.3515772 0.0793187
000060 10 7a 0e be 72 0b 10 be 45 38 a8 3d 5e 8d 31 3e
       -0.1391375 -0.14066866 0.082138576 0.17339084
000070 d8 01 c8 3d 90 84 9c be e8 4f 05 3e b3 d2 16 3f
       0.09765977 -0.30569887 0.13018763 0.5891525
000080 fd ed 46 bd a1 e5 c2 3d 5a ef 2b 3d 26 99 ac 3e
       -0.048566807 0.095164545 0.04197631 0.33710593
000090 0e 4c b0 3e b2 da 25 3e 5b d0 24 3e 20 e0 fa bd
       0.34433025 0.16196707 0.16095106 -0.1224978
0000a0 7a 2e da 3e 83 c6 15 3e d3 c4 11 be a5 7e 43 3f
       0.42613584 0.14626507 -0.14235239 0.7636512
0000b0 48 0c 17 be e9 f3 44 3e 8b 27 d6 bb 7c 9e fb bd
       -0.14750779 0.1923367 -0.0065354756 -0.12286088
0000c0 b9 94 1e 3e a1 f6 cd bd 6d 39 55 3e 2d 7e 84 be
       0.1548642 -0.10056806 0.20822687 -0.25877514
0000d0 dc a9 3c be d9 a9 cb bd be 46 87 bc ed ae 89 3d
       -0.18424171 -0.09944505 -0.016513225 0.067228176
0000e0 d0 72 70 be ad d0 bd 3e 0e f9 ef bb 8c 21 fb 3d
       -0.23481297 0.3707327 -0.007323391 0.12262258
0000f0 7a 7e 2e 3f af 8b e5 3e bc 3a 02 3e 88 38 b3 3d
       0.6816174 0.44833133 0.12717718 0.08751017
000100 dd 6b 17 be ba fa 20 39 50 07 b8 be 13 57 eb 3e
       -0.1478724 0.00015352192 -0.3594308 0.4596487
000110 fb 63 18 3e 57 8b 0b 3d d0 41 38 bc 89 bf e5 bd
       0.1488189 0.03406843 -0.01124616 -0.11218173
000120 1c f6 38 3f 12 1c 96 3e 19 ef 1c bd bc e8 66 3e
       0.72250533 0.2931829 -0.03831396 0.22549719
000130 04 ee 96 bd 38 ef 32 be 36 e4 22 be d0 8e e4 3b
       -0.07369617 -0.17474067 -0.15907368 0.0069750324
000140 bb da ae 3e 7a 65 2b bf 40 d0 e3 3e b7 2b 17 3e
       0.34151253 -0.66951716 0.4449482 0.1476277
000150 29 99 92 be 7b ac aa be a2 d4 81 be 6d b7 96 bd
       -0.28632477 -0.33334717 -0.25357538 -0.073592044
000160 e4 d7 e2 bd fd b9 2c bd bf 45 bb 3d 22 5e 07 3e
       -0.11076334 -0.04216956 0.091441624 0.13219503
000170 52 4d b1 be ff 08 73 bd 93 ef 85 3e 54 74 26 bd
       -0.34629303 -0.05933475 0.26159343 -0.040638283
000180 c6 64 03 be 1b e0 10 3e fd ab 0e 3e d5 7e 10 3c
       -0.12831411 0.1414799 0.13932796 0.008819302
000190 a0 94 99 3e 66 3b a8 3e be 9c 29 be 97 e9 1c 3f
       0.29996204 0.32857817 -0.16563699 0.6129393
0001a0 f3 ed 10 be 5e b6 53 3d 19 5a 33 3d c0 75 be bd
       -0.1415327 0.05168759 0.043787096 -0.09299803
0001b0 a8 18 a4 bd 4e 65 0a be 44 4a 8e 3e a0 68 9d be
       -0.08012515 -0.13515207 0.27791035 -0.30743885
0001c0 30 e5 2b 3e fe ba ee 3e 3f ab b5 3d 94 e3 fa 3c
       0.16786647 0.4662704 0.08870553 0.030626096
0001d0 71 15 62 3b b2 67 3d be df 0b 82 3e ec 60 09 be
       0.0034497643 -0.18496588 0.25399682 -0.13415879
0001e0 af 36 2b 3f 38 2f 79 3d 90 79 b6 3d 8f 13 9e bc
       0.66880316 0.060836047 0.08909905 -0.019296436
0001f0 bf 08 43 3c 2b 56 25 be b2 f2 e3 bc 98 0a 91 bd
       0.011903941 -0.16146152 -0.027825687 -0.07082099
000200 51 9e dc bd 53 43 ac bd 62 05 4e bd da eb 83 3e
       -0.10772384 -0.084112786 -0.050298102 0.25765878
000210 13 f6 0d 3e 33 72 ab be 65 1f a9 bd e7 22 84 3b
       0.13863401 -0.33485565 -0.08257941 0.004032481
000220 04 ec 95 bd 31 1e 06 bf c9 38 ad bc ac ed 99 3e
       -0.07320407 -0.5238982 -0.021145241 0.30064142
000230 f0 df 35 3e 41 ea d7 3e c3 9b fa 38 04 81 b6 bd
       0.17761207 0.4217091 0.00011949942 -0.089113265
000240 38 ce 08 3e 6b 47 32 3a 56 2d 14 be a5 62 37 3e
       0.13359916 0.0006800803 -0.1447042 0.17908724
000250 e6 5b 18 be 4c 36 ab bd f8 06 4d 3e f6 8b da 3e
       -0.14878806 -0.08359966 0.2002219 0.42684907
000260 5b f5 39 be 7d 83 a4 3e 8d 15 b1 3e f6 fa 43 3f
       -0.18160002 0.32131568 0.34586754 0.7655481
000270 ba 47 93 3e 52 83 b7 3d a3 e7 3c bc ab b9 64 3d
       0.2876566 0.08960594 -0.011529836 0.05584113
000280 eb 48 12 be ce f5 f7 bb 9d 5f f4 bc eb 20 4b bb
       -0.14285628 -0.007567144 -0.029830748 -0.0030994962
000290 04 20 50 3f b8 b8 a1 3d e2 f5 2a be 49 74 c1 3e
       0.8129885 0.078965604 -0.1669536 0.3778403
0002a0 c7 60 3c 3d 7e 06 46 3d 8f bb 20 bd 86 d9 be bd
       0.04599073 0.048346035 -0.03924137 -0.09318833
0002b0 0e 1c b3 3d 0d 66 3e be 0a c2 6a 3e 3f ce dc bd
       0.087455854 -0.18593617 0.22925583 -0.10781526
0002c0 8d 31 19 3e 83 d4 09 3e f3 b2 28 3f cc 73 f1 3e
       0.14960308 0.13459973 0.65898055 0.47158659
0002d0 be 43 a6 3d a2 3d 46 bc 05 42 30 3e 23 f6 87 be
       0.081183895 -0.012099655 0.17212684 -0.26554975
0002e0 0c a5 9c 3e ce 56 a3 3e 2d d3 bb 3e b5 f6 c9 be
       0.3059467 0.31902164 0.36684552 -0.39446035
0002f0 ea ee a0 3e f8 9b b8 3e 50 6a cc 3c e7 85 8a be
       0.31432277 0.36056495 0.024953038 -0.27055284
000300 78 9b 46 be ff 54 a4 be 91 85 8d be b2 a1 07 bc
       -0.19395244 -0.32096097 -0.27640966 -0.008278297
000310 81 a6 9c be 45 3f b3 be 3c 11 07 be 5c 07 98 3e
       -0.30595782 -0.35009208 -0.13190168 0.29693115
000320 28 fa 86 3e 38 cd 37 3e 1e f2 f2 be 64 63 9c be
       0.2636273 0.17949378 -0.47450346 -0.3054458
000330 c9 66 34 3b ad 0c ea 3e 56 3d 98 bd a0 c1 8c 3b
       0.0027527085 0.45712796 -0.07433574 0.004295543
000340 53 c4 8b bd e6 32 82 3e 8b cd 70 3e 4b 17 1b be
       -0.06824555 0.25429457 0.23515908 -0.15145604
000350 3b 0d 8c 3d d5 3d 32 3e 2f bc 77 be 95 41 d0 3d
       0.06838461 0.174064 -0.2419288 0.10168759
000360 48 11 1a 3e cc 31 62 bb 5b 50 8c be c7 c0 13 bf
       0.15045655 -0.0034514545 -0.27405056 -0.5771603
000370 88 bb 3e 3e 5f 2b 91 3d 5e cb 48 3e 77 6d 8f 3c
       0.18626225 0.070883505 0.19608828 0.017508252
000380 bd 54 17 be f7 86 d9 be 67 f1 da bc ef bc db 3d
       -0.14778419 -0.42485783 -0.026726438 0.107293956
000390 06 b5 a8 3e d0 6c 2f 3e 68 de 0c 3f a3 df dc bd
       0.3295061 0.17131352 0.55026865 -0.10784843
0003a0 46 41 6f 3e 7d 53 94 3d 3f 08 8c bb be 72 00 be
       0.23364744 0.072424866 -0.004273444 -0.1254377
0003b0 ce 21 b9 be 78 b4 1b 3d 10 d0 d4 3b b3 1b 53 3e
       -0.36158603 0.038013905 0.0064945295 0.20616035
0003c0 2d 1f 27 3d 4a d8 57 3d f3 cd be 3e e2 10 5b bb
       0.040801216 0.052696504 0.37266502 -0.003342681
0003d0 9c b5 a6 3d 9d 03 fa 3e 32 80 97 3e 92 fa 57 3e
       0.08140108 0.48830882 0.29589993 0.21091679
0003e0 e2 cf 52 bf 69 c1 00 3f 1f b2 e7 3d 2e 2f fe 3d
       -0.82348454 0.5029512 0.11313271 0.124113426
0003f0 75 b6 3a 3e b8 fd 99 3e fc 92 d5 be a1 aa 59 3e
       0.18233664 0.30076385 -0.41713703 0.21256496

bias f4 [88]
000000 01 f7 35 bf d3 c6 33 bf 12 5d 73 3f 03 b8 5a 3f
       -0.71080023 -0.70225257 0.9506389 0.8543703
000010 47 1a 58 3f 84 a5 27 bf a7 b3 3b bf 95 d0 7b 3f
       0.84415096 -0.6548693 -0.73321 0.98365146
000020 e5 96 87 3f ab 05 0c bf b0 9a 6f 3f 0a 3d b8 be
       1.0592924 -0.5469615 0.9359541 -0.3598407
000030 68 a0 7d bf 54 71 12 bf 1f cd 6f 3f fc 82 7a 3f
       -0.99072886 -0.57204175 0.93672365 0.97856116
000040 58 9c 83 3f dd b8 73 3f a9 61 06 bf 37 e9 80 3f
       1.0282087 0.95203954 -0.5249277 1.0071172
000050 37 62 7d 3f b0 2d 6d bf 0f a4 23 bf f6 8b 0f bf
       0.9897799 -0.9264784 -0.6392221 -0.5607294
000060 78 50 bd bf 3f 00 50 3f 88 13 0e bf a2 f4 6d 3f
       -1.4790182 0.81250376 -0.5549855 0.92951405
000070 8c 41 50 bf 53 15 7d 3f 5e e0 6d 3f 07 56 72 3f
       -0.81350017 0.98860663 0.9292048 0.9466252
000080 11 aa 54 be e0 a1 4b bf 46 1a 75 3f aa 64 74 3f
       -0.20768 -0.79543877 0.95743215 0.954661
000090 de 95 00 be 6a 89 76 3f 08 e0 6a be d0 ff 4f 3f
       -0.1255717 0.9630343 -0.22937024 0.81249714
0000a0 f4 9f 7a 3f 5c a0 80 3f 27 21 76 bd 2f bf 4d bf
       0.9790032 1.0048938 -0.06009021 -0.8036985
0000b0 ac 72 76 3f 30 e1 67 3f ef 4f 6d 3f 8a fd ef be
       0.96268725 0.90577984 0.92700094 -0.46873122
0000c0 79 d0 70 3f e1 7d 81 3f 1f 60 6c 3f 14 04 05 bf
       0.94068104 1.011654 0.9233417 -0.5195935
0000d0 4b 00 6f 3f 21 ff bc be c6 96 a1 bf 49 2e 89 be
       0.9335982 -0.36913398 -1.2624137 -0.26793125
0000e0 8a a7 75 3f a7 89 59 3f 30 21 78 3f b5 33 7c 3f
       0.9595877 0.84975666 0.9692564 0.985164
0000f0 d1 b3 4a bf e6 b7 67 3f 71 47 2d bf 5e 48 22 bf
       -0.7918063 0.9051498 -0.67687136 -0.63391674
000100 7f ea 81 3f f6 6a 44 bf fb d2 7b bf 62 2d 75 3f
       1.0149688 -0.7672571 -0.98368806 0.95772374
000110 3b a1 17 bf 33 e0 68 3f fa 6f 71 3f 52 72 82 3f
       -0.59230393 0.909671 0.9431149 1.0191138
000120 08 60 59 bf 88 f9 5c 3f cb 1c 66 3f d4 41 6e bf
       -0.8491216 0.86318254 0.89887685 -0.93069196
000130 b9 4d 42 bf a6 e3 79 3f ea fd 3a bf 10 7b 07 bf
       -0.75899845 0.9761299 -0.7304369 -0.52922153
000140 a7 91 60 bf 64 31 42 bf b1 a0 78 3f e4 c4 2b be
       -0.8772225 -0.75856614 0.97120196 -0.16774327
000150 49 11 11 bf 04 bb 67 3f 81 dc 5e 3f dc 9a 2b bf
       -0.56667 0.9051974 0.8705521 -0.6703317

weight f4 [22, 88]
000000 90 f3 f0 3f e0 ba f0 3f c2 6d 4b 3d 3b 6f ee bd
       1.8824329 1.880703 0.04966522 -0.11642309
000010 bf c6 f7 bc 5b 27 93 3f c2 a3 c1 3f c3 8f b0 bd
       -0.030246137 1.1496385 1.51281 -0.0862117
000020 87 74 d9 3d c3 59 13 40 31 a6 12 3d 16 5d 8c 3f
       0.10617929 2.3023536 0.035803024 1.0965908
000030 e0 16 a8 3f 51 9c 19 40 99 92 f2 bb 40 03 88 3d
       1.3131981 2.4001658 -0.0074027297 0.06641245
000040 e4 94 2c 3a 75 5a bd bd 9b 89 df 3f 88 6a fc bd
       0.0006583466 -0.09245769 1.7463869 -0.12325007
000050 d6 23 03 3d 01 c8 7a 3e 97 b6 b7 3f a5 82 45 3f
       0.032016598 0.24490358 1.4352597 0.7715247
000060 c2 4c a9 3f e3 80 04 bd a9 83 79 3f 70 e0 5f 3d
       1.322655 -0.03234948 0.9746652 0.0546574
000070 01 54 64 40 68 dd ea 3c b0 06 92 bd 71 c8 6a 3d
       3.5676272 0.028670028 -0.07130182 0.057320062
000080 b5 2e fb 3f 1c fa 13 40 9a 7b d2 b9 37 ea d0 3d
       1.9623629 2.3121405 -0.00040146412 0.10200923
000090 9f 4c 11 40 01 a9 83 bd 26 d2 d6 3f 08 56 1b be
       2.2703016 -0.06428719 1.6782882 -0.15169537
0000a0 ab 91 98 3d dc bc 25 bd 00 01 9b 3f 56 74 b1 3f
       0.07449659 -0.040463313 1.210968 1.3863628
0000b0 eb 35 2f bd c8 2c ca 3d 00 ee e9 bd 60 8c dd 3e
       -0.04277603 0.098718226 -0.11422348 0.4327116
0000c0 b0 ae 3d 3d 34 29 8b bd f6 34 e9 3c 54 cb 23 40
       0.046309173 -0.06794968 0.028467637 2.5592852
0000d0 ff 82 52 3b e6 4c 12 40 44 0e 9e 3f 60 c8 49 3f
       0.0032121537 2.2859435 1.2348104 0.78821373
0000e0 70 c2 be 3c 25 18 26 3c c9 66 ac bd 79 dd 7d bd
       0.023286074 0.010137592 -0.08418042 -0.06197879
0000f0 d1 49 22 40 15 e1 e5 bd 49 e9 f5 3f 8b 95 f4 3e
       2.5357554 -0.112245716 1.9211818 0.47770342
000100 ab fc 11 bc 68 c6 bc 3f fc 12 a0 3f 21 1f 0f be
       -0.008910338 1.4748049 1.2505794 -0.13976718
000110 52 c8 99 3f c7 5d 82 bd 25 b4 c1 bd 02 eb 24 3d
       1.2014258 -0.06365543 -0.09458188 0.040263183
000120 9b 07 cd 3f d8 c7 5f bc eb e0 10 bd 6b e7 5a 3f
       1.6017946 -0.013658486 -0.03537075 0.85509366
000130 1c 3c 74 3f ea aa 64 3d c2 c8 9e 40 54 12 95 3f
       0.9540422 0.05582706 4.9620066 1.1646218
000140 cf 59 a9 3f 3d d0 db 3f 73 b2 c4 bd 55 09 23 40
       1.3230532 1.7172924 -0.09604349 2.5474446
000150 15 93 9f 3f 80 dd 1b bd 5f 39 18 bd fa 5d 0b 41
       1.2466761 -0.038053036 -0.03716409 8.7104435
000160 66 57 e9 3f a2 07 00 40 c9 97 65 3d 44 51 b9 bb
       1.8229797 2.0004659 0.056052957 -0.0056554396
000170 c1 6a 9a bd e3 82 9e 3f 22 87 b2 3f 38 7d da bd
       -0.07539893 1.2383693 1.3947489 -0.10668415
000180 5b 30 92 bd 7d e2 17 40 8d 7c 33 bd 46 7f 87 3f
       -0.07138129 2.3731987 -0.043819953 1.0585716
000190 c2 98 b3 3f 61 c2 19 40 1b c0 14 bd 71 6e 59 3d
       1.4030993 2.402489 -0.03631602 0.05308384
0001a0 09 54 52 3c 00 3f f1 bc 8c 98 cd 3f c5 18 e3 bd
       0.012837418 -0.029448986 1.6062179 -0.11088709
0001b0 3a aa 94 bd 59 9e d5 3e c1 75 a1 3f 9e 66 58 3f
       -0.07259031 0.41722372 1.2614061 0.8453158
0001c0 e7 02 9b 3f ce 5a c3 bd 46 bf 87 3f 92 48 7f 3d
       1.2110261 -0.09538804 1.0605247 0.062325068
0001d0 cc f8 5f 40 59 8c 7e 3d eb 7f 9c bd 23 79 81 bd
       3.4995604 0.062145565 -0.07641586 -0.06321933
0001e0 85 ca 03 40 3c 81 0f 40 13 d8 a3 3c d8 d8 e9 3c
       2.0592358 2.2422628 0.020000493 0.028545782
0001f0 97 28 1a 40 20 7e ba bc d0 11 e1 3f e4 c8 a0 bd
       2.4087274 -0.02276522 1.7583561 -0.07850817
000200 16 84 19 3c 51 69 3f 3d b0 e3 b1 3f 41 ea ac 3f
       0.009369871 0.046731297 1.389761 1.3508989
000210 de c2 ff 3a 74 03 b3 bd 2a e6 c5 3d 7f 35 1c 3f
       0.0019513031 -0.08740893 0.09663041 0.6101913
000220 7d 32 c3 3d fd 68 6e bc 9d f7 c6 bd 04 87 22 40
       0.09531114 -0.014551398 -0.09715197 2.5394907
000230 72 24 88 3b f0 8f 0f 40 8a ab a9 3f 88 a4 3a 3f
       0.0041547352 2.2431602 1.3255475 0.72907305
000240 a2 7a e4 bc 34 1d 87 bc a3 a4 29 3c 80 06 8f bd
       -0.027890507 -0.016493417 0.010354194 -0.06983662
000250 31 62 1a 40 15 12 bd 3c d1 03 01 40 2e 31 f7 3e
       2.4122431 0.023079911 2.015858 0.4827971
000260 be e5 91 3c 41 c7 d3 3f 09 b1 96 3f bb e3 22 bd
       0.017809745 1.6545182 1.1772777 -0.039767962
000270 3f 38 85 3f cc c3 a8 3c 34 cc 8d bd 13 7f cb 3c
       1.040779 0.020601176 -0.06923714 0.024840867
000280 7f 28 cd 3f c8 08 f3 bd 08 35 8f bd 24 2c 6e 3f
       1.6027983 -0.11866909 -0.06992537 0.93036103
000290 f4 30 73 3f 45 56 ae bd 32 d0 9a 40 8e 1d 96 3f
       0.9499657 -0.08512548 4.8379145 1.1727769
0002a0 12 4e a1 3f 3d 17 ce 3f e4 5b 73 3d 0c 56 30 40
       1.260195 1.6100842 0.059413806 2.755252
0002b0 53 35 9b 3f 11 5a 9b bc 03 9e 1a 3d 28 16 0b 41
       1.2125648 -0.018963845 0.037748348 8.692909
0002c0 46 dc e0 3f fd be ec 3f c3 dc a2 bd e6 2b de bd
       1.7567222 1.8495785 -0.07952263 -0.10848217
0002d0 c9 5a b0 3c 95 1d 95 3f 15 79 b3 3f 29 b0 b9 bd
       0.021527665 1.1649653 1.4021326 -0.09066803
0002e0 3c cc 01 3d 97 97 17 40 ae 78 0d be b5 69 66 3f
       0.031688914 2.3686273 -0.13815567 0.90005046
0002f0 28 14 b2 3f 65 1f 11 40 bf be 63 bd 5c ed f0 bc
       1.3912401 2.2675412 -0.05560183 -0.029410057
000300 89 d6 e0 3d f1 db 2f bd db 04 df 3f 49 d2 45 bb
       0.10978419 -0.04293436 1.7423357 -0.0030185154
000310 3a 2e 61 3d b1 19 6e 3e 8c 77 aa 3f 70 e6 3d 3f
       0.054975726 0.23251988 1.3317733 0.74179745
000320 e8 30 a1 3f 61 82 65 3d 36 c8 84 3f 64 50 10 bb
       1.259305 0.056032542 1.03736 -0.0022020573
000330 4b 4e 5c 40 76 22 81 bd 0b 55 6d 3d 39 9c 27 3d
       3.4422786 -0.06305401 0.05794243 0.04092047
000340 67 ce 04 40 cf b3 11 40 a1 9f 80 bd 54 f0 a1 3c
       2.0750978 2.2765996 -0.06280447 0.019767918
000350 ea a2 0f 40 5d 8c 35 bd 90 f5 e3 3f 42 7c d0 bd
       2.2443185 -0.044323314 1.7809315 -0.1017995
000360 27 b2 9a bc 4f 82 9c 3d 61 19 a5 3f 09 31 b2 3f
       -0.018883778 0.07642042 1.289837 1.3921214
000370 f8 db 51 bd 18 5f 4d bd 32 19 24 bd c4 f8 f9 3e
       -0.05123517 -0.050139517 -0.04006309 0.48822606
000380 43 17 2b 3d 0c e0 a0 bd cd 1e c0 3b 64 2f 17 40
       0.04177023 -0.078552336 0.0058630467 2.3622675
000390 70 2e 08 3e 7b e7 18 40 a4 d1 a8 3f 46 b0 58 3f
       0.13298965 2.3891284 1.3188977 0.8464397
0003a0 e4 8e cd bc 5e 29 6e bd 8e 44 0b bc 38 4e 18 3d
       -0.02509255 -0.05814492 -0.008500231 0.03718397
0003b0 dd cf 17 40 ad 90 b3 3c 44 df 03 40 92 2d e9 3e
       2.372062 0.021919573 2.060502 0.4554258
0003c0 7c 32 a3 bd 1d 6b c7 3f bc 07 a2 3f 37 13 2f bd
       -0.079686135 1.5579563 1.265861 -0.042742934
0003d0 a6 16 84 3f 35 aa a6 bc 3f aa db bc f8 e0 15 3b
       1.0319412 -0.020344833 -0.026814578 0.0022869688
0003e0 62 56 c0 3f c9 c5 83 bd 57 c2 b8 bc 9f cb 6e 3f
       1.5026362 -0.06434209 -0.022553606 0.9327945
0003f0 54 f1 60 3f c5 af dd bc ea 3d 9d 40 7d 72 8e 3f
       0.8786824 -0.027061353 4.913808 1.1128689

bias f4 [22]
000000 ea e5 ea be 0d f4 f9 be 6c bb d8 be 69 57 61 3f
       -0.45878536 -0.48819008 -0.42330492 0.88024
000010 a4 ef 13 bf 3d 4a 82 3f 7f f9 54 3f 68 22 82 3f
       -0.5778754 1.0178906 0.831932 1.016675
000020 48 56 de be 57 42 83 3f a2 5e d7 be 6e fb 02 bf
       -0.43425202 1.025462 -0.42064387 -0.511649
000030 cf 32 82 3f 0a d7 82 3f d2 5f 02 bf 99 d0 80 3f
       1.0171756 1.0221875 -0.5092746 1.0063659
000040 d3 3e 73 3f 4b 96 18 bf bd 3c 85 3f 6c 57 f0 be
       0.9501774 -0.5960433 1.0409161 -0.46941698
000050 4b 39 7c 3f e7 81 77 3f
       0.9852492 0.9668259

weight f4 [1, 22]
000000 d0 0e 6d 3f 7d 59 79 3f 86 b4 91 3f 9f a3 09 bf
       0.9260073 0.97402173 1.1383216 -0.5376529
000010 ae 33 84 3f 7c 24 ff be 93 b4 2a bf 98 1d 15 bf
       1.0328271 -0.49832523 -0.66681784 -0.5824828
000020 ee 5d 80 3f 1d 75 09 bf 0e 8a 77 3f f2 93 84 3f
       1.0028665 -0.53694326 0.9669503 1.0357649
000030 c3 fa f5 be df c0 1b bf 77 c4 75 3f 0f 2d 05 bf
       -0.48042879 -0.6084117 0.96002907 -0.5202188
000040 c2 fe fb be 32 7e 80 3f f3 8d fc be a2 1b 6e 3f
       -0.49217802 1.0038512 -0.4932705 0.93010914
000050 fb 23 04 bf 44 9e 0e bf
       -0.516174 -0.55710244
