data/q_value_target_net_2_simple_spread_3980000_GSA.pth (torch, 114901 bytes, 7 tensors)

weight f4 [160, 80]
0	0x3eead668	0.45866704
1	0x3ee84616	0.4536597
2	0x3ea5a692	0.32353646
3	0x3e0082d9	0.12549914
4	0x3c1471b8	0.009060316
5	0x3d6df4eb	0.0580949
6	0xbdc247d5	-0.09486357
7	0xbcd5970d	-0.026073003
8	0x3eca01e6	0.39454573
9	0x3eedbce0	0.46433163
10	0xbdfff152	-0.124972
11	0xbd923c7a	-0.07140441
12	0x3cffeb20	0.031240046
13	0xbd8e9ab1	-0.06963099
14	0x3d48a1e4	0.048982516
15	0x3dcb6998	0.0993225
16	0xbd839a96	-0.06425969
17	0xbde0146a	-0.10941394
18	0x3ed30e33	0.4122177
19	0x3ebbf66e	0.36711448
20	0x3e6ba792	0.23013142
21	0x3e43a439	0.19105615
22	0xbca82f78	-0.020530447
23	0xbe068449	-0.131364
24	0x3d7aa922	0.061196454
25	0xbd834e72	-0.06411447
26	0x3ee7f8fa	0.45307142
27	0x3eb92f6e	0.36168998
28	0x3d00789a	0.031365015
29	0x3d198808	0.037483245
30	0xbc7657f9	-0.015035623
31	0xba9f9d44	-0.0012177606
32	0xbd647fc2	-0.0557859
33	0x3dc693b6	0.096961424
34	0xbd670de1	-0.05640972
35	0x3d23255f	0.03983056
36	0x3f1e48aa	0.61829627
37	0x3ed6e077	0.41968128
38	0x3e189b5e	0.14903018
39	0x3d6eca8c	0.058298633
40	0xbd313cef	-0.043271
41	0x3da5dee5	0.080991544
42	0x3ad756c5	0.0016429058
43	0x3dbae8e7	0.09126454
44	0x3f500b57	0.81267303
45	0x3f1ad799	0.60485226
46	0xbcbfc200	-0.023407936
47	0xbd5feaf9	-0.054667447
48	0xbd611082	-0.054947384
49	0xbd6df60a	-0.05809597
50	0xbdbbb1d8	-0.091647804
51	0xbd938eca	-0.07204969
52	0xbca5a5f9	-0.020220743
53	0xbdb1bd4b	-0.08678683
54	0x3ea3797c	0.31928623
55	0x3edc1d30	0.42991018
56	0x3e963404	0.2933656
57	0x3e270cbc	0.16313452
58	0xbbfa888d	-0.0076456727
59	0xbd6c898a	-0.057748355
60	0xbd9abba6	-0.07555322
61	0x3c895eaf	0.016768781
62	0x3e86c6a5	0.2632343
63	0x3ece49b5	0.4029061
64	0xbcc5a3a3	-0.02412588
65	0xbd38bbb6	-0.04510089
66	0xbcf3af2b	-0.029746613
67	0xbd19982b	-0.037498634
68	0xbc80dc50	-0.015730053
69	0x3da41e5d	0.08013604
70	0x3da92e03	0.08260729
71	0xbd26b965	-0.04070415
72	0x3d329d04	0.043606773
73	0x3c8eaee6	0.017417382
74	0x3d58c23c	0.05291961
75	0x3cb1e168	0.021713927
76	0x3b97b7a6	0.004630047
77	0xbbe7ec32	-0.007077717
78	0x3d0da8e9	0.034584913
79	0x3ccc4d62	0.024939243
80	0x3e83faff	0.25777432
81	0x3e349c0b	0.1763765
82	0xbe1c2f11	-0.1525233
83	0xbe3af8a2	-0.18258908
84	0x3c3585e8	0.011079289
85	0x3dbac4fc	0.09119603
86	0x3d856072	0.06512536
87	0xbdb48bd4	-0.088157326
88	0x3f0bc4b4	0.5459702
89	0x3ef24535	0.47318426
90	0xbbdfcfb4	-0.00683018
91	0xbdaaa00e	-0.08331309
92	0xbd2fa65b	-0.04288326
93	0x3e0b3d60	0.13597631
94	0x3c610d50	0.013736084
95	0xbd7269b7	-0.05918285
96	0xbd6c5d96	-0.057706438
97	0xbd1f9ba7	-0.0389668
98	0x3e5e9d0f	0.217396
99	0x3d28ff4c	0.041259095
100	0xbcd36962	-0.025807086
101	0xbd8cc5f6	-0.068736956
102	0x3c8a6538	0.016893968
103	0xbe168d51	-0.14702345
104	0xbd8ab5b8	-0.06772941
105	0x3e12f5c2	0.14351562
106	0x3f09ff0b	0.5390479
107	0x3e9b8e6a	0.3038209
108	0x3ce0083b	0.027347675
109	0xbc1f4279	-0.009720438
110	0xbd4b3e66	-0.049620055
111	0x3b9560ea	0.004558672
112	0xbdaf147d	-0.0854883
113	0xbd3aa376	-0.045566045
114	0x3dea9a0b	0.114551626
115	0x3d24a075	0.040192086
116	0x3e8e935c	0.278468
117	0x3e06e944	0.13174921
118	0xbea19c03	-0.3156434
119	0xbed9e49a	-0.42557222
120	0x3e1786b7	0.14797483
121	0x3d2f5d91	0.04281384
122	0x3c84cd79	0.016211258
123	0x3d4661aa	0.048432983
124	0x3f1b50e5	0.6067031
125	0x3f010cfc	0.5041044
126	0x3b5fc012	0.0034141582
127	0x3e1e2c8d	0.15446682
128	0x3d1f8a03	0.038949978
129	0xbd33313c	-0.043748125
130	0xbd4af634	-0.049551204
131	0xbc8fafb4	-0.017539836
132	0xbd7d5bc7	-0.061855104
133	0x3ba57bcc	0.005050158
134	0x3e2ec005	0.17065437
135	0x3d2823b4	0.041049674
136	0xbe406d03	-0.18791585
137	0xbcf975db	-0.030451706
138	0x3d432f8d	0.04765277
139	0xbcce7d07	-0.025206102
140	0x3d958510	0.0730077
141	0xbe00633d	-0.12537856
142	0x3f0690c6	0.52564657
143	0x3edcf637	0.43156597
144	0x3da206d1	0.079114564
145	0xbdde09ec	-0.10841736
146	0xbda48ebc	-0.08035037
147	0xbd9a7492	-0.07541765
148	0xbd250208	-0.04028514
149	0xbd98cd99	-0.0746109
150	0x3c6a3b68	0.01429639
151	0x3dcba2f1	0.09943188
152	0xbcf467c9	-0.029834645
153	0xbc94cd03	-0.018164163
154	0x3bf4f137	0.007475044
155	0xbc32bceb	-0.010909299
156	0xbcb9fad8	-0.02270262
157	0xbd3a9613	-0.04555328
158	0xbc44b7de	-0.012006728
159	0xbc583269	-0.0131956125
160	0x3ea6bc05	0.32565323
161	0xbe33e27c	-0.17566866
162	0x3e598186	0.21240816
163	0x3d990916	0.07472436
164	0xbe10aa1f	-0.14127396
165	0x3bf3c9d7	0.0074398327
166	0xbcc2c28b	-0.023774406
167	0x3e09fc77	0.13475214
168	0x3e673612	0.2257922
169	0xbed02768	-0.40655065
170	0x3cf632e5	0.030053565
171	0x3d8dc353	0.06922021
172	0x3d876dd8	0.06612748
173	0xbdb05f43	-0.0861192
174	0x3be97514	0.0071245525
175	0x3dd08f4b	0.10183581
176	0xbd04a185	-0.0323806
177	0xbd8d396d	-0.06895719
178	0x3e847266	0.2586853
179	0xbdbfce15	-0.09365479
180	0x3e0c53f2	0.13703898
181	0x3c95cbbb	0.018285623
182	0xbc24da03	-0.010061744
183	0x3e22a002	0.1588135
184	0xbcff199a	-0.031140137
185	0xbd2026df	-0.03909957
186	0x3e574d35	0.21025546
187	0xbec7038a	-0.38869888
188	0x3c9fcad9	0.019505905
189	0x3c4542f7	0.012039891
190	0x3d0d3deb	0.034482878
191	0x3da9e873	0.08296289
192	0x3d1c307f	0.038132187
193	0xbb809c53	-0.0039248853
194	0x3d31aef5	0.043379743
195	0xbd1ee5b7	-0.038793292
196	0x3ea40292	0.3203321
197	0xbdd9be82	-0.106320396
198	0x3d85ef99	0.0653984
199	0x3dc40ac4	0.09572366
200	0xbcc16df1	-0.023611994
201	0x3bb79565	0.005602526
202	0x3c161b0d	0.009161723
203	0x3dc76edc	0.097379416
204	0x3e6ea691	0.23305728
205	0xbe94b688	-0.2904551
206	0xbdf20e6f	-0.11819159
207	0xbc9d73da	-0.019220281
208	0xbdacab26	-0.084310815
209	0xbd637f35	-0.055541236
210	0x3de6874a	0.11256273
211	0x3d9ed4fd	0.07755468
212	0x3d49a647	0.04923084
213	0xbde86db3	-0.113490485
214	0x3e623bd0	0.22093129
215	0xbd7c8c78	-0.0616574
216	0x3e660efd	0.22466655
217	0x3d89e7d9	0.067336746
218	0x3d76b338	0.06022951
219	0xbcfc33f7	-0.030786498
220	0xbe11b99c	-0.1423096
221	0xbd2dbc8d	-0.042416144
222	0x3e94d213	0.29066524
223	0xbe991da8	-0.29905438
224	0xbd107c5a	-0.03527484
225	0x3d88608e	0.06659041
226	0xbd14ba09	-0.03631023
227	0xbd94251d	-0.07233641
228	0xbc6f15df	-0.014592617
229	0xbce3b35f	-0.027795492
230	0xbdc04634	-0.0938839
231	0x3dd003da	0.101569846
232	0x3ad5ecc6	0.0016321174
233	0x3ce1a7eb	0.02754589
234	0x3c8d46d5	0.01724569
235	0x3bd1bbd0	0.006400563
236	0x3bbbd2ed	0.0057319314
237	0x3ce1f099	0.027580546
238	0x3c6a609d	0.014305261
239	0x3b455347	0.0030109452
240	0xbe54f5a1	-0.20796825
241	0x3f864c7c	1.0492091
242	0xbd9aab09	-0.075521536
243	0x3dfb0f1f	0.122587435
244	0xbe044a3d	-0.12918945
245	0xbdc0dbc5	-0.09416918
246	0x3abe08d4	0.0014498481
247	0xbce9c96b	-0.028538426
248	0x3c86edfa	0.016470898
249	0xbd2a8755	-0.04163297
250	0x3e4051ce	0.18781206
251	0xbc78e039	-0.015190178
252	0xbd217e52	-0.03942711
253	0xbcd89e2d	-0.026442612
254	0x3a3c1f90	0.0007176334
255	0xbd110f26	-0.035414837

bias f4 [160]
0	0xbf5ae7e4	-0.85510087
1	0xbb12ea04	-0.0022417316
2	0xbf3f8ac5	-0.7482112
3	0x3f7a75be	0.9783591
4	0xbeeb23e4	-0.4592582
5	0x3f0bbe47	0.54587215
6	0xbde3ee99	-0.11129493
7	0xbf556f59	-0.8337303
8	0xbe8ea75d	-0.27862063
9	0x3d24b0eb	0.040207785
10	0xbf1dd954	-0.6165974
11	0x3e4874f0	0.19575858
12	0x3fb3c79b	1.404529
13	0x3db534c2	0.088479534
14	0xbca21744	-0.019786485
15	0x3fc119f4	1.5086045
16	0x3f550582	0.8321153
17	0x3e8d838f	0.27639434
18	0x3ec1a204	0.3781892
19	0xbe46ba21	-0.1940694
20	0xbe0123b6	-0.12611279
21	0xbf2e6551	-0.68123347
22	0xbf29de18	-0.66354513
23	0xbe6527c6	-0.22378454
24	0x3e4600b1	0.19336201
25	0x3de1294a	0.109942034
26	0xbf3de78d	-0.74181443
27	0xbf0a1be1	-0.5394879
28	0xbedc04e5	-0.42972484
29	0x3f4ddd35	0.8041566
30	0xbd082906	-0.033242248
31	0xbdaf4b99	-0.08559341
32	0x3e717ede	0.23583552
33	0xbeb82e59	-0.3597286
34	0xbf30d78a	-0.69078887
35	0x3e84547c	0.25845706
36	0xbdf1fc30	-0.11815679
37	0xbf87bb74	-1.0604081
38	0x3c45d50e	0.012074722
39	0x3ea10350	0.3144784
40	0xbe4d0aee	-0.200237
41	0x3f7f428e	0.9971093
42	0xbf062921	-0.5240651
43	0x3cba8e9e	0.022773083
44	0xbe036d36	-0.1283463
45	0xbeda1c07	-0.42599508
46	0xbdbea3b9	-0.09308571
47	0xbe5d857c	-0.21632951
48	0xbf64c610	-0.8936472
49	0xbe633efe	-0.22191998
50	0xbf15c2e0	-0.5850048
51	0x3ce9cb15	0.02853922
52	0xbf8b6df9	-1.0892936
53	0x3e3bab04	0.18326956
54	0x3f217da2	0.63082325
55	0x3edec95f	0.4351301
56	0x3ec5a906	0.38605517
57	0x3f79752c	0.97444415
58	0xbf148063	-0.580084
59	0xbf80acf0	-1.0052776
60	0xbfe1b653	-1.7633766
61	0x3db8f457	0.09030979
62	0x3ed23b6a	0.41060954
63	0x3f3df5e8	0.7420335
64	0xbfb7b698	-1.4352598
65	0x3f45775c	0.7713525
66	0xbfb613de	-1.4224813
67	0x3f9daa62	1.2317622
68	0xbef6b2ca	-0.4818328
69	0xbe550154	-0.20801288
70	0x3cb12a2d	0.021626556
71	0x3f8607a0	1.0471077
72	0xbd8a7e40	-0.067623615
73	0x3ecb8631	0.39750817
74	0x3f1dcec5	0.6164363
75	0x3f53f7d2	0.8280002
76	0xbe327852	-0.17428711
77	0xbf02e0c0	-0.5112419
78	0x3f4c65ac	0.7984264
79	0x3f928ec0	1.1449814
80	0xbd0d2a32	-0.03446407
81	0xbf763b8c	-0.9618461
82	0xbdb6058b	-0.08887776
83	0xbd2ac93e	-0.041695826
84	0xbf06b337	-0.5261721
85	0x3f991eee	1.1962564
86	0x3f2ecc84	0.68280816
87	0x3f0b6443	0.5444986
88	0x3f1f899f	0.6231937
89	0xbec7067f	-0.38872144
90	0x3f0a3d5d	0.5399988
91	0x3fb64508	1.4239817
92	0x3c64cb5b	0.013964499
93	0x3f5aff56	0.8554586
94	0x3fc58a67	1.5432862
95	0xbf7d10ee	-0.9885396
96	0xbf04ca7c	-0.51871467
97	0xbe9022d1	-0.28151563
98	0x3eea200d	0.45727578
99	0xbe31c5d7	-0.17360626
100	0xbf15e0ab	-0.5854594
101	0xbd74380e	-0.05962377
102	0xbf30747c	-0.6892774
103	0xbe1393c8	-0.14411843
104	0xbf3d0986	-0.73842657
105	0x3f4ebaaa	0.80753577
106	0x3f882348	1.0635767
107	0x3eced969	0.40400246
108	0xbf41fd82	-0.7577745
109	0xbe405a81	-0.18784525
110	0xbece2e52	-0.40269715
111	0x3f7fb21b	0.9988114
112	0xbee49f15	-0.4465262
113	0xbf5d1ba6	-0.86370313
114	0xbf3237ed	-0.69616586
115	0x3fa65188	1.2993631
116	0xbd3747c5	-0.04474618
117	0xbeaf8f6a	-0.34289104
118	0xbf092e61	-0.53586394
119	0x3f2e8c05	0.681824
120	0xbdff5501	-0.12467385
121	0x3f17e1b4	0.5932877
122	0x3e191ada	0.1495165
123	0x3d3eab8d	0.046550322
124	0x3f7c4217	0.98538345
125	0xbf1b9df8	-0.60787916
126	0x3e6f17fa	0.2334899
127	0xbd88a574	-0.06672183
128	0x3eeaddf7	0.4587247
129	0xbfba5125	-1.4556013
130	0x3ea5b72b	0.3236631
131	0xbe5a1ea4	-0.21300751
132	0xbf8f97fc	-1.1218257
133	0xbf0836f5	-0.5320886
134	0xbf0e3f8b	-0.5556571
135	0x3ed85caa	0.42258197
136	0xbf8e3303	-1.1109318
137	0xbf43d333	-0.7649414
138	0xbf3b5b35	-0.73186046
139	0xbe9008a4	-0.28131592
140	0x3f4b0809	0.79309136
141	0x3f6aed6a	0.91768515
142	0xbf7cf04e	-0.98804176
143	0xbf26bf71	-0.65135866
144	0xbd8a64e0	-0.06757522
145	0x3e57da35	0.21079333
146	0xbeb64c36	-0.3560502
147	0xbe388adc	-0.1802172
148	0xbea981a4	-0.3310672
149	0x3e618d33	0.2202652
150	0x3e1406b2	0.14455679
151	0xbcf179bf	-0.029476998
152	0xbe11890b	-0.14212434
153	0x3ec207e3	0.37896642
154	0x3fae3674	1.3610368
155	0x3e876ba9	0.26449326
156	0x3de7f4b5	0.11325971
157	0xbe2ed961	-0.17075111
158	0x3d8d95e2	0.069133535
159	0xbf176bcd	-0.59148866

weight f4 [80, 160]
0	0x3e241aad	0.16025801
1	0xbdde5152	-0.10855354
2	0xbe5f62dd	-0.21815057
3	0x3ed4c9a0	0.41560078
4	0x3daab1b2	0.08334674
5	0x3eca0e43	0.39464006
6	0xbe599044	-0.21246439
7	0xbe264aa1	-0.16239406
8	0xbe077e13	-0.13231687
9	0xbe8e45ab	-0.27787527
10	0xbefed7c6	-0.49773997
11	0xbe59c291	-0.21265627
12	0x3de6835f	0.11255526
13	0xbe72a038	-0.23693931
14	0x3dbe7182	0.09298994
15	0x3e2a9f1a	0.16662255
16	0x3e227648	0.15865433
17	0x3e1ff2ff	0.1562004
18	0xbf1e80ca	-0.61915267
19	0xbdacd2c6	-0.08438639
20	0xbbb92246	-0.0056498377
21	0xbea92fa7	-0.33044168
22	0xbee4ee15	-0.44712892
23	0x3e640969	0.22269215
24	0x3df616f1	0.120160945
25	0x3e1b0db2	0.15141943
26	0xbf138382	-0.5762254
27	0xbe8f7e33	-0.2802597
28	0x3e492a1f	0.19644974
29	0x3e2086ce	0.15676424
30	0x3da1485d	0.0787513
31	0xbf050e45	-0.519749
32	0xbee13891	-0.4398847
33	0xbdb5ff43	-0.08886578
34	0xbf1eadf3	-0.61984175
35	0x3dac7f17	0.08422678
36	0x3dbc1cf2	0.091852084
37	0xbebde4d7	-0.37088653
38	0xbdf405ca	-0.11915167
39	0xbd6860ec	-0.056733057
40	0xbedac09b	-0.4272507
41	0x3cbe9797	0.023265643
42	0xbf188f82	-0.59593976
43	0x3da7a2a9	0.08185322
44	0x3cb3cf4d	0.021949435
45	0xbf270e96	-0.6525663
46	0x3df8495a	0.12123366
47	0xbddabf50	-0.10681021
48	0xbf481c9e	-0.78168666
49	0xbec1e0a8	-0.37866712
50	0xbf23c9e5	-0.6397994
51	0xbca5d08d	-0.020241046
52	0xbef8ec14	-0.48617613
53	0x3e374e93	0.17901067
54	0x3e0024c8	0.12514031
55	0xbed42629	-0.41435364
56	0xbe01d476	-0.12678704
57	0x3dd2873e	0.10279702
58	0x3d64fad7	0.055903282
59	0xbf7dd33f	-0.9915046
60	0x3d6585fc	0.05603598
61	0xbe2cda89	-0.1688024
62	0x3da56fb6	0.08077948
63	0x3ecab496	0.395909
64	0x3c48a1f5	0.012245645
65	0x3e295c91	0.16539218
66	0x3f0e7898	0.5565276
67	0x3c5f4f7f	0.013629793
68	0xbe0d57f6	-0.13803086
69	0xbd9c9b6d	-0.076468326
70	0xbe2acf62	-0.16680673
71	0x3df95597	0.12174528
72	0xbba852b6	-0.005136813
73	0xbdb97165	-0.090548314
74	0x3da28c73	0.07936945
75	0x3ece8542	0.40336043
76	0xbd117d01	-0.035519604
77	0xbf0a2b6a	-0.53972495
78	0xbe2f6784	-0.17129332
79	0xbdfa9249	-0.12234933
80	0x3e225e59	0.15856303
81	0xbf254d49	-0.6457105
82	0x3e08e3fe	0.13368222
83	0x3da16b1b	0.07881757
84	0x3e4b5d23	0.19859748
85	0x3e05b97f	0.13059042
86	0x3da56429	0.08075745
87	0x3d9726c2	0.07380439
88	0x3e58c808	0.21170056
89	0xbef3a352	-0.4758554
90	0x3ea956b5	0.33073965
91	0x3e8b37b4	0.27190936
92	0xbf5be00d	-0.8588875
93	0x3e6843b2	0.22682074
94	0x3d8da701	0.06916619
95	0xbddcbea9	-0.10778553
96	0xbe9341d5	-0.28761163
97	0x3d3d7208	0.046251327
98	0xbe4ee65a	-0.2020506
99	0x3da59ada	0.08086176
100	0xbd876119	-0.06610317
101	0xbee75b6f	-0.45186946
102	0xbf0a5543	-0.5403635
103	0xbe223242	-0.15839484
104	0x3dc954a1	0.09830595
105	0x3d5e8dc9	0.054334436
106	0xbc256af5	-0.010096301
107	0x3f0f250c	0.55915904
108	0x3e401bde	0.1876063
109	0x3d88c34b	0.06677874
110	0xbe45461b	-0.19265024
111	0x3e48442a	0.19557253
112	0xbf508ae0	-0.81461906
113	0x3e718c30	0.23588634
114	0xbeffe31f	-0.49977967
115	0x3e4273b0	0.18989444
116	0xbd565490	-0.05232674
117	0xbdf334c3	-0.11875298
118	0xbea23033	-0.31677398
119	0xbd9a8897	-0.07545584
120	0xbd3e105e	-0.046402328
121	0xbeb6a3ac	-0.35671747
122	0xbe6696d4	-0.22518474
123	0xbe328b75	-0.17436011
124	0x3cbeed37	0.023306472
125	0x3e8f5315	0.27993074
126	0xbed1c720	-0.40972233
127	0x3e5650d4	0.20929271
128	0xbe469ca6	-0.19395694
129	0x3e926f95	0.28600755
130	0xbc0b3654	-0.00849684
131	0xbe0acb4e	-0.13554117
132	0xbe12ca06	-0.14334878
133	0x3e0f8199	0.14014281
134	0xbec959ed	-0.3932642
135	0xbe2b8531	-0.16750027
136	0x3a8aea72	0.0010598435
137	0xbeb3238b	-0.34988055
138	0xbf4bcfe9	-0.7961412
139	0xbea6b0a6	-0.32556647
140	0xbe04577d	-0.12923999
141	0x3d3019e6	0.04299345
142	0xbe2087fc	-0.15676874
143	0xbe9ee15d	-0.31031314
144	0x3de3f755	0.11131159
145	0xbe46f719	-0.19430198
146	0xbc03404e	-0.008010937
147	0x3e2bc0d0	0.16772771
148	0xbe78fb8e	-0.2431471
149	0x3ed94c9e	0.42441267
150	0xbde0d265	-0.109776296
151	0xbf07399e	-0.5282229
152	0xbeca94e0	-0.39566708
153	0xbdd88934	-0.105730444
154	0xbe03e1de	-0.1287913
155	0xbb76af84	-0.0037641237
156	0xbe3ceb0b	-0.18449037
157	0xbe21862b	-0.15773837
158	0xbd9098a0	-0.07060361
159	0xbec67389	-0.3876002
160	0x3cff4350	0.031160027
161	0x3d6f4b7f	0.058421608
162	0xbd68c0a4	-0.05682434
163	0xbdca1d22	-0.09868838
164	0xbda7951e	-0.08182739
165	0x3f19c8ca	0.60072005
166	0x3e02ee26	0.12786159
167	0xbeca4adb	-0.39510235
168	0x3eb878f9	0.36029795
169	0xbee41a0e	-0.44551128
170	0x3d8e4f7f	0.069487564
171	0xbdcdf2b3	-0.10056057
172	0x3e93527c	0.28773868
173	0x3e96fda9	0.29490402
174	0xbde74c76	-0.11293881
175	0x3e3d52fb	0.18488686
176	0xbe9854df	-0.29752252
177	0x3e8c2a1b	0.27375874
178	0x3c5e5de6	0.013572192
179	0xbe2dd2d7	-0.1697496
180	0x3b34b7ed	0.0027575449
181	0xbe0d2933	-0.13785248
182	0x3eba9c59	0.3644741
183	0xbe8de2a7	-0.27711985
184	0x3d804bf4	0.06264487
185	0x3ea43c94	0.32077467
186	0xbed499d6	-0.41523618
187	0xbe3df591	-0.18550707
188	0x3f46dca7	0.7768044
189	0xbe3008a4	-0.17190796
190	0xbeec05e6	-0.4609825
191	0xbea6dfee	-0.3259272
192	0xbec97fe0	-0.39355373
193	0x3e1d5037	0.15362631
194	0xbf2971a2	-0.66189015
195	0x3e479a28	0.194924
196	0x3dbc1b76	0.09184925
197	0x3e23db05	0.16001518
198	0x3d2b8c71	0.041881982
199	0x3e1d111c	0.15338558
200	0xbe06d466	-0.13166961
201	0x3d3498b8	0.044090956
202	0x3dd2dfef	0.10296618
203	0x3e7c8740	0.24660969
204	0xbc1ff408	-0.009762771
205	0xbf00e9fa	-0.5035702
206	0x3cb1d038	0.021705732
207	0x3e2f97cd	0.17147751
208	0x3f0a4f66	0.540274
209	0xbe88ea27	-0.26741144
210	0xbccf48b3	-0.02530322
211	0x3f3e5e6c	0.74362826
212	0xbec7c1bb	-0.39014992
213	0xbdff5664	-0.124676496
214	0x3e011f66	0.12609634
215	0x3ea26ec2	0.31725127
216	0xbea934e5	-0.33048168
217	0x3e55318c	0.20819682
218	0xbdac2a2d	-0.08406482
219	0x3ec8f59f	0.39249894
220	0xbeaecfb8	-0.34142852
221	0x3e455400	0.19270325
222	0x3e32d9ea	0.1746594
223	0x3ea005fb	0.31254563
224	0xbe8ca102	-0.2746659
225	0x3e257b9e	0.16160437
226	0xbe4b19e6	-0.19834098
227	0x3d51091b	0.051034074
228	0xbe94bc04	-0.29049695
229	0x3e6d8486	0.23195085
230	0xbd861328	-0.065466225
231	0xbc33d12d	-0.010975164
232	0x3d64b620	0.05583775
233	0x3e3c6260	0.18396902
234	0xbe5561ab	-0.20838039
235	0xbd3e544c	-0.04646711
236	0x3e7f1284	0.24909407
237	0x3c0b2e34	0.008494902
238	0x3e763615	0.24044068
239	0x3e004ce4	0.12529331
240	0x3d04ad60	0.032391906
241	0xbee9f823	-0.45697126
242	0x3e39d147	0.18146239
243	0x3ed8feea	0.42381984
244	0xbd5fc073	-0.054626893
245	0x3e4ec88a	0.20193687
246	0x3e8e6368	0.27810216
247	0xbf1da06c	-0.6157291
248	0x3ee5c258	0.44874835
249	0x3e441cdb	0.19151632
250	0x3ea483e2	0.3213187
251	0x3e8e3d06	0.27780932
252	0xbe90cdd5	-0.28282037
253	0x3e9c371e	0.305108
254	0x3e279f81	0.1636944
255	0xbe80b3bd	-0.2513713

bias f4 [80]
0	0x3ebe3a17	0.37153694
1	0x3ed10033	0.40820464
2	0x3dd93657	0.10606068
3	0xbe85169e	-0.25993818
4	0x3eac4c96	0.3365218
5	0x3dc34343	0.095343135
6	0x3f027b5f	0.509695
7	0x3ec9f820	0.39447117
8	0x3e42edfc	0.19036096
9	0x3f3a3350	0.72734547
10	0x3e31e2cc	0.17371672
11	0xbdc28264	-0.09497526
12	0x3ec1b677	0.37834522
13	0x3f425da7	0.7592415
14	0x3ed2af09	0.41149166
15	0x3ef111d3	0.4708391
16	0x3f47311d	0.77809316
17	0x3f57e41e	0.84332454
18	0x3ed0f90e	0.40815014
19	0x3e16af32	0.14715269
20	0x3d7ae2c2	0.06125141
21	0x3e27c5fc	0.16384119
22	0x3e5c70e6	0.21527442
23	0x3ed00ddf	0.40635583
24	0x3f21aefe	0.6315764
25	0x3f276310	0.6538553
26	0xbd8ae24f	-0.06781446
27	0x3dae1e17	0.08501833
28	0xbe4188cd	-0.18899842
29	0xbe2acd95	-0.16679986
30	0x3eb03567	0.34415743
31	0x3d9be624	0.07612255
32	0x3eba0845	0.36334434
33	0x3f0ad57f	0.5423202
34	0xbf1a82e8	-0.60356
35	0x3f2ea9d6	0.682279
36	0x3eb8a1f5	0.36061063
37	0x3f266362	0.64995396
38	0xbe4cef87	-0.20013247
39	0x3e6eba6e	0.23313305
40	0xbbe35756	-0.0069379015
41	0x3e6c27b5	0.23062022
42	0x3c9933a4	0.018701382
43	0xbe2c94cb	-0.16853635
44	0x3e667332	0.22504881
45	0x3e4b199c	0.19833988
46	0x3f1db780	0.61608124
47	0x3f703bb5	0.93841106
48	0x3eb6f4e5	0.35733715
49	0x3e594ccc	0.21220702
50	0x3f25405d	0.64551336
51	0x3e373573	0.17891483
52	0xbe943850	-0.28949213
53	0x3e8d021e	0.27540678
54	0x3e9bee3d	0.304552
55	0x3ee47a4f	0.44624564
56	0x3eae4a6a	0.34041148
57	0x3efcdb48	0.49386048
58	0x3e9c2716	0.3049857
59	0x3e5c95a5	0.2154146
60	0x3d6382fb	0.055544835
61	0x3dc193a7	0.094519906
62	0x3e61ccea	0.22050825
63	0x3e33bebd	0.1755323
64	0xbde2b021	-0.1106875
65	0x3d5b227b	0.05349968
66	0x3f0ed110	0.55787754
67	0x3f2502fd	0.64457685
68	0x3f458187	0.7715077
69	0x3ec80b1a	0.3907097
70	0x3e6bebda	0.23039189
71	0x3f4bd3b0	0.79619884
72	0x3e9c798a	0.30561477
73	0x3f23d420	0.6399555
74	0x3e3cddeb	0.1844403
75	0x3e8de605	0.27714553
76	0x3ef42755	0.47686258
77	0xbd304d47	-0.043042447
78	0xbcb98e2a	-0.022650797
79	0x3e0bcbcf	0.13651966

weight f4 [20, 80]
0	0x3e39574f	0.18099712
1	0x3c3801f0	0.011230931
2	0xc0b3cfbe	-5.619109
3	0xbfa1dd1d	-1.2645603
4	0xbc8400d4	-0.016113676
5	0x3f84c0fd	1.0371395
6	0x3ee3c10a	0.44483215
7	0x3d1a8070	0.037720144
8	0x3e585f07	0.2113
9	0x3e3c5639	0.18392266
10	0x3e9dbc71	0.30807832
11	0xbff86e27	-1.9408616
12	0x3fc0c116	1.5058925
13	0x3e5aafad	0.21356077
14	0x3fb9220b	1.4463514
15	0x3f167afd	0.58781415
16	0x3e9595de	0.29215902
17	0x3fa63876	1.298598
18	0x4009e914	2.154851
19	0xbd8d0ed6	-0.06887595
20	0xc064532b	-3.5675762
21	0xbcac35b7	-0.021021707
22	0x3fa26fba	1.2690346
23	0x3d8a5fd0	0.06756556
24	0x3e02b53c	0.12764448
25	0x3e924b25	0.28572956
26	0xbf598f0f	-0.84983915
27	0x3e2de446	0.1698161
28	0x3e50284f	0.20327877
29	0x3d873c8c	0.06603345
30	0x3e023a8e	0.1271765
31	0xc00d6724	-2.2094202
32	0x3e679e50	0.22618985
33	0x3d8d29c6	0.06892733
34	0xbfdc3329	-1.7203113
35	0x3e2d2c46	0.1691142
36	0x3f2bde85	0.6713641
37	0x3e317d72	0.1733301
38	0x3f0e2f1d	0.5554064
39	0x3b9f57eb	0.0048627756
40	0xbe86e13b	-0.26343712
41	0x3f0a1fbf	0.5395469
42	0x3fbd5dec	1.4794288
43	0xbef9c767	-0.48784944
44	0xbdb5e53b	-0.08881613
45	0x3e9e69e4	0.30940163
46	0x3eabef9a	0.3358124
47	0x3ec035fd	0.3754119
48	0x3f3360ec	0.70069766
49	0x3c2268dd	0.009912697
50	0x3eb5c767	0.35503694
51	0xbfe815db	-1.813167
52	0x40515776	3.2709632
53	0x3f31ade7	0.6940598
54	0xbe333d8b	-0.17503946
55	0x3f171b35	0.5902589
56	0xbff219e0	-1.8914146
57	0x3d3d78a1	0.04625762
58	0x3f7f2937	0.99672264
59	0xbd36b193	-0.04460294
60	0xbeb1580e	-0.34637493
61	0xbe58590b	-0.21127717
62	0x3da91146	0.08255248
63	0xbca24e6d	-0.019812787
64	0xbec6f3ca	-0.3885787
65	0xc0d58f7c	-6.673765
66	0x3e9dbdbb	0.30808815
67	0x3e79c369	0.2439095
68	0x3e289b52	0.164655
69	0x3db0aa24	0.08626202
70	0x3e37bffb	0.17944328
71	0x3eb85ab6	0.36006707
72	0x402bdd73	2.6853912
73	0x3e28c958	0.16483057
74	0x3e8c37a7	0.2738621
75	0xbe1f4c96	-0.15556559
76	0x3e8e527b	0.27797303
77	0xbe002af5	-0.12516387
78	0xbe8aa7b7	-0.2708108
79	0x3e9b1fa3	0.30297574
80	0x3e91e927	0.28498194
81	0x3f005b87	0.5013966
82	0x40947459	4.6392026
83	0x3f9c9898	1.2234068
84	0x3ef6bd19	0.48191145
85	0xbf8bd899	-1.0925475
86	0x3e20e2da	0.15711537
87	0xbf1f4ea6	-0.62229383
88	0x3ecc4b69	0.39901283
89	0x3ebd9170	0.37025023
90	0x3ea85df8	0.32884192
91	0x3feef88e	1.8669603
92	0xbfff1eab	-1.9931234
93	0x3e48165a	0.19539776
94	0xbf2197bc	-0.63122153
95	0xbdbc30ba	-0.09188981
96	0x3eb851ef	0.3600001
97	0xbfbd212d	-1.477575
98	0xc008aa98	-2.1354122
99	0xbf37fd43	-0.7187082
100	0x404f2871	3.2368433
101	0xbf4ba562	-0.7954923
102	0xbf31168c	-0.6917503
103	0x3ef8e61c	0.4861306
104	0x3ede7a7a	0.43452817
105	0x3ec05fc3	0.3757306
106	0x3f6be8cc	0.92152095
107	0x3e6ba46c	0.2301194
108	0xbf5187c2	-0.81847775
109	0x3ef014f9	0.46891
110	0x3ef0d661	0.47038558
111	0x3ff53c95	1.9159113
112	0x3ecc114b	0.39856943
113	0x3ea885e5	0.32914653
114	0x3fcb0835	1.586188
115	0x3e996429	0.2995923
116	0xbe29cf31	-0.16582943
117	0x3e6689c4	0.22513491
118	0xbf9b300f	-1.2124041
119	0x3efbaf4e	0.49157184
120	0x3ef914c9	0.4864867
121	0x3e2cb64d	0.16866417
122	0xc00408cb	-2.0630367
123	0x3f2e1286	0.67997015
124	0x3ef56360	0.4792738
125	0x3e2669a2	0.16251233
126	0x3e9a0b2d	0.3008665
127	0x3e8cdb0e	0.27510875
128	0x3cd646b3	0.026156759
129	0xbf011bfb	-0.5043332
130	0x3ebffb1b	0.37496266
131	0x3ff30be7	1.8988007
132	0xc043798d	-3.0542939
133	0xbfbbab56	-1.4661663
134	0x3f2ebb3c	0.68254447
135	0xbe0cba62	-0.13742974
136	0x3fe6edf8	1.8041372
137	0x3ebfd960	0.3747053
138	0xbfc14a76	-1.5100849
139	0x3ef88781	0.4854088
140	0x3f553237	0.83279747
141	0x3f06c283	0.5264055
142	0xbf240b09	-0.6407934
143	0xbf396c1c	-0.72430587
144	0x3f5e03f8	0.86724806
145	0x40ab529a	5.353833
146	0x3e2d1a16	0.16904482
147	0x3e7cdf26	0.246945
148	0x3e8c0208	0.273453
149	0x3eead085	0.45862213
150	0xbf5b1f7d	-0.8559492
151	0x3ea34be7	0.31893846
152	0xc024543e	-2.5676417
153	0x3eb82654	0.35966742
154	0x3dc43a63	0.09581449
155	0x3f072f14	0.5280621
156	0x3ea7b215	0.32753053
157	0x3f1a994e	0.60390174
158	0x3f095bd9	0.53655773
159	0x3e89a97b	0.26887116
160	0xbeb63c65	-0.35592952
161	0xbf3cb97e	-0.7372054
162	0xc0b2bca9	-5.58553
163	0xbff048cf	-1.877222
164	0xbf34c3b4	-0.7061112
165	0x3fbe77a3	1.488026
166	0xbe4cfd37	-0.20018469
167	0x3f583c9a	0.8446747
168	0xbee7901a	-0.45227128
169	0xbec44672	-0.38334996
170	0xbedb5172	-0.42835575
171	0xc0362760	-2.8461533
172	0x403cee32	2.9520383
173	0xbec57529	-0.3856595
174	0x3f571aea	0.8402544
175	0x3e5c9dc6	0.21544561
176	0xbf060d3f	-0.5236396
177	0x40086c73	2.1316192
178	0x404b59ba	3.1773515
179	0x3f83b2f3	1.0288986
180	0xc05bffc7	-3.4374864
181	0x3f805fb2	1.0029204
182	0x3f410797	0.75402206
183	0xbf38eca7	-0.722361
184	0xbedb2c61	-0.42807296
185	0xbf05a71a	-0.522081
186	0xbfa017f6	-1.2507312
187	0xbeceaedd	-0.40367785
188	0x3f912929	1.1340686
189	0xbf39e6ed	-0.7261799
190	0xbf24f883	-0.644417
191	0xc0207dc7	-2.5076768
192	0xbed129c7	-0.40852186
193	0xbf23470f	-0.637803
194	0xc00a011c	-2.1563177
195	0xbee6a224	-0.45045578
196	0x3ecddd3f	0.4020786
197	0xbe971f40	-0.2951603
198	0x3fc0acff	1.5052794
199	0xbf2706b3	-0.652446
200	0xbf596a89	-0.84928185
201	0xbe88da3d	-0.26729003
202	0x4036d9e8	2.85705
203	0xbf91014b	-1.132852
204	0xbf3187d6	-0.69347894
205	0xbe0dcbd1	-0.13847281
206	0xbea5aa95	-0.32356706
207	0xbebe7550	-0.37198877
208	0xbccedcee	-0.025251832
209	0x3f5ce213	0.8628246
210	0xbf4752c8	-0.7786069
211	0xc0319d29	-2.7752173
212	0x40751461	3.8293688
213	0x3ffbee6e	1.9682138
214	0xbf849839	-1.0358955
215	0x3e60c2e6	0.21949348
216	0xc0215fcf	-2.5214727
217	0xbf017db4	-0.5058243
218	0x40140b40	2.3131866
219	0xbf2d2857	-0.6763968
220	0xbf874316	-1.0567348
221	0xbf492060	-0.78565025
222	0x3f52d562	0.82356846
223	0x3f7b36bb	0.9813039
224	0xbf9a91ce	-1.2075746
225	0xc0d24abf	-6.5716243
226	0xbe6ed2f3	-0.23322658
227	0xbf2ab772	-0.66686165
228	0xbeca8d8e	-0.39561123
229	0xbf3ced25	-0.73799354
230	0x3facd4a8	1.3502398
231	0xbe64ee9d	-0.22356649
232	0x40704331	3.754101
233	0xbef1da1e	-0.47236723
234	0xbe39b8b7	-0.1813687
235	0xbf204ef7	-0.6262049
236	0xbf1e7a01	-0.61904913
237	0xbf8101a7	-1.0078629
238	0xbf39b99e	-0.72548854
239	0xbe868e9e	-0.26280683
240	0x3e853f9e	0.260251
241	0x3e247623	0.1606069
242	0xc0a30ded	-5.09545
243	0xbf32d40a	-0.69854796
244	0xbdd1980d	-0.102340795
245	0x3e8f5dad	0.28001156
246	0x3e93fb59	0.289027
247	0xbdc3875d	-0.09547303
248	0x3cbf7cfa	0.023375023
249	0x3d2954c9	0.041340623
250	0x3e5c8ac3	0.21537308
251	0xbfabc667	-1.3419923
252	0x3f5fe571	0.87459475
253	0x3e94f010	0.29089403
254	0x3fab416c	1.337934
255	0x3f167499	0.58771664

bias f4 [20]
0	0x3f4419e3	0.76602
1	0xbdc2fe57	-0.09521168
2	0xbd11f7e5	-0.0356368
3	0x3ef5a6e5	0.47978893
4	0x3f25794f	0.6463823
5	0xbccd30f8	-0.025047764
6	0x3f03ef65	0.5153716
7	0x3e72f1d5	0.23725064
8	0x3ec08f42	0.37609297
9	0x3d05a4c0	0.03262782
10	0xbd3f2fe0	-0.046676517
11	0xbda34a76	-0.07973187
12	0xbd4e3025	-0.050338883
13	0xbd737fce	-0.059448056
14	0xbda9f354	-0.08298364
15	0xbe4c6290	-0.19959474
16	0xbd1a04e5	-0.037602324
17	0xbd99e7fa	-0.07514949
18	0x3f269a56	0.6507925
19	0x3f033b05	0.5126193

weight f4 [1, 20]
0	0xbfa00278	-1.2500753
1	0x3f4cf254	0.80057263
2	0xc09a2aaf	-4.8177104
3	0xbf938f9b	-1.15282
4	0xbf98ff30	-1.1952877
5	0x3f33db40	0.70256424
6	0xbfcce3f2	-1.6007063
7	0xbf8e6980	-1.1125946
8	0xc00faef9	-2.2450545
9	0xbf928d9d	-1.1449467
10	0x3f3df579	0.74202687
11	0xbfa99d3f	-1.3251113
12	0x3f39aada	0.72526324
13	0x3f42d472	0.76105416
14	0x3f49810c	0.78712535
15	0x3f5424d5	0.828687
16	0x3f21cd6f	0.6320409
17	0x3f37b86b	0.71765774
18	0xbf98da16	-1.1941555
19	0xbfaf560d	-1.3698136
