data/q_value_target_net_1_food_collection_3980000_GSA.pth (torch, 138025 bytes, 7 tensors)

weight f4 [176, 88]
00000000: 0d45 cbbe afc1 6bbe b22d 88bf 3671 7bbf
00000010: 8388 863e 1836 953e 5ecd 403e b5af 5c3e
00000020: afdc 803e c61a 193e 302c 863e a522 833e
00000030: 8459 633e fef7 423e a158 813e 7f56 c63e
00000040: ae72 d23e fb66 443e 26bb bb3e 6a90 bf3e
00000050: 41bf 383d de90 9d3d 1289 ce3e cbcc ab3e
00000060: b10a babd 860c 303d 8f1a aabc e621 6f3d
00000070: a2b0 65bd 4d1f a6ba 00a7 6d3d 54b3 473b
00000080: 267f 033d ce69 ed3c ce48 cebe c0ce 76be
00000090: 64eb b4bd 3258 833c 6e96 193d f9e8 373d
000000a0: 4d0a 73bd 1a74 893d f36f bf3e bb8e a83e
000000b0: fc8c ca3c 34f4 05be 10cc d63d b56c 5bbd
000000c0: 50dc febd 257e 343d 27ee c43d ba24 633d
000000d0: 0354 c4bd 6845 993c dd43 c6be 22ba 67be
000000e0: 49de 933c 6c3f 4c3d 7495 8a3c debe fa3d
000000f0: 8fb5 493e 4fe1 963d 562a 7b3f 80af 583f
00000100: 80e5 f7bd ad83 66bd 522f 26be c6ea a0bd
00000110: 1640 efbd 69f3 8cbd c7e8 3cbe 4618 07be
00000120: e280 aebd 3605 30be 0c08 cebe 85c4 dfbe
00000130: 1d75 a3bd c647 ac3d e7b5 3fbe 2d36 f2bd
00000140: 8742 34be 021a 23be a9ff 3c3d c3c9 8a3d
00000150: bbfc 3a3d c1df 1d3d 2c32 0b3e 1afc db3d
00000160: cabc 373f 797c 513f 59b5 44bd c0a0 973e
00000170: c18a 4e3e 4b1d 543e c89c f73c 31fe 51bc
00000180: 7411 643e c40b 3d3d 80cf 4e3e b1a8 e63c
00000190: dc77 573e 2c85 dd3c 10a4 74bd a5ca 40be
000001a0: 009b 14be 5a0c 93bd 6d4f de3e 5987 003f
000001b0: 6783 153f 9233 8d3f 9981 ccbd 43f6 853e
000001c0: 38e0 503e 9651 733c e325 813e 9216 f3bb
000001d0: eda4 363e 8c53 24bd 155b f93d 56dd 3fbd
000001e0: 66da a43d 8262 89bc 2f0f c03c 45fa 4e3c
000001f0: f5ca 56bd 3dfe d13d a956 dd3e ca54 db3e
00000200: a082 433f 857c 603f 5b51 403e f871 413d
00000210: ba34 01bc 6b59 bb3d 8644 983d cd3c 1d3e
00000220: 61f0 483d f5a1 a63d 40a4 8abc 05c3 f73d
00000230: 1054 22bd 7f12 ef3d 6ce8 21bd 7fae 1d3e
00000240: 6285 b73d f669 a43c 9445 ff3e 90a1 c53e
00000250: 3ca1 bb3f a5f7 e23f d49e ac3f 47c6 b63f
00000260: 208a 85be eda1 6abe 43e3 31be 7332 27be
00000270: e09f 32be cae7 4dbe c906 1ebe 3d36 11bd
00000280: 3a3b 71be bb23 12be b727 15bf f53d e7be
00000290: c98d ebbe 29a9 b3be 07ba 1cbf 537f 7dbe
000002a0: 3608 e9bc 44d1 0c3d 355f a5bc 45c0 973c
000002b0: ebdd 5d3c 2d34 073c a3ba 303e 0707 393e
000002c0: ffb0 373c 5ba9 373d 95c8 813f 6847 863f
000002d0: e289 02be eb77 1fbe ea4c 81be a5da 55bd
000002e0: 7169 84be f5b5 56bd 2fc4 1bbf 3357 07bf
000002f0: 8b83 27be b9e2 2d3c 3032 0bbe 90ac 21be
00000300: a2b1 c5bd c58a 00be b09b 8fbe 97ce c2be
00000310: 047f 69be 4b8b 46be 40cf c73d 8361 3f3e
00000320: ea82 e23d e553 2e3d 25bb 933c a616 fb3b
00000330: ab1d b43d 417d a43d 1baf c1be 5a8b efbe
00000340: 51b4 113e 478f e93d c367 5d3e 9199 6d3e
00000350: d14e a4bd e5d0 a23d 717a 523d 590e 80bd
00000360: 0606 50be eaef 95be 7c40 c83d f65e 2b3e
00000370: a0a2 963d e216 003e 3708 a839 033e e03d
00000380: 19bb 4d3d 24cf aeba 2d45 e9be d00e a3be
00000390: 5d90 3e3d 206c cf3d 9942 6f3d 5ddb 0d3e
000003a0: b74a 3bbd f02d 8ebd 1a79 9b3d 27d5 42bd
000003b0: 088d 68be beba 14be 1a87 113e 8dde c23d
000003c0: 7632 49bd b85e 9e3c 23e8 1a3e 9845 7abd
000003d0: 5048 8d3d 923a a3bd 0868 fdbe 4e44 eebe
000003e0: a26b 9e3d 7c67 89bd 005c 613e aa5f 553e
000003f0: b9e4 983b f2d3 68bd 9ff7 9cbd 102b 543e
-0.3970112 -0.23023103 -1.0638945 -0.9821962 0.26276025 0.29142833 0.18828341 0.21551402
0.25168368 0.1495162 0.26205587 0.2561237 0.22202116 0.19039914 0.2526293 0.38737866
0.4110312 0.19179909 0.3666622 0.37414867 0.04510427 0.07693647 0.4033895 0.33554682
-0.090840705 0.042980693 -0.020764617 0.058381937 -0.056076653 -0.0012674123 0.05802059 0.0030471878
0.03210368 0.028981116 -0.4028992 -0.24102306 -0.0883396 0.016033266 0.037496977 0.044899914
-0.059335995 0.06711598 0.37390098 0.32921395 0.02472543 -0.13081437 0.104881406 -0.053570468
-0.12444365 0.044065613 0.096157365 0.055454947 -0.095863365 0.018709853 -0.3872365 -0.22629598
0.01805033 0.04986517 0.016916968 0.12243436 0.19698165 0.07367193 0.98111475 0.8464279
-0.121043205 -0.05627792 -0.16228989 -0.078572795 -0.11682145 -0.06882364 -0.18448173 -0.13192853
-0.08520676 -0.17189488 -0.40240514 -0.4370462 -0.07981322 0.08412127 -0.18721734 -0.118267395
-0.17603503 -0.1592789 0.046142254 0.06776764 0.04565118 0.038543466 0.13593358 0.10741444
0.71772444 0.81830555 -0.04802451 0.2961483 0.20170118 0.207143 0.030226126 -0.012816952
0.22272283 0.0461538 0.20196342 0.02815661 0.21041816 0.02704104 -0.059726775 -0.18827303
-0.14512253 -0.0718009 0.43419972 0.50206524 0.5840363 1.1031363 -0.09985656 0.26164445
0.20398033 0.014850995 0.25224218 -0.007418462 0.17836352 -0.04011874 0.12175576 -0.04684194
0.08049469 -0.016770605 0.02344474 0.012632911 -0.05243965 0.1025357 0.4323018 0.42838126
0.7637119 0.8769 0.18781035 0.04722783 -0.007886106 0.091479145 0.07434945 0.15355225
0.04905737 0.081363596 -0.016924024 0.12097744 -0.03963095 0.1167345 -0.039528295 0.15398596
0.08960988 0.020070057 0.4985777 0.38599825 1.465858 1.7731825 1.348597 1.427926
-0.26081944 -0.22913332 -0.1737185 -0.16327839 -0.174438 -0.20107952 -0.15432276 -0.035452116
-0.2355775 -0.14271443 -0.58263725 -0.45164457 -0.4600661 -0.35089996 -0.61221355 -0.24755602
-0.028446298 0.03437926 -0.020187 0.018524298 0.013541679 0.008252186 0.17258696 0.18069087
0.011211633 0.044839244 1.0139338 1.0490541 -0.1274791 -0.15573089 -0.25253993 -0.05221047
-0.25861695 -0.05241962 -0.6084623 -0.5286743 -0.16358773 0.010613137 -0.13593364 -0.15788484
-0.096530214 -0.12552936 -0.28048468 -0.3804824 -0.22802359 -0.19389074 0.09756327 0.18689542
0.11060126 0.042560477 0.018033573 0.007662612 0.08794721 0.08031703 -0.37828907 -0.46786004
0.14228942 0.11404281 0.21621613 0.23203112 -0.080228455 0.0795 0.0513863 -0.062527366
-0.20314798 -0.29284602 0.097779244 0.16735443 0.07355237 0.12508729 0.00032049578 0.10949328
0.05022726 -0.0013336879 -0.4556059 -0.3184724 0.046524394 0.10128045 0.05841312 0.13853212
-0.04572555 -0.06942356 0.07591458 -0.04756656 -0.22710049 -0.14524361 0.14211693 0.095151044
-0.04912039 0.019332275 0.15127616 -0.061101526 0.06898558 -0.07970156 -0.49493432 -0.46536487
0.07735373 -0.06709191 0.22007751 0.20837274 0.0046659377 -0.05684275 -0.076644175 0.20719552

bias f4 [176]
00000000: e40f abbe 4b17 09bf 91ac 99bd cc37 893e
00000010: ccfe 3fbf eee7 a23e b809 83bf 040a 2bbf
00000020: 58dd b7be c2bb 00be eb0d a6bf 0d92 b23e
00000030: f5ff 01bf 5af2 7dbf deb1 a0be 75ad bbbe
00000040: 3c45 c9bd fe12 8bbf 0d61 0f3f 8209 96bf
00000050: 1911 0bbd df3b 87be 3cae f43d 63c3 67be
00000060: 3c36 e43e ae42 74bf be0a e43e a07f 9f3f
00000070: a7a3 cdbf ebf5 4ebf 0a66 b2be b1d5 cc3e
00000080: 5b93 2b3f 33ae 0ebf a896 f23e 14e3 663f
00000090: 9267 3d3f 8379 523f 3623 10bf 072e 48be
000000a0: eec1 32bf af7b 5e3e a840 2fbf 8c64 e0bd
000000b0: bdcd 0dbf 378b 97be 7170 a8bd 5fcf 45bc
000000c0: dd81 473e de44 03be 090e ee3d a08a 2cbd
000000d0: 1ba1 dfbe 2d49 a5bf e24c 443e 636f 8dbf
000000e0: dbd9 fe3e dd3d dc3e 873f af3f ded5 1ebe
000000f0: 646a d73c e40b 1fbf c633 f7be cd7e fcbf
00000100: f4ef 61bf 7623 a8be dcae 71bf bc6b 973f
00000110: e50a 53be 3620 a23d fa16 5bbf bf21 aabe
00000120: 1c77 64bf 4c09 f63e b6d4 afbe 2ceb 32bf
00000130: fc61 04bf 0b4a fcbb 2dfc b23e 8cb7 f53d
00000140: 304e 48bf f62a 18bf 1bdb 44be 9f12 92bf
00000150: 6d52 04c0 a81d b8be 3ebd d53d 0ce2 50bc
00000160: 90bc 73bf bbaf efbf 0af2 01bf 8e81 813e
00000170: b2e1 413c 9060 d6bc f6b5 853e 5784 943f
00000180: f0f6 aa3e 1d43 463f d20f adbe 196f df3e
00000190: 7b18 283d 7187 99bf 21ef 32bf 8c6d 633e
000001a0: 6512 37bf ae60 eabe 0ff3 083f be90 b7bd
000001b0: dc68 82bf 88c0 8dbd b622 853b 9cee 89bd
000001c0: 7f5d a53e 540c 6bbf d6cf 6bbf a9a5 bcbe
000001d0: 0725 8cbe 35f3 d93e 50db f53c e9f8 943e
000001e0: 19ce 01be d93e a93f 1812 e6bc d3b9 ae3d
000001f0: 7dbf 713f 818a 563f db56 a53e 66bf cfbe
00000200: 8fe3 f2be 933d 97be 5998 263d 2b39 1f3f
00000210: 6a73 07be bd3a c83e 3f50 683c a1e2 253e
00000220: 6c25 9cbf 0f7d 08bf 202c dabe d209 94be
00000230: 4c88 3bbf 5812 423f 61fd 5abf 380b 53bf
00000240: d519 693f 2283 aa3e 68eb 3ebe d55e a2be
00000250: 02b0 6cbf ea65 713f c317 a13c a284 3dbe
00000260: 248b 10bf 60b8 95be fabb c33e 2f16 0ebf
00000270: 10e2 d4be 54be a3be ab57 c83c ab08 fe3e
00000280: dc18 87bf 9a73 a9bf eded 813f 3471 1fbe
00000290: 4424 39bf 9625 ccbe 0b3d 22bf d5c7 9abe
000002a0: 7ef2 d0bc ca86 d3be 017b 0fbd a7a7 403e
000002b0: 3315 bcbe ad80 453f 1fdd c5bf b4ff 51bf
-0.3341056 -0.5355117 -0.075036176 0.26800382 -0.74998164 0.31817573 -1.0237341 -0.6681216
-0.3591106 -0.12571624 -1.2972997 0.34877053 -0.50781184 -0.99197924 -0.31385702 -0.36655775
-0.098276585 -1.0865171 0.5600746 -1.1721652 -0.033951852 -0.26412866 0.11947295 -0.22633128
0.44572628 -0.95414245 0.44539446 1.2460823 -1.6065568 -0.8084399 -0.34843475 0.40006784
0.6702172 -0.55734557 0.47380567 0.90190244 0.7398616 0.8221666 -0.5630373 -0.19548808
-0.69827163 0.21726869 -0.6845803 -0.10956678 -0.55392057 -0.295984 -0.082245715 -0.012073367
0.19483133 -0.1281924 0.11623771 -0.04212439 -0.436776 -1.2912956 0.19169953 -1.1049618
0.49775586 0.43015948 1.3691262 -0.15511271 0.026295848 -0.6212752 -0.48281687 -1.9726197
-0.88256764 -0.32839555 -0.9440744 1.1829753 -0.20609625 0.079163 -0.85581934 -0.3322887
-0.89244246 0.48053968 -0.34341973 -0.69890094 -0.5171201 -0.0076992563 0.3495802 0.119978994
-0.78244305 -0.59440553 -0.19224207 -1.1411933 -2.0675309 -0.35960126 0.10436486 -0.012749206
-0.952096 -1.8725504 -0.5075995 0.25294155 0.011833595 -0.026169091 0.26115388 1.1602887
0.33391523 0.77446157 -0.33801132 0.43639448 0.04103897 -1.1994458 -0.6989613 0.22209758
-0.7151244 -0.45776886 0.5349588 -0.08963154 -1.018825 -0.06921488 0.0040629758 -0.06734964
0.32297894 -0.91815686 -0.9211401 -0.3684514 -0.27372 0.42568365 0.030011803 0.29096153
-0.12676276 1.3222305 -0.0280848 0.08531537 0.9443281 0.8380509 0.32292828 -0.40575713
-0.47439238 -0.29539165 0.040672634 0.62196606 -0.1322762 0.39107314 0.014179288 0.16199733
-1.219892 -0.53315824 -0.4261179 -0.28913742 -0.7325485 0.7580924 -0.85542876 -0.82438993
0.9105504 0.3330317 -0.18644488 -0.31712976 -0.92456067 0.94296134 0.01966465 -0.18507627
-0.5646231 -0.2924223 0.38229352 -0.555026 -0.41578722 -0.31981146 0.024455866 0.49615988
-1.0554461 -1.3238404 1.0150734 -0.15570527 -0.7232096 -0.39872426 -0.63374394 -0.30230585
-0.025506254 -0.41313773 -0.035029415 0.18813954 -0.36734924 0.7714947 -1.5458106 -0.82030797

weight f4 [88, 176]
00000000: 6ed4 89be e5ee bfbc d053 443f 7e27 2f3f
00000010: f495 e03d 2a1c f43e 59c8 00bf 5b47 113f
00000020: f77d b53d ac62 d6bd e3b7 f63e 0d2d 2b3f
00000030: a234 7dbe f2bd 57bb 87e6 053f 8d80 f43e
00000040: 0642 343f a6e1 0dbe 9f4d 253f b339 3ebd
00000050: 2d6c 893e 8d84 3c3f dcfb 503f 3895 fd3e
00000060: 0ea6 1c3f 40b6 613c ac83 093f b095 003f
00000070: 6f5b 323f 6226 733f 2413 873e dcf6 413f
00000080: e017 f43e 32e9 8d3d 9331 133f cba9 1d3f
00000090: 42c7 313f 2b6e f73e a3ed 503e 8684 f03e
000000a0: 9526 f53e 1753 243f aefb 233f 8914 c63e
000000b0: bcc8 18be 5a30 0fbe af47 063f 1aca 273f
000000c0: 0f60 fe3e 567c 47be 5423 2d3d 3040 cb3e
000000d0: f831 9fbe fc8d dabd a391 053f 7838 e93e
000000e0: a67e 0d3f 4be2 0e3f 7575 1e3f 8403 5b3e
000000f0: 7773 94be 858d f4be 7407 003f 16b1 903e
00000100: ad60 aa3f d525 7dbd 3a36 9abd 071a 4c3f
00000110: 8105 aa3e 4acd ca3e 7430 913f 1a08 733f
00000120: f0a2 a33e bed1 123f da6c 413f fd87 dc3e
00000130: 97b4 513e 606a 1e3f c678 d63e 15fa 093f
00000140: c25f 173f 3de1 0bbf 3824 263f ea8f 943d
00000150: 426e a0be 0555 01be bf9f 0f3f 8a5e 0d3f
00000160: 8ec7 773f 2a66 df3d c84a 2fbe 0fb9 273f
00000170: bf05 b63e 3b3f 293f a22a bf3e 5065 1a3f
00000180: bf7a 063f ef23 2a3f c546 253f 59b9 473e
00000190: 14e2 df3e 9aae 13bf 2fd3 9b3e 7b14 ee3e
000001a0: 6e17 173e 2809 b33e a1cc 523e aa85 033f
000001b0: 2278 7f3f 17ac 473f 0310 343f 0e13 aabe
000001c0: 2ef7 f13e be2a b8be e42b a03e 5ff6 153f
000001d0: 3892 333f 2aa2 9c3e 6291 0b3f 72db 173e
000001e0: b74b 023f 2d1a 2d3f 2fa7 1c3e 9dd5 193f
000001f0: 45a0 323f fd34 4a3f 00c1 123f f447 043f
00000200: 5023 b03e bbd2 00be ed4e 363f a1c9 dd3e
00000210: 17c4 c8be e1ee 2e3f 521d 063f f606 1a3f
00000220: c6ba 7e3e d5d6 033d e850 f53e a9d5 0c3f
00000230: 3d87 dd3e b149 203f 8a33 863f 08e7 0ebd
00000240: 5c12 1e3f 532d 273f bc1c d63e 9d99 113f
00000250: 8840 ac3e 78d9 d43e 4778 c13e db77 c33e
00000260: 554c f5bd f72a 233f 4ff2 643d b52c 043e
00000270: 1650 983c aa2e af3e 8ea2 3c3e 68dd fa3e
00000280: 974d 13bd c639 933d 0477 9a3e 1288 0f3f
00000290: 25a4 8f3d d645 573f 1a0b de3e c201 233f
000002a0: 145d 88be 9089 d23d 6268 1b3f 3579 12bf
000002b0: fe8d 0c3e deef 343f e603 40be cf40 a53e
000002c0: c44b 48be 9745 4cbe 1e83 f9bd bf40 863d
000002d0: afe4 8f3e c092 3dbe 654a 8f3e 1187 8cbc
000002e0: adc0 6e3d 730b 92be 339c a93e c96a f83d
000002f0: 1692 1ebe 1ec2 14bd ca2c df3d 4dde 84be
00000300: ee31 1fbd 4891 233d 191e 76bb 6369 15be
00000310: 362c 11bd d605 453d f794 913d 3223 bcbd
00000320: 42ac 85bd e9d8 a33d 080c 4d3b 025b 583e
00000330: 18f0 033e d952 ed3c d840 883e dce5 913e
00000340: a144 663e 89fe 273d d913 f13b fe17 e83c
00000350: 3143 893d c062 ad3d e205 7c3d c576 28be
00000360: 679c 1c3f ba1c d3bd 7253 25bc 3859 ef3d
00000370: 6d65 d0be 0161 d6bd a8ee 22bd 2276 73bd
00000380: a3a0 d9bd b648 8abc 7d7b bc3d 8f6d 683d
00000390: d745 c93e 1df9 9d3e df15 3fbd 8b56 dcbd
000003a0: 76a6 823d 9967 813d 0e13 fe3b 1d6f cd3e
000003b0: a6e4 943e edfe 0ebe 013a 5dbd 27a0 99be
000003c0: 7625 773d ddf7 29bd 5c22 adbe 8103 a2bd
000003d0: ccc0 103b 1eea c83d 55d0 843e 6904 48be
000003e0: e5bb 473e 67ff f73d b844 70be 7568 593d
000003f0: 62c4 a3bd d271 743e eb84 a3bd d3b1 bf3d
-0.26919883 -0.023429343 0.7669039 0.68419635 0.10966101 0.47677737 -0.50305706 0.56749505
0.088619165 -0.10468039 0.4818717 0.6686562 -0.24727109 -0.0032919613 0.5230488 0.47754326
0.70413244 -0.1385561 0.64571565 -0.046441745 0.26840344 0.73639756 0.81634307 0.49527907
0.6119088 0.013776362 0.5371654 0.50228405 0.69670767 0.9498044 0.2638179 0.757673
0.47674465 0.06929244 0.5749752 0.6158721 0.6944467 0.4832624 0.20403151 0.46976107
0.47880998 0.64189285 0.6405591 0.38687542 -0.14920324 -0.13983288 0.5245313 0.6554276
0.49682662 -0.19481024 0.04227002 0.3969741 -0.3109281 -0.106716126 0.5217535 0.45550895
0.55271375 0.55814046 0.61897975 0.2138806 -0.28994343 -0.4776422 0.5001137 0.28260106
1.3310753 -0.061803658 -0.07529874 0.79727215 0.33207324 0.39609748 1.1342912 0.94934237
0.3196025 0.5735129 0.7555672 0.430725 0.20479046 0.61881065 0.41889018 0.5389722
0.5913049 -0.5464056 0.64899015 0.07254012 -0.3133412 -0.12630089 0.5610313 0.5522238
0.9678887 0.10908158 -0.1711837 0.6551675 0.3555126 0.6611211 0.37337214 0.6031084
0.52531046 0.6646108 0.6456111 0.19504298 0.4372717 -0.57688296 0.30434558 0.465
0.14755031 0.34967923 0.20585872 0.5137583 0.99792683 0.77996963 0.7033693 -0.33217663
0.47258896 -0.3597011 0.31283486 0.5857906 0.7014499 0.3059247 0.5451871 0.14829805
0.5089678 0.67618066 0.1529815 0.60091573 0.697758 0.78987104 0.57325745 0.5167229
0.3440194 -0.12580387 0.7121418 0.43317893 -0.39212105 0.6833325 0.5238849 0.6016687
0.24875936 0.0321873 0.4791329 0.5501352 0.4326724 0.62612444 1.0484478 -0.034888297
0.61746764 0.65303534 0.41818798 0.5687502 0.33642983 0.41572165 0.37787077 0.3817738
-0.1197745 0.63737434 0.055895146 0.1290768 0.018592875 0.3421529 0.18421385 0.48997045
-0.035962667 0.07188754 0.30168927 0.56067 0.0701373 0.84090936 0.43367845 0.6367456
-0.26633513 0.10280144 0.6070615 -0.572162 0.1372604 0.7067851 -0.18751487 0.32276008
-0.19560152 -0.19948421 -0.12183212 0.06555318 0.2810416 -0.18513012 0.27986446 -0.017154248
0.05828922 -0.2852436 0.33126983 0.12129743 -0.15485415 -0.036317937 0.10897215 -0.25950852
-0.038865976 0.039933473 -0.003755456 -0.14590983 -0.035442553 0.04810127 0.07108491 -0.091864005
-0.06526996 0.08000357 0.0031287689 0.21128467 0.12884557 0.028970169 0.26611972 0.2849568
0.22487117 0.041014228 0.0073571024 0.028331753 0.06702269 0.08466101 0.061529048 -0.16451557
0.6117615 -0.103082135 -0.010090696 0.11686939 -0.40702382 -0.10467721 -0.03977838 -0.059438832
-0.10626342 -0.016880374 0.09203241 0.05674511 0.39311096 0.3085412 -0.046651717 -0.10758694
0.06379406 0.06318588 0.0077537363 0.40123835 0.29080695 -0.13964434 -0.054010395 -0.30005
0.06033846 -0.041496146 -0.33815277 -0.079108246 0.0022087572 0.09810279 0.25940195 -0.19532932
0.1950527 0.12109261 -0.23463714 0.053078134 -0.079964414 0.23871544 -0.079843365 0.09360089

bias f4 [88]
00000000: fc3a 453e 1ebc 653e c187 9d3e 815a aa3e
00000010: 684f 0b3e 8c08 d83e c792 ce3e a4a5 de3b
00000020: 4fe2 b7bb 1a59 543e b873 0b3e 644c 223e
00000030: 7802 063e 9fb0 963d 915f b73e ba86 333e
00000040: c210 913e cd64 063e e786 993e 2e55 7b3e
00000050: a844 c93e 6cd8 153f 5219 933e 6036 433e
00000060: 2580 3e3e f0be 2ebf c451 993d 693c 273e
00000070: ab17 85bd 2ca3 f3bc 3560 163e 464d c33d
00000080: c33a fb3d 8928 42bf 51ec b5be d986 dd3d
00000090: 4685 e63d f7e3 a73d ee7d 0b3e 4b30 5d3e
000000a0: 69d7 f13d 3512 84bd 38dd 303e b2fb 723e
000000b0: 11ac 533e 20af c43e af3b 813c 59fe 773d
000000c0: ea26 ca3e ec4d b23d 59bc 8ebf 278d 2a3e
000000d0: 4983 32be 87b4 19bd 36e9 613e eba3 123e
000000e0: 860d 3d3e c9b3 e13d b2c7 b23e 845d 203e
000000f0: 8e22 acbd b3ac b13d a716 ed3d f3b2 5b3e
00000100: 4d8d 793e 69d4 3f3e 7027 0c3e 7dc7 1f3d
00000110: 7802 85be 36e7 ac3d d679 5b3f 5ba4 a93d
00000120: 0b68 5a3e e35d cf3c d948 413d 5251 873d
00000130: 1b55 b33d 8383 143e 2e17 943e cbe3 893e
00000140: 0838 b83d 763c 69bf e899 0fbf 86d3 073e
00000150: 5fc4 6a3c 97ba 883d aefc 253e 34f0 b93d
0.19260782 0.22435042 0.30767635 0.33272174 0.1360451 0.4219402 0.40346357 0.0067946482
-0.005611695 0.20737115 0.13618362 0.15849453 0.13086879 0.073579066 0.358151 0.17531863
0.28333098 0.1312439 0.29985735 0.24544212 0.39310193 0.5853336 0.28730255 0.19063711
0.18603571 -0.682601 0.07486299 0.16331638 -0.06498655 -0.029740892 0.14685138 0.09536223
0.12267067 -0.758431 -0.35531858 0.10816736 0.11255889 0.08197778 0.13622257 0.21600454
0.11808664 -0.06448785 0.17271888 0.23728827 0.20671107 0.3841486 0.01577553 0.0605453
0.39482814 0.08706269 -1.1151229 0.16655408 -0.17432894 -0.03752568 0.22061619 0.14320342
0.1846219 0.110206194 0.3491798 0.15660673 -0.08405028 0.08675518 0.11576586 0.21454982
0.24370308 0.18733372 0.13686919 0.039008606 -0.25978446 0.084425375 0.8573278 0.082833014
0.21328752 0.025313323 0.047188614 0.066073075 0.08756467 0.14503293 0.28923935 0.26931605
0.08995062 -0.9110788 -0.5609422 0.13264284 0.014329045 0.06676214 0.16209671 0.09079018

weight f4 [22, 88]
00000000: 4a02 86bd 2c02 973f a250 133f f688 043f
00000010: 731c ce3c 1ce2 7f41 ef7a 71bd 6972 01be
00000020: 0ff5 18bd 2ccc ef3e 6181 033d d173 283f
00000030: ca8a 213e 696a 8ebd 301e 643f 4abc 183f
00000040: 3293 863f ff0b 623d f80f fb3f b0f3 753c
00000050: f7ea 4b3f 94c5 4abd 089e c63d 155f 37bd
00000060: 107a 103d 0e41 2640 137b 51bd 7da3 0d3e
00000070: 6949 26be 48a7 c5bd 7ab0 28be 268a 793e
00000080: bac0 50bc 0bdd 7841 fc8a 3240 5566 72bd
00000090: 9c4f 303f 664e e5bd 591d e8bd b9f0 f23d
000000a0: 473a d93c 662c 593f 415b 05be 4e59 d03d
000000b0: 106e bf3d cf72 913f 57cd c1bd f686 c6bd
000000c0: dbff 903d d427 573d 75e4 bd3f 4bbf 6c3e
000000d0: a59a f040 c98a 3840 76d9 62be 9160 c13d
000000e0: 5e43 0e3e bb62 f13d 227c cabc f087 423d
000000f0: 88c3 ed3f bfe2 653e 3f73 07bd 5928 0940
00000100: 0c58 b7bd b783 883d 1ce9 5a3f dccb 023d
00000110: 037f b740 fd99 d0bd a70c a53e a07d afbd
00000120: 3dcb 09bc 5617 2740 390b ec3f 5040 cbbd
00000130: c54a 1ebe a076 633d 3a03 433f b5c9 1e3e
00000140: 3cd4 123e 6efa 2441 7edb a33f 2ce7 3abe
00000150: 164c afbc 240b babc a5d1 1abe a584 a2bd
00000160: d02e 303f 69be 9abf 9000 0fbf bbf7 40bf
00000170: 6baa 2f3f 5d3c 85c1 4c53 553f 1b90 4d3f
00000180: b862 573f c15b f5be 6e2b 043f bd12 41bf
00000190: 3001 1b3f 5689 423f 8049 3abf c894 12bf
000001a0: 1538 64bf 508b 1d3f 439f 09c0 4e6e 1d3f
000001b0: 1fe8 55bf d084 4d3f 00a2 143f a578 403f
000001c0: 20a3 513f 5f9c 35c0 4f53 513f 59ac 0c3f
000001d0: 6ccd 443f 3d9c 5c3f 8dad 463f fa5a 0c3f
000001e0: 8ecb 2c3f 8523 86c1 6a76 51c0 86a9 403f
000001f0: 7350 61bf 2afd 5f3f b1cf 423f 9a67 283f
00000200: 3bb4 3d3f 2471 26bf d154 6a3f be55 d63e
00000210: d651 193f 8ca0 6cbf 4ec0 193f 42ba 453f
00000220: 29b4 2d3f 70db 1a3f e2ec d2bf a979 fd3e
00000230: f98a 04c1 c240 48c0 58e0 6b3f 02a8 323f
00000240: 4077 0b3f 7479 be3e 7c60 633f 7058 1a3f
00000250: a47d 01c0 70cf f33e a05d 563f a4a8 13c0
00000260: fd40 2a3f 0368 3a3f b976 2dbf c275 403f
00000270: 5f72 cac0 c887 363f fdb5 aa3e b6c7 233f
00000280: 80b3 543f aed8 35c0 2b1f fabf ec7b 4b3f
00000290: 317d 563f 3774 1c3f 99f7 08bf 4fb7 153f
000002a0: a7ed 183f 5f78 35c1 c957 c9bf 4fa9 503f
000002b0: 34d7 373f c5f2 353f 7c46 393f 5c98 343f
000002c0: 72e8 493f 2d20 9cbf 71e7 d7be eccd 67bf
000002d0: 8c91 2e3f 4dff 84c1 8efb 433f dc57 3f3f
000002e0: c940 423f de7e 08bf 8c41 1d3f 2945 12bf
000002f0: 07e6 e73e b262 343f 612b 57bf 2d56 24bf
00000300: 1b2d 60bf a26d 113f 747d 09c0 99a0 353f
00000310: 740b 52bf 5619 333f fd27 1b3f 91f0 283f
00000320: 9e52 2d3f b6a3 35c0 72e2 3b3f 0bbf 1c3f
00000330: bbb8 4a3f 1c60 453f b2f9 513f 2a6c d73e
00000340: 8fbe 2e3f 6eae 85c1 3b34 4ac0 86f8 3a3f
00000350: 551a 49bf 1f40 643f 350f 443f c0e8 293f
00000360: d0f0 093f 71e1 4abf c687 643f b515 083f
00000370: 89df 293f dc6a 81bf e656 383f 95dc 383f
00000380: 4ef1 273f 7dfd 1d3f 645d bfbf 805d 133f
00000390: 6cf6 06c1 6d4e 4dc0 85bc 533f 1157 2d3f
000003a0: ed5d 383f ea53 ad3e 8b0c 2f3f a35c 273f
000003b0: 2f68 02c0 6275 123f eb79 233f 3715 0cc0
000003c0: dfe6 1f3f 1214 3d3f a8c8 23bf 3df2 453f
000003d0: 76a8 ccc0 0469 313f 9f21 ab3e 2a21 283f
000003e0: f3d6 3d3f edfd 34c0 7cc4 01c0 fdf0 473f
000003f0: 4f14 3c3f d779 403f c62c f5be 31ff 063f
-0.06543405 1.1797538 0.5754491 0.51771486 0.02516005 15.9927025 -0.05895513 -0.126413
-0.03734308 0.46835458 0.032105807 0.6580172 0.157756 -0.0695389 0.8910856 0.59662306
1.051367 0.05518722 1.9614248 0.015011713 0.796554 -0.04950483 0.09698111 -0.04476841
0.035272658 2.5977206 -0.051142763 0.13831897 -0.16238941 -0.09651047 -0.1647357 0.24369106
-0.012741262 15.553966 2.789733 -0.059179623 0.68871474 -0.11196594 -0.113337226 0.118623205
0.026517047 0.8483337 -0.13023092 0.101732835 0.09347165 1.1363162 -0.094629936 -0.096937105
0.070800506 0.052528217 1.4835345 0.23119847 7.5188775 2.8834708 -0.22153267 0.09442247
0.13892886 0.117864095 -0.024717394 0.04749292 1.8575296 0.22449778 -0.03306889 2.1430876
-0.089523405 0.066657476 0.85511947 0.031932697 5.7342544 -0.10185621 0.32236215 -0.08568883
-0.008410272 2.6107993 1.8440925 -0.09924376 -0.1545821 0.05553305 0.761768 0.15506633
0.14338773 10.31114 1.2801359 -0.18252248 -0.021398585 -0.02271039 -0.15119036 -0.07935456
0.6882143 -1.2089359 -0.55860233 -0.75378007 0.6861941 -16.654474 0.83330226 0.8029801
0.8413501 -0.47921565 0.5162877 -0.7541922 0.60548687 0.7599081 -0.727684 -0.5725827
-0.89148074 0.615407 -2.1503456 0.61496437 -0.83557314 0.8028078 0.5805969 0.7518409
0.81889534 -2.8376691 0.81767744 0.5495048 0.7687595 0.861759 0.7760857 0.5482632
0.674981 -16.767344 -3.2728524 0.7525867 -0.8801338 0.8749567 0.7609816 0.65783083
0.74103135 -0.6501639 0.9153567 0.4186229 0.59890497 -0.92432475 0.6005906 0.7723733
0.6785303 0.60491085 -1.6478541 0.49506882 -8.283929 -3.1289525 0.92139196 0.6978761
0.54478836 0.37202036 0.888191 0.60291195 -2.0232935 0.476192 0.8373661 -2.307168
0.66505414 0.7281496 -0.6775928 0.75179684 -6.3264613 0.71300936 0.3334197 0.6397661
0.83086395 -2.84135 -1.9540762 0.79485965 0.83784777 0.6111483 -0.53502804 0.5848283
0.5973763 -11.341887 -1.5729915 0.81508344 0.7181275 0.7107356 0.72373176 0.7054498
0.7887031 -1.2197319 -0.42168763 -0.90548587 0.68190837 -16.624659 0.76555717 0.7474344
0.75880104 -0.53318584 0.6142814 -0.5713678 0.45292684 0.704631 -0.84050566 -0.64193994
-0.87568825 0.5680791 -2.148282 0.7094818 -0.82048726 0.69960535 0.6060789 0.65992075
0.6770419 -2.8381171 0.73392403 0.6122901 0.79188126 0.77099776 0.8202163 0.4207471
0.6825952 -16.71017 -3.159438 0.73035467 -0.78555804 0.8916034 0.76585704 0.66370773
0.53883076 -0.79250246 0.89269674 0.5315812 0.6635671 -1.0110736 0.72007596 0.7221158
0.65602577 0.6171492 -1.4950376 0.57564545 -8.435162 -3.2079117 0.8270953 0.6771098
0.7201832 0.33853084 0.68378514 0.6537573 -2.0376089 0.5721036 0.6385791 -2.1887949
0.62461656 0.7385875 -0.6397805 0.7732275 -6.395564 0.69300866 0.33424088 0.65675604
0.7415611 -2.8279984 -2.0276175 0.78102094 0.7346849 0.7518591 -0.47885722 0.5273314

bias f4 [22]
00000000: 6205 c23e d453 943c ac1b 243e 482b cd3a
00000010: 2f58 50bd a638 033f 1348 cd3e 18f0 bd3e
00000020: 2e1d 103e 669d ea3e eb30 383e 02ed 153e
00000030: 6b50 1f3f 4d7b 083f 45f0 9f3e 5f06 d63e
00000040: 46af c8bc d84e c93e a006 023f 630a b13e
00000050: c19f b33e 5451 bb3e
0.37894732 0.018106379 0.16026181 0.0015653158 -0.05086535 0.51258314 0.4009405 0.3709724
0.14073631 0.4582321 0.1798741 0.14641193 0.62232083 0.5331314 0.31238 0.41801736
-0.02449764 0.39317966 0.5079136 0.34578237 0.3508282 0.36585486

weight f4 [1, 22]
00000000: 95d4 1e40 0660 57bf 86b7 59bf b690 73bf
00000010: a3f6 9240 dc2e 1940 5632 1b40 9e3a 1340
00000020: 0249 7cbf 4a13 1240 d4ac 51bf 53ee 66bf
00000030: 6530 6c40 126c 1040 b6cb 4c40 792f 9d40
00000040: 3aba a340 4640 1340 308e 0a40 8bc6 9b40
00000050: 3303 1640 4eab 1540
2.481725 -0.84130895 -0.8504566 -0.95142686 4.592607 2.393485 2.4249473 2.3004527
-0.985489 2.2824273 -0.8190434 -0.90207404 3.6904538 2.256596 3.1999335 4.912045
5.1164827 2.300798 2.1649284 4.867986 2.3439453 2.3385806
