data/q_value_target_net_2_food_collection_3980000_GSA.pth (torch, 138025 bytes, 7 tensors)

weight f4 [176, 88]
00000000: 739e 85bc 2d2f 813e cbad 673e 0396 ba3d
00000010: e08d 59bd f653 73bd 95ea 723d 97e9 423d
00000020: 8c11 b63d 2059 9f3d 97e4 273e 391a 2ebc
00000030: ad34 06bf 85e2 673e 30ca 13be b259 1cbd
00000040: 4e4d ee3d 2e21 92bd f361 bc3d ff31 dfbd
00000050: cd20 973b 17d0 8a3e c198 403e de8b a8bd
00000060: 7de1 b43d c082 65bd 8a16 3f3d 570f 873d
00000070: 090f 933d 9ebe 12bc e8c4 5ebc 96ab 78bd
00000080: 1f7e c4be d5e6 813e a97c b43c e3f0 dcbd
00000090: 01ff 2f3e 5d4a 473d 835f a63d b09d 96bd
000000a0: 09dc dd3d 40c7 b13e 47a9 183f 8e9c 38be
000000b0: 2083 96bd f713 40bd 57b1 0fbe f082 64bd
000000c0: ca11 aa3d e140 5f3d ef9e c6bd 3c85 bb3d
000000d0: e0f7 03bf 9c16 883e 5d38 38be 5390 053d
000000e0: 8965 30be 5b2a efbc 3881 89be d341 eb3c
000000f0: 3af5 473d ac81 6e3e 9752 563d 922a 96bd
00000100: 0037 09bd a0ac 273b c0fb 9abd 3ac5 a4bd
00000110: 076a 2bbc eb29 a2bd b1ab 21bc 1306 d63c
00000120: ad37 b1be 5ae9 0b3e 2f6b 05bd c8a0 acbd
00000130: fb56 1abd 5359 63bd cee2 153e 6f23 69bd
00000140: 274e a93c 8781 4c3c 0eca e73c f6fd df3b
00000150: 328c 703d 6c28 e3bb 1333 1dbc a4e5 093c
00000160: a35d d0be 1f82 8a3e 4d3e 85bd 8a7e 82bd
00000170: 8df5 81be b9cf 123f ca2a 11bd befa ddbd
00000180: 9515 0f3d b836 1cbe bc46 2ebc 6e24 6a3d
00000190: 4db6 733c ba59 22be ba31 8b3c b26b 13bd
000001a0: 90f8 773d 047f b33a 75fb fbbc 0588 323e
000001b0: 4c60 8ebe bfcd 993e 1102 e9bd 0140 8e3d
000001c0: f46c afbd 1a07 fb3e 80a9 513d 2bd3 23be
000001d0: 8002 fbbb 3d94 26bd 2d70 39bd 9f3d 41be
000001e0: b213 073e 7022 81bd c389 3e3a ad1c 873d
000001f0: 406c 4c3c a865 863d 9cae 8d3d 2900 bf3b
00000200: 9b15 d2be 3c94 ab3e 91a9 39be d122 163e
00000210: 2597 a0be dce8 d03e 9a3e 14bd f98a 84ba
00000220: c9ab 56bd dfea 09be 9552 bf3d 8501 ddbd
00000230: 0722 803d 7d87 333c 68c5 57bc 7161 b0bc
00000240: 8d7d 633d 3a4a a93d fd9c e5bc bb73 5bbd
00000250: 6325 a8be 3ee0 dd3e 0dd5 07be 10a4 383e
00000260: d6eb bebd 874d 0a3f f60c cb3b f8fa e8bd
00000270: 352d ac3c cd08 903d b9ba efbd 6788 9fbd
00000280: a8ed c6ba 3538 233d fc9d 833d 252e c5bd
00000290: e379 adbb ed5b f1bd ec91 383c 3c28 163c
000002a0: 9fa0 55bc 67bb 8bbb 49cb 86bc 64eb c3bb
000002b0: e08f d5bc 893e 023d 59fa 68bc 1caa 903c
000002c0: 5783 4a3f 5e34 573e 30bf 453f 0519 483f
000002d0: 4499 f7bc 749a 34bd f0a0 fe3c 0c2e 0cbd
000002e0: 4051 c7bd feed 813d 171f 363d f070 82bd
000002f0: 2934 15be 1127 ebbd 2858 51be 5997 3cbd
00000300: 1408 73bc b21e b0be 4eca 51be 79eb e2bc
00000310: 0ccf 1b3f e841 d63d fbc3 9b3d f731 573e
00000320: a356 223e dad7 6bbd b04c 9ebc aeea 063c
00000330: c1c4 bfbc a78f 28bd bc4a 083c 1d86 4dbd
00000340: 25b5 bf3d 02a9 9fbd 34d0 463e ac37 93bd
00000350: 72e4 e63c 5312 78be be1e 04be f087 dabd
00000360: 5766 303f 742c 85be c4cb 19be 9c21 a6bf
00000370: 0c0d 6cbc 1285 af3d 67d8 f5bb 60a9 473d
00000380: c2de b73d b065 733e eda3 c23d 20c0 d43d
00000390: 2e01 81bd 4d64 983d f850 133e 3102 ce3e
000003a0: d013 24be f691 ad3e b0bf 06bc 4be8 8d3e
000003b0: 144b a23e ab85 b03b b3cc 6abe 7aa9 d5be
000003c0: 5f73 0d3e a7f7 22bc f573 4d3d f732 cfbc
000003d0: 5ef5 9a3d 15d6 81bd e9b2 a33c 8168 f4bd
000003e0: 70b3 da3d 1a15 5c3d 2c53 493e 8800 1bbb
000003f0: 474d a0bd 791a 403e 417c 8d3d c100 1cbe
-0.016310906 0.25231305 0.2262489 0.09110644 -0.05311382 -0.059406243 0.059305746 0.04758605
0.088900656 0.07780671 0.16395794 -0.010626369 -0.52424127 0.22645004 -0.14432597 -0.038171478
0.116358384 -0.07135235 0.0919837 -0.10898208 0.0046120645 0.27111885 0.18808271 -0.082298025
0.08832071 -0.056032896 0.046652354 0.06594723 0.07180602 -0.0089565795 -0.013596751 -0.060710512
-0.38377473 0.25371423 0.022032099 -0.10788133 0.1718712 0.048654903 0.08123686 -0.07354295
0.10832984 0.34722328 0.59633297 -0.18028471 -0.07349229 -0.04689404 -0.14032494 -0.055788934
0.08304174 0.054505233 -0.09698283 0.09156272 -0.515501 0.2657975 -0.17990251 0.03260834
-0.17226233 -0.029195001 -0.268564 0.02871791 0.04881785 0.23291653 0.052324858 -0.073323384
-0.033499718 0.002558507 -0.07567549 -0.080454305 -0.010462291 -0.079181515 -0.009867595 0.026125943
-0.3461279 0.13663235 -0.03257292 -0.08429104 -0.037680607 -0.055505108 0.146373 -0.056918558
0.020667149 0.012482054 0.02829459 0.0068356944 0.05872745 -0.006932309 -0.009594697 0.008416567
-0.4069644 0.270524 -0.065060236 -0.06371792 -0.25382653 0.5734821 -0.035441197 -0.10838841
0.03493269 -0.15255249 -0.010636982 0.05716365 0.014875007 -0.1585454 0.016991485 -0.035991378
0.060539782 0.001369447 -0.030759552 0.174347 -0.27807844 0.30039784 -0.11377347 0.069458015
-0.08565703 0.49028856 0.05118704 -0.15998523 -0.00766021 -0.040668715 -0.045272995 -0.18871163
0.13191107 -0.063053966 0.0007268453 0.06597266 0.012476981 0.06562358 0.0691807 0.0058288765
-0.4103211 0.3351153 -0.1813109 0.14661719 -0.31365314 0.40802658 -0.036192514 -0.0010112218
-0.05240992 -0.13468502 0.09341923 -0.107913055 0.0625649 0.010957596 -0.013169624 -0.021530839
0.055539656 0.08266111 -0.02802896 -0.053577166 -0.32841024 0.43335146 -0.13264866 0.18031335
-0.09322326 0.5402455 0.0061966134 -0.113759935 0.02101765 0.070329286 -0.117055364 -0.077896886
-0.0015177028 0.039848525 0.064266175 -0.09627942 -0.005294071 -0.117851116 0.011265259 0.009164866
-0.013038783 -0.0042642835 -0.016454356 -0.0059789885 -0.026069582 0.03179792 -0.014219844 0.01765924
0.7910666 0.2101607 0.77244854 0.78163177 -0.03022445 -0.04409261 0.0310826 -0.0342236
-0.09732294 0.063442215 0.044463243 -0.06369197 -0.14570679 -0.11482061 -0.20443785 -0.046042774
-0.014833469 -0.3439842 -0.2048733 -0.027700173 0.60862803 0.10461789 0.0760574 0.21015154
0.15853362 -0.0575789 -0.019323677 0.008234663 -0.02340925 -0.041152623 0.008318599 -0.05017673
0.093607225 -0.077959076 0.1941536 -0.07188353 0.028185103 -0.2422574 -0.12902352 -0.10670459
0.6890616 -0.26010478 -0.15019137 -1.2979007 -0.0144074075 0.08570303 -0.007502604 0.048745513
0.089780346 0.2376926 0.095039226 0.103882074 -0.06299053 0.07441006 0.14386356 0.40236047
-0.16023183 0.33900422 -0.008224413 0.27716288 0.31697905 0.005387028 -0.22929649 -0.41730863
0.13813542 -0.00994674 0.050159413 -0.025292857 0.07566331 -0.06339661 0.019982772 -0.11933995
0.10678756 0.05373106 0.19660634 -0.002365144 -0.078272395 0.18760099 0.06908465 -0.15234663

bias f4 [176]
00000000: f0c0 7ebe d272 593f 96c7 e33e 0329 84bc
00000010: 266d 79bf 7d3c 683e 1853 723e e97c babd
00000020: 46f0 803e 5c7d 0cbf 3c5d aebe cbf5 33bf
00000030: d751 f4be ab73 40bf 5a9e cdbf e192 20bd
00000040: e936 793f 1474 79be 709c 0ebf 102e f3bf
00000050: dce0 c3bc 8a91 89be 1f73 babd dbf6 56bf
00000060: 98ba 143f 388a 6cbe 9233 18bf a7bf 80bd
00000070: c07a 22bd 1851 91bf bd44 f83e 603b 503e
00000080: 1e02 30bf c22e e4bf 4c34 85bf 3695 543d
00000090: 3598 97bf 4a0c 52be b92b 773d 2268 81bf
000000a0: c357 0a3d 97c8 b5be dcdf a3be f104 45bf
000000b0: 3d22 85be f6cc a5be a190 29bf bb5d 013d
000000c0: 84b5 97be b54f cb3e 7d1b 66bf 1091 283d
000000d0: bfdb 753b e871 c6be 8f4f 933f 20b0 763e
000000e0: 4fdd 103d 3465 dbbd f358 95bf a6eb 543f
000000f0: 8918 093f 781b 2cbf 3004 fcbe 5afa e83e
00000100: 6e5d 1fbc c0f8 683e 6304 ca3d 3221 aa3e
00000110: 8036 8b3e 9ff1 883e 4e26 9d3e f3f9 3b3f
00000120: dc3b 473f fa6f 883e e17f 5cbf 36af 32be
00000130: fc82 d7be 85f0 803f 3063 fa3d 3f78 4e3e
00000140: 93ad 02bf ffce 7cbf ca9f 4bbf 2219 c43c
00000150: be9c 3cbf 0aa9 cc3e d650 42bf bbe4 da3d
00000160: a301 4f3f 4867 493f 16cf 463f 4ffc 23bf
00000170: bf5a 83bf b03d 8e3e 4437 893e f3d5 a33f
00000180: dfb0 453e e62f b03f 175f 9fbf bc1a efba
00000190: 0382 c8be ac17 c33e 9c02 13ba d524 6fbb
000001a0: a69c 443e bbf8 acbe 99a1 85be 546b c13e
000001b0: eee1 5abe 7842 afbe cad0 b73e fc5b 5ebe
000001c0: 00bb 5abf 49c2 b73e fadd d7be 1a3f 8dbf
000001d0: 88fe a83c 01f0 2fbe f106 96bd e732 66bf
000001e0: 5102 643f 4092 febc ae97 d13d 6c69 93bf
000001f0: daed 413e 259a 77bf c8ad 1c3f 430c a9be
00000200: 251c ed3e ea0a e23e a625 dd3e 7c27 8c3f
00000210: 17d2 ffbe 9264 c9be 5c6c fabf f72c d93e
00000220: 26a6 373f 0b54 9fbf 1bf4 fabe 453c 9cbe
00000230: ac20 4f3f 45cb 31bf 325e bcbf ff21 02bf
00000240: 4c90 b03d 26dc 7bbd e0b1 09bf 23bf 6dbf
00000250: e634 9abe 9519 f33d 1558 5dbf 1a4c 4a3f
00000260: 3038 5fbe 5bc4 b0be 52e0 cbbe 200d 9bbe
00000270: da9c 2bbf 0ec0 ccbe 531a a63f cc96 5d3e
00000280: eae2 f8be 19f1 983d 6dff d0bb 9513 35be
00000290: c156 213f 2a03 923f efee 3cbf 0acc a0bd
000002a0: 0e5d 61bf 144e 5bbe fb6a e4bd 2ec3 4b3d
000002b0: 446c 19bf 2108 11bf 908f 6cbe ba8e 68bf
-0.24878287 0.84940827 0.4448821 -0.016132837 -0.9743217 0.22679324 0.2366451 -0.09105856
0.25183314 -0.54878783 -0.34055507 -0.70296925 -0.4771869 -0.75176495 -1.606395 -0.039202575
0.9734941 -0.24360687 -0.55707455 -1.8998432 -0.023910932 -0.2686885 -0.09103989 -0.8397042
0.5809722 -0.23099601 -0.5945369 -0.06286555 -0.039667845 -1.1352873 0.48489943 0.2033515
-0.6875323 -1.7826769 -1.0406585 0.05190011 -1.1843325 -0.205125 0.06034443 -1.0109904
0.033775102 -0.355046 -0.3200673 -0.76960665 -0.26002684 -0.32382935 -0.6623631 0.03158353
-0.29630673 0.3970925 -0.89885694 0.041153967 0.0037515012 -0.3875878 1.1508654 0.24090624
0.035367306 -0.10712662 -1.166777 0.8317207 0.5355306 -0.67229414 -0.49221945 0.45503503
-0.009726865 0.2275114 0.09864118 0.3322845 0.27190018 0.26746842 0.30693287 0.7342827
0.77825713 0.2664793 -0.8613263 -0.1744965 -0.4209212 1.0073401 0.1222595 0.20163058
-0.51046103 -0.9875335 -0.79540694 0.023937766 -0.7367667 0.39972717 -0.75904596 0.10688158
0.8086187 0.7867322 0.7765974 -0.6405687 -1.0262069 0.2778144 0.26799977 1.2799667
0.19305752 1.3764617 -1.2450894 -0.001824222 -0.3916169 0.38103998 -0.0005607994 -0.003649046
0.19200382 -0.33783516 -0.26099852 0.37777197 -0.21375248 -0.342304 0.3590148 -0.21714777
-0.8544159 0.35890415 -0.42161542 -1.1034882 0.020629182 -0.17181398 -0.07325543 -0.8992142
0.89066035 -0.031075597 0.10234009 -1.1516547 0.1893839 -0.9671958 0.6120267 -0.33017167
0.46310535 0.44148952 0.43192786 1.094955 -0.49964973 -0.39334542 -1.9564319 0.42417118
0.717379 -1.2447523 -0.49014363 -0.30514732 0.8090923 -0.6945079 -1.4716246 -0.50833124
0.086212724 -0.061489247 -0.5378704 -0.92869776 -0.30118483 0.11870114 -0.8646253 0.7902237
-0.21798778 -0.34524807 -0.3981958 -0.3028345 -0.6703621 -0.39990276 1.2976784 0.21639556
-0.48610622 0.07467861 -0.0063781054 -0.17683251 0.63023 1.1407216 -0.73802084 -0.07851417
-0.88032615 -0.21416503 -0.111532174 0.049746685 -0.59930825 -0.5665303 -0.2310164 -0.90842783

weight f4 [88, 176]
00000000: 5853 ce3d e28c 133d 3fc7 2fbd 4df4 413e
00000010: a849 c53d be98 92bb 5d9b 31bc 7b3a a9bd
00000020: 416e a03e 4c34 29be 7fcb 7fbd be78 323e
00000030: 03d3 78bb 1709 843e a31b fdbd 57f0 0f3c
00000040: 3257 863d 58ee 9fbd b533 a1bd b25d 2b3d
00000050: f5c7 dc3e 1cf9 06be 6b88 01bd 1652 1b3d
00000060: 2385 fb3d a5ca 2e3d 08b9 373d 4ca8 a13e
00000070: d159 27be a148 cf3e 3621 f13d 2c43 d23d
00000080: 0834 683d 4d03 9bbe dfc6 6d3d 928c 87bc
00000090: 847f 80bc cd86 96be f8cd 543d 3b05 1ebe
000000a0: f69a aabd dc0d 09bd 5829 5bbb 7809 e63e
000000b0: 68ce a93d 4a92 ffbd 2d95 013e c07b 143e
000000c0: a3e5 723e 0c84 ed3e 32c5 f53d ffe2 99bd
000000d0: 59cd 273e 4d24 4dbd db34 053e 1ffb 843d
000000e0: 53c2 88bc cc25 013e 6758 40be 7e0f 173d
000000f0: 5662 053e 87fb 5dbe 953a febd 2753 8dbd
00000100: 0514 9e39 1a6b b13d 14d2 b0be a5f5 bbbc
00000110: 3184 f1bc 1b51 ad3e 155d 483d 1dad 19bd
00000120: 74f7 be3d c634 0fbd 0ef4 bc3d e762 fc3d
00000130: bda1 e53e e774 fa3d d881 8fbd 3270 603e
00000140: f6d5 81bd 7971 1c3e d294 f63d 4d6c 993d
00000150: 3613 473e 6be1 08be 33a9 8b3e 3ce8 e2bd
00000160: 64aa be3d 7887 aa3e f6f3 1dbe 0555 30be
00000170: ca30 8c3c 28d5 fbbd c415 be3d 4540 16bd
00000180: f9cf 17be 06e8 f7bd 9b39 e5bd 0840 8ebc
00000190: deb8 58ba 13ad abbd 06e7 853e c97d a7bc
000001a0: 50fa 3a3d f928 16bd 40e8 163e 2d4b 01be
000001b0: bad2 f6bc 1a4e 3bbe c744 edbd c47c 4abd
000001c0: 18c1 9f3a 2cf2 6dbd b71e a73e 36e8 0fbe
000001d0: 76f8 943d 2d09 84bd c544 5f3d d11f 26be
000001e0: 9ac1 c3bd 762b 6fbe 0091 98bc b39b edbd
000001f0: 27f8 b73e 1508 0ebc 0f00 bfbd b686 88be
00000200: 7a70 bcbe 9fe5 5b3e 2734 8b3d 913a 323e
00000210: bda5 f8bd 45f1 94bc fc1d 22bf 1c02 063d
00000220: 0889 083d 820f b8be 8c2f a1bd 6b13 b6bd
00000230: 0d40 2a3d 40f7 e1bd a4e2 81bd 0be2 863e
00000240: 1ab3 04bd a97f b6bd dae1 cd3e bc75 36be
00000250: 3b87 373e 3cd1 023d db6b 91be 8219 f8bd
00000260: 5b1c 083e 84b4 9c3d e654 2d3d 1631 1fbe
00000270: b5cd 91bc 5baf d6bc 0d3a 5bbc d4f5 253d
00000280: bcf3 cbbe bbe2 8a3d 0ece d73d 4d3c 433e
00000290: 4cee 433e 0643 d0bd ab59 5e3d 81b2 f0bd
000002a0: 23f8 c53b 37df dcbe 157f c53e 01a5 d9bd
000002b0: db33 ab3b 873f 743b bf76 90be 5698 833e
000002c0: 7f72 1e3e 4444 6a3d 6e7b 39bd 3ae2 f63e
000002d0: 3c1b 55be d8d7 113e 235f 593e 478c 7abc
000002e0: ee3b 9d3e 8c90 ec3d 5063 543e 04eb 8c3e
000002f0: 2fd5 d6be 4e2d 72be 38a9 153e 5e41 6f3e
00000300: 3472 1b3e 579e 5a3d c20a 39be 46dd d8bd
00000310: 3616 f3bd b5fd 0b3d 6d82 213e d9a6 ed3d
00000320: bdac 943e 979c 9e3e 3992 95bd 1544 a73e
00000330: 00a2 52be 6d88 8a3d 9a08 453e b410 d13d
00000340: be2f a73e 2330 633e 0cf1 58be 5144 783d
00000350: acb0 c13d 0cd0 5e3d 4a61 7c3e 17e8 a03d
00000360: a58f 1b3d 94bc 973e ceb9 943d 7a79 113e
00000370: 32c1 d13d 9cf4 6f3e 4812 573a ac7d 593e
00000380: 0754 413e be29 8e3e 059b b6be d8d3 4fbc
00000390: 06e1 1abd 9903 183e 6000 2f3d 475e 913e
000003a0: 2593 1f3e f6fa e83d 787d e93e c9d9 333e
000003b0: f716 4c3e 9d21 013e e0dc 873d 76b1 f43d
000003c0: 6096 283e d31d a43e c37a 2a3e 5836 fb3d
000003d0: 4742 493e 1f31 7a3e 264f c1bd 98f8 fe3d
000003e0: 0843 663e bc28 233e f287 c43d 5444 093e
000003f0: 205d 163e dc20 1b3d 2faa 423e 459c 333d
0.1007449 0.03602303 -0.042914625 0.1894085 0.096331894 -0.0044737747 -0.010840264 -0.082631074
0.31334117 -0.16523856 -0.06244993 0.17428872 -0.003796757 0.25788185 -0.12358787 0.008785329
0.065596 -0.07809132 -0.078711905 0.0418374 0.43121305 -0.13180965 -0.03162424 0.03792008
0.12281253 0.042673726 0.044854194 0.31573713 -0.16342856 0.404851 0.117739126 0.10266718
0.056690246 -0.30275956 0.058050986 -0.016546521 -0.015685804 -0.2939972 0.05195424 -0.15431683
-0.08330338 -0.033460483 -0.003344139 0.449291 0.08291322 -0.12479074 0.12654562 0.14500332
0.23720412 0.46389806 0.12000503 -0.07513999 0.16386928 -0.050083447 0.13008444 0.0649321
-0.016694224 0.12612075 -0.18783723 0.03688001 0.13025793 -0.21677981 -0.124135174 -0.06900626
0.00030151024 0.08663006 -0.34535277 -0.02294428 -0.02948198 0.3385094 0.048916895 -0.03751861
0.09324542 -0.034962438 0.09226237 0.123235516 0.4484996 0.122293286 -0.070071876 0.21917799
-0.06339638 0.15277661 0.12040104 0.0749136 0.19440922 -0.1336724 0.27277526 -0.110794514
0.09309843 0.3330648 -0.15425095 -0.17219932 0.017113108 -0.12296516 0.09281495 -0.036682386
-0.14825429 -0.12104802 -0.11192628 -0.017364517 -0.00082672935 -0.08382621 0.2615282 -0.020445721
0.045648873 -0.03666017 0.14737034 -0.12626334 -0.03012978 -0.18291512 -0.11585384 -0.049435392
0.0012188284 -0.05809228 0.3264062 -0.14053425 0.07273953 -0.06447063 0.054508943 -0.16223074
-0.09558411 -0.23356423 -0.018623829 -0.11601963 0.35931513 -0.008668919 -0.09326183 -0.26665276
-0.36804563 0.21474312 0.06797057 0.17405154 -0.12140987 -0.018181453 -0.63327 0.032716855
0.03333381 -0.35949332 -0.07870397 -0.088904224 0.04156499 -0.11033487 -0.063420564 0.26344332
-0.032397367 -0.08911068 0.40211374 -0.1781835 0.1792268 0.031937823 -0.284026 -0.1211424
0.13292067 0.07651618 0.042317294 -0.15546069 -0.017798284 -0.026206663 -0.01338054 0.040517643
-0.39834392 0.06781527 0.10537349 0.19065972 0.19133872 -0.10169034 0.054284733 -0.11752797
0.006041543 -0.4313905 0.38573518 -0.10627175 0.0052246875 0.003726931 -0.28215596 0.2570216
0.15473364 0.05719401 -0.045283727 0.48219472 -0.2081117 0.14242494 0.21227698 -0.015292234
0.30709785 0.11551008 0.2074101 0.27523053 -0.4195952 -0.23650095 0.14615333 0.2336478
0.15180284 0.05337366 -0.1807051 -0.105890796 -0.11869471 0.0341775 0.1577241 0.11604089
0.2903804 0.30978844 -0.073032804 0.3266913 -0.2056961 0.067643024 0.19241562 0.10208264
0.32653612 0.22186331 -0.21185702 0.060612027 0.094575256 0.054397628 0.24646488 0.078567676
0.037978787 0.2963606 0.07262002 0.14206496 0.10241927 0.23433155 0.0008204323 0.21239346
0.1887971 0.27766222 -0.35665146 -0.012684785 -0.037812255 0.14845122 0.042724967 0.2839224
0.15583475 0.11375992 0.45603538 0.17563547 0.19930635 0.12610479 0.066339254 0.119479105
0.16463614 0.32054004 0.16648392 0.122662246 0.19654189 0.244328 -0.094389245 0.12449759
0.22486508 0.15933508 0.09596242 0.13404971 0.14683962 0.037873134 0.19010232 0.043850202

bias f4 [88]
00000000: e3a0 5c3e b635 a23d a52a ac3e 626d 913e
00000010: ccc1 c2bd d9a2 ac3e bd1a 863e 19a8 513e
00000020: 608a 05bf e66d 1d3e 23c1 603e 7223 8b3e
00000030: fbcd 353e ad16 503e 7f6b ba3d 1d68 023e
00000040: 04ba 693e b878 253e 8acd a13e c580 8c3e
00000050: 7d35 6d3f 7d59 763e 75ef 6d3e f249 07bf
00000060: 87b9 853e 3211 093e 3fbd 8f3e 179b 8b3e
00000070: 73a5 aebd b7bc 3b3e 30f8 3b3e a45e 703e
00000080: 0e3e 433e bd1a 933e e101 783e cf0a 3dbe
00000090: 5040 62bd 6629 26bf a44e 573e dc4d 71bf
000000a0: 96f2 4b3e 0b51 5d3e e019 8c3e 9bba 713e
000000b0: 9ebd a1be 5b4a 7f3e 4953 a33e e7dc 843e
000000c0: 7bb4 673e 95e3 6c3d ea62 e63e 2808 803e
000000d0: 912a 993e 8f09 393e 9889 1e3c 357a 4e3e
000000e0: 528e 863e 928b 513e 7ba6 9f3e 68d8 8b3d
000000f0: e165 c83d cc8e ed3e ae4e 153d 324c 25bf
00000100: 2981 8f3e aecd 633e e5b8 523e 269a 803e
00000110: 9958 663e 26d5 953e d4ae 2c3e a71f 773e
00000120: 284d 753e 84d9 dc3d 67ff 923e 5e13 ed3d
00000130: dc1c a7bf 5e4f 9f3e 1c67 903e c4c8 7f3e
00000140: 18dc 333e 2fbe 943e 179e 813e de6b 403e
00000150: e325 41be 320c 863e 83a5 323e 22e0 f83e
0.21545748 0.07920401 0.33626285 0.28403765 -0.0950962 0.33717993 0.26192275 0.2047428
-0.5216427 0.15373954 0.21948676 0.2717548 0.17754357 0.2032115 0.091025345 0.12735029
0.22824866 0.16159332 0.31602126 0.27441993 0.9265974 0.24057575 0.23235877 -0.52847207
0.2611811 0.13385466 0.2807407 0.27266762 -0.08527651 0.18333708 0.18356395 0.23473603
0.1906664 0.28731337 0.24219467 -0.18461154 -0.055237114 -0.6490692 0.21026093 -0.9425943
0.19916758 0.21612947 0.2736349 0.2360634 -0.3158998 0.24930708 0.3189948 0.25949785
0.22627442 0.057834227 0.4499734 0.25006223 0.29915288 0.18070053 0.00967636 0.20163806
0.26280457 0.20463398 0.31181702 0.068283856 0.09785057 0.46398008 0.036451988 -0.6456939
0.2802823 0.2224643 0.20578344 0.25117606 0.22494735 0.29264182 0.16863567 0.24133168
0.23955214 0.10783675 0.28710482 0.115759596 -1.3055682 0.3111524 0.28203666 0.2497893
0.17564428 0.2905135 0.25315925 0.18791148 -0.18862109 0.2618118 0.1744595 0.486085

weight f4 [22, 88]
00000000: 37fe dc3e a5a9 973f 68f9 993f 1a22 2ebd
00000010: 0f13 7440 f9ba 463f e0fd fabd 55a2 573d
00000020: 00fa a841 bc75 f237 fa00 01be 6d9b cbbc
00000030: 95e0 b1bd 1bc7 d8bb 50a7 9a3f 1f3e 843f
00000040: 3839 84bd e508 143f 4c7c 0a3f 9d21 36bc
00000050: 0ed6 b63f 8115 7a3c a0f4 c4bd bc95 1540
00000060: e55a 953f 556c 2e3c 908f e4bc 9ce5 d0bd
00000070: 8d37 2141 e492 093d 13ed 3c3d b242 9bba
00000080: f4af 573f f12d 5c3d b3ba 61bd 4079 a53f
00000090: a985 df40 3204 e43f aeed 10be 8242 5541
000000a0: 51b9 11be edb9 0ebe f4bf f5bc 145a 00be
000000b0: e67b 4b40 feed 7bbd 962c 9740 01a8 03be
000000c0: 23f3 823f 36a3 7a3f 8770 6c3f dae3 143d
000000d0: 518e b3bd 1a58 40bd db55 3f41 cd7a 0cbd
000000e0: b8b4 5f3f f636 e23c 308e 153f b505 3140
000000f0: 9b84 8d3f 4e79 633f be2a 6040 dea8 4a40
00000100: e30d f2bc 4ae4 9ebd 7885 5b3f 45cb e5bd
00000110: ab1c 013f 7fe5 18be 7a83 c1bd 87e0 afbd
00000120: 4d43 58bd e9c1 153f 72a0 353c 1a96 723f
00000130: c036 dd3f d8e2 2e3d 5266 72bd 8084 a2bc
00000140: 2953 2e40 d560 1ebd eb82 eebd 3ae1 0dbe
00000150: 60e5 3f40 a381 c8bd 1d46 02be 44fd 2441
00000160: 2ac1 0c3f bd96 9b3f f02b 993f 4720 c1bd
00000170: a96a 6c40 c2d1 4e3f 97e8 93bd d764 08be
00000180: b5fc a741 795c b9bc a4f8 cebd 345e ddbd
00000190: fb59 f0bd 9a2f 543c d5d1 933f f528 893f
000001a0: 57dd 6cbd d7f7 0e3f 24f0 163f 8e18 d2bd
000001b0: fb23 c03f fe73 363d 92ce 3c3c a2f0 1b40
000001c0: 6e0e 8f3f f882 d0bd 1c6e 873c 1fe7 2e3d
000001d0: a76d 1f41 cdf6 4d3d a446 f0bd 7b03 cfbd
000001e0: 55ce 543f 40ed b8bd 11a5 bcbd ec8c a23f
000001f0: d1c6 dd40 3178 e83f ecfd fabd e998 5641
00000200: 05b4 c1bd 8513 c43c a65c 35bd 68b1 acbd
00000210: 74c9 4c40 e5db bdbd 2156 9a40 c0b1 d3bc
00000220: e7ba 9a3f 4db0 853f 0dfe 503f 1f00 bdbc
00000230: 71ce 113d f8e3 70bd 0523 4241 2cb2 c7bc
00000240: 4318 5b3f f1bc 02be f22f dd3e 2ed4 3540
00000250: 9920 9d3f dade 693f c015 6240 11be 4340
00000260: bd1b 1cbb 4d5c 0fbd 0387 483f 4e72 913c
00000270: 54ca dc3e 8504 f4bd 94bb 7bbd 4982 02be
00000280: 93c7 83ba 8d72 153f e47d 1ebe 0b95 803f
00000290: 1a31 f43f 2947 6c3b 43b6 9fbd bc65 73bd
000002a0: 61b5 2840 546d bcbd f3ae 2ebd 62db 003d
000002b0: e9fe 4840 7c48 13be 45be a6bd e417 2441
000002c0: 7f70 063f 7c1e 923f 44ce 863f e43c cdbd
000002d0: 0629 7040 1cbd 283f 9e95 613b b7a3 a3bd
000002e0: 8f52 a841 64d9 c1bd 8056 24bb bdef ca3c
000002f0: 8b73 73bb 6ff0 afbd 61dd ad3f e595 893f
00000300: 4ce9 813d 959d 283f cdf4 223f 2a92 cfbd
00000310: ad19 c83f 6295 c1bd d497 5b3d 2ffa 1040
00000320: 9bb4 7e3f 582c d1bd f042 46bd cfa5 25be
00000330: e29a 2041 25d0 c83b 64b3 8c3d b35c c8bc
00000340: bb30 3e3f 4f2d 7fbd d27e e9bd c2ae a93f
00000350: 8ef4 de40 5d58 d33f 3f50 0abe f0e3 5641
00000360: 5a98 363d 5a52 66bd 3893 8abc 00f0 9f3c
00000370: e1d7 4640 9f93 2dbd 003d 9640 5c00 febd
00000380: b146 893f f6f8 7d3f 03a2 373f 82e4 03be
00000390: 0ef2 b9bc 7b3b 053b d2d4 3e41 ecd4 d6bc
000003a0: bc1a 5e3f 9ca8 12bd 13f1 133f 6dc7 3440
000003b0: fffe 903f 2e0e 5f3f 3638 5740 8d5e 4740
000003c0: af98 90bd 31dc edbd a9b5 513f 42cb f4bd
000003d0: 1056 eb3e a0cd f8bd d124 06be 704f 08bb
000003e0: 02df 31bd c1f7 003f 846e 51bd b3e2 603f
000003f0: f416 e93f 87cd 99bd 0761 97bd de46 1cbe
0.431627 1.1848646 1.2029238 -0.04251299 3.8136632 0.7762905 -0.12255454 0.052645046
21.12207 2.8903472e-05 -0.12598029 -0.024854386 -0.08685414 -0.006615532 1.208231 1.0331458
-0.06456226 0.5782607 0.5409591 -0.0111164125 1.4284074 0.015263916 -0.09616971 2.337264
1.1668364 0.010645946 -0.027900487 -0.102000445 10.076062 0.03358735 0.04612453 -0.0011845438
0.8425286 0.05375475 -0.05510969 1.2927628 6.985066 1.781378 -0.14153168 13.328737
-0.14230849 -0.13938113 -0.029998757 -0.12534362 3.1794372 -0.061506264 4.7241926 -0.12857057
1.023045 0.9790529 0.92359203 0.03635011 -0.08767379 -0.04695902 11.958461 -0.0342968
0.8738513 0.027614098 0.58420086 2.7659733 1.1056093 0.8885697 3.5026088 3.1665568
-0.029547637 -0.077583864 0.8575053 -0.11220411 0.5043437 -0.14931296 -0.09448905 -0.08587747
-0.052798558 0.5849901 0.011085616 0.94760287 1.7282333 0.042696804 -0.05917961 -0.019838572
2.7238257 -0.038666565 -0.11646064 -0.13855448 2.998375 -0.09790351 -0.12722059 10.311832
0.54982245 1.2155377 1.1966534 -0.094299845 3.69401 0.80788815 -0.07222097 -0.13319717
20.998392 -0.022627102 -0.10106018 -0.108089834 -0.117359124 0.012950802 1.1548411 1.0715624
-0.057828274 0.55846924 0.58960176 -0.1025859 1.501098 0.044544213 0.01152386 2.436562
1.1176279 -0.1018123 0.016531996 0.042700883 9.964271 0.050284196 -0.11732224 -0.10108086
0.8312734 -0.09029627 -0.092111714 1.2699256 6.9305196 1.816168 -0.12255463 13.412332
-0.09458164 0.023935089 -0.04427781 -0.08432275 3.1997957 -0.09270457 4.823014 -0.025841594
1.2088288 1.0444428 0.8163765 -0.023071347 0.03559727 -0.058811158 12.13355 -0.024376951
0.85583895 -0.12767388 0.43200642 2.8410754 1.2275573 0.9135567 3.5325775 3.0584757
-0.0023820244 -0.035000134 0.7833101 0.0177547 0.43123114 -0.119149245 -0.061458185 -0.12745012
-0.0010053985 0.58377916 -0.15477711 1.0045484 1.9077485 0.0036053157 -0.077984355 -0.059423193
2.6360705 -0.0920054 -0.042647313 0.03145922 3.1405585 -0.1438312 -0.0814176 10.255833
0.52515405 1.1415553 1.0531697 -0.100213796 3.7525039 0.6591356 0.0034421454 -0.079902105
21.040312 -0.09465292 -0.0025075972 0.02477252 -0.0037147726 -0.08590781 1.3583184 1.0748869
0.06343326 0.6586545 0.63654786 -0.101353005 1.5632836 -0.09452321 0.05361159 2.26527
0.9949433 -0.10213536 -0.04840368 -0.16176532 10.037813 0.0061283284 0.068701535 -0.024458265
0.74293107 -0.06229907 -0.11401142 1.3256457 6.967353 1.6511341 -0.13507174 13.430649
0.044578888 -0.05623088 -0.016915902 0.01952362 3.1069262 -0.04237711 4.6949463 -0.12402412
1.0724698 0.9920801 0.71731585 -0.12880138 -0.022698428 0.0020329643 11.926958 -0.026224576
0.86759543 -0.03580533 0.57789725 2.824672 1.1327819 0.8713101 3.3628058 3.115146
-0.07060372 -0.11614264 0.81917816 -0.11952831 0.45964098 -0.12148595 -0.13099982 -0.0020799302
-0.043425567 0.5037804 -0.051130787 0.87845916 1.821013 -0.07509904 -0.07391553 -0.15261409

bias f4 [22]
00000000: a8ee f23d fdac 643e 2e58 643e e40d 063e
00000010: 2c8d 8a3d f38f 773d 8830 a63d bb7e 893d
00000020: 612d 043e 7582 553e 3994 6e3e cd43 123e
00000030: 00dd 343e f4f4 dc3c 5c3b 173e d0bd 573e
00000040: 8b99 8f3d 9a2e 313d 14ab aa3d 4b1f df3d
00000050: 3da5 52be 344c 273d
0.11861926 0.22331615 0.22299263 0.13091236 0.06765208 0.060440015 0.08114725 0.06713625
0.12907936 0.20850547 0.2329873 0.14283676 0.1766243 0.026972272 0.14768738 0.21068501
0.07011708 0.043257333 0.08333412 0.108946405 -0.20570846 0.040844157

weight f4 [1, 22]
00000000: 1feb 1740 f1ca 1640 ec17 1540 3017 1c40
00000010: 4270 61bf 4ab7 61bf 4de5 1440 6133 1b40
00000020: 2d44 1740 05c1 50bf 8a47 64bf 091d 50bf
00000030: d6cb 1240 3020 1340 c58e 55bf 2854 1a40
00000040: dd35 65bf b81d 5fbf c753 1540 d666 52bf
00000050: f57d 9140 9fd8 60bf
2.3737257 2.3561366 2.329585 2.4389153 -0.88061917 -0.881703 2.3264954 2.425011
2.3635361 -0.81544524 -0.8917166 -0.81294304 2.2936912 2.2988396 -0.83420974 2.4113865
-0.89535314 -0.8715472 2.3332384 -0.82188165 4.5466256 -0.8783054
