data/q_value_net_2_simple_spread_2670000_pH-MARL.pth (torch, 114935 bytes, 7 tensors)

weight f4 [160, 80]
000000 3d 5d ae 3e 46 b3 d5 bc f6 a4 87 be b7 fd 93 bc
       0.3405551 -0.02608646 -0.26493043 -0.018065317
000010 d6 00 b2 3d 5e 56 84 3e ae 46 71 3e 01 e1 5e 3e
       0.08691566 0.25847143 0.23562118 0.2176552
000020 a1 c1 00 3e aa 51 8e be 20 f8 20 3e db 07 69 3e
       0.12573864 -0.2779668 0.15719652 0.22756903
000030 02 f8 31 3d df 82 3b bd f0 d2 4e 3e 13 66 bb bd
       0.04344941 -0.045779105 0.20197654 -0.091503285
000040 8d e1 d0 3d 77 b1 f3 3c 2e c8 b3 3e 22 25 24 3d
       0.101992704 0.029747708 0.35113662 0.040074475
000050 b6 3f 55 be a7 de cb 3d b8 ef ff 3d 5f d5 6f 3e
       -0.20825085 0.09954577 0.124968946 0.23421238
000060 ce 82 e9 3d 41 0b 20 3d f2 30 8b bb 62 ca 3c be
       0.11401902 0.039073233 -0.004247778 -0.18436578
000070 d3 50 50 3e 98 96 22 3e f3 dd 74 3d 15 7d 19 bd
       0.20343332 0.1587776 0.05978198 -0.037472803
000080 78 be 45 3e 22 e4 c5 3d b4 ed 68 3d f1 7a 13 3d
       0.1931094 0.096626535 0.056867316 0.036005918
000090 9b 41 ae 3e ff 88 28 3d 31 1b 60 3e 6c a2 29 3f
       0.34034428 0.041146275 0.21885373 0.6626346
0000a0 fc 0d 85 3b dc 39 9a 3d d3 44 3b 3e a0 ed a1 bd
       0.004060505 0.07530567 0.18287973 -0.079066515
0000b0 4e 9f 90 3e 67 5d af bd f0 11 56 3e 9d 13 4c bd
       0.2824654 -0.08562737 0.2090528 -0.049823392
0000c0 f4 f4 4a be 5c e1 b3 3d 7c 40 cd bd 4e 8a aa bd
       -0.19820005 0.08783218 -0.10022065 -0.08327161
0000d0 4f 5d e9 bd 3e 2f 18 be 37 a5 cd 3e 1d 93 db bc
       -0.1139475 -0.14861771 0.4016511 -0.026803548
0000e0 7d a7 5f be 63 5f d2 bc 02 5e 59 3e 16 64 22 3e
       -0.21841235 -0.02568025 0.21227267 0.15858492
0000f0 1b 30 1b 3e c4 df 4b 3e 14 eb a0 3a a8 2f a5 be
       0.1515507 0.19909579 0.001227709 -0.3226292
000100 55 b2 b4 3e bf 0e d5 3d e6 48 63 3d 60 ae b7 3d
       0.35292307 0.10403203 0.055489443 0.08968806
000110 f7 7a fb 3c fc f9 76 3d e4 34 14 3e b2 8f e5 3d
       0.030698283 0.060296997 0.14473301 0.11209048
000120 e2 9c 41 bd 55 9a 41 3d 43 4b ea bd ab f7 48 39
       -0.047268756 0.047266323 -0.11440136 0.0001916575
000130 16 67 8a 3d 00 57 7a 3d eb 25 e4 bc 2b 4b f5 bc
       0.06757943 0.061118126 -0.027850112 -0.02994307
000140 ee 04 bd 3e 14 eb 95 bc f1 40 fb 3f a5 f8 cc be
       0.36917824 -0.01830057 1.9629194 -0.4003345
000150 1e 53 f3 3c 1c b8 2c be f2 eb ad be d5 60 23 3d
       0.02970272 -0.16867107 -0.33969074 0.039887268
000160 64 e9 bb be 47 b8 d4 3d 44 d1 4f bf 60 cf aa bc
       -0.367015 0.103867106 -0.8117869 -0.020850837
000170 0b 6c 73 be fc 5c 99 3d a4 b5 b5 be b4 be 49 3c
       -0.23771684 0.074884385 -0.35490143 0.012313534
000180 da 16 ff be ea 70 8f 3e 2f 4d 09 bc e6 0d 54 bd
       -0.49822122 0.28015834 -0.008380218 -0.051771067
000190 be b5 bb 3e f6 8d a5 bc 9f 42 9a 3e e3 81 08 3e
       0.36662096 -0.020209294 0.30128953 0.13330798
0001a0 38 68 b6 3c 98 a5 03 be c4 e3 5d bd 39 09 4e 3c
       0.022266492 -0.12856138 -0.054172292 0.012575441
0001b0 5f 3b ad be 9d b9 21 be 9f b4 c2 3e 13 1f 0f bd
       -0.3383436 -0.15793462 0.38028428 -0.034941744
0001c0 7b 70 03 be f4 37 c5 3c 36 04 4d be 21 34 16 3e
       -0.12835877 0.024074532 -0.20021138 0.14668323
0001d0 32 91 31 3d d1 3a 9f 3d 5a 9b 70 3d af 5b a2 3c
       0.04335136 0.0777489 0.058741905 0.019819109
0001e0 d0 96 01 3e b2 ff 93 bd 11 d3 f5 bc db 94 ff 3d
       0.12655187 -0.072265044 -0.03000787 0.12479564
0001f0 a1 09 96 3c 8f 65 a2 bb 90 37 d8 be ad 99 69 be
       0.018315138 -0.0049559544 -0.4222989 -0.22812529
000200 f4 7d 97 3e 5d 8f 84 bd e5 e2 9f bb a6 2d e2 bc
       0.29588282 -0.06472657 -0.004879343 -0.027609657
000210 2f 6a 4f be e6 fd 9e 3d 1d 2f fe be 74 00 e4 3d
       -0.2025535 0.07763271 -0.4964532 0.11132899
000220 37 b2 dd bf 30 69 55 3f 74 5a 35 3f 36 93 17 be
       -1.7320012 0.8336363 0.70841146 -0.1480225
000230 74 f8 bf 3e b4 95 7a bd f5 62 84 3e 97 f8 44 bd
       0.37494242 -0.061177924 0.25856748 -0.048088636
000240 e5 22 3a 3e 94 6d 13 3f a9 e4 03 3f e8 0b 88 be
       0.18177374 0.5758908 0.5152078 -0.26571584
000250 ea 55 a9 3e 19 32 05 be aa b0 55 3e 96 be eb bd
       0.3307336 -0.13007392 0.20868173 -0.11510961
000260 3c 5d 8c 3e 1c c6 9a bd 1f bd 87 3d 9a 90 5b 3c
       0.27414882 -0.075573176 0.06627869 0.013401175
000270 76 48 cb bc 90 15 14 3d 53 f3 44 be 21 27 29 3e
       -0.024814826 0.036153376 -0.19233446 0.16518833
000280 d8 e1 30 bd cd c2 9c 3d 28 92 e1 3c 33 9c 8f 3e
       -0.04318413 0.07654343 0.027535513 0.28048858
000290 11 a4 30 be ae ff d3 3d 47 d8 e7 3d fe 07 bc 3b
       -0.17250086 0.103515014 0.113205485 0.0057382574
0002a0 51 bb e2 bd 32 d5 5e bc 6c f2 cd bd 2e 96 a0 3d
       -0.11070884 -0.013600634 -0.10056004 0.078411445
0002b0 1a 54 d6 3c e8 f6 65 bc 4e 60 04 bc 09 6b a0 3d
       0.02616315 -0.014035918 -0.008079601 0.07832915
0002c0 60 e7 c8 3b 4a 4a c0 3c 4a 22 12 be c5 ab 64 be
       0.0061310977 0.023472924 -0.14270893 -0.2233115
0002d0 d9 ab 1f 3f a0 53 63 3f 5b 59 3a bd 4d 27 aa 3d
       0.62371594 0.88799477 -0.045495372 0.08308277
0002e0 13 ea f4 3c bb 31 72 bb f3 af bf 3c c2 ac a2 3d
       0.029896772 -0.0036955911 0.023399329 0.07943107
0002f0 a2 97 b3 bb 58 1a d4 3d a8 85 1c 3e 92 f5 de bd
       -0.0054807225 0.10356587 0.15285361 -0.108866826
000300 b9 83 4f 3e 04 01 39 bc fb 09 3d 3e 8c e1 3e 3c
       0.20265092 -0.011291746 0.18460838 0.011650454
000310 6d 7b 91 bc 52 24 84 3e 7e 52 94 be c4 e4 3f bf
       -0.01775905 0.2580896 -0.28969187 -0.74958444
000320 a6 f7 e4 bc dd ea 5b 3d ba e0 01 3e b5 e5 17 be
       -0.02795012 0.05369078 0.12683383 -0.1483372
000330 9e f9 cb bd e5 4a 8d be 09 bc 8d bc 80 77 46 bd
       -0.0995972 -0.27596202 -0.017301576 -0.048453808
000340 2e 0e 52 3d 5e cf 2e be b6 b7 22 be 90 7b 97 3c
       0.051283054 -0.17071292 -0.15890393 0.018491536
000350 e6 a6 ca 3c bb 21 2c be 54 20 9e 3d 3b 83 ad bd
       0.024737787 -0.16809742 0.0772101 -0.08472296
000360 e7 79 16 be 42 99 03 3e 25 9d 7a bd 30 f9 9c bd
       -0.1469494 0.12851432 -0.06118502 -0.07664716
000370 78 24 4d 3e 02 b8 7c 3d 1f f1 95 bc 49 a1 27 3d
       0.20033443 0.06169892 -0.018303452 0.040925298
000380 7e 36 03 be ff b1 9f bc ed 1a 02 3d 1d e4 15 bd
       -0.12813756 -0.019494055 0.03176396 -0.0365945
000390 61 49 8f bd 23 ec 60 bd 57 ce 8f 3d bf b1 2f 3e
       -0.06996418 -0.054912698 0.07021778 0.17157649
0003a0 83 92 d3 3c f6 95 39 3e 40 7b 3c 3e 7f 68 43 3e
       0.025826698 0.18123612 0.18406391 0.19082831
0003b0 11 a4 2b bd cb 9e 45 be ba e1 8e bd 2f 7c c9 3d
       -0.041904513 -0.19298856 -0.06976648 0.09838139
0003c0 25 db 9b 3d f1 2c 09 3c 47 8a a2 3c d7 eb 07 bf
       0.07610158 0.008372531 0.019841326 -0.5309424
0003d0 a4 32 76 b9 45 0b cc 3c 73 52 cb 3d dd 6f 6b 3e
       -0.00023479253 0.024907717 0.09927835 0.22991891
0003e0 55 b9 86 3d f9 5b 48 3e d3 2c 21 3e 51 87 c8 3d
       0.06578318 0.19566335 0.15739755 0.097914346
0003f0 06 68 ca bd dd 7a 82 bd e6 c8 72 3c ce ed 7e bd
       -0.09883122 -0.063710906 0.014818406 -0.062238507

bias f4 [160]
000000 5b 58 05 3e 81 ed 1f be 37 75 b4 3e a6 cb 1a 3f
       0.13021986 -0.15617944 0.35245678 0.6046699
000010 51 4f 52 3e 21 c2 99 be bc 5b 02 3c a9 0f 79 be
       0.2053807 -0.3003092 0.0079564415 -0.2432238
000020 ea 36 bd 3e 79 2e 0a 3e 09 68 b8 be 6b c3 bd be
       0.3695596 0.1349429 -0.36016873 -0.37063155
000030 ec 6d b1 bd 9e 6a 9f 3d 75 dc ee bd fc 1b f4 3e
       -0.08663544 0.077840075 -0.116631426 0.476776
000040 5e 05 0b bd 05 f1 9e 3e 8d 69 84 3c 41 73 63 3f
       -0.033940665 0.31043258 0.016163612 0.8884774
000050 56 54 e0 3c 85 87 96 bd 08 d4 47 3e 81 60 1f be
       0.027383965 -0.07350067 0.19514477 -0.15564157
000060 c2 bd 08 bf 61 b1 77 bf c9 aa c6 3e d3 61 23 3f
       -0.5341455 -0.96755034 0.38802174 0.6382114
000070 ad 99 fe 3e 1e f6 bc bd a2 10 74 3e ef 1f a2 bd
       0.4972662 -0.09226631 0.2383447 -0.07916247
000080 f9 e4 c4 3e 6d 46 81 3e b1 47 1d 3c 5e bc 30 3e
       0.38455942 0.25249043 0.009599612 0.17259356
000090 0f b6 0a bf 62 36 56 3e 7b 0f 9e 3e de 18 b2 bd
       -0.5418405 0.20919183 0.30871186 -0.08696149
0000a0 c9 cb a1 be 3c 07 70 3e 8e 12 39 3e 17 65 8a 3e
       -0.31600788 0.2344026 0.18073484 0.2703025
0000b0 59 21 72 3e 1e fc 07 3e 59 2b d0 3d c6 90 ad 3f
       0.23645534 0.13279769 0.10164518 1.3559806
0000c0 1e 7f 06 3e 29 94 0c 3f c1 f9 c3 3d ee aa 55 be
       0.13134429 0.54913574 0.09569121 -0.20865986
0000d0 e0 63 05 3f 25 7b ea bd cc 46 fa 3d 86 e8 13 bf
       0.5210552 -0.11449269 0.12220535 -0.5777668
0000e0 6a c1 12 be 46 94 82 3f 7a 34 c8 3e 03 36 37 3f
       -0.14331594 1.02015 0.39102536 0.7156679
0000f0 8a ff b2 3e 7d 3e b7 3e 45 7d 4f bd e0 43 05 3f
       0.34960586 0.35789862 -0.050656576 0.52056694
000100 91 8d f2 be 74 2e 73 3f 12 6d 2c bf f8 da d5 bd
       -0.47373632 0.94992757 -0.6735393 -0.104421556
000110 63 9a a3 3f 5c b5 5e be 7f 17 12 3f ba 93 b9 be
       1.278149 -0.2174887 0.570671 -0.3624552
000120 de 86 44 3f 86 15 cd 3e dd ee 0a 3b a4 94 75 be
       0.7676829 0.40055484 0.0021199503 -0.23982483
000130 d8 f2 7a 3f 7e d5 40 3f 51 09 74 bf 14 0f 0c bf
       0.980268 0.75325763 -0.95326716 -0.5471051
000140 a6 e4 91 3e 85 04 2c 3f e0 e6 ff be ad 6a 31 3e
       0.28494757 0.67194396 -0.4998083 0.1732585
000150 a4 fe c4 3e d2 1a ef bd 75 5d cc 3d be 9d d8 3e
       0.38475525 -0.116750374 0.09978763 0.42307848
000160 b4 36 0e 3f e4 66 9c 3f 70 68 e5 3e 1a 3b 7b 3e
       0.5555222 1.22189 0.44806242 0.24534264
000170 d8 44 e9 bb 48 cc 6c be bc f2 71 be 39 a6 48 3e
       -0.0071188025 -0.23124802 -0.23627752 0.19594659
000180 8c 19 31 3d 5f b0 d1 be f2 a3 b7 3e bb 10 6c bd
       0.043237254 -0.40954873 0.35867268 -0.057633143
000190 54 1c 9e 3f 73 2c 87 3f 63 21 98 3e d2 b7 62 3e
       1.2352395 1.056044 0.29712972 0.22140434
0001a0 01 81 e8 3e 67 33 f5 bc be 04 86 3f 1a 22 ed 3c
       0.45410922 -0.029931737 1.0470197 0.028946925
0001b0 48 d0 0d be 4d 6d 03 3e ac 3b 76 3d 98 79 7b 3f
       -0.13848984 0.12834664 0.0601155 0.9823241
0001c0 32 3a a8 be 39 e3 8e 3f 34 cb c0 be 0c da 1d 3e
       -0.328569 1.1163093 -0.37655032 0.1541521
0001d0 79 45 63 3e 50 d0 92 be 2a 04 ec 3e 35 cd 96 be
       0.2219447 -0.28674555 0.46096927 -0.29453436
0001e0 74 2d 3f bf 68 b6 4e bd 92 07 e9 3c be b8 1d 3f
       -0.7467873 -0.050466925 0.028445993 0.6161002
0001f0 c7 a3 36 3f 2b 2a 51 bd 51 40 9a 3e 44 1f b1 3d
       0.71343654 -0.051065605 0.30127195 0.086485416
000200 11 ee 73 3c d0 e9 2d 3f 4b e5 d7 3e de db 45 3f
       0.014888302 0.67934895 0.42167124 0.77288616
000210 90 d6 83 be ae 16 ca be 03 5e 45 bf bf 13 60 3f
       -0.25749636 -0.39470428 -0.77096575 0.8753013
000220 30 9e 28 be a7 25 b0 bd b6 22 46 3f 9e be 20 3e
       -0.16466594 -0.086009316 0.77396715 0.15697715
000230 40 56 41 3e 8e dc 7f 3e 5e 38 4c 3f 0c 8f 23 3f
       0.18880558 0.24986479 0.7977351 0.6389015
000240 3b 56 26 bf de 4a 08 3f 9a 63 8c 3f 86 d3 4b be
       -0.6497533 0.5323924 1.0967896 -0.19904909
000250 51 58 dd 3e b5 2a 05 3e 17 d0 3c 3f f4 0b 7e be
       0.43231443 0.13004573 0.7375502 -0.24809247
000260 b5 b3 9d 3f b7 b5 ed 3e 5f 15 36 3f 1c dd 4b be
       1.2320467 0.464277 0.7112636 -0.19908565
000270 9a de a0 be a0 f6 b3 3e e6 6c 4e bd 86 33 de be
       -0.31419832 0.35149097 -0.050396822 -0.43398684

weight f4 [80, 160]
000000 68 29 2e be f2 81 fd bd f8 d8 6b 3e 36 f5 cd be
       -0.17007983 -0.12378301 0.23031986 -0.40226144
000010 cb 16 0f bd 7a f0 ee be b4 94 70 bd 72 35 50 be
       -0.034933846 -0.46667844 -0.058735564 -0.20332888
000020 5f a8 56 3d 64 9d 67 be 6f b6 b1 be ae c4 5e bf
       0.052406665 -0.22618634 -0.34709498 -0.8701886
000030 f8 03 6d be b1 a9 55 3e 35 a2 24 3e 2d 4f 1a be
       -0.23146045 0.20865513 0.16077502 -0.15069266
000040 94 d9 79 3d 61 f1 35 be 03 a9 73 3e 72 09 f0 bd
       0.060998514 -0.1776786 0.23794942 -0.117205516
000050 2b ae 6f 3d e7 18 20 3c 10 d1 92 be b4 7e 54 3e
       0.05851571 0.009771562 -0.28675127 0.20751458
000060 7c 24 54 3d 48 06 f7 be 92 7d 64 3e 85 26 05 3f
       0.051792607 -0.4824698 0.22313526 0.520119
000070 6a 50 80 3e 49 27 0d bc 7f 39 66 3e ae fc 87 be
       0.2506135 -0.008615323 0.2248287 -0.26559967
000080 25 6e fd 3d 07 7c 95 bd 21 01 56 be ca b1 46 bd
       0.12374524 -0.07299047 -0.20898868 -0.048509397
000090 49 6f fe be 2e 56 44 3e c3 ea 42 be ae f2 4d 3c
       -0.4969428 0.191735 -0.19034867 0.012570066
0000a0 79 3f f8 bd 3d 54 90 bd f4 b2 b4 3d 52 f9 19 be
       -0.121214814 -0.07047317 0.08823195 -0.15036514
0000b0 78 77 06 bd 3e 78 1a be 4c cb 1d 3d fc 13 a4 bc
       -0.032828778 -0.15084931 0.038523957 -0.02002906
0000c0 3b e5 48 be 85 23 ce be ba b4 15 3e 5e 99 19 bf
       -0.19618694 -0.40261474 0.14619723 -0.59999645
0000d0 e9 49 84 bc c7 12 44 3e 10 44 9d be bc 28 4b bf
       -0.016148524 0.19147788 -0.3071599 -0.7935903
0000e0 e5 72 63 be a6 b5 0a 3d dd e9 c8 3b 3d f9 3e be
       -0.22211798 0.03386464 0.0061313943 -0.18649764
0000f0 4f 0e 90 3e c1 b0 ea 3c da 9c c8 bd 73 4f b1 3d
       0.28135917 0.028648736 -0.09795542 0.08657732
000100 e3 a9 a4 be b3 12 53 3d 13 6f 31 bf a2 24 0c 3e
       -0.32160863 0.051531505 -0.6931011 0.1368585
000110 b5 aa bf be fe f1 1f bf 25 82 a2 3d 1a bd 59 3e
       -0.37434927 -0.62478626 0.07934979 0.21263543
000120 af 90 a4 3d f2 09 62 bc a3 9c 0e 3e ea 10 cf be
       0.08035409 -0.013796316 0.1392694 -0.40442592
000130 02 92 59 be df e1 7c 3e da 87 5f bf fd 86 11 bf
       -0.21247104 0.24695538 -0.8731667 -0.568466
000140 b6 5b 55 3e 23 e0 09 be d2 f9 09 bf 72 b8 b9 bd
       0.20835766 -0.13464408 -0.5389682 -0.09068383
000150 ab d7 18 3e d5 b8 af be 4b 49 09 3c 77 06 f4 3b
       0.14926021 -0.34320703 0.008379291 0.0074470597
000160 89 4e de 3d 2a 63 11 3d 19 e5 22 3d eb b1 b9 bd
       0.10854823 0.03549496 0.039769266 -0.09067138
000170 f7 ed d6 be 8a e6 83 bf 68 1a 80 be f6 dd fa 3c
       -0.41978428 -1.030473 -0.25020146 0.030623417
000180 13 aa f2 be 77 8b 86 be 38 86 23 3d b0 33 1d bf
       -0.4739538 -0.26278278 0.039922923 -0.61406994
000190 31 53 86 bc aa e4 9b 3c 18 6f ec be dd cc 48 3d
       -0.01639709 0.019029934 -0.46178508 0.049023498
0001a0 94 ba e4 bc 37 d0 8c 3e ca 40 2f 3d 94 b3 e1 bd
       -0.027920999 0.27502605 0.042786397 -0.1102058
0001b0 82 d4 36 bd 5e 60 c7 3d 4c 84 da 3d a6 ff 30 be
       -0.044636257 0.097351775 0.10669765 -0.17285022
0001c0 9c ab 0a bd c5 b7 21 3e 73 b9 50 be dc bc 9d 3e
       -0.033855066 0.15792759 -0.20383243 0.3080815
0001d0 de 2d 54 be 15 36 47 bf 2c 66 1d bc 1d cb bf 3d
       -0.20720622 -0.778169 -0.009606879 0.09364913
0001e0 fe 2e 77 bf f1 03 f1 3d 58 be f5 be b9 45 6c bd
       -0.9655608 0.1176833 -0.47996783 -0.05768368
0001f0 63 e4 34 bd db a6 e0 bd bc d4 b6 3e 70 e8 2b bf
       -0.04416312 -0.10969325 0.35709178 -0.67151546
000200 7b a4 d5 bd 68 ba 15 3e 53 b2 64 be d4 4d a8 bd
       -0.10431763 0.1462189 -0.2233365 -0.082179695
000210 a9 2d 1d bd b5 2c b8 be ad b7 75 be 33 60 11 be
       -0.038373623 -0.3597161 -0.23995848 -0.14196853
000220 82 f9 8c be c1 e7 8d bb 46 c8 5d bf f4 be a2 bb
       -0.2753411 -0.0043306057 -0.8663372 -0.004966611
000230 ef 90 6e bd 17 8b 7b 3d 42 30 56 bd 39 59 f9 3d
       -0.05824369 0.061411943 -0.052292116 0.12175221
000240 55 3d 06 bf 6c 36 4e 3d c7 db c9 be ad 59 4a be
       -0.52437335 0.05034487 -0.3942549 -0.19760771
000250 8f 22 20 bc 0f ff 81 be 72 3f 12 be 32 41 84 3e
       -0.009773864 -0.25389907 -0.14282015 0.2583099
000260 c7 91 14 be 65 6a 4b 3d 76 81 e7 bd 27 96 79 3e
       -0.14508735 0.049662013 -0.113039896 0.24373685
000270 c2 36 a9 be 01 fb 61 bd 85 86 4b 3e 71 92 3e be
       -0.3304959 -0.055171017 0.19875534 -0.1861055
000280 86 26 76 3d 7b 3d 62 3e ad b7 9c 3e 90 6c 0e 3d
       0.060095333 0.22093765 0.30608884 0.034771502
000290 68 09 3c 3e e5 d0 ae 3d d8 52 d5 bd 53 c2 b6 bd
       0.18362963 0.08535937 -0.10416192 -0.08923783
0002a0 7d 97 6f be 44 b2 28 3d 80 e6 32 3e 3a 38 ab 3d
       -0.23397632 0.041185632 0.17470741 0.08360334
0002b0 1c 55 45 3e f5 87 86 3e f5 b8 32 be b8 8a 20 3d
       0.19270748 0.26275602 -0.17453368 0.039194793
0002c0 db 15 c9 bd 5a db 9d bc a9 3a 81 3d a7 e0 69 3d
       -0.09818622 -0.019269634 0.06310017 0.05709901
0002d0 b4 3e db bc 8b 52 03 3e b5 1b 55 3d 21 30 12 3e
       -0.026763298 0.12824456 0.052028377 0.14276172
0002e0 19 68 13 be 46 ec 5c be 20 a3 44 3e 26 63 ef 3e
       -0.14395179 -0.21574506 0.19202852 0.46755332
0002f0 be e8 07 be 5f 17 47 bd 77 b8 76 3c 90 e0 29 3e
       -0.13272378 -0.048606273 0.015058628 0.1658957
000300 76 1d a7 bd db 56 a0 bb 31 f8 a2 3c f8 f2 68 3e
       -0.08159916 -0.0048931665 0.019893738 0.22748935
000310 74 59 30 be 05 87 3b be cd 68 a2 3d 3a 5f 2d be
       -0.17221624 -0.18313225 0.079301454 -0.16930857
000320 04 e3 15 3f 6c 2c 4d 3e 98 c9 42 3d fc b3 10 3e
       0.58549523 0.20036477 0.047555536 0.14131159
000330 05 73 9f 3d 2c 8b 59 3e 42 f2 b9 bc 5a 00 6a 3e
       0.0778561 0.21244496 -0.022698525 0.22851697
000340 05 7a 14 bd 28 b7 e4 3e 54 62 60 bd d1 ea aa bc
       -0.03624918 0.44670987 -0.054781273 -0.020863922
000350 ee 50 bf bd e7 88 de bd ed 98 51 3e fa 30 e0 3d
       -0.09341608 -0.10865956 0.20468493 0.109468415
000360 f4 d9 14 be 32 5e 3d 3d ce c6 05 be 61 89 d6 3e
       -0.14536268 0.04623241 -0.13064119 0.41901687
000370 82 2f 93 3d 48 0c 9d 3e ad a3 1d be 4f 29 61 bd
       0.07186796 0.30673432 -0.15394469 -0.054971036
000380 0a 96 96 bd 63 76 79 3e d1 25 67 3e 93 bc ef bc
       -0.073528364 0.24361567 0.2257302 -0.029264724
000390 7e 2f 4b 3e 70 46 7d be b3 2e 60 3e b7 a5 24 3e
       0.19842336 -0.24733901 0.21892814 0.1607884
0003a0 36 7c 68 be 94 77 c0 3d 75 06 ae 3c 78 49 09 be
       -0.22703633 0.09397808 0.021243313 -0.13406932
0003b0 80 f4 23 be ea c5 a4 bc 54 5b 1e bd 2d d7 d7 bd
       -0.16011238 -0.020113904 -0.038661316 -0.105390884
0003c0 e6 f6 b8 be fb ef 67 3d 0d 35 06 3c 72 08 2b be
       -0.3612587 0.056625348 0.008191359 -0.1670244
0003d0 58 0a 26 be 59 b4 62 3c c2 fd 5f bd 52 03 88 bd
       -0.16214883 0.013836944 -0.05468536 -0.06641258
0003e0 de 9b 86 bc f6 a7 86 3e 09 67 1e 3d 00 20 bb bd
       -0.016431745 0.2630002 0.03867248 -0.09136963
0003f0 37 37 ca 3d de a3 6e 3e 73 c6 71 be 8a a1 66 3d
       0.09873813 0.23304698 -0.23610859 0.0563064

bias f4 [80]
000000 47 4a 94 3e aa c0 18 3e 44 50 68 3d 43 3c 5d 3e
       0.2896292 0.14917246 0.056717172 0.2160502
000010 8d aa cf 3e e8 ef fe 3e 56 51 e1 3e 04 6d c9 3e
       0.40559807 0.4979241 0.44007367 0.39340985
000020 04 04 7a 3e 91 a5 16 bc 2e 67 3f 3f 1a 0a 3c be
       0.24415594 -0.009194748 0.74766815 -0.18363228
000030 0e 35 c9 3e 0f 22 a6 3e 34 cb 59 3d a1 96 5d 3e
       0.3929829 0.3244786 0.053172305 0.21639492
000040 55 c1 43 3e ef f3 3d 3e 37 e9 88 3e 83 03 f8 3c
       0.19116719 0.18550085 0.2674043 0.030275112
000050 d3 0d 0f 3f 9d be 6e 3e 10 19 e5 3e 22 ab ac 3e
       0.5588047 0.233149 0.44745684 0.33724314
000060 6d 88 00 3e 7d 73 94 3e f9 78 50 3e 9a d6 f8 3d
       0.12552042 0.2899436 0.20358647 0.12150307
000070 39 b7 f1 3d 28 0b 08 3f 30 8b 15 3e 02 6b 95 3e
       0.11802525 0.53142023 0.14603877 0.29183203
000080 67 d1 86 3f 74 f1 4f 3f 95 d2 e1 3c e3 16 13 3e
       1.0532655 0.81227803 0.027566234 0.143642
000090 12 4f d4 3e a9 58 36 3e bc 69 cf 3e ef 24 53 3f
       0.41466576 0.17807259 0.40510356 0.8247823
0000a0 14 2c 7f 3e 9d db 27 3d d3 11 63 3f a4 59 50 bd
       0.24919158 0.040980924 0.8869907 -0.050866738
0000b0 77 60 c3 bd 46 86 3c 3f 1a de 36 3f 46 d0 8e 3d
       -0.095398836 0.73642385 0.7143265 0.06973319
0000c0 da 97 be 3e a5 5b 8e 3e 93 b5 0f 3e 23 65 68 3e
       0.3722523 0.27804294 0.14034109 0.2269483
0000d0 37 8f 32 3f 8f b4 33 3e 89 d2 7a 3e f5 80 99 3d
       0.6974978 0.17549346 0.24494375 0.074953
0000e0 7e 7e 3a 3e 75 4c 81 3e 87 cc bd 3e 71 20 4e 3e
       0.18212315 0.25253645 0.37070104 0.20129563
0000f0 80 aa 05 3e 51 bb d2 3d 68 4f 54 3f 38 3f 03 3d
       0.13053322 0.10289634 0.82933664 0.032042712
000100 f5 a2 bb bd 53 b4 41 3e 52 f1 28 3e ee 20 b1 3e
       -0.09161941 0.18916444 0.16498306 0.34595436
000110 d3 af 13 3e 5f 02 6f 3e 14 13 0c 3e df 69 e2 3e
       0.1442254 0.23340748 0.13679153 0.44221398
000120 82 76 d4 3e 8c fa 5e 3f 16 56 2d 3e 02 96 b5 3e
       0.41496664 0.87101054 0.1692737 0.3546601
000130 da 6d bb 3e f4 39 2d 3f a8 48 86 bd ba a7 48 3e
       0.36607248 0.67666554 -0.06556827 0.19595233

weight f4 [20, 80]
000000 cd 09 75 3e 8d 79 33 3d 4d 6a c6 3d 50 3d ae 3e
       0.2392952 0.04381709 0.09688244 0.34031153
000010 af 72 81 3e 66 55 b8 bd 13 37 11 bf de 5c b5 bc
       0.2528281 -0.090006635 -0.5672466 -0.02213901
000020 47 a0 58 be 8e c3 61 bf e6 e9 40 bf 7d b9 9c bf
       -0.21154891 -0.8818902 -0.753569 -1.2244107
000030 db 14 8f be cf 84 51 3f 91 9c 90 bf 73 e1 b9 3e
       -0.279456 0.81843275 -1.129778 0.36304817
000040 a3 3a 97 3d c4 33 4c be 87 5e ab 3e f2 83 39 bd
       0.07384231 -0.19941622 0.33470556 -0.04529185
000050 6a 5c 21 3f f7 6d db 3d 52 56 3d 3e 97 93 ac 3c
       0.6303164 0.107143335 0.1848996 0.02106647
000060 06 1c a0 bf a1 49 e1 3d 80 9d dd bc 83 db 80 3d
       -1.2508552 0.11000372 -0.02705264 0.062918685
000070 a3 24 c0 be a0 ef 82 3b 26 7c a4 bf 72 01 99 3e
       -0.37527952 0.0039958507 -1.2850387 0.29883915
000080 a2 ff 01 bf 95 63 04 bd 37 87 e6 bf 31 4c 4d 3e
       -0.5078069 -0.03232153 -1.8010014 0.20048596
000090 81 95 7d bf ee 81 8a bd 9f d0 10 3e b3 4d 2a bf
       -0.9905625 -0.06763063 0.14142083 -0.6652481
0000a0 a1 5c fe bc d2 17 fc be 0e da 4c 3f 68 1a 82 be
       -0.031050028 -0.49236923 0.80020225 -0.2541077
0000b0 25 d4 12 3f 53 c0 22 3f 59 14 33 3f 4a 9b 67 3d
       0.57354957 0.63574713 0.69952923 0.05654458
0000c0 c0 bd 2f 3c 78 72 19 be 2a 50 d7 be c1 db 92 bd
       0.010726392 -0.14985073 -0.42053348 -0.07170821
0000d0 a8 76 30 3f 62 e9 8b 3e 5c 08 b2 3e 77 8f 70 3c
       0.68931055 0.27326494 0.34772003 0.014682642
0000e0 0a dc 19 3f 7c 2e 37 bd a9 0c 88 3e a0 7b 50 3e
       0.6010138 -0.044722065 0.2657216 0.20359659
0000f0 aa c7 5c 3e 4d 89 80 be 4f 24 44 bf f8 0e 22 bf
       0.21560541 -0.25104752 -0.766179 -0.6330409
000100 7b 51 03 c0 ac c3 4a c0 c2 31 bb 3e d9 ca d3 bd
       -2.0518482 -3.1681929 0.365614 -0.103414245
000110 e0 b8 e3 3e a1 7b d3 bb 6d 87 a1 3e 09 99 5a 3e
       0.44476986 -0.0064539467 0.31548634 0.21347441
000120 48 e2 41 3d ac 7b 0f bf e0 83 2b be 58 00 eb bf
       0.04733494 -0.56048083 -0.16749525 -1.835948
000130 38 df 44 be 50 5a 89 bf dd 66 1a be 5c 53 3d 3f
       -0.19225776 -1.0730686 -0.15078302 0.7395532
000140 1d 18 1a be 70 f8 4c bf 38 ba 02 bf 37 16 ab be
       -0.15048261 -0.80066586 -0.510654 -0.33415386
000150 a9 ff ae 3d cc ce fc 3c b7 c8 f4 bf c2 98 f4 be
       0.08544857 0.030860327 -1.9123753 -0.47772795
000160 39 14 14 c0 c7 81 63 bf 27 20 f7 bf 82 b1 bf bf
       -2.3137343 -0.888699 -1.9306687 -1.4976046
000170 7d 96 9c bf 0b 94 a1 be e6 f7 7f bf cd 8a 85 bf
       -1.2233425 -0.3155826 -0.9998764 -1.0432984
000180 c7 3d 0d c0 f3 48 8c bf d9 a6 fc be eb a4 9e bf
       -2.2068956 -1.0959762 -0.49346045 -1.2394079
000190 4b 07 08 c0 c5 e0 7f be 92 56 9e 3d 4b 4e 13 c0
       -2.1254451 -0.24988087 0.07731356 -2.3016536
0001a0 fe 29 76 bf 53 8d 1d bf 4d 14 81 bf 92 72 79 bf
       -0.96157825 -0.6154377 -1.008432 -0.97440445
0001b0 92 e0 f2 be f3 98 b2 be 66 6c 85 bf 8c 5e 43 bf
       -0.4743696 -0.34882316 -1.0423706 -0.7631614
0001c0 c8 f5 90 3e f0 69 ba bc 05 02 44 bf 21 0a e1 be
       0.28312516 -0.022755593 -0.7656558 -0.4395304
0001d0 82 3b 07 c0 0b 72 2e bf 37 5d 11 3e 53 22 84 bf
       -2.113007 -0.68142766 0.14195715 -1.0322975
0001e0 cc c2 08 3d 5c 1f 75 3e 79 17 a9 bf 8f a7 03 c0
       0.033388898 0.23937744 -1.3210288 -2.057102
0001f0 b2 b7 d2 bf b6 a2 ea bf 76 9d fa bf 33 8a 90 be
       -1.6462309 -1.8330905 -1.9579303 -0.28230438
000200 77 b5 4a bf dc a3 bf bd b9 1a 85 bf b8 52 61 be
       -0.79183143 -0.093574256 -1.039878 -0.22004211
000210 22 c3 01 c0 78 6b 02 bf 36 fe 71 bf 4d e8 8a bf
       -2.027535 -0.50945234 -0.9452852 -1.0852143
000220 76 c4 5b be 9c c7 1f bf cd d4 1f bf 60 4d 43 bf
       -0.21461663 -0.62413955 -0.62434083 -0.7628994
000230 48 e8 82 bf b0 c6 24 bf 34 0e b2 bf b9 3a 70 bf
       -1.0227137 -0.64365673 -1.3910584 -0.93839604
000240 91 7a 37 bf 73 63 4b bf 17 76 03 c0 40 7d 5b bd
       -0.71671396 -0.7944862 -2.0540826 -0.053586245
000250 4c 1f c6 bf d7 41 7d bf 20 c6 31 bf e5 38 a3 be
       -1.5478301 -0.9892859 -0.6944294 -0.31879345
000260 33 f2 ea bf 7c 48 f0 be 12 0b c6 be bb 5e 8e bf
       -1.8355163 -0.469303 -0.3868032 -1.112266
000270 03 57 87 be a8 88 14 c0 5d 09 6c bf b6 a2 a6 bf
       -0.26433572 -2.3208408 -0.9220179 -1.3018405
000280 47 e3 92 3e 67 11 d7 3c 70 08 98 bb 18 f5 92 3e
       0.28689024 0.026253415 -0.0046396777 0.28702617
000290 e3 43 4f 3e 4c c9 bb bd fe f7 f4 be d9 6b 25 bd
       0.2024074 -0.09169254 -0.47845453 -0.040386055
0002a0 23 8b 4c be 24 10 34 bf 9b 07 27 bf 39 c0 8c bf
       -0.19974951 -0.7033713 -0.6524598 -1.0996162
0002b0 5a 8b 6a be 2b 66 3f 3f e3 c7 7d bf 25 ae 9f 3e
       -0.22904721 0.7476527 -0.9913313 0.3118755
0002c0 87 7e 9e 3d 98 4d 69 be 25 51 6c 3e 8a 92 47 bd
       0.07738977 -0.22783506 0.23077829 -0.048723735
0002d0 24 5b 0e 3f 11 ef 4e 3d e6 b8 75 3e 13 30 1b 3d
       0.5560782 0.05052096 0.23996314 0.037887644
0002e0 49 ab 8e bf 54 0d b7 3d 8a 23 51 bd 17 66 42 3d
       -1.1146022 0.08938089 -0.051059283 0.04746064
0002f0 f5 c0 ee be b0 8c 8c 3b d4 c1 8e bf 13 8b 86 3e
       -0.4663159 0.004289232 -1.1152902 0.2627798
000300 4e d3 dd be 00 74 21 bd 45 8e bd bf aa a8 39 3e
       -0.43325275 -0.039417267 -1.4809042 0.18130746
000310 b1 19 59 bf 09 a8 bf bc d8 a7 bc 3d 90 3f 15 bf
       -0.84804827 -0.023395555 0.09211701 -0.58300114
000320 39 16 63 3c c5 3f e8 be 39 ec 37 3f 80 14 1b be
       0.013860279 -0.45361152 0.7184482 -0.15144539
000330 78 d4 e0 3e 8d fb 18 3f 6f f2 16 3f e0 80 16 bd
       0.439121 0.59758836 0.58963674 -0.036744
000340 5e e7 f9 39 ef 8b 5c be af 74 c3 be cb 39 3f be
       0.00047665363 -0.21537755 -0.3817496 -0.1867439
000350 89 a5 0e 3f 47 32 8d 3e 70 04 9a 3e c3 eb 43 3c
       0.55721337 0.2757742 0.3008151 0.011958065
000360 e8 5f 0d 3f 6c 90 8b 3c a9 d0 5e 3e 19 ad 2f 3e
       0.55224466 0.01703664 0.21759285 0.17155875
000370 11 80 15 3e 2a 7b b5 be f3 82 28 bf 78 f5 ef be
       0.14599635 -0.3544553 -0.6582481 -0.46866965
000380 91 58 da bf d1 7c 34 c0 b3 e4 9d 3e fb 7b 22 bc
       -1.7058278 -2.8201182 0.30838546 -0.009917255
000390 23 dd c1 3e 9b 71 15 3e 66 87 8b 3e c3 e3 8a 3e
       0.37864026 0.14594118 0.27251738 0.27126893
0003a0 dc d3 00 3d 4f 01 fc be d7 f0 07 be c7 8b cb bf
       0.031452045 -0.49219748 -0.13275467 -1.5902032
0003b0 47 91 3e be 67 66 6e bf f5 25 69 be 14 cd 45 3f
       -0.18610106 -0.93125004 -0.22768386 0.7726605
0003c0 79 5c 20 be 9c 7d 50 bf f7 9b 29 bf 04 ad 22 bf
       -0.15660276 -0.81441665 -0.6625361 -0.6354525
0003d0 b7 9d 7c be 53 6b b7 be 11 a4 09 c0 47 dd 2a bf
       -0.24669538 -0.3582407 -2.1506388 -0.6674389
0003e0 cd 02 24 c0 9d 11 72 bf e3 c7 1d c0 2f f2 96 bf
       -2.562671 -0.94558126 -2.465325 -1.1792659
0003f0 3c 31 8f bf 15 51 12 bf 61 e9 a4 bf d0 27 6a bf
       -1.11869 -0.5715497 -1.2883722 -0.91467

bias f4 [20]
000000 b8 e9 9c 3f a0 84 d7 3f 5c e6 71 3f 62 5d c8 3f
       1.2258825 1.6837349 0.94492126 1.5653498
000010 7a a3 01 bf b6 69 5e 3f f0 0f 6a 3f 1d 08 6e 3f
       -0.5064007 0.8688005 0.9143057 0.9298113
000020 c2 25 66 3f 57 80 0c 40 ba f1 80 3f e1 3d 61 40
       0.89901364 2.1953332 1.0073769 3.5194018
000030 08 89 6c 3f 57 eb 74 3f b8 ac 79 3f 9a 75 84 3f
       0.92396593 0.956716 0.9752917 1.0348389
000040 76 87 f7 3f e2 72 1c bf 77 e5 ff 3f 1b 90 90 3f
       1.9338214 -0.611128 1.9991902 1.1293977

weight f4 [1, 20]
000000 9d d6 8e 42 97 1c 80 c0 3c 16 89 42 f0 3a 89 c0
       71.41917 -4.00349 68.54343 -4.2884445
000010 35 0e 9b bf 20 66 8a 42 18 69 8b 42 ef 10 8d 42
       -1.2113711 69.19946 69.70526 70.53307
000020 6d e5 77 42 5c e4 19 c0 14 63 8b 42 aa 63 4f c0
       61.97405 -2.404563 69.69351 -3.240458
000030 7f 9e 8a 42 93 08 8a 42 86 c3 88 42 56 95 8c 42
       69.30956 69.01675 68.38188 70.29167
000040 30 3c 8f c0 a6 ee 94 bf a4 c1 9d c0 30 8a 8b 42
       -4.476097 -1.163533 -4.929888 69.7699
