data/q_value_net_1_food_collection_1200000_GSA.pth (torch, 163043 bytes, 7 tensors)

weight f4 [192, 96]
-0.30585465 0.18853253 0.071171924 0.35701632 0.10555278 -0.12267534 -0.007388242 -0.045583144
-0.03139779 -0.10465354 -0.7879215 -0.20818458 0.06317537 -0.06520625 0.06378818 -0.032317758
0.40303463 0.018542377 0.054114435 0.044641305 0.020984123 -0.12900147 0.17650646 0.27555612
0.8958978 -0.16558386 -0.03446156 -0.023735795 -0.07540872 -0.0069372663 -0.07806964 0.030028451
-0.8742243 0.008944617 -0.14054108 0.034537595 -0.08934344 0.13474219 -0.406317 -0.054098338
-0.4523237 -0.051272303 -0.36693764 -0.115043506 -0.26360714 0.12596509 -0.10771099 0.06987947
0.15231386 0.0011295809 0.055862755 0.063361526 -0.073775955 0.027074656 -0.7497031 -0.044829905
0.15352531 0.01301856 0.0031279838 0.06814685 0.112814754 -0.008866587 0.31662592 -0.04729229
-0.041375022 -0.16064179 -0.36669862 0.06461079 -0.25859955 -0.30286363 0.010626903 -0.06818723
0.04020169 -0.06329518 0.09856159 -0.0028392968 -0.73796225 -0.07702564 0.12447558 -0.105314
0.037885193 0.048276573 0.14226228 0.091466285 0.34610254 0.123386845 0.058080796 0.14520214
-0.0050506783 0.0739033 0.17818251 -0.0432453 -0.032889467 0.021241512 -0.06810775 -0.02943799
-0.56277055 0.5026553 -0.44112888 0.35151917 0.12037509 -0.0015001572 0.04788898 0.028517958
0.1619444 -0.06737437 0.103413865 0.019600153 0.095137015 0.053263254 0.14246926 -0.05305925
0.43313625 0.43214393 0.34314615 -0.5419331 0.17595519 -0.2159434 0.17347568 0.92882127
0.74656916 1.2673668 -0.07132358 -0.2571084 -0.13179155 -0.19752046 -0.09351559 -0.19626285
-0.22212079 -0.1784474 -0.16658525 -0.24452892 -0.19552857 -0.21382467 -0.43242332 -0.34012756
-0.18927853 -0.90344316 -0.39586502 -0.5897398 0.07788696 0.00868803 0.91734916 -0.32163677
-0.08088408 0.33259282 -0.10514084 0.16507682 -0.014491959 0.31840634 0.058565896 0.3172823
0.00922402 0.2893762 -0.02404733 0.2191056 -0.44496644 0.51810384 0.10163279 0.85894644
-0.19932804 0.18633257 -0.2918355 0.21636753 0.58550745 0.7857707 0.033554446 0.02295222
-0.04597308 0.08244349 -0.009646426 0.062842615 0.08486304 -0.000376118 -0.0077207694 0.07308176
0.1505752 0.034576006 -0.17269589 0.19835362 0.3078398 0.60996675 0.3464081 -0.22342022
-0.099883474 0.097246766 0.13793579 0.25125605 0.026472855 -0.057403065 0.14805757 0.015167824
-0.70600355 -0.47711766 -1.2114309 -1.3015234 0.011234096 0.05844219 -0.15771967 0.21422672
-0.05250581 0.10997489 -0.0096607935 0.14194751 0.018366253 0.28130144 -0.029121254 0.21384247
-0.17273588 0.23398168 -0.121678405 0.31691143 0.032001797 0.5448497 -0.73693943 -0.28538066
0.2413462 0.7451721 -0.042276535 -0.00789356 -0.1496801 -0.14974621 -0.06917594 0.0012976605
-0.1470678 -0.09973986 -0.12333596 -0.12688877 -0.16931114 -0.011733692 0.10662003 -0.32790086
-0.029620878 0.14420232 0.25537568 0.6316297 -1.0397345 -0.2779472 -0.39804867 -0.48776242
0.00818301 0.054872435 -0.03827423 0.11044993 -0.049972843 -0.08156785 -0.01051065 0.045026574
-0.10848696 -0.047675055 0.049384795 0.037906993 0.14291632 -0.355207 0.16034397 -0.19851282
00000000: fb98 9cbe ac0e 413e 96c2 913d d8ca b63e
00000010: 0e2c d83d 353d fbbd 1119 f2bb 64b5 3abd
00000020: f89a 00bd 9854 d6bd 39b5 49bf 572e 55be
00000030: 1762 813d db8a 85bd 61a3 823d a05f 04bd
00000040: 8e5a ce3e 2fe6 973c 19a7 5d3d cdd9 363d
00000050: e5e6 ab3c f618 04be 1cbe 343e b115 8d3e
00000060: 8f59 653f d18e 29be 9127 0dbd 9271 c2bc
00000070: e36f 9abd 0252 e3bb fae2 9fbd 3afe f53c
00000080: 2acd 5fbf 718c 123c 00ea 0fbe 4b77 0d3d
00000090: b2f9 b6bd dbf9 093e c808 d0be 3896 5dbd
000000a0: f996 e7be e802 52bd 40df bbbe ee9b ebbd
000000b0: 84f7 86be fefc 003e 9497 dcbd f81c 8f3d
000000c0: 2af8 1b3e 720e 943a 58d0 643d b0c3 813d
000000d0: d917 97bd abcb dd3c 8bec 3fbf 909f 37bd
000000e0: bd35 1d3e cc4b 553c dcfe 4c3b 9390 8b3d
000000f0: 6c0b e73d 2945 11bc cb1c a23e 8fb5 41bd
00000100: db78 29bd 487f 24be ecbf bbbe a952 843d
00000110: 2967 84be f110 9bbe 761c 2e3c bfa5 8bbd
00000120: 87aa 243d e7a0 81bd a9da c93d 7f13 3abb
00000130: 18eb 3cbf 9ebf 9dbd 0eed fe3d deae d7bd
00000140: 812d 1b3d a8bd 453d 34ad 113e ad52 bb3d
00000150: 5a34 b13e 3eb2 fc3d 21e6 6d3d dfaf 143e
00000160: 2980 a5bb 9d5a 973d 7a75 363e fc21 31bd
00000170: 1bb7 06bd ae02 ae3c 137c 8bbd f127 f1bc
00000180: bb11 10bf 05ae 003f a5db e1be 52fa b33e
00000190: 3787 f63d eca0 c4ba 3c27 443d 7e9e e93c
000001a0: c1d4 253e 93fb 89bd a6ca d33d 8090 a03c
000001b0: 32d7 c23d 922a 5a3d 76e3 113e a854 59bd
000001c0: 09c4 dd3e f841 dd3e dab0 af3e 21bc 0abf
000001d0: 992d 343e 4420 5dbe 9ca3 313e 3bc7 6d3f
000001e0: 281f 3f3f 1339 a23f 1912 92bd b6a3 83be
000001f0: 5df4 06be ce42 4abe 1a85 bfbd 21f9 48be
00000200: a273 63be eaba 36be 5395 2abe ca65 7abe
00000210: a438 48be dbf4 5abe 9766 ddbe 3325 aebe
00000220: 3bd2 41be 0d48 67bf d2ae cabe 30f9 16bf
00000230: 3383 9f3d 3d58 0e3c 65d7 6a3f 93ad a4be
00000240: 8da6 a5bd 9b49 aa3e 1554 d7bd e609 293e
00000250: ae6f 6dbc 2806 a33e cbe2 6f3d d372 a23e
00000260: 5820 173c 1e29 943e e8fe c4bc 385d 603e
00000270: a4d2 e3be 74a2 043f da24 d03d eae3 5b3f
00000280: a61c 4cbe f7cd 3e3e 766b 95be 738f 5d3e
00000290: d1e3 153f 4528 493f 6370 093d 4b06 bc3c
000002a0: 454e 3cbd 22d8 a83d 0b0c 1ebc a1b3 803d
000002b0: accc ad3d b431 c5b9 82fe fcbb e4ab 953d
000002c0: 6330 1a3e 929f 0d3d 31d7 30be 361d 4b3e
000002d0: 2e9d 9d3e c826 1c3f 675c b13e 45c8 64be
000002e0: b58f ccbd 5029 c73d 0a3f 0d3e a2a4 803e
000002f0: 9add d83c 7a1f 6bbd 679c 173e 7782 783c
00000300: a6bc 34bf c448 f4be 2b10 9bbf 5298 a6bf
00000310: 370f 383c 1461 6f3d 4481 21be 405e 5b3e
00000320: 5510 57bd 843a e13d 4e48 1ebc b05a 113e
00000330: d374 963c be06 903e b28f eebc 85f9 5a3e
00000340: ade1 30be e598 6f3e 8732 f9bd 3742 a23e
00000350: 5114 033d 457b 0b3f 10a8 3cbf 6a1d 92be
00000360: 7523 773e 99c3 3e3f 292a 2dbd fe53 01bc
00000370: bd45 19be 1257 19be 1dac 8dbd 4316 aa3a
00000380: f198 16be 6944 ccbd 9097 fcbd 21ef 01be
00000390: e65f 2dbe ac3e 40bc 9a5b da3d 9fe2 a7be
000003a0: 7ca7 f2bc c6a9 133e 9ac0 823e 7cb2 213f
000003b0: 0516 85bf 184f 8ebe 09cd cbbe ffbb f9be
000003c0: 0812 063c ebc1 603d 70c5 1cbd 9333 e23d
000003d0: 53b0 4cbd 0c0d a7bd dd34 2cbc c96d 383d
000003e0: 692e debd eb46 43bd b647 4a3d 5d44 1b3d
000003f0: a858 123e b1dd b5be 3631 243e f246 4bbe

bias f4 [192]
-0.38580456 -0.26907033 0.7940725 -0.35399243 0.91019833 0.11270265 -0.20665842 -0.24322067
0.5295416 0.14213969 -0.65451276 0.306799 0.2534942 0.35680038 -0.12745301 0.22689715
0.38392645 0.6239503 -0.4139844 0.2686308 0.47328216 -0.4930259 -0.36326596 0.3670575
0.49600172 0.5076951 0.6232868 0.3560095 0.30460772 -0.24246792 0.009971726 0.03534517
0.74715245 0.025310684 -0.18610846 0.01519334 0.5960612 0.4780362 0.12396741 -0.24187762
-0.084350705 0.4736655 0.29101554 0.21724144 0.7453152 0.5253518 0.2877385 0.5529403
0.26063618 0.36295375 -0.18431455 0.6165771 -0.0042836303 0.65186805 0.38793042 -0.7093503
0.3404246 0.5284289 -0.7883577 0.26595 -0.38323313 0.27087837 0.022155197 0.19247898
0.84256935 0.46628678 0.1770023 0.2196992 -0.40697402 0.53202206 1.0573025 0.5156766
0.18304312 0.24652843 0.30960006 -0.22709747 0.41711867 -0.41714585 -0.426877 -0.27052316
-0.11799687 0.46161023 -0.016339585 0.51460344 -0.48951828 0.51918364 0.6328892 -0.5130868
0.7124093 0.5524253 0.5227066 0.39045134 0.34026977 0.7893252 0.6009622 0.18190101
-0.16927278 1.5299319 -0.10962031 -0.43613282 0.09941216 -0.3759045 1.1714672 -0.2680314
-0.41908032 -0.49299377 0.28154883 0.1015314 -0.18649592 0.5356664 0.15294689 -0.540014
-0.43932125 -0.19756873 -0.33727476 1.0068893 0.5953798 -0.17389958 0.5271154 0.541384
-0.2503103 0.5932611 0.4497584 -0.38484406 0.5099169 0.2201558 0.2659017 0.3409357
0.22463748 -1.0102829 0.27081433 -0.42192528 0.033074394 1.0810516 -0.4019099 0.41902635
-0.36289334 -0.52715003 -0.3840271 -0.15251404 0.33798712 0.6035967 0.7055144 0.38835177
0.28646186 -0.008119394 -0.6247331 -0.4694794 0.4191032 0.61737174 0.6828017 -1.1004857
-0.9212317 -0.7433901 0.0052173147 0.45676953 0.53992915 0.46005964 0.028978176 -0.06339923
-0.28832117 -0.22749867 0.42641672 0.47811806 0.17387965 0.1797479 -0.1190627 0.14598648
-0.84143656 0.31401393 1.2335774 0.052431624 -0.0003788237 0.6779907 0.62166125 0.49560753
0.055133395 0.10147277 0.8440905 -0.16289802 -0.1666178 0.716194 0.72619563 0.27028307
0.6441693 -1.0517992 0.44887283 -0.9052739 -0.2417028 0.32237124 -0.33933488 -0.7853007
00000000: 2d88 c5be 96c3 89be 5648 4b3f 7f3e b5be
00000010: c202 693f a6d0 e63d 449e 53be d70e 79be
00000020: 0a90 073f 118d 113e 268e 27bf c214 9d3e
00000030: fec9 813e 8aae b63e 0b83 02be ba57 683e
00000040: 0292 c43e 35bb 1f3f c3f5 d3be fa89 893e
00000050: 0a52 f23e e46d fcbe fffd b9be f6ee bb3e
00000060: f0f3 fd3e 4ef8 013f b98f 1f3f e146 b63e
00000070: 8bf5 9b3e 8349 78be 7360 233c 19c6 103d
00000080: 6245 3f3f 5a58 cf3c 3793 3ebe 7ded 783c
00000090: 7897 183f 29c1 f43e a0e2 fd3d c4ae 77be
000000a0: 10c0 acbd 4984 f23e fdff 943e 8a74 5e3e
000000b0: facc 3e3f 757d 063f 7652 933e 7f8d 0d3f
000000c0: 1b72 853e 13d5 b93e f4bc 3cbe ffd7 1d3f
000000d0: b25d 8cbb d3e0 263f d19e c63e fb97 35bf
000000e0: 224c ae3e 1e47 073f cfd1 49bf 992a 883e
000000f0: 2237 c4be 92b0 8a3e d17e b53c 3619 453e
00000100: a0b2 573f 24bd ee3e 1740 353e d4f8 603e
00000110: e65e d0be 9932 083f b055 873f 6203 043f
00000120: a86f 3b3e f371 7c3e e683 9e3e 3d8c 68be
00000130: 9490 d53e 2494 d5be 9f8f dabe 0382 8abe
00000140: 58a8 f1bd 2d58 ec3e 98da 85bc 0dbd 033f
00000150: 24a2 fabe 38e9 043f 0705 223f a859 03bf
00000160: 7560 363f bf6b 0d3f 1ad0 053f 3de9 c73e
00000170: d737 ae3e 3711 4a3f a9d8 193f 4244 3a3e
00000180: d855 2dbe cfd4 c33f 9d80 e0bd cd4c dfbe
00000190: 9a98 cb3d 8e76 c0be a3f2 953f 693b 89be
000001a0: b291 d6be ae69 fcbe 2b27 903e b2ef cf3d
000001b0: c9f8 3ebe 6f21 093f 1c9e 1c3e 5c3e 0abf
000001c0: b7ee e0be 754f 4abe 47af acbe c0e1 803f
000001d0: d06a 183f bb12 32be 09f1 063f 2498 0a3f
000001e0: ac28 80be f6df 173f bc46 e63e 480a c5be
000001f0: ea89 023f 8670 613e 4524 883e 208f ae3e
00000200: 5e07 663e f350 81bf 2da8 8a3e 9706 d8be
00000210: 0479 073d e65f 8a3f 22c7 cdbe 9f8a d63e
00000220: 28cd b9be 4ef3 06bf 339f c4be a42c 1cbe
00000230: a60c ad3e 5085 1a3f 979c 343f 0bd6 c63e
00000240: 21ab 923e 3507 05bc 82ee 1fbf 9b5f f0be
00000250: b294 d63e 130c 1e3f 18cc 2e3f b7dc 8cbf
00000260: d7d5 6bbf d04e 3ebf 02f6 aa3b b2dd e93e
00000270: cc38 0a3f f08c eb3e a463 ed3c 75d7 81bd
00000280: d59e 93be 69f5 68be 4b53 da3e e4cb f43e
00000290: 820d 323e d50f 383e 25d7 f3bd 7b7d 153e
000002a0: 6368 57bf 6fc6 a03e dde5 9d3f 8bc2 563d
000002b0: db9c c6b9 cc90 2d3f 3125 1f3f 45c0 fd3e
000002c0: 8ed3 613d f5d0 cf3d 5116 583f bdce 26be
000002d0: db9d 2abe 7d58 373f f5e7 393f 8b62 8a3e
000002e0: 47e8 243f 5ba1 86bf a9d2 e53e 08c0 67bf
000002f0: f080 77be d80d a53e 4dbd adbe 7709 49bf

weight f4 [96, 192]
0.34503177 0.19834235 0.16347578 -0.0077700377 0.19779018 0.25471506 0.111241125 0.30111223
0.24595831 0.11520153 -0.27669325 0.34249282 0.36708188 0.30972153 0.12118999 0.23157547
0.22821033 0.35619608 -0.071533166 0.24198744 0.40156016 -0.21973974 0.05689109 0.25141755
0.42505226 0.37720928 0.3231698 0.27414012 0.40301856 -0.0695093 0.08989148 0.24998377
0.3435582 0.2136015 -0.07775182 0.22711474 0.25137264 0.28045633 0.32039532 -0.097299546
0.10086873 0.20713167 0.43362945 0.2113032 0.25271538 0.32772446 0.36209968 0.35723042
0.3195788 0.07928658 0.10659992 0.4095671 0.23477653 0.45501187 0.42791966 -1.0361881
0.2783159 0.14545599 -0.009361398 0.3646019 0.012518855 0.27757224 0.27778816 0.1904112
0.33623275 0.25572896 0.38165194 0.38480476 -0.008432084 0.26281416 0.18805633 0.431204
0.28794238 0.44327745 0.31796575 0.318887 0.2606189 -0.09128949 0.03300354 0.43146402
0.10564349 0.26968333 0.02808361 0.15224776 -0.14528358 0.15998402 0.34685385 0.10390499
0.3274076 0.23726678 0.19532667 0.16528974 0.17700042 0.17395857 0.37156644 0.17632087
0.20160927 0.28895506 0.033852387 -0.0131187 0.29439145 -0.08523211 0.19704984 -0.0031980025
0.13367689 -0.09399724 -0.05835055 0.16117997 0.017213283 0.021742936 0.18098287 0.13232097
0.06758562 0.09207266 -0.491504 0.011480253 0.24495135 0.35258767 0.19667846 0.40486357
0.061648484 0.29702264 0.30876696 0.18003464 0.45247856 0.19882706 0.30793828 0.37866503
0.3294743 -0.5049029 0.14895475 -0.62868625 0.13609391 0.37721443 0.17536941 0.27310953
0.15359561 -0.29950905 0.2265883 0.04305364 0.30507755 0.3539839 0.49401304 0.43842304
0.22127238 0.39858913 -0.17496532 0.06738391 0.3616551 0.29002818 0.39183483 -0.27268568
-0.8889705 -0.011870774 0.19414803 0.3766479 0.10215377 0.33175918 0.18885028 0.37587106
0.09077251 0.088346854 0.2828913 0.42207763 0.2503751 0.36499396 0.095357835 0.33325258
-0.8858871 0.39564934 0.4383023 0.22668569 0.21679355 0.45531675 0.29792666 0.16693528
0.2450644 0.352116 0.2683198 0.42333725 0.2866689 0.43725976 0.037673764 0.086680554
0.22571841 -0.60117424 0.27252755 -0.75280356 0.16322188 0.3996241 0.16651283 -0.8911343
0.41256186 0.22042838 0.24692422 -0.06300695 0.26200655 0.27247313 0.08660518 0.16734496
0.329047 0.020277552 -0.36976993 0.3051137 0.38673684 0.4192543 0.20078692 0.2812452
0.28989902 0.3090365 -0.06100021 0.3339415 0.36042088 -0.15059619 0.03267816 0.29494366
0.3333706 0.29956514 0.42543417 0.35810933 0.37582752 -0.058466993 0.1364496 0.25464177
0.36170205 0.15314345 0.02598912 0.3038563 0.26065546 0.28486678 0.2702318 -0.077594735
0.21252343 0.17577726 0.39644316 0.32263184 0.30329108 0.20942502 0.38627422 0.4102896
0.44127956 0.123318076 0.08572074 0.4654721 0.28264165 0.54874784 0.40476945 -0.94056535
0.25219417 0.22883026 -0.006461121 0.29822597 -0.07685382 0.3244183 0.38505387 0.10170286
00000000: 01a8 b03e 421a 4b3e 3266 273e cd9b febb
00000010: 8289 4a3e 036a 823e 63d2 e33d 622b 9a3e
00000020: 7fdc 7b3e c8ee eb3d bdaa 8dbe 385b af3e
00000030: 28f2 bb3e d293 9e3e 7532 f83d 1f22 6d3e
00000040: f8af 693e 555f b63e fb7f 92bd 8ecb 773e
00000050: 4b99 cd3e 7403 61be a206 693d cdb9 803e
00000060: 73a0 d93e 9321 c13e 8376 a53e 185c 8c3e
00000070: 7358 ce3e e45a 8ebd 0619 b83d bffb 7f3e
00000080: dce6 af3e 5aba 5a3e 593c 9fbd c490 683e
00000090: eab3 803e f997 8f3e db0a a43e fc44 c7bd
000000a0: 4494 ce3d 531a 543e ae04 de3e de5f 583e
000000b0: e963 813e 80cb a73e 2165 b93e e8e6 b63e
000000c0: d59f a33e 0161 a23d 0f51 da3d c7b2 d13e
000000d0: 4269 703e 51f7 e83e 4918 db3e d0a1 84bf
000000e0: 6c7f 8e3e 6af2 143e 8d60 19bc 1aad ba3e
000000f0: e21b 4d3c f31d 8e3e 403a 8e3e 27fb 423e
00000100: b326 ac3e e8ee 823e e267 c33e 2105 c53e
00000110: b926 0abc 948f 863e d791 403e c5c6 dc3e
00000120: 2f6d 933e 43f5 e23e 68cc a23e 2845 a33e
00000130: d76f 853e fcf5 babd b82e 073d dae8 dc3e
00000140: 9d5b d83d ef13 8a3e 990f e63c d6e6 1b3e
00000150: 38c5 14be dad2 233e d496 b13e 24cc d43d
00000160: f8a1 a73e 10f6 723e b703 483e b741 293e
00000170: 993f 353e 3222 323e f53d be3e 758d 343e
00000180: a972 4e3e ebf1 933e cda8 0a3d d1ef 56bc
00000190: 7aba 963e 2c8e aebd 6fc7 493e 9495 51bb
000001a0: 98e2 083e a081 c0bd fc00 6fbd 5d0c 253e
000001b0: df02 8d3c 3e1e b23c 9353 393e 267f 073e
000001c0: 546a 8a3d 9790 bc3d 6aa6 fbbe ac17 3c3c
000001d0: 87d4 7a3e 5f86 b43e 1466 493e 474a cf3e
000001e0: 1f83 7c3d 5a13 983e b416 9e3e 005b 383e
000001f0: 45ab e73e 5299 4b3e 16aa 9d3e 62e0 c13e
00000200: dbb0 a83e 5141 01bf 9887 183e 95f1 20bf
00000210: 345c 0b3e 4022 c13e 0a94 333e 03d5 8b3e
00000220: 2b48 1d3e 4059 99be c306 683e 0359 303d
00000230: 2033 9c3e 613d b53e 47ef fc3e fc78 e03e
00000240: 3a95 623e e013 cc3e 1c2a 33be 9300 8a3d
00000250: db2a b93e 937e 943e 939e c83e 759d 8bbe
00000260: 9293 63bf a37d 42bc bece 463e fed7 c03e
00000270: ff35 d13d 57dc a93e f861 413e 2c72 c03e
00000280: f0e6 b93d 32ef b43d 21d7 903e 8f1a d83e
00000290: 2a31 803e 7de0 ba3e f84a c33d 15a0 aa3e
000002a0: 7fc9 62bf 8d92 ca3e 2969 e03e 4b20 683e
000002b0: 21ff 5d3e 471f e93e d889 983e 15f1 2a3e
000002c0: 29f2 7a3e 8c48 b43e 3661 893e a9bf d83e
000002d0: 44c6 923e 83e0 df3e ce4f 1a3d 9385 b13d
000002e0: ba22 673e 8ee6 19bf bb88 8b3e bcb7 40bf
000002f0: a323 273e 889b cc3e 5782 2a3e 6121 64bf
00000300: 4f3b d33e fab7 613e b4d9 7c3e ca09 81bd
00000310: b925 863e 9981 8b3e 0e5e b13d 7a5c 2b3e
00000320: d978 a83e 1c1d a63c 7c52 bdbe dd37 9c3e
00000330: 5f02 c63e 80a8 d63e 169b 4d3e 5fff 8f3e
00000340: a56d 943e 083a 9e3e 5bdb 79bd 61fa aa3e
00000350: 1689 b83e e335 1abe 89d9 053d db02 973e
00000360: 8daf aa3e 9a60 993e 82d2 d93e 1b5a b73e
00000370: 776c c03e 167b 6fbd 72b9 0b3e 6860 823e
00000380: 0331 b93e a3d1 1c3e 23e7 d43c 0e93 9b3e
00000390: a274 853e 0fda 913e d35b 8a3e fde9 9ebd
000003a0: be9f 593e f4fe 333e 99fa ca3e 0030 a53e
000003b0: f848 9b3e 8373 563e bcc5 c53e 7a11 d23e
000003c0: 65ef e13e 308e fc3d 5b8e af3d 5c52 ee3e
000003d0: 68b6 903e bd7a 0c3f f13d cf3e e4c8 70bf
000003e0: 981f 813e 7b52 6a3e d0b7 d3bb 13b1 983e
000003f0: 8965 9dbd 281a a63e c825 c53e 9749 d03d

bias f4 [96]
0.37733418 0.34267032 -1.5098614 0.34947118 0.3710334 0.26963806 -0.15539555 0.27023456
-0.7080155 0.63662106 -0.8739693 0.35472634 -2.3395007 -0.39418814 -1.3519077 0.23453215
0.30466095 -1.8236583 -0.490434 0.4082631 0.73741657 0.4047523 -1.1070913 0.30454865
-0.11224341 -0.5294747 -0.30347088 0.6252678 0.25404942 -0.298341 0.3841574 0.40540797
-0.97478753 0.8662878 -1.2475547 0.63901573 -0.27648714 0.5574942 0.42303544 0.34706265
0.6289618 -1.9525836 0.5052139 0.34130666 0.14837192 -0.22256048 0.517855 -0.08557591
0.38444254 0.39527178 0.29061136 -0.7101677 -1.22381 0.5378331 -0.6915461 0.484542
0.2557803 -1.5403248 0.34623632 0.273014 -0.53981197 0.2905535 0.6872763 -0.3909424
0.60359365 0.21306106 0.37066534 0.32449904 0.3029588 -2.0742087 0.3800425 0.3014531
0.49390334 0.35047692 -2.0703208 0.25483778 0.3642459 -0.038343456 0.20582193 0.4424566
0.30854034 0.17242399 -1.0554286 0.5571496 0.27813184 0.60367846 0.4275389 0.31980738
-1.6188035 0.2917678 -0.31939024 0.4097306 -0.6819237 0.22665556 -1.8969351 0.62740827
00000000: f231 c13e 7c72 af3e 2343 c1bf e3ed b23e
00000010: 17f8 bd3e 000e 8a3e 0320 1fbe 2f5c 8a3e
00000020: 8140 35bf 99f9 223f 74bc 5fbf b19e b53e
00000030: 61ba 15c0 07d3 c9be 500b adbf 3229 703e
00000040: 85fc 9b3e a36d e9bf 2a1a fbbe dc07 d13e
00000050: 55c7 3c3f b23b cf3e 2bb5 8dbf cded 9b3e
00000060: dfdf e5bd a78b 07bf 8960 9bbe 8d11 203f
00000070: c412 823e 27c0 98be 47b0 c43e a291 cf3e
00000080: ad8b 79bf 0ac5 5d3f dfaf 9fbf 8996 233f
00000090: b98f 8dbe f1b7 0e3f 1a98 d83e 32b2 b13e
000000a0: a403 213f 42ee f9bf b355 013f bfbf ae3e
000000b0: cfee 173e e5e6 63be 2592 043f 6c42 afbd
000000c0: a7d5 c43e 1061 ca3e 03cb 943e 8dcd 35bf
000000d0: cea5 9cbf 6eaf 093f 2a09 31bf e415 f83e
000000e0: a3f5 823e 5d29 c5bf e345 b13e 7ec8 8b3e
000000f0: 1e31 0abf 6ec3 943e 57f1 2f3f 9a29 c8be
00000100: 1d85 1a3f ae2c 5a3e d9c7 bd3e bd24 a63e
00000110: 6a1d 9b3e d6bf 04c0 ee94 c23e 1058 9a3e
00000120: e6e0 fc3e b671 b33e 2380 04c0 197a 823e
00000130: 707e ba3e 070e 1dbd fcc2 523e ac89 e23e
00000140: 00f9 9d3e ea8f 303e 4918 87bf 5ba1 0e3f
00000150: 4c67 8e3e ac8a 1a3f 61e6 da3e cbbd a33e
00000160: f434 cfbf 9762 953e 1e87 a3be 36c8 d13e
00000170: 8d92 2ebf 6518 683e c5ce f2bf d49d 203f

weight f4 [24, 96]
-0.15222196 -0.13667952 0.57038856 -0.104093 -0.07941623 -0.078455634 0.42053938 -0.11269641
1.049978 -2.130776 0.7770639 -0.21230058 0.8010119 0.4627197 0.8521026 -0.2965545
-0.1893812 0.7372526 0.67943454 -0.21341749 0.000947068 -0.12915556 0.40261456 -0.21973805
0.90655154 0.54017705 -0.094019115 0.07183114 -0.1288804 0.46046084 0.45389897 -0.15273765
0.8445133 0.124653 0.49624783 -0.05643348 0.49752986 -0.038764775 -0.18342927 -0.08095742
-0.09345816 0.60906476 -0.056036055 -0.05853607 -0.20589192 1.1045213 -0.09993301 1.2613013
-0.15506634 -0.024609199 -0.15867874 0.80032074 0.9283102 -0.029232394 0.16239937 -0.08022756
-0.122953795 0.52955467 -0.09722674 -0.17013468 0.11753447 -0.08526428 0.09939171 0.0060474975
0.9871686 -0.24668004 -0.16120066 -0.095734924 -0.22667873 0.9985151 -0.11055707 -0.08742497
-0.049596336 -0.080498315 1.0344185 -0.26215437 -0.1907146 0.9101377 -0.18068643 -0.17466918
-0.08503284 -0.09315858 1.1134883 -0.045044072 -0.1511806 1.236168 -0.2168819 -0.1941448
0.43813896 -0.28219363 0.565953 -0.020723436 0.6010815 -0.22722718 1.1640495 -0.17909473
-0.24670202 -0.10898188 1.9781914 -0.43347928 -0.23598433 -0.24298301 1.035857 -0.030699015
2.5781431 -4.742933 1.5352001 -0.23725013 3.1766179 1.1776096 1.7666792 -0.011854559
-0.3110666 1.8066415 2.7674906 -0.15886562 -0.24637789 -0.4184189 1.3213512 -0.23500776
1.214715 2.2090983 2.2416975 -0.55021733 -0.12779967 1.4239378 0.7679034 -0.34440053
1.5111742 -0.49816853 1.9375936 -0.4825663 1.0185074 -0.42790228 -0.36840588 -0.3398123
-0.5547946 1.8371705 -0.3475751 -0.2806348 -0.16927902 1.741758 -0.3327295 1.1251285
-0.27567488 -0.35177726 -0.25588733 1.1726966 2.3618944 -0.24545977 1.057354 -0.39420673
-0.17579924 1.3542352 -0.14716178 -0.24439909 1.6786538 -0.30113837 -1.9839852 2.050335
1.3246986 -0.06570253 -0.23275289 -0.20085365 -0.2578481 2.9671035 -0.17547631 -0.13768646
-0.3124607 -0.34814754 2.4072852 -0.17763221 -0.29075387 1.3290861 -0.0787463 -0.3399975
-0.21432161 1.1598687 2.017161 -0.19436704 -0.29427204 0.20757027 -0.18469058 -0.08489573
1.8292263 -0.15153338 1.5123181 -0.2765716 2.2829587 -0.34941608 2.0431101 -0.08924863
-0.12973137 -0.13850309 1.9912137 -0.40052104 -0.2737627 -0.27911794 1.1624825 -0.104296274
2.589758 -3.9208617 1.5752087 -0.2956769 3.6048846 1.2659279 1.832873 0.044651706
-0.17747253 1.8503069 2.7388985 -0.16640906 -0.31362367 -0.35873038 2.3224423 -0.32818344
1.575723 2.173261 2.2117674 -0.45853743 -0.2250131 1.5181794 0.38747075 -0.26222265
1.3823984 -0.48598713 1.9868718 -0.43146366 1.1267769 -0.4550863 -0.28475288 -0.41060194
-0.47088215 1.998422 -0.40162808 -0.23472856 -0.100215904 2.1036541 -0.33868274 1.2893046
-0.21143433 -0.353589 -0.1092297 1.3247889 2.7016053 -0.18128027 1.0865239 -0.29162127
-0.3021615 1.4335344 -0.3207264 -0.20335552 1.4940637 -0.21451782 -3.1300821 2.0202577
00000000: 13e0 1bbe b7f5 0bbe fc04 123f b62e d5bd
00000010: faa4 a2bd 59ad a0bd f050 d73e 60cd e6bd
00000020: ae65 863f a25e 08c0 a9ed 463f 5365 59be
00000030: 1e0f 4d3f 99e9 ec3e 6523 5a3f fed5 97be
00000040: 25ed 41be 96bc 3c3f 6cef 2d3f 1d8a 5abe
00000050: a844 783a 5b41 04be 7f23 ce3e 0303 61be
00000060: c313 683f 0b49 0a3f 188d c0bd 341c 933d
00000070: 39f9 03be 86c1 eb3e 7265 e83e 4267 1cbe
00000080: 0632 583f 124a ff3d 3214 fe3e cb26 67bd
00000090: 3cbc fe3e d0c7 1ebd e2d4 3bbe 01cd a5bd
000000a0: fe66 bfbd abeb 1b3f 1086 65bd 85c3 6fbd
000000b0: 55d5 52be f460 8d3f aea9 ccbd 5272 a13f
000000c0: b6c9 1ebe 3b99 c9bc ae7c 22be d2e1 4c3f
000000d0: bda5 6d3f c678 efbc 054c 263e 594e a4bd
000000e0: 33cf fbbd e590 073f d01e c7bd c937 2ebe
000000f0: eab5 f03d 0a9f aebd e18d cb3d 162a c63b
00000100: 15b7 7c3f b199 7cbe c911 25be ac10 c4bd
00000110: 781e 68be b09e 7f3f bf6b e2bd dd0b b3bd
00000120: 8725 4bbd 4ddc a4bd d367 843f 1939 86be
00000130: b04a 43be c9fe 683f dd05 39be 7adc 32be
00000140: b325 aebd edc9 bebd c986 8e3f 2280 38bd
00000150: 16cf 1abe c13a 9e3f 4a16 5ebe e5cd 46be
00000160: c053 e03e af7b 90be 4ce2 103f 32c4 a9bc
00000170: 7ae0 193f 3eae 68be 93ff 943f 9c64 37be
00000180: 749f 7cbe e431 dfbd 6035 fd3f fff0 ddbe
00000190: e0a5 71be 8ad0 78be f696 843f 807c fbbc
000001a0: 4c00 2540 1bc6 97c0 7081 c43f b3f1 72be
000001b0: b54d 4b40 e9bb 963f 8b22 e23f a039 42bc
000001c0: 1f44 9fbe 0740 e73f 911e 3140 abad 22be
000001d0: 7c4a 7cbe 013b d6be 0922 a93f e0a5 70be
000001e0: c87b 9b3f de61 0d40 f977 0f40 0bdb 0cbf
000001f0: ebdd 02be 9843 b63f 5195 443f 4455 b0be
00000200: 286e c13f f20f ffbe 1103 f83f ee12 f7be
00000210: 735e 823f 0216 dbbe b29f bcbe e1fb adbe
00000220: 0507 0ebf 6728 eb3f 5df5 b1be 5daf 8fbe
00000230: 7b57 2dbe edf1 de3f 855b aabe 3604 903f
00000240: 4225 8dbe 261c b4be aa03 83be ec1a 963f
00000250: 4729 1740 ce59 7bbe 6057 873f 77d5 c9be
00000260: b704 34be 9457 ad3f 94b1 16be c143 7abe
00000270: 21de d63f cf2e 9abe 3af3 fdbf b038 0340
00000280: b98f a93f 0c8f 86bd c656 6ebe 94ac 4dbe
00000290: ab04 84be 06e5 3d40 10b0 33be aefd 0cbe
000002a0: d9fa 9fbe 6540 b2be f610 1a40 38e5 35be
000002b0: b1dd 94be 7e1f aa3f bd45 a1bd 2714 aebe
000002c0: 2077 5bbe 9476 943f 2a19 0140 2708 47be
000002d0: d3aa 96be 4d8d 543e 871f 3dbe d0dd adbd
000002e0: 1624 ea3f 912b 1bbe a493 c13f cb9a 8dbe
000002f0: ff1b 1240 aae6 b2be 51c2 0240 fcc7 b6bd
00000300: 4dd8 04be c1d3 0dbe 17e0 fe3f 1811 cdbe
00000310: a02a 8cbe 8ce8 8ebe 3acc 943f 4999 d5bd
00000320: 98be 2540 66ef 7ac0 70a0 c93f f662 97be
00000330: 6eb6 6640 ed09 a23f 959b ea3f b5e4 363d
00000340: 5cbb 35be dbd6 ec3f 1d4a 2f40 2367 2abe
00000350: 4893 a0be 82ab b7be e5a2 1440 a907 a8be
00000360: 4bb1 c93f b516 0b40 998d 0d40 6bc5 eabe
00000370: d669 66be b453 c23f 9162 c63e 0c42 86be
00000380: 6ef2 b03f 4ed3 f8be d151 fe3f cee8 dcbe
00000390: 3a3a 903f 1201 e9be 21cb 91be 6b3a d2be
000003a0: 7717 f1be 4bcc ff3f 32a2 cdbe af5c 70be
000003b0: ff3d cdbd 45a2 0640 d367 adbe ef07 a53f
000003c0: 3e82 58be 9e09 b5be d2b3 dfbd af92 a93f
000003d0: 1ae7 2c40 89a1 39be 3713 8b3f 624f 95be
000003e0: eab4 9abe 0e7e b73f 4036 a4be 6e3c 50be
000003f0: 7b3d bf3f 8faa 5bbe 4453 48c0 e74b 0140

bias f4 [24]
-0.7745531 -0.62398875 -0.29450542 0.22784734 0.14734839 0.9042011 0.2631372 0.18295443
0.20041668 0.17889003 0.10341945 0.44119215 -0.45566225 0.25623134 -0.6170494 0.5804153
0.053002287 0.2812478 0.2539882 0.2765114 0.79004407 0.1802644 0.23307307 0.578337
00000000: 1d49 46bf babd 1fbf 6ac9 96be d050 693e
00000010: 7fe2 163e b979 673f ebb9 863e 6858 3b3e
00000020: 083a 4d3e f32e 373e 94cd d33d f0e3 e13e
00000030: 904c e9be c130 833e f3f6 1dbf 1996 143f
00000040: ed18 593d b6ff 8f3e be0a 823e e792 8d3e
00000050: 5440 4a3f 3b97 383e b5aa 6e3e e50d 143f

weight f4 [1, 24]
2.8788016 2.7527075 2.5415227 -0.7807789 -0.85029787 1.7236742 -0.71113867 -0.7696317
-0.8222769 -0.79878247 -0.7692888 2.313616 1.9638902 2.5741653 3.0759287 2.059092
2.9114714 -0.7882872 -0.7991745 -0.8337679 1.8926489 -0.7120879 -0.7343507 1.8169267
00000000: 493e 3840 5c2c 3040 4fa8 2240 20e1 47bf
00000010: 1fad 59bf 5ba1 dc3f 2f0d 36bf 9506 45bf
00000020: bd80 52bf 027d 4cbf 1cf0 44bf 4912 1440
00000030: c160 fb3f 20bf 2440 04dc 4440 2ac8 0340
00000040: 8c55 3a40 31cd 49bf b396 4cbf d071 55bf
00000050: 5242 f23f 654b 36bf 68fe 3bbf 0e91 e83f
