data/q_value_net_2_simple_spread_2680000_pH-MARL.pth (torch, 114935 bytes, 7 tensors)

weight f4 [160, 80]
0.34228987 -0.013004853 -0.29638642 -0.017663736 0.091973335 0.2586142 0.23337235 0.215815
0.12245028 -0.28434202 0.15648487 0.22280997 0.04196991 -0.050204575 0.1969065 -0.09756886
0.09731142 0.024111556 0.350743 0.04702827 -0.20332848 0.10735649 0.12737519 0.23777106
0.10881726 0.04421607 -0.0063450094 -0.18683036 0.20422633 0.15760651 0.06126148 -0.033047333
0.18913864 0.09492908 0.053459577 0.03453526 0.3343176 0.045480352 0.22754857 0.65525234
0.010390919 0.07997669 0.18606545 -0.07587248 0.29288507 -0.088674806 0.21412031 -0.049633738
-0.19313002 0.09389776 -0.09625034 -0.08157415 -0.11346927 -0.14847314 0.39631304 -0.022141567
-0.21153373 -0.021636918 0.21807066 0.16310675 0.15408932 0.20208192 0.0025754212 -0.32363784
0.3764261 0.104188316 0.060170606 0.0953244 0.034106113 0.061767664 0.14425446 0.11194634
-0.063207135 0.049974367 -0.10654403 0.005789554 0.0736034 0.05787369 -0.01607879 -0.037584126
0.36682928 -0.02626508 1.974206 -0.42195237 0.051557794 -0.19804187 -0.33846754 0.040707625
-0.36570245 0.10054452 -0.81356204 -0.017572396 -0.23748514 0.07387812 -0.35549676 0.00683586
-0.49504519 0.28237098 -0.010011113 -0.06040773 0.36700362 -0.022797814 0.30786017 0.12215511
0.025314521 -0.12435201 -0.05317055 0.0103216795 -0.33996004 -0.15455444 0.38005137 -0.03393563
-0.12921284 0.02008458 -0.19779386 0.14929374 0.040484667 0.062804714 0.06738394 0.045878425
0.133962 -0.07964209 -0.028251622 0.1296273 0.02425014 -0.0017150032 -0.42306387 -0.2209434
0.29647815 -0.05924883 -0.0040253964 -0.023619706 -0.19929379 0.084787175 -0.49479252 0.10589233
-1.7503129 0.83331186 0.71326 -0.16578063 0.3734729 -0.061694052 0.25727502 -0.052775078
0.1698647 0.5785706 0.51203454 -0.26792848 0.328315 -0.13268442 0.20542203 -0.12226407
0.2855072 -0.09693441 0.058657065 0.015573086 -0.023838148 0.043187298 -0.19315557 0.15781352
-0.039544437 0.07776704 0.004335259 0.24787842 -0.16158618 0.08941664 0.1119005 -0.0024122738
-0.110262275 -0.015592545 -0.10315257 0.070610255 0.026893629 -0.020050121 -0.007920764 0.077385165
0.0037049782 0.01763537 -0.13815881 -0.2307765 0.59902585 0.85562456 -0.044725724 0.084457874
0.015390833 -0.015174882 0.023099419 0.08214963 -0.008449349 0.1020546 0.15212306 -0.10285279
0.202037 -0.006260581 0.1817732 0.012905078 -0.014193806 0.25793394 -0.25321782 -0.7119619
-0.026639322 0.050085314 0.12527269 -0.15607196 -0.0975061 -0.27979994 -0.019753005 -0.055167094
0.05112411 -0.16976851 -0.15829001 0.013460451 0.02247539 -0.1723285 0.07732169 -0.09111018
-0.14201267 0.11951501 -0.05713559 -0.07613323 0.20129125 0.057570986 -0.015768811 0.04290348
-0.1297673 -0.029398838 0.034190066 -0.03075706 -0.06712902 -0.05616728 0.07247976 0.17580757
0.022754868 0.15345718 0.18596251 0.17870586 -0.036856573 -0.19758789 -0.06932623 0.10149949
0.07077758 0.005924656 0.05569647 -0.5365214 -0.0034744847 0.03186416 0.09855945 0.22907232
0.06660316 0.19742541 0.15798137 0.098878585 -0.09814277 -0.06318056 0.014390547 -0.061447725
00000000: 9e40 af3e 4f12 55bc f6bf 97be 8ab3 90bc
00000010: 845c bc3d 1569 843e 29f9 6e3e 9bfe 5c3e
00000020: 36c7 fa3d 4795 91be 923d 203e 4c28 643e
00000030: a4e8 2b3d 50a3 4dbd dca1 493e 2fd2 c7bd
00000040: 364b c73d 9985 c53c 9694 b33e b7a0 403d
00000050: 5735 50be b8dd db3d a46e 023e 427a 733e
00000060: 95db de3d e91b 353d cce9 cfbb 7550 3fbe
00000070: b520 513e 9a63 213e 51ed 7a3d a45c 07bd
00000080: 8fad 413e 2d6a c23d 6ef8 5a3d d874 0d3d
00000090: ad2b ab3e 9b49 3a3d 7e02 693e 9ebe 273f
000000a0: ac3e 2a3c d2ca a33d f187 3e3e 0863 9bbd
000000b0: 08f5 953e 239b b5bd 5b42 5b3e bf4c 4bbd
000000c0: e0c3 45be 784d c03d e61e c5bd 5910 a7bd
000000d0: 9462 e8bd 5809 18be 8be9 ca3e 3b62 b5bc
000000e0: 4c9c 58be e83f b1bc ea4d 5f3e 7505 273e
000000f0: 97c9 1d3e 90ee 4e3e 66c8 283b dcb3 a5be
00000100: ecba c03e af60 d53d 7475 763d 7039 c33d
00000110: dab2 0b3d 1700 7d3d 71b7 133e 1f44 e53d
00000120: be72 81bd ecb1 4c3d c233 dabd 4db6 bd3b
00000130: 61bd 963d f60c 6d3d abb7 83bc d0f1 19bd
00000140: 0cd1 bb3e dd29 d7bc c8b2 fc3f 240a d8be
00000150: 442e 533d 7dcb 4abe 9e4b adbe 0abd 263d
00000160: 5a3d bbbe 49ea cd3d 9a45 50bf fcf3 8fbc
00000170: 4e2f 73be 694d 973d ac03 b6be 5aff df3b
00000180: 9076 fdbe ee92 903e a705 24bc 196e 77bd
00000190: e6e7 bb3e 7bc2 babc d99f 9d3e 752c fa3d
000001a0: 6660 cf3c 44ac febd 5dc9 59bd 431c 293c
000001b0: 3e0f aebe 8543 1ebe 1896 c23e 1600 0bbd
000001c0: 5f50 04be 6b88 a43c 798a 4abe 75e0 183e
000001d0: 40d3 253d c29f 803d 9700 8a3d 04eb 3b3d
000001e0: 562d 093e 641b a3bd f26f e7bc 05bd 043e
000001f0: 3ba8 c63c f5c9 e0ba d49b d8be fd3e 62be
00000200: fccb 973e e7ae 72bd 79e7 83bb 1d7e c1bc
00000210: ac13 4cbe e6a4 ad3d 7255 fdbe 14de d83d
00000220: 410a e0bf ed53 553f 3598 363f 66c2 29be
00000230: d737 bf3e e7b2 7cbd 8db9 833e ae2a 58bd
00000240: 03f1 2d3e 341d 143f b214 033f ec2d 89be
00000250: e718 a83e 6dde 07be 275a 523e 9665 fabd
00000260: 002e 923e 8c85 c6bd 6442 703d 4226 7f3c
00000270: 3848 c3bc 2ae5 303d 93ca 45be de99 213e
00000280: 59f9 21bd 5344 9f3d ca0e 8e3b d7d3 7d3e
00000290: d976 25be 1220 b73d 172c e53d 3d17 1ebb
000002a0: 30d1 e1bd e077 7fbc a841 d3bd 1c9c 903d
000002b0: 0750 dc3c 2740 a4bc 18c6 01bc 1d7c 9e3d
000002c0: 38cf 723b 0d78 903c 8179 0dbe ad50 6cbe
000002d0: c259 193f 360a 5b3f 5232 37bd 40f8 ac3d
000002e0: d529 7c3c 11a0 78bc fe3a bd3c 113e a83d
000002f0: 236f 0abc 0102 d13d 26c6 1b3e 7ca4 d2bd
00000300: cae2 4e3e 8f25 cdbb c122 3a3e d26f 533c
00000310: 238d 68bc eb0f 843e c4a5 81be 2343 36bf
00000320: b53a dabc 4226 4d3d 7c47 003e 54d1 1fbe
00000330: 47b1 c7bd f041 8fbe 0ed1 a1bc e4f6 61bd
00000340: 8467 513d ccd7 2dbe c716 22be 3989 5c3c
00000350: 4f1e b83c e276 30be d65a 9e3d f997 babd
00000360: c56b 11be 49c4 f43d 0207 6abd bdeb 9bbd
00000370: 4b1f 4e3e 8ecf 6b3d 982d 81bc 8fbb 2f3d
00000380: b8e1 04be d5d5 f0bc e20a 0c3d 3bf6 fbbc
00000390: f17a 89bd a90f 66bd 4570 943d e606 343e
000003a0: 6b68 ba3c e123 1d3e f56c 3e3e abfe 363e
000003b0: ebf6 16bd 7b54 4abe e9fa 8dbd f7de cf3d
000003c0: d6f3 903d 9e23 c23b fb21 643d 7759 09bf
000003d0: 2eb4 63bb fe83 023d 89d9 c93d ef91 6a3e
000003e0: 3d67 883d e329 4a3e dec5 213e db80 ca3d
000003f0: 14ff c8bd cf64 81bd 54c6 6b3c 9cb0 7bbd

bias f4 [160]
0.1301223 -0.15915765 0.3465822 0.6037786 0.20678426 -0.30010438 0.004209923 -0.2508392
0.36730665 0.13005376 -0.36378098 -0.37157744 -0.082950234 0.074388 -0.11627923 0.4788753
-0.03574963 0.31311873 0.011564697 0.88641286 0.023833767 -0.08595661 0.19463012 -0.16225672
-0.53341603 -0.9687773 0.38543516 0.6318057 0.49733105 -0.09010705 0.23528594 -0.08479174
0.3844811 0.24759893 0.006992075 0.18564184 -0.54625416 0.20823736 0.30615994 -0.08609779
-0.3056042 0.23082267 0.17897792 0.27003577 0.22871146 0.12041883 0.10090908 1.3552253
0.13142355 0.5511788 0.09934845 -0.20653188 0.52467316 -0.11488261 0.10986262 -0.57563287
-0.1455357 1.0179424 0.388971 0.7134968 0.34681356 0.3541961 -0.051673293 0.5099532
-0.47416317 0.9448783 -0.6739803 -0.10322318 1.2777226 -0.21629733 0.5658339 -0.36907834
0.76340467 0.40311837 0.0031478095 -0.247817 0.9767378 0.7528099 -0.955995 -0.54588765
0.2838136 0.66619694 -0.5005014 0.16803978 0.3858335 -0.11396542 0.10100067 0.4148089
0.55027205 1.2188065 0.44946218 0.24567296 -0.0150925405 -0.22816925 -0.23575751 0.19339329
0.04051571 -0.41109526 0.35058352 -0.05995999 1.2314507 1.0547477 0.29255158 0.22675997
0.45027724 -0.030688029 1.0445707 0.027044289 -0.14078736 0.13250902 0.056013454 0.9798067
-0.32486728 1.1119336 -0.37379727 0.14576532 0.21976525 -0.28007132 0.45945016 -0.29279357
-0.74536115 -0.04791379 0.012501709 0.61114854 0.70858306 -0.05496982 0.29920658 0.085236974
0.008259938 0.67267716 0.41696507 0.7704512 -0.25997916 -0.3956497 -0.77082294 0.87333477
-0.16389969 -0.08491039 0.7699783 0.1529431 0.18715057 0.2458538 0.78791285 0.6375268
-0.648139 0.5322279 1.0961733 -0.20058899 0.427416 0.12640093 0.7366608 -0.25838315
1.2315748 0.46064883 0.70874184 -0.20506024 -0.3107055 0.35147092 -0.051778447 -0.4343139
00000000: c83e 053e 39fa 22be 3973 b13e 3c91 1a3f
00000010: 41bf 533e 48a7 99be 65f3 893b ff6d 80be
00000020: 9e0f bc3e d02c 053e 8041 babe 663f bebe
00000030: d0e1 a9bd bc58 983d ce23 eebd 252f f53e
00000040: 346e 12bd 1951 a03e db79 3d3c f4eb 623f
00000050: 083f c33c 050a b0bd 1e4d 473e a026 26be
00000060: f48d 08bf ca01 78bf c257 c53e 05be 213f
00000070: 2da2 fe3e 0c8a b8bd ccee 703e 4ba7 adbd
00000080: b5da c43e 938a 7d3e c71d e53b e518 3e3e
00000090: 50d7 0bbf 2d3c 553e ffc0 9c3e 0a54 b0bd
000000a0: 2778 9cbe c75c 6c3e fd45 373e 2142 8a3e
000000b0: 5633 6a3e 269e f63d 6ba9 ce3d 0678 ad3f
000000c0: e593 063e 0e1a 0d3f 3377 cb3d 187d 53be
000000d0: fb50 063f 9347 ebbd a7ff e03d ad5c 13bf
000000e0: 4f07 15be f04b 823f 3527 c73e baa7 363f
000000f0: 8c91 b13e 3159 b53e 60a7 53bd 4b8c 023f
00000100: 84c5 f2be 8be3 713f f989 2cbf ad66 d3bd
00000110: 6a8c a33f 0c7d 5dbe 7eda 103f d6f7 bcbe
00000120: 7d6e 433f 8865 ce3e 7b4b 4e3b bdc3 7dbe
00000130: 7d0b 7a3f 26b8 403f 17bc 74bf 4bbf 0bbf
00000140: 0450 913e e28b 2a3f dc20 00bf 9f12 2c3e
00000150: f88b c53e b466 e9bd 70d9 ce3d d561 d43e
00000160: a1de 0c3f da01 9c3f e81f e63e b191 7b3e
00000170: b446 77bc 33a5 69be 6b6a 71be e408 463e
00000180: cdf3 253d 147b d2be af7f b33e 9b98 75bd
00000190: 2da0 9d3f f901 873f 52c9 953e c433 683e
000001a0: bd8a e63e 7665 fbbc 7eb4 853f fc8b dd3c
000001b0: 902a 10be 72b0 073e 5d6e 653d 9dd4 7a3f
000001c0: 0155 a6be d753 8e3f 5b62 bfbe 8143 153e
000001d0: 240a 613e 8265 8fbe 0d3d eb3e 0ae9 95be
000001e0: fdcf 3ebf 4041 44bd f8d3 4c3c 3b74 1c3f
000001f0: b365 353f 0928 61bd 9b31 993e b990 ae3d
00000200: b154 073c 9234 2c3f 727c d53e 4a3c 453f
00000210: fd1b 85be 9992 cabe a754 45bf de92 5f3f
00000220: 52d5 27be 80e5 adbd 4c1d 453f 1e9d 1c3e
00000230: 66a4 3f3e 19c1 7b3e a8b4 493f f534 233f
00000240: 70ec 25bf 1640 083f 684f 8c3f 3367 4dbe
00000250: 45d6 da3e 3f6f 013e cd95 3c3f cc4a 84be
00000260: 3ea4 9d3f 2ada eb3e 1b70 353f 50fb 51be
00000270: cb14 9fbe fff3 b33e a315 54bd 645e debe

weight f4 [80, 160]
-0.17157719 -0.11442535 0.22318977 -0.4054402 -0.030430138 -0.46601754 -0.054150872 -0.19260052
0.0480728 -0.22960754 -0.34281603 -0.8718311 -0.23355305 0.20465066 0.16998413 -0.13797088
0.067447305 -0.17364298 0.23759188 -0.11894673 0.0597952 0.0047960957 -0.29512775 0.20072338
0.049854074 -0.47648004 0.23149621 0.51899725 0.2652545 -0.005360258 0.20236419 -0.27712077
0.12333693 -0.08754299 -0.20788746 -0.050916765 -0.501898 0.18986641 -0.18905303 0.007356509
-0.1320945 -0.067802034 0.09919785 -0.14524919 -0.041678917 -0.14399506 0.04065537 -0.022745289
-0.19837266 -0.39820433 0.13744445 -0.59184164 -0.0063852603 0.20041808 -0.30042616 -0.7949538
-0.22792333 0.029944368 0.0056117154 -0.18851085 0.2870777 0.032961376 -0.1030927 0.08541934
-0.3178509 0.04976257 -0.6913465 0.14000744 -0.37860256 -0.6238076 0.075753964 0.20541623
0.07867975 -0.025155826 0.15174624 -0.39901417 -0.21596758 0.25669178 -0.8700778 -0.5686714
0.20437253 -0.13099653 -0.5353715 -0.09429541 0.15234019 -0.34605196 0.0045011477 0.005637526
0.10701788 0.0323092 0.042382993 -0.09059925 -0.41637266 -1.0207971 -0.2490791 0.03262878
-0.48260307 -0.26491174 0.046097938 -0.6135903 -0.01775365 0.015537621 -0.4689445 0.04999721
-0.023043783 0.2692187 0.03967589 -0.10756286 -0.04508289 0.102614 0.10873688 -0.1737276
-0.040488895 0.1600797 -0.19214709 0.30215666 -0.19649652 -0.783753 -0.0076871496 0.08025341
-0.9603462 0.104333445 -0.4879102 -0.05457229 -0.040661197 -0.10756633 0.35336527 -0.6734037
-0.11031416 0.15305506 -0.22224969 -0.083660156 -0.02613839 -0.35968587 -0.22408141 -0.14378202
-0.28800374 -0.0064841616 -0.86547446 -0.011485452 -0.06510998 0.065905035 -0.056291465 0.12408748
-0.52039427 0.04611318 -0.3938958 -0.21216343 -0.011212346 -0.2421042 -0.14615415 0.2553997
-0.14877097 0.03932324 -0.11503383 0.24542159 -0.34015068 -0.06697103 0.20182227 -0.17985103
0.058465075 0.21962228 0.30699873 0.033055354 0.18043007 0.080979355 -0.102664575 -0.0972958
-0.23362537 0.044113122 0.17357725 0.080220796 0.18785124 0.26037648 -0.17042221 0.04140518
-0.09797629 -0.020031909 0.060780205 0.05607696 -0.02803624 0.12660147 0.056402106 0.13871346
-0.14720094 -0.21839637 0.18972552 0.4623053 -0.12982316 -0.048633225 0.015239428 0.1671111
-0.08032462 -0.006968643 0.013908154 0.22648199 -0.17823216 -0.17976427 0.08194628 -0.16922955
0.58323866 0.20342797 0.044115208 0.14418964 0.07769875 0.21194234 -0.024209183 0.22803044
-0.039537594 0.45043895 -0.05904822 -0.02075747 -0.09247444 -0.11137701 0.20663017 0.10438044
-0.14588769 0.04424169 -0.13251105 0.42189208 0.06862732 0.3080585 -0.15116766 -0.05416613
-0.072118595 0.24303263 0.22632758 -0.03310861 0.19918352 -0.24037328 0.21835153 0.16349342
-0.228616 0.0981364 0.025586339 -0.13659896 -0.16097279 -0.019170355 -0.040140282 -0.10270084
-0.36296085 0.054453958 0.0051450934 -0.16969407 -0.16145487 0.015613038 -0.050870337 -0.06569414
-0.017982062 0.26472232 0.038200326 -0.097591124 0.100148916 0.2307269 -0.23150925 0.05520425
00000000: eeb1 2fbe d757 eabd dc8b 643e dc95 cfbe
00000010: a048 f9bc da99 eebe 4ecd 5dbd 1239 45be
00000020: fce7 443d 3d1e 6bbe 9585 afbe 5330 5fbf
00000030: 8828 6fbe f18f 513e 5210 2e3e 3d48 0dbe
00000040: d021 8a3d 77cf 31be 494b 733e 589a f3bd
00000050: d0eb 743d 9128 9d3b fc1a 97be 6e8a 4d3e
00000060: c933 4c3d 31f5 f3be 580d 6d3e 01dd 043f
00000070: 70cf 873e 1aa5 afbb 8f38 4f3e c6e2 8dbe
00000080: 1398 fc3d bd49 b3bd 73e0 54be 198e 50bd
00000090: 637c 00bf 576c 423e 1e97 41be df0e f13b
000000a0: c843 07be cbdb 8abd 3e28 cb3d 34bc 14be
000000b0: 83b7 2abd 7173 13be 3f86 263d 5454 babc
000000c0: 3422 4bbe 70e1 cbbe 3dbe 0c3e ef82 17bf
000000d0: 723b d1bb 663a 4d3e 75d1 99be 1882 4bbf
000000e0: bc64 69be e44d f53c 7be2 b73b fd08 41be
000000f0: d9fb 923e 8202 073d 4422 d3bd 56f0 ae3d
00000100: 5abd a2be d6d3 4b3d 16fc 30bf 1c5e 0f3e
00000110: 32d8 c1be dbb1 1fbf e524 9b3d a258 523e
00000120: d922 a13d 9713 cebc 5e63 1b3e 964b ccbe
00000130: 9b26 5dbe 1b6d 833e 6bbd 5ebf 7394 11bf
00000140: 0847 513e f423 06be 1b0e 09bf f41d c1bd
00000150: 11ff 1b3e b92d b1be 5d7e 933b ffba b83b
00000160: 312c db3d a756 043d ca99 2d3d 198c b9bd
00000170: cc2e d5be 7ba9 82bf 970e 7fbe c1a5 053d
00000180: c017 f7be 83a2 87be 31d1 3c3d 4114 1dbf
00000190: 1a70 91bc 8291 7e3c 7e19 f0be e0c9 4c3d
000001a0: 51c6 bcbc 09d7 893e 3083 223d eb49 dcbd
000001b0: d6a8 38bd 4a27 d23d 71b1 de3d a6e5 31be
000001c0: afd7 25bd efeb 233e 35c2 44be 47b4 9a3e
000001d0: 6236 49be 09a4 48bf 7ce4 fbbb e65b a43d
000001e0: 40d9 75bf c6ac d53d 5ecf f9be 3287 5fbd
000001f0: 5b8c 26bd bc4b dcbd 4bec b43e 2f64 2cbf
00000200: 64ec e1bd 77ba 1c3e 6c95 63be 0456 abbd
00000210: 2d20 d6bc bf28 b8be 9975 65be 983b 13be
00000220: 3a75 93be 1779 d4bb bc8f 5dbf 7a2d 3cbc
00000230: 6258 85bd 38f9 863d e191 66bd 9421 fe3d
00000240: 8f38 05bf 2de1 3c3d b6ac c9be 5f41 59be
00000250: fdb3 37bc 2aea 77be 6fa9 15be c0c3 823e
00000260: 6b57 18be 6811 213d db96 ebbd cc4f 7b3e
00000270: 3b28 aebe 1b28 89bd 7faa 4e3e de2a 38be
00000280: 1379 6f3d aae4 603e f02e 9d3e 0d65 073d
00000290: a9c2 383e 81d8 a53d ce41 d2bd 0543 c7bd
000002a0: 7d3b 6fbe f6af 343d 3cbe 313e cd4a a43d
000002b0: 135c 403e 1150 853e 2983 2ebe 7a98 293d
000002c0: cba7 c8bd f519 a4bc aaf4 783d f4b0 653d
000002d0: 42ac e5bc d1a3 013e e505 673d e70a 0e3e
000002e0: d8bb 16be 4ca3 5fbe 6847 423e 48b3 ec3e
000002f0: 5df0 04be a233 47bd cbae 793c 2c1f 2b3e
00000300: 3c81 a4bd 3759 e4bb 07df 633c e5ea 673e
00000310: 7e82 36be 2014 38be 74d3 a73d 834a 2dbe
00000320: 214f 153f 6c4f 503e 26b2 343d 73a6 133e
00000330: 8620 9f3d 6a07 593e 5652 c6bc d080 693e
00000340: 2cf2 21bd ef9f e63e 8cdc 71bd 920b aabc
00000350: 3d63 bdbd a119 e4bd dc96 533e 6ac5 d53d
00000360: 9563 15be c636 353d fab0 07be 3d02 d83e
00000370: 7b8c 8c3d d8b9 9d3e b2cb 1abe 4edd 5dbd
00000380: eab2 93bd 8cdd 783e 6bc2 673e e59c 07bd
00000390: c4f6 4b3e 6a24 76be 8b97 5f3e d26a 273e
000003a0: 501a 6abe bdfb c83d 719a d13c 99e0 0bbe
000003b0: 0dd6 24be 260b 9dbc 236a 24bd d154 d2bd
000003c0: 01d6 b9be 1d0b 5f3d 2c98 a83b 48c4 2dbe
000003d0: 6d54 25be d4cd 7f3c 6a5d 50bd a68a 86bd
000003e0: 1e4f 93bc af89 873e f277 1c3d dbdd c7bd
000003f0: e01a cd3d ac43 6c3e c310 6dbe da1d 623d

bias f4 [80]
0.2861934 0.14837128 0.056832317 0.21423194 0.40428033 0.49599582 0.44180915 0.39254865
0.24595864 -0.009966748 0.74883413 -0.18444097 0.39373323 0.32500055 0.051049594 0.21535535
0.19330442 0.18495235 0.26516673 0.030064251 0.5573455 0.23846337 0.4465252 0.339834
0.12336701 0.2889607 0.20439386 0.12082052 0.11646176 0.5325916 0.14756428 0.28994903
1.0543305 0.81279725 0.022167148 0.1462879 0.41641885 0.17666338 0.40383697 0.8258945
0.24789715 0.040236585 0.8857988 -0.050736215 -0.09589101 0.7350055 0.7125056 0.072802514
0.37132657 0.2803018 0.13931046 0.22992931 0.69670916 0.17303933 0.24266313 0.07398084
0.1795885 0.25450328 0.3690061 0.20036784 0.13201694 0.104071386 0.83048034 0.028923148
-0.09585457 0.18954429 0.16318421 0.34475553 0.14277828 0.23374888 0.13483417 0.44394916
0.4182823 0.87226266 0.17108902 0.35601747 0.366598 0.6786415 -0.06344203 0.19890171
00000000: f187 923e a4ee 173e 01c9 683d 9e5f 5b3e
00000010: d5fd ce3e 2af3 fd3e cf34 e23e 23fc c83e
00000020: 95dc 7b3e 924b 23bc 98b3 3f3f 18de 3cbe
00000030: 6797 c93e 7966 a63e 6119 513d 1d86 5c3e
00000040: 98f1 453e 2664 3d3e efc3 873e 4e49 f63c
00000050: 32ae 0e3f be2f 743e f39e e43e b9fe ad3e
00000060: d8a7 fc3d a8f2 933e a04c 513e c070 f73d
00000070: 8183 ee3d ec57 083f 171b 173e 3374 943e
00000080: 4df4 863f 7b13 503f e197 b53c 7fcc 153e
00000090: da34 d53e 3fe7 343e b8c3 ce3e d26d 533f
000000a0: c0d8 7d3e 1ecf 243d b6c3 623f c7d0 4fbd
000000b0: 8162 c4bd 5229 3c3f c466 363f 7c19 953d
000000c0: 841e be3e b883 8f3e 67a7 0e3e 9772 6b3e
000000d0: 885b 323f 3931 313e af7c 783e 4483 973d
000000e0: 0ce6 373e 414e 823e 5eee bc3e 3a2d 4d3e
000000f0: 732f 073e 6123 d53d 5c9a 543f 3df0 ec3c
00000100: 674f c4bd e617 423e c319 273e cc83 b03e
00000110: 7834 123e de5b 6f3e f811 0a3e 4e4d e33e
00000120: 1929 d63e 9b4c 5f3f f631 2f3e ec47 b63e
00000130: bcb2 bb3e 73bb 2d3f e5ed 81bd e4ac 4b3e

weight f4 [20, 80]
0.2275775 0.0442291 0.09160778 0.3402941 0.25269175 -0.09551094 -0.5676253 -0.022123456
-0.21601863 -0.8692774 -0.7536946 -1.2187637 -0.28039977 0.8228872 -1.1214571 0.3677762
0.066082865 -0.1978587 0.33536395 -0.04300291 0.630076 0.10796331 0.18657136 0.016119283
-1.2533338 0.111681245 -0.03462289 0.0633698 -0.3791989 0.0043027825 -1.2850121 0.2993619
-0.5077047 -0.031591967 -1.8007678 0.1992736 -0.9906607 -0.06644196 0.14504029 -0.6652887
-0.030377248 -0.48390552 0.8000521 -0.26268202 0.56960976 0.6357714 0.69931597 0.054125994
0.010880043 -0.14502935 -0.4192732 -0.08554546 0.68924546 0.2739006 0.34740037 0.021908756
0.5960862 -0.044024643 0.26626992 0.2041077 0.2152395 -0.24416135 -0.7657937 -0.6266909
-2.0393136 -3.1679034 0.36575246 -0.09883377 0.44455585 0.004808423 0.31567228 0.21267493
0.045055155 -0.5604369 -0.17172922 -1.8354847 -0.19041009 -1.0727631 -0.16250002 0.7387905
-0.15048261 -0.80066586 -0.510654 -0.33415386 0.08544857 0.030860327 -1.9123753 -0.47772795
-2.3137343 -0.888699 -1.9306687 -1.4976046 -1.2233425 -0.3155826 -0.9998764 -1.0432984
-2.2068956 -1.0959762 -0.49346045 -1.2394079 -2.1254451 -0.24988087 0.07731356 -2.3016536
-0.96157825 -0.6154377 -1.008432 -0.97440445 -0.4743696 -0.34882316 -1.0423706 -0.7631614
0.28312516 -0.022755593 -0.7656558 -0.4395304 -2.113007 -0.68142766 0.14195715 -1.0322975
0.033388898 0.23937744 -1.3210288 -2.057102 -1.6462309 -1.8330905 -1.9579303 -0.28230438
-0.79183143 -0.093574256 -1.039878 -0.22004211 -2.027535 -0.50945234 -0.9452852 -1.0852143
-0.21461663 -0.62413955 -0.62434083 -0.7628994 -1.0227137 -0.64365673 -1.3910584 -0.93839604
-0.71671396 -0.7944862 -2.0540826 -0.053586245 -1.5478301 -0.9892859 -0.6944294 -0.31879345
-1.8355163 -0.469303 -0.3868032 -1.112266 -0.26433572 -2.3208408 -0.9220179 -1.3018405
0.2767582 0.026772924 -0.010021091 0.28716525 0.20221509 -0.095739886 -0.4784712 -0.040139966
-0.20596573 -0.6922128 -0.6524362 -1.0956858 -0.23039605 0.75118583 -0.98343414 0.31575942
0.0703943 -0.22563486 0.23163393 -0.04651345 0.55584735 0.051039003 0.24007007 0.032278128
-1.118713 0.09081379 -0.057646744 0.04796295 -0.4694654 0.0045820842 -1.1153466 0.26353812
-0.43328 -0.038283322 -1.4818289 0.17979541 -0.8479564 -0.02335027 0.09490726 -0.58298314
0.014391385 -0.44573843 0.7182156 -0.15983671 0.435405 0.5974837 0.58933854 -0.039022148
0.0010485306 -0.20938155 -0.37988725 -0.2011835 0.5571339 0.27658737 0.30054796 0.019817568
0.5472504 0.017542116 0.21830262 0.17200856 0.14672112 -0.3509057 -0.6580181 -0.46303216
-1.6951334 -2.821496 0.3086128 -0.006536338 0.37861001 0.15619096 0.27306014 0.26990077
0.03027881 -0.4921926 -0.13712776 -1.5896341 -0.18304019 -0.93089896 -0.23533979 0.77149713
-0.15660276 -0.81441665 -0.6625361 -0.6354525 -0.24669538 -0.3582407 -2.1506388 -0.6674389
-2.562671 -0.94558126 -2.465325 -1.1792659 -1.11869 -0.5715497 -1.2883722 -0.91467
00000000: 130a 693e 9329 353d dc9c bb3d 073b ae3e
00000010: d060 813e 3d9b c3bd e44f 11bf 403c b5bc
00000020: fd33 5dbe f788 5ebf 21f2 40bf 7300 9cbf
00000030: 8f90 8fbe bca8 523f e88b 8fbf 294d bc3e
00000040: 7456 873d 799b 4abe d3b4 ab3e d223 30bd
00000050: a94c 213f de1b dd3d 900c 3f3e 960c 843c
00000060: 3e6d a0bf 23b9 e43d bbd0 0dbd 07c8 813d
00000070: 5c26 c2be 5bfe 8c3b 477b a4bf f745 993e
00000080: eff8 01bf 9466 01bd 8f7f e6bf 610e 4c3e
00000090: f19b 7dbf b912 88bd 7185 143e 5c50 2abf
000000a0: b5d9 f8bc 77c2 f7be 37d0 4c3f 427e 86be
000000b0: f2d1 113f eac1 223f 5f06 333f 38b3 5d3d
000000c0: 3542 323c 9382 14be faaa d6be 7532 afbd
000000d0: 6472 303f b33c 8c3e 76de b13e fe79 b33c
000000e0: 1b99 183f 2f53 34bd 8854 883e 9c01 513e
000000f0: be67 5c3e 6f05 7abe 0e0b 44bf d16e 20bf
00000100: 1d84 02c0 eebe 4ac0 e843 bb3e 5c69 cabd
00000110: d39c e33e fa8f 9d3b cc9f a13e 75c7 593e
00000120: c18b 383d cb78 0fbf c9d9 2fbe 2af1 eabf
00000130: ddfa 42be 4d50 89bf 6866 26be 6021 3d3f
00000140: 1d18 1abe 70f8 4cbf 38ba 02bf 3716 abbe
00000150: a9ff ae3d ccce fc3c b7c8 f4bf c298 f4be
00000160: 3914 14c0 c781 63bf 2720 f7bf 82b1 bfbf
00000170: 7d96 9cbf 0b94 a1be e6f7 7fbf cd8a 85bf
00000180: c73d 0dc0 f348 8cbf d9a6 fcbe eba4 9ebf
00000190: 4b07 08c0 c5e0 7fbe 9256 9e3d 4b4e 13c0
000001a0: fe29 76bf 538d 1dbf 4d14 81bf 9272 79bf
000001b0: 92e0 f2be f398 b2be 666c 85bf 8c5e 43bf
000001c0: c8f5 903e f069 babc 0502 44bf 210a e1be
000001d0: 823b 07c0 0b72 2ebf 375d 113e 5322 84bf
000001e0: ccc2 083d 5c1f 753e 7917 a9bf 8fa7 03c0
000001f0: b2b7 d2bf b6a2 eabf 769d fabf 338a 90be
00000200: 77b5 4abf dca3 bfbd b91a 85bf b852 61be
00000210: 22c3 01c0 786b 02bf 36fe 71bf 4de8 8abf
00000220: 76c4 5bbe 9cc7 1fbf cdd4 1fbf 604d 43bf
00000230: 48e8 82bf b0c6 24bf 340e b2bf b93a 70bf
00000240: 917a 37bf 7363 4bbf 1776 03c0 407d 5bbd
00000250: 4c1f c6bf d741 7dbf 20c6 31bf e538 a3be
00000260: 33f2 eabf 7c48 f0be 120b c6be bb5e 8ebf
00000270: 0357 87be a888 14c0 5d09 6cbf b6a2 a6bf
00000280: 40b3 8d3e e452 db3c 812f 24bc 5307 933e
00000290: 7911 4f3e 4613 c4bd 2dfa f4be ce69 24bd
000002a0: aee8 52be dc34 31bf 0f06 27bf 6f3f 8cbf
000002b0: f1ec 6bbe b74d 403f 57c2 7bbf 38ab a13e
000002c0: e32a 903d d30c 67be 7231 6d3e e384 3ebd
000002d0: 034c 0e3f 460e 513d eed4 753e 1236 043d
000002e0: fd31 8fbf 95fc b93d fe1e 6cbd cc74 443d
000002f0: c55d f0be 4f25 963b adc3 8ebf 78ee 863e
00000300: e0d6 ddbe f9ce 1cbd 92ac bdbf 4a1c 383e
00000310: ac13 59bf 1149 bfbc bd5e c23d 623e 15bf
00000320: d8c9 6b3c d437 e4be fadc 373f 3cac 23be
00000330: 67ed de3e b1f4 183f e4de 163f b0d5 1fbd
00000340: d96e 893a 1e68 56be 9580 c2be 0c03 4ebe
00000350: 54a0 0e3f dc9c 8d3e 6ce1 993e 7458 a23c
00000360: 9a18 0c3f 7cb4 8f3c b98a 5f3e 0323 303e
00000370: 103e 163e e9a9 b3be e073 28bf 8d12 edbe
00000380: 22fa d8bf 6493 34c0 7f02 9e3e c72e d6bb
00000390: 2cd9 c13e 86f0 1f3e 8ace 8b3e 6f30 8a3e
000003a0: 440b f83c ab00 fcbe 386b 0cbe 2179 cbbf
000003b0: e36e 3bbe 654f 6ebf eafc 70be d680 453f
000003c0: 795c 20be 9c7d 50bf f79b 29bf 04ad 22bf
000003d0: b79d 7cbe 536b b7be 11a4 09c0 47dd 2abf
000003e0: cd02 24c0 9d11 72bf e3c7 1dc0 2ff2 96bf
000003f0: 3c31 8fbf 1551 12bf 61e9 a4bf d027 6abf

bias f4 [20]
1.2261755 1.6837349 0.9455646 1.5653498 -0.5064007 0.8694985 0.9133839 0.93136615
0.89794016 2.1953332 1.0081924 3.5186653 0.9247348 0.95771956 0.97500247 1.0358968
1.9338214 -0.611128 1.9991902 1.1299655
00000000: 52f3 9c3f a084 d73f 8610 723f 625d c83f
00000010: 7aa3 01bf 7497 5e3f 87d3 693f 036e 6e3f
00000020: 68df 653f 5780 0c40 730c 813f d031 6140
00000030: 6bbb 6c3f 1c2d 753f c399 793f 4498 843f
00000040: 7687 f73f e272 1cbf 77e5 ff3f b6a2 903f

weight f4 [1, 20]
71.54655 -4.00349 68.67669 -4.2884445 -1.2113711 69.337265 69.81113 70.71773
61.996296 -2.404563 69.840355 -3.2698781 69.448235 69.16578 68.49056 70.458206
-4.476097 -1.163533 -4.929888 69.91383
00000000: d517 8f42 971c 80c0 775a 8942 f03a 89c0
00000010: 350e 9bbf aeac 8a42 4c9f 8b42 7a6f 8d42
00000020: 35fc 7742 5ce4 19c0 43ae 8b42 af45 51c0
00000030: 7fe5 8a42 e154 8a42 2bfb 8842 9aea 8c42
00000040: 303c 8fc0 a6ee 94bf a4c1 9dc0 e2d3 8b42
