data/q_value_target_net_1_simple_spread_3550000_pH-MARL.pth (torch, 115005 bytes, 7 tensors)

weight f4 [160, 80]
00000000: 656a 533d 6cd3 f9bc 031b fdbd db46 e23d
00000010: 7b54 ec3d cc93 803e 15d5 dbbd ddb6 fabd
00000020: a955 27be aa14 f7be 7c0c 203e 4eef d63e
00000030: 81f0 dd3d d554 81bd d9d7 813d 556a cfbc
00000040: b58b 55bd cf1c 44bd d7c5 55bc addf 0cbd
00000050: 8f56 383d b760 ad3e 12fd c2bd 3e2c b6bb
00000060: 3bca 833d 8ae8 9fbd 672e 95be 8d05 0fbf
00000070: 2d76 da3d ad39 be3e 3536 31bd e839 07be
00000080: 4abc 0bbd 4c2d 6abc 1a28 343b 1016 4bbd
00000090: 05c7 563b 52ef 04bd 580b 90be ddc2 50be
000000a0: d93c cb3d 0bec a23c 2f79 38be b4d9 02be
000000b0: 5ba4 923e 80fe 76bd 9972 373e ef78 9a3e
000000c0: 9e5d 3e3b 81d5 86bc 9fe5 d2bd 6c92 7ebc
000000d0: 928b e53c b21c fb3d fc01 51be 00e7 a4bd
000000e0: 2b7f 943b 69a1 8a3e 15b4 423b 7782 70bd
000000f0: e1c8 62bd 8a04 41bd 43da 43be e022 d5be
00000100: cdde 61be 8833 b93d 8e47 d43d 6e5b 163d
00000110: 04e2 63bd 0efd afbc 2a08 153e 3d94 433d
00000120: 8a3d aabc 560b e5bc e7a8 263d dcac 3f3d
00000130: 3c2b 3ebd 4fa2 053d bfaf e5bc c194 1cbd
00000140: a4d1 6e3e a794 8f3d 1bed a23e 63e3 083e
00000150: d16a 7dbd d9c8 8e3c 6973 243e ce5c c6bd
00000160: 9e58 d9bc 0c61 1b3e 12cb a5bb d3c0 d33c
00000170: b9d2 adbb 2c5d 893d 2cdf 463d ca53 15bd
00000180: 6f6a 0dbe 36cc 223d 3afe 203e 951e 473e
00000190: abfb edbe 68de 613e c850 843d 5d7e e0bd
000001a0: 6ea4 8f3d dfe7 36be f8a5 1e3e 9acd 9d3d
000001b0: 799c 323e 4efb ee3b 278f 073d b16d c33c
000001c0: 73cf 8a3d 90cc 7ebd 3110 063e f7c7 573d
000001d0: 516c 323e 8ff2 053e 258b 163f 6902 443f
000001e0: dbc8 363c 310b 83bc 6eea de3d 445f 21bd
000001f0: f594 193e eb68 493d 77bf e93c bace 8ebd
00000200: 424f d33d b082 3d3d 4923 083c 84b2 303e
00000210: 89b8 b8bd 14c1 b73d 5fb0 7a3d 72c3 843e
00000220: 0e7c 4dbe 978a efbe ce08 22bd dadd a03c
00000230: 94da 3a3e faf3 aa3d f587 39bd 4c1f 3b3e
00000240: fc2b 5ebd 3ca1 28bd 9cf6 cd3b 1deb 15bd
00000250: 4f19 37bc 39da bebd 84c8 e83d 75d0 07be
00000260: aa48 c0bc 1280 733d d907 6dbd b9c7 84bd
00000270: 203d 9e3d 2a7b 3ebc f922 043e ab3e d73d
00000280: 9cbc cbbc 9336 a23c 052d f3bd 0cc7 bb3d
00000290: b0ca 6ebe f0cf 553e 406c 89bc 0330 8cbd
000002a0: 15b0 833c 42c6 3f3d 51c7 813e d4ee 33be
000002b0: 5c5a 40be cab8 58b8 c8d5 ae3d dcb1 b5bd
000002c0: 4d8d 063d 351c 4f3d 9a2a 9e3d 2572 e93a
000002d0: 042f f5bd 08b6 623d 8aa8 8fbe 82cc 6f3e
000002e0: be3e e03d c1cc 5cbe 66d7 ccbc 38ad b03d
000002f0: 0317 623e e94e 71be ba33 d2bc d1c0 13bd
00000300: bfd9 b23d 1dc2 aabc f54a 04be a0eb b73c
00000310: 4a7c 7b3d c4d0 c6bc d5a3 7cbd 586f d3bb
00000320: e039 86be d314 893d 6fd8 78b9 b140 b6bd
00000330: 37f3 833b f700 9ebc 2c11 a83e fd40 91be
00000340: f0e2 413d 6c90 e23d d793 e4bd 418d 4a3d
00000350: da3d 053d b251 033d 58be f3ba 4dae e7bc
00000360: f925 23bd 3f38 ba3c adc8 a7be 863b 163e
00000370: 7a4a 1c3e e5cc 353e 2bb4 cebc 6b51 4ebc
00000380: 1856 a43e 18ea 6ebe e3f6 2e3b f653 82bd
00000390: 839d ec3b e999 69bd 84b6 3abd 3938 f43c
000003a0: 9d57 c13d 4214 2abd d7c8 b9bd 8458 d93c
000003b0: f788 f1bd 2f27 db3c 604e d2bd a29b 833d
000003c0: b151 cebe 314e 1b3e cf9b b33e b263 9ebe
000003d0: 309b 6e3e 61d3 633a c732 d6bd d204 a1bd
000003e0: f2d5 0b3d ae70 1b3e 6e2d e7bd 5ad7 b53d
000003f0: ac40 03be d911 483d 7c97 7cbd 37bb a1bd
0.051615138 -0.030496322 -0.12358668 0.11048671 0.11539551 0.2511276 -0.107340015 -0.1224191
-0.1634127 -0.48257953 0.15629762 0.4197945 0.10836888 -0.063150086 0.06339998 -0.025319258
-0.052135188 -0.047879037 -0.013047657 -0.034393 0.045004424 0.3386285 -0.095209256 -0.0055594733
0.06435057 -0.07808025 -0.29136965 -0.55867845 0.106670715 0.37153378 -0.043264586 -0.13205683
-0.034115113 -0.014293026 0.0027489723 -0.049581587 0.0032772433 -0.032454796 -0.28133655 -0.20386834
0.09923715 0.019887945 -0.18014978 -0.1277836 0.28641018 -0.060301304 0.1791481 0.3017039
0.00290475 -0.016459228 -0.10297703 -0.015537839 0.028020654 0.122613326 -0.20410913 -0.08051872
0.004531761 0.2707627 0.0029709388 -0.05871817 -0.055367354 -0.04712347 -0.19126229 -0.4162817
-0.22057648 0.09043032 0.103652105 0.036708288 -0.055635467 -0.02148297 0.14553896 0.047748793
-0.020781297 -0.027959507 0.04068842 0.04679571 -0.04642795 0.032625493 -0.028037904 -0.0382278
0.23322159 0.07010775 0.31821522 0.13367991 -0.061869446 0.017429756 0.1605965 -0.0968567
-0.026531514 0.15173739 -0.0050596083 0.025848782 -0.005304661 0.06707224 0.048552677 -0.03645686
-0.13810132 0.039745532 0.1572198 0.1944526 -0.4648107 0.22057498 0.0646072 -0.10961602
0.07013784 -0.1786189 0.15493 0.07705231 0.17442502 0.0072931414 0.033095505 0.023856016
0.06777849 -0.062206805 0.13092114 0.052680936 0.17424132 0.1308081 0.5880607 0.7656618
0.011156286 -0.015996547 0.10884558 -0.039397493 0.14998229 0.049172323 0.02853368 -0.06973024
0.103178516 0.04626721 0.008309194 0.17255598 -0.09019572 0.089723736 0.061203357 0.25930363
-0.20066854 -0.46785423 -0.039559178 0.019637037 0.18247443 0.08347316 -0.045295674 0.18273658
-0.054241166 -0.04116939 0.0062855016 -0.036601175 -0.011175468 -0.093189664 0.1136637 -0.13263114
-0.023472149 0.05944831 -0.057868812 -0.064834066 0.077265024 -0.011626044 0.12903966 0.1051
-0.02487021 0.019801414 -0.11873821 0.091688246 -0.23319507 0.20880103 -0.01677525 -0.06845095
0.016075173 0.046819933 0.2534738 -0.17571574 -0.1878447 -5.167051e-05 0.08536869 -0.088718146
0.0328496 0.05056401 0.07722969 0.0017810507 -0.11971858 0.05534938 -0.28058273 0.23417857
0.10949467 -0.21562482 -0.025005054 0.08626789 0.22079091 -0.23565258 -0.02565943 -0.036072556
0.08732938 -0.020844514 -0.12919219 0.022451222 0.06139783 -0.02426947 -0.06167968 -0.006452482
-0.2621603 0.06693425 -0.00023731751 -0.08899058 0.004026796 -0.01928757 0.328256 -0.28369895
0.047335565 0.110627025 -0.11161011 0.049451116 0.03252969 0.032060333 -0.0018596156 -0.028281355
-0.039831135 0.022731898 -0.3277029 0.14671144 0.15262786 0.17753942 -0.025232395 -0.012592654
0.32096934 -0.23331487 0.002669745 -0.063636705 0.0072209253 -0.057031546 -0.045584217 0.029811965
0.09440539 -0.041523226 -0.0907151 0.026531465 -0.11793702 0.026752083 -0.10268855 0.06426169
-0.402967 0.15166546 0.3507981 -0.30935436 0.23301387 0.00086908607 -0.10458904 -0.078622475
0.03413958 0.15179703 -0.11287962 0.08878966 -0.12817639 0.048845146 -0.061667904 -0.078970365

bias f4 [160]
00000000: 8fc1 c5bd b661 ad3e fa53 b6b7 2a22 08bd
00000010: 2dbb 17be a823 2cbe f373 c4be 0a88 82bf
00000020: 7760 0cbe 8524 c0bd e633 903e ffb9 9f3e
00000030: a353 573f c2d7 63be 1100 363f 088a c9bd
00000040: 008d b3bd 2e22 863e 1087 363f 9955 51be
00000050: f130 68be 9bc1 65be b00a 9fbe 3767 1e3f
00000060: 4ce5 813e 2bd7 82be 08ca 3cbf dcdb 12be
00000070: 5c8f 053f 2b60 05be 276a 923e e8b4 0ebe
00000080: 4b24 7f3f da8d 95be d6ba ac3e 581a 18bf
00000090: 32e0 d7be f175 58be 13a2 693e 0ca1 363f
000000a0: 1406 c4be d967 7dbd 7504 e93e 22b9 ec3e
000000b0: 0b44 463f a887 0dbe f2a5 23bd 7456 913e
000000c0: d5c0 7cbe ea57 d6be 339c ca3d f2a2 68bd
000000d0: eabf 0dbd 9508 763d 918f 35bd c02d 153f
000000e0: 1ab1 6c3e 9a9c 523f f3a5 833e 8555 9ebe
000000f0: 1d46 89bc 2b63 073e e67c 8dbe f701 debb
00000100: 4cfe 8fbf 0383 2cbe f56c 27be a954 703e
00000110: 6f35 31bd fd1a 91be f2b7 e73e 5ab3 153f
00000120: 3747 acbe 11ad 08be cd98 6f3f 9578 d9bc
00000130: 709e 49bd 4e4d d33d a0ea b63e f2d3 afbe
00000140: 6ff9 083f 3ce8 803d d6c5 4d3e f99e d1be
00000150: 7b0b 4b3e c232 abbe 81eb d2be 8bf3 2ebe
00000160: c5e1 db3d fb78 1a3e 938e 3a3e e5e8 3b3f
00000170: 828e 08be 7a39 21be 5db3 273e 3371 03be
00000180: d9bd 5d3d ecc7 803f 5492 403f c0ae 1abe
00000190: c296 d2be 8368 823f ac40 cbbe 2c02 2abe
000001a0: 0556 9a3c e996 90be c259 4d3e 13f9 803f
000001b0: d2bf d23e 199c 243f 6ea4 63be 21e6 5bbe
000001c0: f89a 403d ebc0 e43e f7d7 4bbd fae0 bcbe
000001d0: 6f88 2b3e 5d11 89be aaf9 aabe a349 19be
000001e0: a57a 1f3f f000 5ebe 6697 3fbe 97a4 3abe
000001f0: de08 b5bd bd67 173e f2f4 d0bd 3dee 1a3d
00000200: 3c07 803e 9db6 a1be 3ed0 01be 07c9 153e
00000210: bb40 98bd 9e9a 23be f9ec 1cbe 76ec 92bc
00000220: d48d 123f 8185 803f f99a 8abd 42a8 003f
00000230: c99e 3e3f a89c 4dbd 24db 0e3f 60f8 9c3f
00000240: a7c9 32bf 7409 923e cfee 91be 599e b13d
00000250: 0439 03be 41e5 3f3f 5dcf b93e 0f4a 81be
00000260: 7486 153e 8f30 b0be 8755 f5be 015e 83be
00000270: a60c 87be 56df a63e cf6d 083f 4328 9abe
-0.09656059 0.3386361 -2.1735195e-05 -0.033235706 -0.14817496 -0.16810477 -0.38369712 -1.0197766
-0.13708673 -0.093819655 0.28164595 0.3119659 0.84111995 -0.22250274 0.7109385 -0.098407805
-0.08767128 0.26197952 0.7129984 -0.20442809 -0.2267492 -0.22437136 -0.3106284 0.61876243
0.25370252 -0.25554785 -0.73745775 -0.14341682 0.52171874 -0.13024966 0.28596613 -0.13936198
0.99664754 -0.29209787 0.33736295 -0.594152 -0.42163235 -0.21138741 0.22815733 0.7133949
-0.38285887 -0.061866615 0.45511213 0.46234995 0.77447575 -0.1382128 -0.03995318 0.2838627
-0.24682935 -0.41863948 0.09893074 -0.05679602 -0.03460685 0.06006678 -0.04432637 0.58272934
0.23114434 0.82270205 0.25712547 -0.3092462 -0.016757065 0.13221423 -0.27634352 -0.0067751366
-1.124948 -0.16846852 -0.16350158 0.23469795 -0.04326385 -0.28340903 0.45257527 0.58476794
-0.33648083 -0.1334727 0.9359253 -0.026546756 -0.049223363 0.10317479 0.3572588 -0.3434139
0.53505605 0.06294295 0.20095 -0.409416 0.19828598 -0.33437163 -0.411953 -0.17085092
0.107364215 0.15085213 0.1821845 0.73402244 -0.13335612 -0.15744582 0.16377015 -0.12836151
0.05413613 1.0061011 0.7522328 -0.15105724 -0.41130644 1.0188144 -0.39697778 -0.16602391
0.018839845 -0.28240135 0.20053771 1.0076011 0.41161972 0.64300686 -0.22230694 -0.21474506
0.04702279 0.44678435 -0.049766507 -0.36890393 0.16751264 -0.2677106 -0.33393604 -0.14969496
0.62296516 -0.21680045 -0.18710098 -0.18226849 -0.08839582 0.14785667 -0.102029696 0.037824858
0.2500552 -0.31584635 -0.12677094 0.14627467 -0.07434221 -0.1597695 -0.15324773 -0.017935019
0.5724766 1.0040742 -0.0676784 0.5025674 0.74461037 -0.050198227 0.5580313 1.2263298
-0.6983895 0.28522837 -0.2850251 0.086727805 -0.12814718 0.7495919 0.36291018 -0.25251815
0.14602071 -0.34412047 -0.47916815 -0.25657657 -0.26376837 0.32592267 0.53292555 -0.30108842

weight f4 [80, 160]
00000000: 8e06 44bd 13d9 56be d3cb a1be f891 98be
00000010: 6a96 aebe bef9 1bbc 8ad7 043c dd1f 1bbf
00000020: a099 93be dd23 04bf 6340 8cbe f8b0 a93d
00000030: 4774 04be d4f4 2cbf a5fd a4be 77f4 ecbe
00000040: 5db1 cb3c 10bd debd 894b 62be d71f fd3d
00000050: 29da f6be ce7c fbbd a740 283e 5d66 abbe
00000060: 6609 26be 4828 dc3e c46f fc3d 1873 4c3e
00000070: 57ab 1cbb 561b a2be f771 2d3e 362b 48be
00000080: 3c49 98bd 8007 0e3d 4168 89bd 84ed 5dbe
00000090: b805 04bf f8d1 7e3c a825 aebe 28e9 8bbe
000000a0: d437 70be 9f47 2bbe 7eda d63d 15db 25be
000000b0: 9167 2fbd 6acd 8bbd 5932 be3d 597a eabe
000000c0: b6f2 d03d e88f 673e b435 d83e 1c54 ff3e
000000d0: 64c3 fd3d 7b26 a1bd 61fe f4bd e555 62be
000000e0: 5d0c 29be 8db7 b5be dea5 01bf be1d 303e
000000f0: abe2 3b3d d53d 073e 3217 ee3d e853 73be
00000100: 4424 b6bf a71f 02be 449b 75be 8397 52be
00000110: 060a 9a3e 0994 343e ac67 10be ddfc d1bc
00000120: f134 243e fb4b f33e a9bf 35be 3a6e cd3d
00000130: fcb5 60be eb8c cebd b8b3 f3bd eefd 15bf
00000140: 0155 79be 0524 dabd ba4e 18bf 5cef 29be
00000150: c239 a7bf f5a9 03bf e729 99be 453e b53d
00000160: 237c 00bf c6ba 97bd 492e 7fbe 730d 54be
00000170: e516 e63e 8ca2 9fbc 81b9 83be bea1 013f
00000180: 1703 6ebe 5d0a 90be c4a6 19bf 1fb6 4c3f
00000190: 0813 9d3e 4039 53be ba7d e4be 3138 d4be
000001a0: 1cf3 c3bd 400c f3bd 30af 03be 454b 76be
000001b0: bc7d 573e b68a c2be e601 fdbe 0be9 0dbf
000001c0: c0db 60bd 4bb2 edbd 7487 db3e 6b74 9bbe
000001d0: 8b24 c3bc 2afe 0f3e c1cf cdbe 0784 a7bd
000001e0: dc44 823e eedd 40bf c7d8 7c3d 49b3 03bf
000001f0: 7641 8e3e 706c 40be a6b6 813e aa75 f3bc
00000200: ba19 463b a1e3 11bf efd1 f7be 808d 22bf
00000210: dd7c be3e 785e b23e bae5 11bd d940 1bbe
00000220: 0420 39be 28cc 99be c624 50bd 4d6c 8fbe
00000230: 65df 8dbd afac fe3d 168c 83be f1a7 6bbe
00000240: cf47 81be 2cd1 00bf fb95 6bbd c08a 99be
00000250: e88c 9fbd 4ada abbe 57f2 2dbe 5240 9bbe
00000260: b3d7 673d 31fa ba3d 9212 82be dfa0 28be
00000270: 5c79 89be d9c6 d5be 216d 83be f300 2bbf
00000280: f380 933e 1ee5 ba3d 2c17 e8be c615 b33d
00000290: 28fb fcbd 00c3 623e 8dd7 873d 7cf5 25bf
000002a0: 66d2 0abd 1bb3 f73d 2bcc 1c3e 9b63 cebd
000002b0: ea38 cd3d 6258 89be 045e db3d 7b04 243e
000002c0: 56e2 553e 8678 3a3e 371a 593d ad5c ca3d
000002d0: 5186 5fbd 184e b6bb 8aaf ddbc c56f 8c3c
000002e0: 8260 8c3c 4588 5fbe 47cd 323d 9309 bdbc
000002f0: 711f e83d be78 9ebd 8a81 133d b8ec ddbe
00000300: 427e 013e 990c 0a3e ef22 873d d13d e9be
00000310: dc3f babb b65d 8c3d 1950 173e 1e7e a83d
00000320: f1d3 fbbd 5557 0d3d 2037 c93d 916c 693e
00000330: ae08 f03d 1ab1 20bd 9bff 243e 1be6 883c
00000340: fa76 2e3e a4d8 af3a 0723 84bc 5607 a43b
00000350: 3737 b03d e63d 0b3d 7adf 16bd 1261 e93d
00000360: 9848 983d afc1 5cba eaf0 de3d 691c e7bd
00000370: b623 7bbd e484 4f3e 04b6 d0bd 8e73 7f3b
00000380: 6ee9 1cbf cab6 853d eeff 4c3d c67a 68bd
00000390: 0a7c 05be ea4f 11bd 7adc 513e 697b bc3d
000003a0: 9dba 333d d43d 4fbb 48bc b03c 865b df3d
000003b0: 404c 85bd d9cd fa3d 3f1d 163e 3985 14be
000003c0: e82e 103e 72bc 603d d5fd 183e 2fe0 143d
000003d0: c749 86be a0fa 2fbf 0232 81bd 7764 b5bd
000003e0: 8af3 c9bd 3f2f 0b3d e52f 1a3d 3907 bfbd
000003f0: a7a5 363e 6d19 e5bb 4725 623d 13fe 863d
-0.047857814 -0.20981245 -0.31600818 -0.29798865 -0.34099132 -0.009519992 0.008108029 -0.60595495
-0.28828144 -0.51617223 -0.27392873 0.08285707 -0.12934981 -0.6756108 -0.32224765 -0.46280262
0.024864847 -0.108759046 -0.22099127 0.123595886 -0.48213318 -0.12279664 0.16430913 -0.33476534
-0.16214523 0.42999482 0.12326005 0.1996578 -0.0023905837 -0.3166148 0.16938005 -0.19547734
-0.07435843 0.03467512 -0.06709338 -0.21672636 -0.51571226 0.01555299 -0.34013104 -0.27326322
-0.23458797 -0.1672654 0.10490893 -0.16196854 -0.042823378 -0.06826289 0.09286947 -0.4579647
0.102025434 0.2261349 0.42228472 0.49868858 0.123907834 -0.07868668 -0.119625814 -0.22103079
-0.16508622 -0.354916 -0.5064372 0.17198846 0.045870464 0.13207181 0.11625518 -0.23762476
-1.4229817 -0.12707387 -0.2398501 -0.2056561 0.30085772 0.17634596 -0.14102048 -0.02563327
0.1603582 0.47518906 -0.17748894 0.1003079 -0.21944422 -0.10085472 -0.11899513 -0.5859059
-0.24348833 -0.106514014 -0.5949513 -0.16595215 -1.3064501 -0.5143121 -0.2991478 0.088497676
-0.5018942 -0.07408671 -0.2492 -0.20708255 0.44939342 -0.019486688 -0.25727466 0.50637424
-0.23243366 -0.28132907 -0.6002009 0.79965395 0.30678582 -0.20627308 -0.44627172 -0.4144912
-0.09567854 -0.11867571 -0.12859797 -0.2405215 0.21044058 -0.37996453 -0.4941551 -0.5543372
-0.05489707 -0.11606272 0.4287678 -0.30362257 -0.023821136 0.140618 -0.40197566 -0.08179479
0.2544316 -0.7533864 0.061730172 -0.5144544 0.27784318 -0.18791366 0.25334662 -0.029719193
0.0030227737 -0.5698796 -0.48402354 -0.6349716 0.37204638 0.348377 -0.035619475 -0.15161456
-0.18078619 -0.3003857 -0.05081632 -0.28012314 -0.06927375 0.124352805 -0.25692815 -0.23013283
-0.25250098 -0.5031917 -0.05751608 -0.2998867 -0.077905476 -0.3356498 -0.16986977 -0.3032251
0.05660219 0.091297515 -0.25404793 -0.16467617 -0.26850402 -0.4175327 -0.25669196 -0.66798323
0.28809318 0.09125732 -0.4533018 0.08744387 -0.12352592 0.22144699 0.0663291 -0.64827704
-0.033892058 0.120947085 0.15312259 -0.10077592 0.10020621 -0.26825243 0.107112914 0.16017334
0.20887122 0.18210039 0.053003516 0.09880958 -0.054571453 -0.0055635087 -0.027061243 0.01714314
0.017135862 -0.21829326 0.0436528 -0.023075854 0.11334122 -0.077378735 0.03601221 -0.43344665
0.1264582 0.13481368 0.0659846 -0.45554975 -0.005683882 0.068538114 0.14776649 0.0822718
-0.12296284 0.034507114 0.098249674 0.22795321 0.117204055 -0.039231397 0.16113131 0.016711285
0.17037573 0.0013416004 -0.016129984 0.0050057573 0.086042814 0.033994578 -0.036834218 0.11395468
0.07435721 -0.0008421195 0.108857945 -0.11284716 -0.061313353 0.20265538 -0.10190967 0.0038978788
-0.61293685 0.06529005 0.05004876 -0.05675771 -0.13035598 -0.035476603 0.20494261 0.09203226
0.04387914 -0.0031622546 0.021574154 0.109061286 -0.06508684 0.122462936 0.14659594 -0.14503945
0.14080393 0.054867215 0.14940579 0.03634661 -0.26228163 -0.687418 -0.06308366 -0.08857053
-0.098609045 0.033980604 0.037643332 -0.093275495 0.17836629 -0.0069915564 0.05521133 0.065914296

bias f4 [80]
00000000: 076d d73e 6dbc 493e c596 2e3d 5b8a 8b3e
00000010: 4e84 b63e 1f3b 583e 1cf7 273f d6e1 c13e
00000020: bee0 0b3f 5859 f53e f2ae 0e3e 376b c03e
00000030: 1dc8 933d 60c5 843e 11e7 673e 6b50 533f
00000040: 8678 733f 5ebe 3f3f 012c 29b9 c903 673d
00000050: fc1e af3e 9579 1f3d c545 813e 4a7b 773e
00000060: bc1d 003f a92b 543e 9bc1 0f3e 491c 203f
00000070: 978c 263f 29e8 a23e 3fc0 2d3e 7c49 113f
00000080: bb40 1a3f 4e90 8f3e 234e b13b d4a2 503e
00000090: 9ff4 77bd 5eb0 003f 672a 9e3d 066d 453e
000000a0: 22a3 0e3f e735 5c3f 2d2d 653f e5c4 1d3e
000000b0: 18d6 56bc ab3a 533f cefb 9d3e 1ade 1c3f
000000c0: 86f7 cc3e 7a81 c33e fa3c a9be 2444 ab3d
000000d0: d964 ae3c 0614 f13e 69eb f83c f237 473e
000000e0: f158 283d f6c1 973e f0db 2a3e b56c dbbd
000000f0: 1d86 4f3e d58a c5bd d3a4 1a3e fa15 50bc
00000100: 5f14 e73d 3dd6 da3d 8f2c 4b3e 90f9 233f
00000110: 8937 103f 8d0c 533e 94d3 223e 01cf 8e3f
00000120: 840c 8d3d 3bd4 203e ed6b 103e 3488 903e
00000130: fd9f 353f 879b 343f a665 ae3e ef7c a33d
0.4207537 0.19700785 0.042624254 0.27253994 0.35647815 0.21116303 0.65611434 0.37867612
0.54639804 0.47919726 0.13933924 0.37581798 0.07215903 0.25931835 0.22646739 0.82544583
0.9510578 0.7489985 -0.00016133489 0.056400094 0.34203327 0.03893431 0.25248542 0.24168125
0.5004537 0.2071978 0.14038698 0.6254316 0.65058273 0.3181775 0.16967867 0.56752753
0.6025502 0.28039783 0.005410926 0.20374614 -0.060536023 0.50269115 0.07722931 0.1927987
0.5571767 0.8601975 0.8952206 0.1540714 -0.013112567 0.82511395 0.30856174 0.612764
0.40032595 0.3818472 -0.33054334 0.08362606 0.021288322 0.4708559 0.03038569 0.19454935
0.041100446 0.29640168 0.16685462 -0.107140936 0.20266004 -0.09645621 0.15101938 -0.012700552
0.11283182 0.10685394 0.19841217 0.6405268 0.5633474 0.20610256 0.15901023 1.1156923
0.06887153 0.1570596 0.1410367 0.28228915 0.7094725 0.70549816 0.34061927 0.079828136

weight f4 [20, 80]
00000000: de62 afbf 0120 dcbf 3829 39c0 626b d1be
00000010: 43f0 fdbf 6339 b4bf e2c9 d4bf 4249 6bbf
00000020: d2a0 65bf 321e dbbf c171 c5bf 0f3c b0bf
00000030: 14a1 86bf d567 14c0 1e4f abbf 2b76 e03e
00000040: f78f ab3e fcab a83e be6c c8bf 1dce 9abf
00000050: 3642 a0bf 24f1 0dbf ebe1 ffbf 9393 7bbf
00000060: ef35 8fbf 4c65 f4bf 8f83 3bbf 0f96 3abf
00000070: 2ff1 23c0 b415 84be 2edf 26c0 e4de 8fbf
00000080: e1c4 c0bf dcb7 f3bf 8b93 febf cd7a 98bf
00000090: 4d88 83bf 3668 a2bf 9088 cfbf 6cf5 02c0
000000a0: efd1 a3bf 9ce0 00bf 155f 0a3f 57be a9bf
000000b0: 4cd8 85bf 558c 103f ce17 b1bf 377a 38bf
000000c0: bef1 97bf f52b 12c0 5690 00c0 7515 b1bf
000000d0: be64 2ac0 f160 d3bf edde 0cc0 829b d6bf
000000e0: 6bfd f0bf 6e83 95bf bc4c fcbf e557 19c0
000000f0: d600 21c0 b7ef b3bf 0785 2bc0 88d1 cabf
00000100: 0583 a6bf 7ea4 afbf 7637 a7bf ddb9 94bf
00000110: 623f e9bf 2059 e4bf 5f8c 26c0 1dc8 1bbe
00000120: 3bd5 f8bf 2be3 6bbf 02d0 e0bf 3215 69bf
00000130: ef2e a1bf fcb9 c3be b604 a4bf a761 27c0
00000140: b351 7a3e 7135 fbbd 461d 6bbd 1828 dabe
00000150: 5055 e23d 509f efbd 6359 a7bd 8aef 1c3c
00000160: 7a74 b6bd f9af 85bd 0cb7 ae3d e51e d53d
00000170: c912 563e 09b4 0f3e d4f2 9abe e0eb 23bf
00000180: d3d3 36bf 57d3 e9be cbdf d63e d126 d83e
00000190: ce75 683e bfa7 233e 5116 c8be 5fcd 6c3d
000001a0: a23c adbd 6804 a5ba 6e4b ba3d 2574 2abd
000001b0: d666 41bc dfe5 dcbe 8c42 d5be d707 f33d
000001c0: 2c14 163e aa6c 8fbc a5e9 67bf 6cad 0e3d
000001d0: 0226 dbbe c6ab 72bd a046 8cbc a0d2 963c
000001e0: 60a6 e53d cdb3 57be 88af 75bf b842 72bc
000001f0: 4bc1 af3c fa7b 61bf 611f cdbe 362d fcbc
00000200: ccd1 473e 5b5b a4be d411 013e d6d3 1bbd
00000210: f654 803d 95cd 1dbf 25f7 8cbd ead1 81bd
00000220: 3373 7ebd 47a7 8e3c 3309 d63c c1af c3be
00000230: b1e5 2b3d 0a34 debe 919d 1dbc 4ddd 923d
00000240: 60e7 acbd ce49 1cbf 7ae5 ff3d e6d2 1fbe
00000250: 8d43 36bd 42fe 51be 46d4 91bd 790f 07bf
00000260: 4f45 483d a869 ee3c 9094 2c3e 7570 d4be
00000270: 1a4a d5be 4d89 01bf a23e 85bb e5b9 8f3d
00000280: 8d91 1bbe 9634 323e 2de0 753e 0c06 57bc
00000290: 9bb7 1f3f 4f86 ba3e fae6 cd3c 2f12 893e
000002a0: d920 c73e feae 863d cc10 61bf 6579 6b3d
000002b0: afef 5bbf 9cb4 613e 8d05 343d 5bb3 44bf
000002c0: 8127 34bf 6df4 49bf 0bff 5dbe 9b68 babd
000002d0: 4b3b 853d aed7 113e fb17 1f3c c865 5b3f
000002e0: 47f7 df3e 6ca5 5b3e 1d06 df3b c41d c23e
000002f0: 97b6 15bc 0166 35be ed15 4abd 8fb5 9d3e
00000300: c3f3 4bbc 6bfc 8b3b 135a 21bf aa4c 2fbf
00000310: 75f4 28bf 3975 cf3e e422 de3e 1187 ab3d
00000320: bb11 293d ec22 f23e fb8e 39bf 22bc 653e
00000330: 25b3 5bbc efb4 44bf b6f8 82bb 34ed dc3e
00000340: 0177 96bf 318f b2bf d104 b9be 403b 28c0
00000350: f644 f6bd 43cc 34bf 51bf 78be 8135 9d3e
00000360: 4bab 10be 7914 bd3e b37e aa3e 7c4a 0fbe
00000370: a023 153e 09c0 9fbf 0091 603e 418e 46bf
00000380: cae7 2fbe 3432 a6be 8250 7abe ca90 eb3e
00000390: ae5f 83bc 6935 ec3d 01d2 9c3e ce5c 243f
000003a0: cfef 8abd fb21 7d3e 73f2 17bf a8ea 87bf
000003b0: 980c 4ebf 414e 49bf 7090 723d cd1f 593e
000003c0: fb10 19c1 3dec a0be 5efb fcbe 45f5 8640
000003d0: 9663 adbf 0d0b 18bf 630e c1bf 7000 bac0
000003e0: bce4 8abd d616 4dbf 6873 3fc0 e176 30be
000003f0: 6e43 35c1 f39d cfbe 9711 78c0 476d b83f
-1.3702047 -1.7197267 -2.8931408 -0.4090224 -1.9838947 -1.4080013 -1.662411 -0.9190866
-0.8969852 -1.711859 -1.542534 -1.3768328 -1.0517907 -2.3188374 -1.338352 0.43840155
0.33508274 0.32943714 -1.5658185 -1.2094151 -1.2520206 -0.55446076 -1.999082 -0.98272055
-1.1188334 -1.9093413 -0.7324762 -0.7288522 -2.5615957 -0.25797808 -2.6073718 -1.1239896
-1.5060083 -1.9040484 -1.9888777 -1.1912476 -1.0275971 -1.2688053 -1.621355 -2.0462294
-1.2798442 -0.50342727 0.54051334 -1.3261212 -1.0456634 0.5646413 -1.383539 -0.72061485
-1.1870649 -2.283933 -2.0088096 -1.3834673 -2.6623988 -1.6513959 -2.2011063 -1.6766207
-1.8827337 -1.1680734 -1.9710917 -2.3959897 -2.515676 -1.405753 -2.6799943 -1.5845194
-1.3008734 -1.3722074 -1.30638 -1.1619221 -1.8222468 -1.7839699 -2.6023176 -0.15213056
-1.9440073 -0.92143506 -1.7563479 -0.91047966 -1.2592448 -0.38227832 -1.2813938 -2.6153352
0.24445228 -0.122660525 -0.057400964 -0.42608714 0.11051428 -0.11700308 -0.08171346 0.009578595
-0.08908935 -0.06527705 0.08531007 0.10406283 0.20905603 0.14033522 -0.30263388 -0.6403179
-0.7141697 -0.45669052 0.41967615 0.42217115 0.22701189 0.15981959 -0.39079526 0.057813045
-0.084588304 -0.0012589814 0.09096418 -0.04161467 -0.011804303 -0.43144128 -0.41652334 0.1186673
0.14656132 -0.01750787 -0.9059089 0.034833357 -0.42802435 -0.059245847 -0.01712352 0.01841098
0.11213374 -0.21064682 -0.95970964 -0.014786415 0.021454474 -0.880798 -0.40063003 -0.030783277
0.19513625 -0.3210095 0.12604457 -0.03804382 0.06266205 -0.6164182 -0.068830766 -0.06338866
-0.06212158 0.017413748 0.026127433 -0.38220027 0.041967098 -0.43399078 -0.009620086 0.07171116
-0.08442569 -0.61050117 0.12494941 -0.15607795 -0.044498015 -0.20507148 -0.07120566 -0.52757984
0.048894223 0.029103115 0.16853547 -0.41492048 -0.41658098 -0.5060013 -0.0040663043 0.070178784
-0.15192242 0.17402872 0.24011298 -0.013124 0.62389535 0.36430594 0.025134552 0.26771685
0.38892248 0.06576346 -0.87916255 0.057488818 -0.85912603 0.22041553 0.043950606 -0.76836175
-0.7037278 -0.7888859 -0.21679322 -0.09101983 0.0650545 0.14242432 0.009710307 0.8570218
0.43743345 0.21449822 0.0068061487 0.37913334 -0.009137771 -0.17714693 -0.049337316 0.3080258
-0.012448254 0.004272034 -0.6302807 -0.68476355 -0.6599801 0.4051912 0.43385994 0.08375371
0.041276675 0.47292268 -0.72483796 0.22435048 -0.013409411 -0.7683858 -0.003996934 0.43149722
-1.1755067 -1.3949949 -0.36136487 -2.6286163 -0.12024872 -0.7062418 -0.24291731 0.30704883
-0.14127843 0.36929682 0.3329979 -0.13993257 0.14564371 -1.248048 0.21930313 -0.7756081
-0.17178264 -0.32460177 -0.24444774 0.46008903 -0.016036835 0.11533625 0.3062897 0.6420411
-0.06784021 0.24719994 -0.59354323 -1.0618486 -0.80487967 -0.7863503 0.059219778 0.21203537
-9.566646 -0.31430236 -0.49410528 4.21744 -1.3546016 -0.5939186 -1.5082515 -5.8125534
-0.06781909 -0.8011297 -2.9914188 -0.17232849 -11.328962 -0.40550193 -3.8760736 1.4408349

bias f4 [20]
00000000: f5c0 0e40 9e48 d0be dc63 2f3f adba 4340
00000010: a81e 2b3f cd0c 0940 a387 f73f 4942 d6be
00000020: 11bf 4a3f 2f57 ac3f 56cd 653f 78ac 633f
00000030: 7494 0b40 f743 5d3f dd85 3e3f 0ebf 363f
00000040: a549 2f3f a631 2c3f 7200 5e3f b03f 3c3f
2.2305272 -0.40680403 0.6851175 3.0582688 0.6684365 2.1414063 1.9338268 -0.41847447
0.79197794 1.3464106 0.8976644 0.8893504 2.1809359 0.8643183 0.7442301 0.71385276
0.6847175 0.6726326 0.8671943 0.7353468

weight f4 [1, 20]
00000000: efda 2ec0 7a66 c7bf 930c ab42 44fb 80c0
00000010: 1ff0 ab42 adde 8bc0 7404 8ac0 f822 a1bf
00000020: f7e6 ac42 a2dc 54c0 e80d af42 f0b5 a442
00000030: ade3 9fc0 0da1 8242 8e58 ae42 d95c a642
00000040: d81e b042 671f ab42 2a0a af42 a7ce b242
-2.7321126 -1.5578148 85.52456 -4.030672 85.96899 -4.370932 -4.3130436 -1.2588797
86.4511 -3.3259664 87.52716 82.35535 -4.9965425 65.31455 87.17296 83.18134
88.06024 85.56133 87.51985 89.40362
