data/q_value_target_net_2_food_collection_3980000_pH-MARL.pth (torch, 138129 bytes, 7 tensors)

weight f4 [176, 88]
-0.41863155 -0.2991597 -0.7499967 -1.566843 0.2528653 0.010847908 0.13629964 0.24403669
0.27553087 0.17661959 0.08654024 0.08868277 0.20136602 0.07230925 0.14207406 0.06340442
0.32289976 0.28075957 0.1587468 0.20196086 -0.08159588 -0.006680746 -0.13726857 -0.09697602
0.07269945 -0.0838816 -0.058215097 -0.1441652 0.075191885 0.12291792 -0.06746336 -0.09136182
-0.020009004 0.033814497 -0.24427845 -0.26095822 0.23363197 0.15531065 0.0020507893 0.07670066
0.2607422 0.3015075 0.9771756 1.6748278 -0.21984704 -0.25813046 -0.067425 -0.07900196
-0.16848326 0.021563316 -0.045561012 -0.18716641 -0.16451909 -0.09688249 -0.4039031 -0.39550847
-0.18310133 -0.18719587 -0.1953545 -0.10392119 -0.03851127 0.11050964 0.100819595 -0.054365687
-0.058765758 -0.049161315 0.073210806 -0.078897886 -0.05810003 0.0067529753 -0.019660516 0.24459627
0.048120905 0.01940954 -0.17445429 -0.165703 -0.090399995 0.06928503 0.07236972 0.048959047
-0.14336969 -0.16799562 -0.026900891 0.013926062 0.24323422 0.21302065 0.006151263 -0.031101646
-0.06944121 -0.30168888 -0.090140864 -0.64497757 0.15352853 -0.38658366 0.096814886 -0.20545012
0.09711794 0.8054888 -0.04868642 -0.12241419 0.090183236 -0.053515356 0.14689536 0.069574684
0.04049967 -0.09336272 -0.02616627 0.031576827 0.08254001 0.10116221 0.121608816 1.0977563
0.06663712 -0.43601078 0.1635344 -0.66247606 -0.01623258 0.52571505 -0.07740691 -0.32066795
0.02730792 -0.37104675 -0.012562163 -0.08600986 -0.068219796 -0.0699571 0.15305129 -0.021143721
-0.12351003 -0.28335962 -0.29871434 -0.25642806 0.0074257636 -0.25571033 0.20514861 -0.25714463
-0.019475484 0.26107037 0.15344597 -0.16926979 0.058132097 -0.0056975866 0.011537235 0.20082709
0.022057211 0.029560316 -0.0626613 0.19944155 0.034829836 -0.073141724 -0.13746485 1.0709577
-0.08617713 -0.31343627 0.13370477 -0.5524031 -0.06935088 0.6146177 0.25140923 -0.51024586
0.06618658 -0.3692597 -0.001006752 0.12891138 -0.08422023 -0.036782593 0.017637616 -0.2519248
-0.036532737 -0.076762095 0.043575134 0.16701181 -0.06416899 -0.03754974 0.007932495 0.14195876
0.07172846 0.0037234114 -0.10876453 -0.328453 0.24011579 0.02830414 -0.40128112 0.4858323
0.10911071 0.06014039 0.15348351 -0.031009646 0.55538785 -0.6041204 -0.16506073 0.24931216
0.0084741535 0.11142126 -0.16896942 0.0065193037 -0.12863281 0.10983814 -0.7224999 0.543113
0.16154449 -0.08317937 -0.9716085 0.86433935 0.18647191 -0.14334257 0.23034778 -0.21923591
0.59827024 -0.8334598 0.14401726 -0.21491943 0.10708347 -0.16351146 0.15219015 -0.13498087
-0.19645227 -0.10116265 -0.5012818 -0.45513523 0.21808252 0.11899969 -0.34886912 0.5152319
0.2870733 0.0018833888 0.24134839 0.102224536 0.7745845 -0.57104266 0.09747107 0.050255846
-0.19525735 0.13600674 -0.14322954 -0.09882399 -0.14765163 0.05551511 -0.2886274 -0.0913583
-0.013203831 -0.016437585 -0.44192973 0.36735508 -0.03649169 0.0071242396 0.017373199 -0.1281864
0.6689264 -0.5540335 0.028525082 -0.070692174 -0.07431407 0.089039035 0.14399192 0.026400669
00000000: e056 d6be 762b 99be c9ff 3fbf 508e c8bf
00000010: 9077 813e 6dbb 313c 2292 0b3e c1e4 793e
00000020: 6212 8d3e c4db 343e 023c b13d 509f b53d
00000030: e532 4e3e df16 943d dd7b 113e 2dda 813d
00000040: 1e53 a53e b8bf 8f3e 858e 223e d4ce 4e3e
00000050: be1b a7bd 29ea dabb 2290 0cbe 5d9b c6bd
00000060: 73e3 943d 1eca abbd f472 6ebd 0ba0 13be
00000070: 34fe 993d 64bc fb3d 3b2a 8abd e81b bbbd
00000080: ece9 a3bc 1281 0a3d 2124 7abe 519c 85be
00000090: 383d 6f3e c109 1f3e 8966 063b 3c15 9d3d
000000a0: 0080 853e 315f 9a3e 2e28 7a3f c260 d63f
000000b0: 951f 61be ad29 84be 1e16 8abd c8cb a1bd
000000c0: e086 2cbe 8da5 b03c 2f9e 3abd 8da8 3fbe
000000d0: b177 28be 546a c6bd 63cc cebe 1680 cabe
000000e0: ea7e 3bbe 46b0 3fbe 030b 48be a2d4 d4bd
000000f0: febd 1dbd e152 e23d 817a ce3d 8eae 5ebd
00000100: 5db4 70bd 605d 49bd 8cef 953d 3795 a1bd
00000110: 4cfa 6dbd 1048 dd3b 170f a1bc 7277 7a3e
00000120: 6d1a 453d c100 9f3c 25a4 32be 0cae 29be
00000130: a223 b9bd 4fe5 8d3d 9336 943d 4889 483d
00000140: 81cf 12be 0b07 2cbe 425f dcbc 232a 643c
00000150: 6412 793e 1622 5a3e 8990 c93b e1c8 febc
00000160: 3137 8ebd f776 9abe c69b b8bd 401d 25bf
00000170: 9536 1d3e 4bee c5be e246 c63d 8461 52be
00000180: c5e5 c63d 8434 4e3f 696b 47bd 4ab4 fabd
00000190: fdb1 b83d eb32 5bbd bd6b 163e 2c7d 8e3d
000001a0: fbe2 253d f434 bfbd a55a d6bc b456 013d
000001b0: bd0a a93d 222e cf3d 0b0e f93d 4783 8c3f
000001c0: 0b79 883d ce3c dfbe 9075 273e 0898 29bf
000001d0: 30fa 84bc 4395 063f 8487 9ebd 972e a4be
000001e0: dcb4 df3c d7f9 bdbe 88d1 4dbc f025 b0bd
000001f0: d2b6 8bbd ab45 8fbd 7ab9 1c3e 9935 adbc
00000200: d4f2 fcbd 8314 91be 16f1 98be 8a4a 83be
00000210: d253 f33b 77ec 82be 7a12 523e 76a8 83be
00000220: 0d8b 9fbc 04ab 853e f120 1d3e 0f55 2dbe
00000230: ec1b 6e3d d2b2 babb ac06 3d3c 9ea5 4d3e
00000240: 53b1 b43c 7a28 f23c 9154 80bd 683a 4c3e
00000250: bba9 0e3d 54cb 95bd 96c3 0cbe 2415 893f
00000260: a37d b0bd b87a a0be e7e9 083e 4a6a 0dbf
00000270: d607 8ebd 9657 1d3f b6b8 803e 799f 02bf
00000280: d48c 873d 9b0f bdbe fef4 83ba 5801 043e
00000290: a87b acbd 58a9 16bd c37c 903c 4afc 80be
000002a0: 5aa3 15bd 7235 9dbd d77b 323d 2505 2b3e
000002b0: 086b 83bd c2cd 19bd 4cf7 013c a35d 113e
000002c0: 5fe6 923d 7a04 743b f0bf debd fe2a a8be
000002d0: eae0 753e 15de e73c b874 cdbe 03bf f83e
000002e0: 7075 df3d c555 763d c82a 1d3e f107 febc
000002f0: e62d 0e3f a2a7 1abf ae05 29be b04b 7f3e
00000300: 2dd7 0a3c d430 e43d 5206 2dbe e29f d53b
00000310: 52b8 03be d2f2 e03d c1f5 38bf 7409 0b3f
00000320: eb6b 253e f259 aabd 56bb 78bf 5845 5d3f
00000330: 7ef2 3e3e 65c8 12be 4ae0 6b3e 617f 60be
00000340: 3d28 193f 9f5d 55bf 4379 133e d713 5cbe
00000350: 944e db3d 8c6f 27be bcd7 1b3e 6d38 0abe
00000360: c92a 49be 5d2e cfbd 0154 00bf 7c07 e9be
00000370: 0651 5f3e 1cb6 f33d f99e b2be 3de6 033f
00000380: 46fb 923e 0bdc f63a 0824 773e 195b d13d
00000390: 2b4b 463f da2f 12bf ea9e c73d 13d9 4d3d
000003a0: 8bf1 47be 5a45 0b3e c4aa 12be 3b64 cabd
000003b0: fd31 17be d063 633d f8c6 93be 0f1a bbbd
000003c0: e254 58bc 1da8 86bc 9d44 e2be f715 bc3e
000003d0: 4f78 15bd 7472 e93b 3d52 8e3c 4c43 03be
000003e0: c33e 2b3f 24d5 0dbf 6fad e93c 0fc7 90bd
000003f0: fa31 98bd 195a b63d 9e72 133e 3746 d83c

bias f4 [176]
0.0285861 0.5950592 -0.23329711 -0.47197083 -0.15811156 -1.2083395 0.0056876387 0.39105615
0.08357855 1.469102 -0.1753717 0.23808183 0.025641756 0.30473208 -0.15886077 -0.4783974
0.16315906 1.6074094 0.06412417 -0.6886852 -0.11248055 1.4520575 2.511652 -0.26214564
0.025710424 -0.39209372 -0.16378327 -0.42430204 0.76793593 0.019101612 0.63944215 0.222961
2.4586835 -0.63767195 -0.9038975 0.2806766 0.36302048 -0.28590912 -1.1054018 -0.39571583
0.16217966 0.33509764 0.097321294 -0.30163053 -0.08916231 -0.8593435 -0.10396835 -0.13593356
0.04055946 0.24985677 0.014367154 -0.37108764 -0.040186312 1.1327448 -0.78552747 -0.2702273
-0.88802874 -0.21273968 0.121378824 -0.6389763 0.055159256 0.5307562 -0.9073471 -0.072232254
1.5837572 0.8753801 0.44143942 -0.23047134 -0.06535215 0.06666019 0.2667381 0.0019268175
-0.5371669 0.29976222 0.1463379 -0.2350805 -0.23210417 0.08457229 -0.17672542 0.24963535
0.11492931 1.1710851 -0.10668526 0.08878078 0.092876956 0.61490554 0.0052820044 0.67903626
-0.5626451 -0.67694867 0.13760379 0.35773516 0.27805796 -0.1787528 -0.7289914 0.07277601
0.83959746 0.31947163 -0.08443855 0.719009 -0.26624364 -0.29009718 0.20280133 1.4462041
-0.48035827 0.3732677 -0.2301381 -0.069469154 0.06852217 -0.16117458 0.2570433 -0.8842859
2.2802932 -0.32268217 -0.2616154 -0.066928305 0.12060019 0.19363289 0.39841193 -0.12576486
0.61726135 1.9549258 -0.47395647 -0.55062926 -0.4164355 0.06553355 -0.49867854 -0.018168027
-0.4310381 0.29589197 0.17349535 0.46875632 0.26148397 2.0415626 0.655301 -0.591044
-1.5095651 0.29815096 1.7438269 -0.361006 0.5062065 1.0341895 0.21361926 -5.1229057e-05
0.61181515 0.17173386 -0.20303166 1.3414311 -0.12695128 -0.37246168 0.7732753 0.090074286
0.41255698 0.52971256 0.06115952 0.6261658 0.21178025 0.09050146 -0.29595885 0.30953506
0.8315431 -0.11287183 0.70677805 -1.1529589 0.1163344 0.07063647 -0.46348885 -1.1634501
1.4208332 1.0697502 2.079564 0.2695628 0.19984655 -0.04743163 -0.10144617 -0.27230147
00000000: 662d ea3c cd55 183f 70e5 6ebe 29a6 f1be
00000010: ffe7 21be deaa 9abf 5f5f ba3b 8338 c83e
00000020: 3b2b ab3d 890b bc3f a494 33be b9cb 733e
00000030: a90e d23c d805 9c3e 66ac 22be 81f0 f4be
00000040: 2b13 273e 97bf cd3f 8853 833d ac4d 30bf
00000050: 345c e6bd 05dd b93f e8be 2040 f437 86be
00000060: ab9e d23c 82c0 c8be cdb6 27be 1e3e d9be
00000070: 7397 443f fc7a 9c3c 7bb2 233f e34f 643e
00000080: 125b 1d40 783e 23bf d465 67bf d8b4 8f3e
00000090: d2dd b93e ae62 92be ce7d 8dbf 449b cabe
000000a0: 6d12 263e eb91 ab3e 6350 c73d 516f 9abe
000000b0: bb9a b6bd f0fd 5bbf 5ced d4bd 2b32 0bbe
000000c0: ad21 263d 74da 7f3e 3664 6b3c 33ff bdbe
000000d0: 679a 24bd c8fd 903f 5418 49bf 3c5b 8abe
000000e0: da55 63bf 6ed8 59be 7695 f83d f393 23bf
000000f0: acee 613d a3df 073f e647 68bf 81ee 93bd
00000100: 8eb8 ca3f e918 603f 5904 e23e ae00 6cbe
00000110: 59d7 85bd 2385 883d e591 883e 448d fc3a
00000120: c583 09bf 6f7a 993e 9ad9 153e f1b8 70be
00000130: b7ac 6dbe 3d34 ad3d 82f7 34be 69a0 7f3e
00000140: 0f60 eb3d 1ee6 953f cd7d dabd b3d2 b53d
00000150: 4636 be3d 736a 1d3f aa14 ad3b 52d5 2d3f
00000160: 8209 10bf 824c 2dbf 02e8 0c3e 1029 b73e
00000170: 9d5d 8e3e f90a 37be 2e9f 3abf 970b 953d
00000180: dcef 563f c991 a33e 1eee acbd f910 383f
00000190: 1651 88be 9e87 94be 27ab 4f3e 371d b93f
000001a0: 85f1 f5be f21c bf3e 52a9 6bbe d845 8ebd
000001b0: 5a55 8c3d f30a 25be 2e9b 833e 9060 62bf
000001c0: 53f0 1140 9936 a5be 74f2 85be b511 89bd
000001d0: 3bfd f63d b347 463e a6fc cb3e 81c8 00be
000001e0: d704 1e3f 023b fa3f 6caa f2be 0af6 0cbf
000001f0: 0937 d5be 7436 863d cb52 ffbe 1dd5 94bc
00000200: 07b1 dcbe 277f 973e c4a8 313e d400 f03e
00000210: 3ae1 853e f6a8 0240 cec1 273f a94e 17bf
00000220: 6e39 c1bf 3ea7 983e b835 df3f c7d5 b8be
00000230: c096 013f 5260 843f 02bf 5a3e c8de 56b8
00000240: eb9f 1c3f 00db 2f3e 88e7 4fbe 04b4 ab3f
00000250: 84ff 01be 4cb3 bebe 5ff5 453f de78 b83d
00000260: ab3a d33e 3e9b 073f 6882 7a3d 674c 203f
00000270: ecdc 583e d458 b93d eb87 97be 617b 9e3e
00000280: 02e0 543f 5929 e7bd 68ef 343f 2894 93bf
00000290: bb40 ee3d dba9 903d 694e edbe efeb 94bf
000002a0: dddd b53f 93ed 883f 9417 0540 2304 8a3e
000002b0: 93a4 4c3e ab47 42bd 02c3 cfbd 196b 8bbe

weight f4 [88, 176]
0.08210951 0.53554755 0.21736856 0.003351174 0.21755512 -0.08304258 0.027291436 0.27696052
0.43080154 0.3752547 0.21787167 0.049930565 0.062059924 0.27866226 0.2557577 0.12340714
0.5695367 0.5566613 0.030542383 -0.23684517 0.19888239 0.6472241 0.62185854 0.27880812
0.15758198 0.34180367 0.1611792 0.6290062 0.37070963 0.26425228 0.6412348 0.14332815
0.6278284 0.32402572 -0.22515786 0.1858429 0.48476788 0.0078198565 -0.31309655 -0.1250725
0.47231367 0.23224218 0.022230433 0.25972363 -0.076317236 0.044687685 0.03088813 -0.1142166
0.2624994 0.11359943 0.28494382 0.14907669 0.24286568 0.33413133 -0.035359457 -0.08877142
-0.09599559 0.3328006 0.40194145 -0.10408126 0.10793641 0.29990986 -0.15046704 -0.03251323
0.6579917 0.40704283 0.2210226 0.2540236 0.15381934 0.16878149 0.4593107 0.24832715
0.35151693 0.35065672 0.37427774 0.2715063 0.21813384 0.13624638 0.33868614 0.5709013
0.23132282 0.40373066 0.16599458 0.22868188 0.11906167 0.46260008 0.012551636 0.4003728
0.14777265 -0.15820391 0.11900763 0.10819209 0.23114547 0.29347947 -0.14968076 -0.024231294
0.4481631 0.29681328 0.22601421 0.17440376 0.13986035 -0.22429849 0.31481674 0.35817346
-0.094537996 0.16386622 0.010802136 -0.06971782 0.23944709 0.110889725 0.06824765 0.17104508
0.51827955 0.063453354 0.18286814 -0.10205516 0.036968444 0.19100016 0.35471264 -0.04258434
0.31238618 0.55676043 -0.050309498 -0.02986721 0.40840474 0.1135655 0.32515997 0.50381047
-0.02067256 0.1214406 0.05770339 0.35514742 0.43374875 0.5331551 0.3800174 -0.028567864
-0.29433197 0.055865202 0.5403039 0.38496938 0.3883463 0.41828233 0.48137367 0.43487796
0.3259326 0.16893333 -0.0698247 0.5307494 0.037706126 -0.07152845 0.43352968 0.17646243
0.48502672 0.39896223 0.39554235 0.5513958 0.2997702 0.47559142 -0.11624343 0.1926545
0.5600398 0.09916841 0.46092138 0.17320077 0.078391634 0.41815266 0.18650818 0.25729373
0.6198768 0.44850168 0.57371014 0.38511103 0.22722092 0.21564475 0.38282624 0.034389764
0.081705526 0.07170528 0.147583 0.023809865 0.29080287 0.3384026 -0.3041972 0.27214053
0.06942564 0.2756966 -0.0071775434 0.13075382 0.011581559 0.048246004 0.17603248 0.14468753
-0.29379302 -0.19082181 -0.070134446 0.41098025 0.47077313 -0.016561888 0.037487082 0.21614715
0.34696147 0.2454716 0.07594831 0.15190437 0.2411444 0.080656655 0.07962363 0.19445944
-0.017151387 0.062336557 0.41522202 -0.09505716 0.042368248 0.30627403 0.3840367 0.064799294
0.26017484 0.36200386 -0.01977337 0.053733945 0.20255785 0.008475674 0.024120124 0.66853964
-0.1874582 0.3376541 -0.15442502 -0.25921655 0.101369664 0.07341851 0.7158364 0.1482146
0.19921164 -0.008621773 0.7299559 0.11088319 -0.0009255528 0.0068031466 -0.09714131 -0.092195734
0.030352594 -0.10478278 -0.22122778 -0.043023985 -0.0028266935 -0.023090033 0.5101055 0.029256757
0.11641881 0.05464704 0.10405797 -0.026385585 0.008688212 -0.51409596 0.029281467 0.25776795
00000000: 0829 a83d a519 093f dd95 5e3e 5f9f 5b3b
00000010: c5c6 5e3e 3a12 aabd 4a92 df3c c5cd 8d3e
00000020: 0592 dc3e 6221 c03e c019 5f3e fe83 4c3d
00000030: 8c32 7e3d d2ac 8e3e acf2 823e e2bc fc3d
00000040: 28cd 113f 5b81 0e3f 0534 fa3c 8a87 72be
00000050: d3a7 4b3e 7bb0 253f 1f32 1f3f f0bf 8e3e
00000060: 2c5d 213e e400 af3e 290c 253e 8d06 213f
00000070: a7cd bd3e 134c 873e f727 243f 9dc4 123e
00000080: 5db9 203f b3e6 a53e c88f 66be 9a4d 3e3e
00000090: 7f33 f83e db1e 003c 314e a0be 0113 00be
000000a0: 19d3 f13e e5d0 6d3e 991c b63c 7ffa 843e
000000b0: 364c 9cbd 6f0a 373d 1b09 fd3c 65ea e9bd
000000c0: 5266 863e d1a6 e83d 28e4 913e 8fa7 183e
000000d0: c8b1 783e 4313 ab3e 14d5 10bd cacd b5bd
000000e0: 5699 c4bd d764 aa3e 45cb cd3e 8e28 d5bd
000000f0: c40d dd3d c98d 993e 0814 1abe 982c 05bd
00000100: 2572 283f eb67 d03e c053 623e 620f 823e
00000110: d182 1d3e 0ed5 2c3e c62a eb3e 7949 7e3e
00000120: 07fa b33e 4789 b33e 55a1 bf3e e002 8b3e
00000130: 7a5e 5f3e 2c84 0b3e 4568 ad3e 9626 123f
00000140: e4df 6c3e c9b5 ce3e 7cfa 293e 952b 6a3e
00000150: 9bd6 f33d ebd9 ec3e 61a5 4d3c aafd cc3e
00000160: b751 173e 3500 22be 46ba f33d d193 dd3d
00000170: 66b1 6c3e f142 963e ea45 19be b580 c6bc
00000180: a275 e53e e9f7 973e 4570 673e e696 323e
00000190: 8d37 0f3e 81ae 65be a92f a13e 8362 b73e
000001a0: 239d c1bd 8ccc 273e 71fb 303c 37c8 8ebd
000001b0: 9e31 753e 271a e33d 6dc5 8b3d 7126 2f3e
000001c0: f8ad 043f d5f3 813d c941 3b3e 4c02 d1bd
000001d0: 396c 173d 8c95 433e e59c b53e eb6c 2ebd
000001e0: 15f1 9f3e da87 0e3f 5511 4ebd 14ac f4bc
000001f0: 6d1a d13e 0795 e83d 5e7b a63e b9f9 003f
00000200: 8059 a9bc d9b5 f83d 645a 6c3d e2d5 b53e
00000210: 5114 de3e da7c 083f a491 c23e 2707 eabc
00000220: aeb2 96be e9d2 643d 5b51 0a3f b51a c53e
00000230: 54d5 c63e 1a29 d63e 9c76 f63e 53a8 de3e
00000240: a3e0 a63e dcfc 2c3e 4100 8fbd 31df 073f
00000250: bd71 1a3d 827d 92bd 9af7 dd3e 91b2 343e
00000260: 6c55 f83e c744 cc3e 8784 ca3e 4628 0d3f
00000270: 7b7b 993e b880 f33e 0911 eebd 3947 453e
00000280: c55e 0f3f cf18 cb3d e3fd eb3e 8b5b 313e
00000290: cb8b a03d 1b18 d63e 00fc 3e3e 01bc 833e
000002a0: 3fb0 1e3f 03a2 e53e abde 123f 462d c53e
000002b0: 9aac 683e fad1 5c3e cd01 c43e 48dc 0c3d
000002c0: 3a55 a73d 38da 923d ff1f 173e e80c c33c
000002d0: 1de4 943e 1b43 ad3e bcbf 9bbe 0156 8b3e
000002e0: 082f 8e3d 1b28 8d3e 9931 ebbb 54e4 053e
000002f0: 94c0 3d3c 9a9d 453d dc41 343e f828 143e
00000300: 0a6c 96be cb66 43be a6a2 8fbd 016c d23e
00000310: 2d09 f13e ccac 87bc 0e8c 193d ae55 5d3e
00000320: efa4 b13e e85c 7b3e ca8a 9b3d d28c 1b3e
00000330: 8fee 763e 512f a53d b711 a33d 6020 473e
00000340: 1181 8cbc 9e54 7f3d fb97 d43e 54ad c2bd
00000350: 548a 2d3d f3cf 9c3e 75a0 c43e 7eb5 843d
00000360: a335 853e 9258 b93e c3fb a1bc 2018 5c3d
00000370: 536b 4f3e 8edd 0a3c 9197 c53c 6a25 2b3f
00000380: 0bf5 3fbe 00e1 ac3e 9821 1ebe 08b8 84be
00000390: e69a cf3d 725c 963d 0e41 373f 91c5 173e
000003a0: 23fe 4b3e 5642 0dbc 64de 3a3f ba16 e33d
000003b0: cca0 72ba eeec de3b 06f2 c6bd 1ed1 bcbd
000003c0: 01a6 f83c 5b98 d6bd 8989 62be eb39 30bd
000003d0: 0c40 39bb 4f27 bdbc 4696 023f deab ef3c
000003e0: fc6c ee3d 93d5 5f3d 581c d53d 9526 d8bc
000003f0: 0159 0e3c cb9b 03bf b0df ef3c 29fa 833e

bias f4 [88]
0.959631 -1.1251671 -0.58509576 -0.8185972 -0.8991234 -0.74010277 -0.5357156 -0.7991602
-0.58045113 0.9105571 -0.64353335 0.8829413 -0.2696219 0.9831478 -1.3021147 0.9298105
0.99365896 -0.13344897 -0.40163466 -0.51822746 0.88354456 0.88360965 0.902761 -1.0219046
0.9713727 0.9987548 -0.554577 0.9416071 0.8826787 0.8565592 -0.89447725 -0.9736064
-1.0976882 1.0148481 -0.8155126 -0.6380597 0.89113903 0.9384205 -0.25579572 0.9521292
0.91381663 -1.0518022 -1.3240331 0.89027315 1.0062977 0.9920198 -0.43419692 -0.61293715
0.9517905 -0.48005477 0.997461 -0.37407836 -0.917976 -0.29000673 -0.5438883 0.9962093
-0.47940752 0.9433318 0.93248314 0.91169393 0.904339 -0.19956817 0.86078656 -0.94166577
-1.0025079 -0.5168334 -0.33220592 -1.1105726 0.9087783 -1.5645179 0.9145256 -0.66597295
0.98499084 -0.7969272 -0.40718776 0.85985196 -0.57048905 1.0231932 -0.73469496 0.97085994
-0.7352092 0.9539778 0.895197 -0.46007687 -0.43386337 0.9789401 -0.73268497 0.8909712
00000000: 61aa 753f 7a05 90bf d6c8 15bf 968f 51bf
00000010: f32c 66bf 6077 3dbf a824 09bf c395 4cbf
00000020: 7298 14bf 451a 693f 9abe 24bf 7108 623f
00000030: e20b 8abe 93af 7b3f b2ab a6bf 1008 6e3f
00000040: 6f60 7e3f d9a6 08be 0fa3 cdbe 8eaa 04bf
00000050: fa2f 623f 3e34 623f 581b 673f c5cd 82bf
00000060: e2ab 783f 65ae 7f3f c2f8 0dbf 2a0d 713f
00000070: 3bf7 613f 7747 5b3f 76fc 64bf 453e 79bf
00000080: 0c81 8cbf 8be6 813f 6fc5 50bf e157 23bf
00000090: b021 643f 533c 703f a8f7 82be bdbe 733f
000000a0: e3ef 693f 74a1 86bf eb79 a9bf f1e8 633f
000000b0: 5dce 803f 02f5 7d3f 0f4f debe 73e9 1cbf
000000c0: 8ba8 733f bdc9 f5be 9b59 7f3f 3387 bfbe
000000d0: 7a00 6bbf c37b 94be 433c 0bbf 9307 7f3f
000000e0: e774 f5be 317e 713f 37b7 6e3f c664 693f
000000f0: c382 673f 995b 4cbe 825c 5c3f 0211 71bf
00000100: 2e52 80bf 324f 04bf e516 aabe 3e27 8ebf
00000110: b2a5 683f 1f42 c8bf 5a1e 6a3f 347d 2abf
00000120: 5c28 7c3f 6c03 4cbf ea7a d0be 421f 5c3f
00000130: 920b 12bf fff7 823f f814 3cbf 478a 783f
00000140: ac36 3cbf e437 743f a12b 653f 328f ebbe
00000150: 5723 debe d29b 7a3f 3e91 3bbf b016 643f

weight f4 [22, 88]
0.006184163 1.2843481 9.05268 0.9086936 1.397683 0.8403006 0.7209815 0.90728545
0.4709647 -0.070644215 1.0994688 -0.0039794752 2.264566 -0.11669247 1.4012947 -0.12373306
-0.004964092 1.6410464 2.4435124 1.163081 -0.119492464 -0.13638873 -0.0019118905 0.7135005
-0.112652026 -0.0062158173 0.6550303 0.054068558 0.01980846 -0.11295615 1.1580815 0.5182322
2.0370002 0.07170411 1.5070181 1.3141334 -0.10504998 0.026335394 1.1806622 -0.13717954
-0.100209996 1.3166949 1.2780735 -0.10133403 -0.097609 -0.00508782 1.2271184 1.4809885
-0.11287621 1.3341373 -0.041811116 2.4931488 4.712769 1.4871893 2.1489484 0.050934903
1.7878296 0.050775252 -0.13845553 -0.09452382 -0.059413023 1.0255353 -0.14189471 2.7502413
1.1176299 2.2161865 2.1714325 1.5845654 -0.1408185 1.3643706 -0.114418015 2.6717017
-0.019994508 1.6415894 2.8204985 -0.10739846 1.1299859 0.084367156 1.0384948 0.011687513
2.680077 -0.1362005 0.00846224 1.2458541 1.2370526 -0.020297326 2.589251 -0.13399851
-0.0077218893 1.3601508 8.952019 1.0817537 1.3239436 0.91258174 0.8532767 1.0694716
0.48432598 -0.09993993 1.1469529 0.055066057 2.4593375 0.11606413 1.3828375 0.012723164
0.046073355 1.8703276 2.3173444 1.1721897 0.04290672 -0.021797182 0.013573897 0.9102058
-0.1171489 0.09418311 0.56440264 -0.10473776 -0.042557582 -0.09528835 1.0113796 0.37850377
2.2005014 0.011191701 1.6863364 1.2431432 -0.11355136 -0.00490283 1.1631168 -0.041431356
-0.032054037 1.360767 1.4418195 -0.1068893 -0.0017636331 -0.07941985 1.2120624 1.6236689
-0.09197135 1.0797876 -0.1268629 2.4556093 4.759701 1.4864315 2.0617497 -0.049773496
1.549564 0.0002907068 -0.09624484 -0.106612414 -0.0032966777 1.0494753 -0.09403601 2.7135322
1.258488 2.1878846 2.2206185 1.41795 0.06311671 1.3015989 0.07397645 2.6768024
-0.0033805717 1.5507278 2.9117315 -0.071876526 1.0655392 0.06594525 1.1042526 -0.095886365
2.7070627 -0.008210718 -0.09788149 1.3820635 1.2284838 -0.025444888 2.4015706 -0.031344153
0.5783787 -1.3297354 -8.863702 -0.96773815 -1.3505245 -1.143704 -0.7066478 -0.8292975
-0.51022965 0.63659227 -1.3127844 0.48856807 -2.3195584 0.4915348 -1.3566006 0.52621245
0.647968 -1.6887165 -2.5558834 -1.7102919 0.6388105 0.64350593 0.6008059 -0.7264183
0.4953969 0.47964913 -0.45399424 0.51642823 0.6302549 0.5457334 -1.4047449 -0.9955839
-2.273665 0.4999269 -1.7448547 -1.7447304 0.53458303 0.665076 -0.95761114 0.4881037
0.6531201 -1.7551149 -1.403735 0.5635914 0.5906263 0.6373147 -1.1932985 -1.8249881
0.5157165 -1.2035091 0.6023279 -2.2266111 -4.673385 -1.639497 -2.7316656 0.48779783
-1.7790173 0.5483715 0.49519038 0.6159843 0.62235564 -0.9903661 0.59517586 -2.7303636
-1.4561667 -2.2934594 -2.3392878 -1.5254891 0.52007097 -1.374708 0.5267599 -2.7022593
0.522583 -1.7336755 -2.8681443 0.5391902 -1.3841097 0.67418146 -1.1739601 0.526943
00000000: 85a4 ca3b 8565 a43f c7d7 1041 25a0 683f
00000010: 47e7 b23f f11d 573f 3e92 383f dc43 683f
00000020: 4922 f13e eaad 90bd 65bb 8c3f 4266 82bb
00000030: a6ee 1040 76fc eebd a05d b33f c267 fdbd
00000040: d2a9 a2bb cf0d d23f 8262 1c40 d7df 943f
00000050: 77b8 f4bd 7da9 0bbe 6698 faba f8a7 363f
00000060: 1bb6 e6bd 0eae cbbb 11b0 273f fe76 5d3d
00000070: 5a45 a23c 8e55 e7bd 043c 943f deaa 043f
00000080: 365e 0240 9bd9 923d f8e5 c03f 8635 a83f
00000090: 7224 d7bd 53bd d73c f01f 973f cb78 0cbe
000000a0: e63a cdbd 7589 a83f ea97 a33f 3788 cfbd
000000b0: 3ae7 c7bd bab7 a6bb 3712 9d3f 0891 bd3f
000000c0: a42b e7bd 03c5 aa3f 2242 2bbd c08f 1f40
000000d0: 01cf 9640 385c be3f 5f88 0940 1ea1 503d
000000e0: 9ad7 e43f b6f9 4f3d 49c7 0dbe b495 c1bd
000000f0: 125b 73bd be44 833f d94c 11be f403 3040
00000100: 7f0e 8f3f 00d6 0d40 c0f8 0a40 0ad3 ca3f
00000110: ba32 10be b2a3 ae3f fe53 eabd 29fd 2a40
00000120: 86cb a3bc 9a1f d23f 0c83 3440 b9f3 dbbd
00000130: 61a3 903f b0c8 ac3d 66ed 843f fc7c 3f3c
00000140: 6286 2b40 2578 0bbe 35a5 0a3c 2678 9f3f
00000150: bd57 9e3f 9446 a6bc 4ab6 2540 e836 09be
00000160: e707 fdbb 6c19 ae3f 783b 0f41 e876 8a3f
00000170: fc76 a93f f59e 693f 5870 5a3f 72e4 883f
00000180: 93f9 f73e 4ead ccbd 5acf 923f f28c 613d
00000190: c965 1d40 08b3 ed3d d200 b13f d174 503c
000001a0: 6ab7 3c3d e566 ef3f 5f4f 1440 500a 963f
000001b0: f5be 2f3d 0190 b2bc 0d65 5e3c 3f03 693f
000001c0: c3eb efbd 13e3 c03d b17c 103f c080 d6bd
000001d0: dc50 2ebd 8a26 c3bd e374 813f 3fcb c13e
000001e0: 04d5 0c40 655d 373c dfd9 d73f 511f 9f3f
000001f0: 9e8d e8bd eba7 a0bb 03e1 943f edb3 29bd
00000200: 184b 03bd 9d2d ae3f 8b8d b83f c7e8 dabd
00000210: b529 e7ba e0a6 a2bd dc24 9b3f 62d4 cf3f
00000220: 7a5b bcbd 7b36 8a3f 59e8 01be b428 1d40
00000230: 784f 9840 6343 be3f b5f3 0340 4bdf 4bbd
00000240: 1d58 c63f 026a 9839 041c c5bd 9c57 dabd
00000250: 130d 58bb 3555 863f f495 c0bd 83aa 2d40
00000260: 2316 a13f 4d06 0c40 9d1e 0e40 637f b53f
00000270: 5543 813d cb9a a63f f780 973d bb50 2b40
00000280: 958c 5dbb 407e c63f cf59 3a40 0034 93bd
00000290: 9763 883f 4e0e 873d 2658 8d3f 1260 c4bd
000002a0: 8440 2d40 3f86 06bc 1776 c8bd 75e7 b03f
000002b0: f53e 9d3f cc71 d0bc 55b3 1940 ba62 00bd
000002c0: a010 143f c534 aabf b9d1 0dc1 b0bd 77bf
000002d0: fddd acbf e564 92bf dfe6 34bf d74c 54bf
000002e0: 699e 02bf b6f7 223f 5209 a8bf 9825 fa3e
000002f0: a573 14c0 73aa fb3e 17a5 adbf dcb5 063f
00000300: 3be1 253f dd27 d8bf 9893 23c0 d8ea dabf
00000310: 1689 233f cebc 243f 6ace 193f 8df6 39bf
00000320: aaa4 fd3e 9294 f53e ef71 e8be a434 043f
00000330: 6358 213f 2fb5 0b3f aece b3bf 96de 7ebf
00000340: ba83 11c0 6bf6 ff3e 6657 dfbf 5353 dfbf
00000350: 6fda 083f 6c42 2a3f 0126 75bf bae8 f93e
00000360: e132 273f 9ba7 e0bf 97ad b3bf 8747 103f
00000370: 4933 173f 0e27 233f 01be 98bf 3699 e9bf
00000380: ff05 043f 960c 9abf 2932 1a3f cc80 0ec0
00000390: 5f8c 95c0 0adb d1bf 9cd3 2ec0 a3c0 f93e
000003a0: d7b6 e3bf 1362 0c3f 9889 fd3e 26b1 1d3f
000003b0: b352 1f3f a288 7dbf 725d 183f 47be 2ec0
000003c0: ac63 babf 0ac8 12c0 e4b6 15c0 3a43 c3bf
000003d0: 5f23 053f 6ff6 afbf bdd9 063f d1f1 2cc0
000003e0: 00c8 053f 14e9 ddbf ad8f 37c0 5e08 0a3f
000003f0: 822a b1bf 2897 2c3f 5344 96bf bde5 063f

bias f4 [22]
-0.5359667 -0.5052326 0.9212909 1.031881 -0.6189718 -0.35478747 0.91960907 -0.61104244
0.8869843 0.83930445 -0.5056188 -0.5500048 0.95286465 0.9540489 0.9760164 0.94071543
0.9094964 -0.50395375 -0.4022579 -0.5522646 -0.55025077 1.0114667
00000000: 1d35 09bf ec56 01bf b8d9 6b3f ad14 843f
00000010: f074 1ebf b4a6 b5be 806b 6b3f 476d 1cbf
00000020: 6711 633f a8dc 563f 3c70 01bf 1dcd 0cbf
00000030: f0ee 733f 8c3c 743f 36dc 793f bad2 703f
00000040: c2d4 683f 1d03 01bf bff4 cdbe 3661 0dbf
00000050: 3cdd 0cbf be77 813f

weight f4 [1, 22]
0.791525 0.80448383 -0.577765 -0.5100781 0.88204765 0.7396001 -0.52308303 0.8394622
-0.49819526 -0.5832625 0.6761914 0.8347592 -0.61357224 -0.531093 -0.5867735 -0.67252403
-0.53157514 0.9019298 0.724547 0.8332055 0.68729717 -0.65017045
00000000: 62a1 4a3f a7f2 4d3f 68e8 13bf 7a94 02bf
00000010: e0cd 613f 6f56 3d3f c5e8 05bf ffe6 563f
00000020: 7313 ffbe b150 15bf e11a 2d3f c7b2 553f
00000030: 1213 1dbf b6f5 07bf ca36 16bf 892a 2cbf
00000040: 4f15 08bf dfe4 663f ea7b 393f f54c 553f
00000050: b5f2 2f3f 9271 26bf
