data/q_value_net_1_simple_spread_3990000_GSA.pth (torch, 114831 bytes, 7 tensors)

weight f4 [160, 80]
00000000: 3750 233f 8dd9 47be cf3d 5a3f dfd2 63bf
00000010: 9853 f3be b129 433f 984b 08be ab5c 463e
00000020: 397b 21bd 933b 4b3e 07fb 14be 7a02 843e
00000030: 12d4 08bf dca2 093f 6eb3 1dbf fdb8 233f
00000040: 8fb4 cabe 4250 c53e e24a 7a3d f987 fe3e
00000050: 109f 4dbe 227c 303e a870 6cbe 0305 493e
00000060: 7652 0a3e cb3e 51be c1ad 5b3e da82 0cbe
00000070: bdfd 113e ac8d 4dbe 25ff 273f 169d 11bf
00000080: 573b 363e d2ac 80bc 76e1 083d c82d 00bd
00000090: 8e75 ec3d add8 e03e 8925 72be f09b 433d
000000a0: 0647 7fbe d6b7 673e b2d3 203e ec91 bcbd
000000b0: 9b13 0b3e 529c 91be aef9 0b3e af04 6cbe
000000c0: 1217 f13e 10ec 03bf b171 823b 6a33 b63d
000000d0: 79d2 f9bc 8586 4fbd d7c6 cb3d bf26 d63e
000000e0: cafe 26be f88a 6a3e 83c7 9bbe 3f13 9b3e
000000f0: 134c 983e fbaf 43be 9329 5b3e 4ba3 26be
00000100: 970f d63c 56ab afbd 9141 c43e f994 fdbe
00000110: e0c5 63bd 1314 1f3e 16cf 9abd 3d7f 183c
00000120: a7ee 083e 7b7b 05be 470a f6bc 33fc b03c
00000130: 7fdd b0bc 3d60 033d b6e6 a0bc dbb9 fe3c
00000140: 47e0 8f3e cde9 b43e 84e3 433f 3e87 603f
00000150: 4e34 193d 1ea0 9fbd b1c1 88bc db91 fa3d
00000160: f3bd bb3d 1ef0 70be bf93 28bd cd28 15be
00000170: 1685 003d e45d c73d bd0d d3bd a1d6 8fbd
00000180: 12ba 243d 13cf 023d e402 eb3e 97c3 933e
00000190: 8cef 713f 4e6e 9d3f 8c59 d1bd ed76 80be
000001a0: b366 16be 50b1 893d d2b8 8dbd e858 36be
000001b0: 2481 d8bc 7e83 20be f85b 543d cc45 e6bd
000001c0: af42 e63a b052 993d ba32 b9bd 9b63 8abd
000001d0: 0c7d d33e e189 b73e cd04 3f3f 112b 5c3f
000001e0: 3a62 3cbe 7217 d5bd b928 043d 58b8 863c
000001f0: ceb8 04be e4b1 28be e48d 39be 7a22 0cbe
00000200: d0cb 46bd 5465 94bd a9f1 2bbd a96f b83d
00000210: 1f3b 04bb 8fff 1d3a 3bb5 e23e 020e fc3e
00000220: 868d 4b3f 8fb2 5a3f 15f8 a0bd 141c 5bbd
00000230: d524 e3ba aaad 463e cb9d c1bd 71af f3bd
00000240: 40e8 563d 0585 04be 8c15 e8bd 8d0b 4e3d
00000250: 0fd3 cebc 780c 38bd 7b36 b33d 703a 8f3d
00000260: 20f2 a43d 9f3e e03d 5ddb c83d 53ba 303e
00000270: 0455 ae3d c3e8 cd3d 2b42 d03d 42bb ac3d
00000280: e3bf e63d e452 87bc ec95 963e f6c6 5fbe
00000290: 5adc 97bd 58c7 6b3d d721 ac3d 881c 833d
000002a0: df7e c43d 85b1 d8bc fcec b5bd 6d57 e8bc
000002b0: 97dd fdbd bb60 8c3d 0546 a8bd af58 c13d
000002c0: 8d2a bf3c ae19 313d 251a 163e a254 703d
000002d0: 78ef 153d 7a83 033e a1f9 c3bd b1ff b7bd
000002e0: a677 873d a2fb 93bd 8ea5 28bd 6ef8 25be
000002f0: eb43 40bd f741 7b3d f22f 073e b569 973b
00000300: e77a 643d 8466 1339 145e 473c c06f fcbd
00000310: 8e3c 753e 62ae c93d 29c3 f43d 6336 343d
00000320: 03f4 423d 4c53 933c 2b52 a23d 4954 b5bd
00000330: b0aa dc3c b164 88bc ba7a 48bd 4591 0dbc
00000340: 5247 973d fe5c 1f3d 2b8a 3abd 271a 1c3d
00000350: 34ff 42bd 10e2 af3c 8a8b 823e 3c21 b3bc
00000360: 74ee 213e 36b0 8abe b27b 4f3c 4e2d 5e3d
00000370: 8d4e 403e 09fe f63c 05b1 47bd 03a6 4fbd
00000380: e126 22bc 9030 5abc dea2 fdbd 6b57 3b3d
00000390: e2d1 ecbd 7743 b73d 46b4 edbd 7104 94bd
000003a0: 4682 043d b175 9dbc 2b09 29bc fefc babc
000003b0: c960 edbb e9e1 b0bc 18b7 a7bb 3945 5cbd
000003c0: 5727 4a3e b9fa 8a3e b8f9 9fbd ea4b 15be
000003d0: d404 573e 5830 80bd 55b4 8f3d 7d07 2e3e
000003e0: 00ad ae3d 4faf 793d d9fb 563e 77c2 893d
000003f0: b696 8c3e abda 953e 8b8b f6bd e3c1 173e
0.63794273 -0.19516583 0.8525056 -0.8899364 -0.47524714 0.7623549 -0.13310087 0.19371288
-0.039424155 0.19846945 -0.14548884 0.2578314 -0.53448594 0.5376413 -0.6160191 0.63954145
-0.3959088 0.38537794 0.06110657 0.49713114 -0.20080209 0.17234853 -0.2308985 0.19630818
0.13508019 -0.2043411 0.21453 -0.13721791 0.1425695 -0.20073575 0.65623695 -0.5688032
0.17796074 -0.015707407 0.03341814 -0.03129366 0.11545859 0.4391531 -0.23647131 0.047756135
-0.24929437 0.22628722 0.15705755 -0.0920752 0.13581698 -0.28439575 0.13669464 -0.23048662
0.47087914 -0.5153208 0.003980838 0.08896525 -0.030495869 -0.050665397 0.09950035 0.41826436
-0.16308132 0.22904575 -0.30425653 0.3028812 0.2974554 -0.191101 0.21402578 -0.16273229
0.02613048 -0.085776016 0.38331273 -0.4952772 -0.05560863 0.15535001 -0.0755903 0.00930768
0.13372289 -0.13035385 -0.030034197 0.021604633 -0.021589993 0.0320742 -0.019641262 0.031094482
0.28100798 0.35334626 0.76519036 0.87706363 0.037403397 -0.07794212 -0.016693922 0.12234851
0.09167089 -0.23529097 -0.041156527 -0.14566346 0.03137692 0.09734705 -0.10305355 -0.07023359
0.040216513 0.031935763 0.45900643 0.2886016 0.94506145 1.2299287 -0.10222158 -0.25090733
-0.14687614 0.06723273 -0.06920017 -0.17807353 -0.026428767 -0.1567516 0.05184552 -0.112437814
0.0017567481 0.074864745 -0.090428784 -0.067572795 0.4130634 0.3584738 0.746167 0.86003214
-0.18396845 -0.104048625 0.0322654 0.016445324 -0.12961122 -0.1647411 -0.18120533 -0.13685027
-0.048534214 -0.07245889 -0.041978512 0.090056725 -0.002017684 0.0006027156 0.44278893 0.49229437
0.7951282 0.8542871 -0.07859818 -0.053493574 -0.0017329702 0.19402185 -0.09453925 -0.11898697
0.052467585 -0.12941368 -0.11332235 0.050303984 -0.025247125 -0.044933766 0.08750626 0.06993568
0.08053994 0.10949444 0.09807465 0.17258577 0.08512309 0.100541614 0.101688705 0.08434154
0.11267068 -0.016519018 0.29411256 -0.21853241 -0.074150756 0.057563156 0.08404892 0.06401926
0.09594511 -0.026451835 -0.08883092 -0.028362 -0.123957805 0.068543874 -0.0821648 0.09440743
0.02333572 0.04323738 0.14658411 0.058674462 0.03660533 0.12843123 -0.09569097 -0.08984316
0.06614618 -0.072257295 -0.04117351 -0.1620805 -0.04693977 0.061342206 0.13201883 0.0046207556
0.05578127 0.00014057202 0.012168426 -0.12326002 0.23948881 0.09847714 0.11951286 0.04399718
0.04759599 0.017984055 0.079258285 -0.08853967 0.026936859 -0.016649576 -0.048945166 -0.008640592
0.0738665 0.038907044 -0.045541923 0.03811088 -0.047606662 0.0214701 0.25497085 -0.021866433
0.15813619 -0.27087563 0.012663769 0.054242425 0.18779965 0.03015043 -0.048752803 -0.05069543
-0.009896965 -0.013317242 -0.1238458 0.045737665 -0.115634695 0.08948415 -0.1160665 -0.0722741
0.0323508 -0.019221159 -0.010317127 -0.022825714 -0.0072442037 -0.021592097 -0.005118262 -0.053776953
0.1974157 0.2714441 -0.07811302 -0.1457974 0.20997936 -0.06259221 0.070168175 0.16995044
0.08529091 0.060958203 0.2099451 0.06726544 0.27458733 0.29268393 -0.120383345 0.14820056

bias f4 [160]
00000000: dd3c 66be a48d ad3e f4b6 693f dd03 7bbf
00000010: b035 b83e 8c80 0dbf 1cf4 a03f 9371 f1be
00000020: 4ec8 18bf a52f 17bf f276 9abe 52f3 2b3f
00000030: c1cb dcbb 5e37 1abf febd 803f 746a c43f
00000040: d81e ed3e 29cb 60bc 9f99 aebd b1a6 2fbd
00000050: b0a7 3ebd ed56 02bf 07c6 64bf aac8 393f
00000060: 5cd1 d23e 7393 a9be b58a aa3e c41f 96bd
00000070: 8db2 21bf cdf1 f8bc b076 40be ad0a ca3c
00000080: b1e8 89bf e189 733f 7a95 ff3e c2c7 ecbc
00000090: bce4 a53f 6e62 42be 87e8 aa3b 8036 4e3e
000000a0: 12bd babf ea7a 57bf e4e6 1a3d 591e efbe
000000b0: 1795 2c3f 8484 3ebf d6e6 05bf 79a5 2cbf
000000c0: 0c8e 993e e30a 36be e0a8 df3e aa8b 88be
000000d0: 109a 1f3f 20e4 303f 159d 6a3f b7fe 89bf
000000e0: 0307 55be c21c 113e 55ff acbf 67fe 1d3e
000000f0: 4f64 53be c571 92be 42d3 07bf 86b8 803f
00000100: fe80 973d d728 af3f 3a5c ffbe a890 02bd
00000110: 40d5 32bf 858b ecbe be9c 593e 3556 e6be
00000120: f86a bfbd 81aa dabe f470 603f 0ea1 493f
00000130: e6d8 7d3f 7bb1 89bf d8b3 10be 9bf4 243f
00000140: 4257 cbbe 678e 5b3f c4ee 29bf b679 63bf
00000150: 994c 0bbf 44ac d43d ce66 4d3f 846c c3be
00000160: dfb7 953e ce45 b3be 2cb4 c33e 554b f8be
00000170: 0072 80be 615a a53d d246 4b3f 508e a63d
00000180: 5882 e8bf bc1f 8a3e 97b4 92be 9ea8 883f
00000190: 5fff 8b3f 1f96 1cbc 394e 233f 5a34 3a3c
000001a0: 180d 7c3e 6262 3a3f baaa dbbe 7e37 cfbd
000001b0: ed00 4dbe 965b 533f 558d c23e f054 11bf
000001c0: 5cbf a3be ff8f 833f f0a2 d13c 2c5c 9a3c
000001d0: 73bd 59bf 4255 2fbf 2408 883e 7943 713e
000001e0: 35d0 c73e 7033 7fbf 96d8 993f e5f0 80bd
000001f0: 760f 14bf b5c2 073f bfd3 3dbf 362d 34bf
00000200: 4f97 ddbe 2bd4 f0bd 3912 e0bd 09f4 743e
00000210: bf0a 793f 937f 913f 9c05 55bd 8488 cb3e
00000220: 0876 72bf 7b79 0bbf 75ab 24be 56c3 53bc
00000230: 8ade ba3f 3dfa a1bb 07a3 44be fe2c 973c
00000240: ebe6 06be b091 32bf 5666 63be 9f15 7d3f
00000250: 13d5 3f3f f21f 06bf 237c 11bf c59f 633f
00000260: 15fa 133f f29b f93d 5e6c dcbd 7bbb 9b3e
00000270: 1248 15bd ad51 bbbf 9775 3dbf 9f29 803f
-0.22484155 0.33897126 0.9129479 -0.9805277 0.3597846 -0.5527427 1.2574496 -0.47156963
-0.5968064 -0.59057075 -0.30168873 0.6716815 -0.0067381565 -0.60240734 1.0057981 1.5344987
0.46312594 -0.013720312 -0.08525395 -0.04288358 -0.046546638 -0.5091389 -0.89364666 0.72571814
0.41175354 -0.33120307 0.3330895 -0.073302776 -0.6316307 -0.030388737 -0.18795276 0.024663294
-1.0774137 0.9513226 0.4991873 -0.028903846 1.2960429 -0.1898286 0.0052157077 0.20137978
-1.458895 -0.84171927 0.03781785 -0.4670284 0.67414993 -0.7442095 -0.5230535 -0.6743999
0.29991186 -0.1777759 0.4368353 -0.26669055 0.62344456 0.6909809 0.9164594 -1.0780858
-0.20803456 0.14171126 -1.3515421 0.15429078 -0.20643733 -0.28602424 -0.5305673 1.0056312
0.0739765 1.3684338 -0.4987505 -0.031876236 -0.69856644 -0.46200195 0.21251199 -0.44987646
-0.093465745 -0.4270821 0.8767235 0.78761375 0.99159086 -1.0757288 -0.14131105 0.6443574
-0.3971501 0.85764164 -0.6637995 -0.8885759 -0.54413754 0.103844196 0.8023499 -0.38168728
0.29241845 -0.35014194 0.38223398 -0.48494974 -0.25086975 0.08073879 0.7940494 0.08132613
-1.8164778 0.26977336 -0.28653404 1.0676458 1.0937308 -0.009557276 0.63791233 0.011365021
0.2461437 0.7280637 -0.42903692 -0.10118006 -0.20019884 0.82561624 0.37998453 -0.5677023
-0.31981933 1.0278319 0.02559039 0.01884278 -0.850547 -0.6848947 0.2656871 0.23560895
0.39026037 -0.9968786 1.2019222 -0.06295947 -0.5783609 0.53031474 -0.74151224 -0.70381486
-0.43279502 -0.11759218 -0.10940976 0.23921217 0.9728202 1.1367058 -0.052007303 0.3975259
-0.9471135 -0.5448224 -0.1608103 -0.01292499 1.4599164 -0.004943161 -0.19202815 0.018454071
-0.13174026 -0.6975355 -0.22207007 0.98861116 0.749345 -0.52392495 -0.5683004 0.88915664
0.5780347 0.12187947 -0.10762857 0.30416474 -0.036445685 -1.46343 -0.7400755 1.0012702

weight f4 [80, 160]
00000000: 43ee 06be ffbc 68bf 7cc5 963d 0f19 85bd
00000010: 7ced cabe 3066 f7be f35f 933d 08de 5d3e
00000020: 4ecb ddbd ec23 1cbd 5a5a da3c d7d9 23be
00000030: 0c11 80be c11f 12bf c555 053d a8a2 d1be
00000040: e833 d43c 1ff0 c3be 2829 a43d 9103 40bd
00000050: d038 1cbb 0d12 143d 76e0 68be 9a36 693e
00000060: 2c38 c1be ee99 fc3d de97 96bb 54be 153e
00000070: 10ad 42be e43f d6be 116f 373a 2faf a6be
00000080: 455e 883d d6c9 82bf 2cc0 c8bc 1041 263e
00000090: c3f4 51bf 9277 f8bd f9d0 abbe e39f f8be
000000a0: 30d1 1ebe 906b 29bf 5e39 1f3e b6f1 5dbe
000000b0: 7a12 e6bc 4b2d f43e c31d 4f3e a109 1ebf
000000c0: 8ddd 5dbd 76d8 84bf 1457 14be a670 873e
000000d0: 32e5 50be 3ce3 133d 6671 4dbe 4816 493d
000000e0: 7a2a fb3d aac2 a2be 1b4e ed3e 75ba 8d3e
000000f0: 8470 923e 0653 9d3d d15d 993d e89f 82bc
00000100: f7dc bbbd d526 b8be 6f63 aebd 17ce 033f
00000110: a2b4 a7be cf9a 2c3e d9ba 00bf 2246 163e
00000120: 8284 3abe ed41 a23c d0d1 e8be 0908 9f3d
00000130: 93b4 0dbf cdd6 72be 948d 6ebd 54c4 e7bc
00000140: 7ede 9fbd 32ee 61be 4eed 323f 630c b73d
00000150: 32b8 93bd 48c9 8ebe fbbd d0be 9cd2 253f
00000160: aeb3 9cbe a8da 04bf 2623 f9be 291a f33c
00000170: 8d17 73bf b5b9 6e3c c71b 23bf 0b59 803e
00000180: b668 22be 0d9c 2ebf 5bfa f2be 2be2 0fbf
00000190: d536 d9bc e297 903d 81d7 1cbf aca9 8e3e
000001a0: 71f9 ccbe d5d0 543e 4f30 9bbf a2be 8ebc
000001b0: 2cca e2be 8d15 ffbc 2125 3cbf 0ad3 543e
000001c0: fb2b 9cbe 49d8 9cbe 7d26 43bf 7b56 443e
000001d0: 4716 82be ac44 36bd d706 9e3d 681b 0b3e
000001e0: b659 833e 16ab debf 99eb 64be 1e33 7b3c
000001f0: 30af 0d3e 48e0 47bf 15f3 18bd 4311 0d3f
00000200: a348 21be 1cae b73e bf18 ccbc c470 803b
00000210: eeb8 f5bd ca03 eabd b383 c63e 6ed2 b2bc
00000220: 6e23 a8bf 4d39 b0be b232 8f3e cbe4 25be
00000230: 329a 87be 3526 8ebe b8a2 a1be 9a12 803e
00000240: 4bb1 193e 33df 78be 09a9 753f ddc2 a3bd
00000250: 2dd8 f73d 98d8 b6be d473 66be a4fd b2bd
00000260: 00c2 1f3f 4137 8f3d 4759 11bd 69f3 e1bd
00000270: e8a8 a5be 1f66 f4bc 0bd9 6d3e b4be 1bbf
00000280: b1f6 10bd 9a44 30be 4f9b 65bd 029f 90be
00000290: 280c c4bd 5686 173d 54c2 0b3b 35ad cd3d
000002a0: 9a91 9cbe 30ba 50be 6139 55be 2738 06bf
000002b0: 51ef 073d eb60 823e bb11 4fbd 65c6 853d
000002c0: 77e4 323e 309b 9dbd 4352 edbc 7c40 9e3e
000002d0: fce6 9abe 3a6d 7ebd 9973 243d 81f1 183d
000002e0: d9fd 63be bbfe 9b3d aced 1abd 31b9 9c3d
000002f0: 2101 9b3e 083e 8e3e 4fb2 e13d 25d0 223e
00000300: d995 883d 6531 9a3e 5c3b 853d d179 b73d
00000310: d89b ac3d 5678 5ebe 007b 9bbe 5a45 08be
00000320: 307e 2bbe 05da 92be 9159 913d 6211 353e
00000330: 78c8 93bd ef7f 60be 39db da3b 63e1 5f3f
00000340: f2be 98be c5fe de3e d85e 163d 8ffa 523c
00000350: 9cb1 96bd e919 08bd 2518 72bd 68c9 11be
00000360: e466 80bc 6651 1bbe e163 12be 0eff 4fbc
00000370: 1868 80be 1888 0abe 6425 bb3e 37ea 58bd
00000380: 76a3 1d3e c4aa 343e f6ae 68be aa00 dd3d
00000390: 7fc6 e1bd f69b 46bd 7f7d 353e cb83 853d
000003a0: 08b8 94be 1a9e 173f 5ae7 793e 347d 33be
000003b0: b647 10be b1ee f6be 0ac9 03be e116 d0be
000003c0: 724e a63c 25bb a3bd 7c34 1d3e 86a2 28be
000003d0: ad37 7e3c f6b2 4ebe 4974 3d3d 5713 833e
000003e0: 8db9 d1bd 5a47 ad3d ab0a 85be 7e01 643d
000003f0: e847 043f 8c95 0cba 4a97 16be b738 643d
-0.13176827 -0.90913385 0.07361886 -0.0649892 -0.3963431 -0.4832015 0.07196035 0.2166673
-0.10829793 -0.038120195 0.026654411 -0.16001068 -0.25013006 -0.570797 0.0325525 -0.4094441
0.025903657 -0.38269135 0.080156624 -0.0468784 -0.0023837574 0.036150027 -0.22741875 0.22774735
-0.37738168 0.12334047 -0.0045957407 0.14623386 -0.1901133 -0.4184562 0.0006997446 -0.3255553
0.066586055 -1.0217845 -0.024505697 0.16235757 -0.820141 -0.12132181 -0.3355787 -0.48559484
-0.15509486 -0.6617975 0.15549228 -0.21674237 -0.028084982 0.47690806 0.20226197 -0.6173344
-0.054166365 -1.0378559 -0.14486343 0.2645313 -0.20399931 0.03610538 -0.2006279 0.049093515
0.12263961 -0.31789142 0.46348652 0.27681318 0.28601468 0.07681851 0.07488597 -0.01594539
-0.09173005 -0.35967126 -0.08515059 0.51486343 -0.32755 0.1685593 -0.50285107 0.14675191
-0.1821461 0.019806826 -0.45472574 0.077652045 -0.5535366 -0.23714752 -0.05824049 -0.028291859
-0.07806109 -0.2206352 0.6989335 0.089379095 -0.07212867 -0.2788794 -0.40769944 0.6477449
-0.30605835 -0.5189614 -0.4865963 0.02967556 -0.9495781 0.014570643 -0.6371426 0.25067934
-0.15860257 -0.68206865 -0.4745663 -0.5620448 -0.026515404 0.07060219 -0.6126633 0.27863824
-0.4003406 0.20782788 -1.2124118 -0.017424885 -0.4429487 -0.031138206 -0.73494154 0.2078363
-0.30502304 -0.30633762 -0.76230603 0.19173615 -0.2540762 -0.044499084 0.07716148 0.13584673
0.25654382 -1.7395961 -0.22355498 0.0153320115 0.1383636 -0.780766 -0.037341196 0.55104464
-0.15750365 0.35875022 -0.024914144 0.0039196927 -0.11998163 -0.11426504 0.38772354 -0.021828856
-1.3135812 -0.34418717 0.27968365 -0.16200559 -0.2648483 -0.27763525 -0.31569457 0.25014192
0.15009038 -0.24303894 0.9596105 -0.079961516 0.12101779 -0.35712123 -0.22505122 -0.08739784
0.62405396 0.06992961 -0.035485532 -0.11032755 -0.32355428 -0.029833851 0.23227327 -0.60837865
-0.035391513 -0.1721367 -0.056056317 -0.28246313 -0.09572631 0.036993347 0.0021325545 0.10042802
-0.30579835 -0.20383525 -0.2082267 -0.5242943 0.033187214 0.25464568 -0.05055402 0.065319814
0.17469965 -0.07695615 -0.02896989 0.30908573 -0.30254352 -0.062115885 0.040149305 0.03733969
-0.22264804 0.07616945 -0.037824318 0.0765251 0.302743 0.277817 0.11020338 0.15899713
0.06669206 0.3011581 0.065054625 0.089587815 0.08428162 -0.21725592 -0.3036728 -0.13307706
-0.16747355 -0.2868196 0.070971616 0.17682412 -0.07215971 -0.21923803 0.0066789654 0.8745329
-0.2983318 0.4355375 0.036711544 0.012877121 -0.07358095 -0.033227835 -0.059105057 -0.14236987
-0.015674062 -0.1516777 -0.14295913 -0.012695087 -0.25079417 -0.13528478 0.36551964 -0.05295774
0.15394387 0.17643267 -0.22722992 0.10791142 -0.11024188 -0.04848858 0.17723654 0.06519278
-0.29046655 0.5922562 0.2440466 -0.1752823 -0.14089856 -0.48228982 -0.12869659 -0.40642455
0.020301078 -0.07994679 0.15352052 -0.16468248 0.015516204 -0.20185456 0.046253476 0.25600693
-0.10240469 0.08460875 -0.25984702 0.055665486 0.5167222 -0.00053628604 -0.1470615 0.05571815

bias f4 [80]
00000000: 8635 17be e460 56bd 03b3 4d3e 235c 803e
00000010: e3d6 a33e d9af 703f f3e7 51be 1b62 f03e
00000020: 2e9b 8cbc 000f cc3e 32a7 263f 496e ef3e
00000030: 408d 833e c8da a33e 9eee b13e e018 073f
00000040: ad69 7e3e 2894 2a3f 5c30 ce3e 2e87 af3e
00000050: 84ed 293f d573 523e 0a32 a5bc 3a73 733e
00000060: 864a dc3e 9105 813f 6832 813d 9a24 a93e
00000070: cc79 633e 2a75 b53e 3ab7 e03e bdcf 973e
00000080: 3c1a 5f3d 7722 263f 9063 60be 5a9d b93e
00000090: 6803 b53e bce5 813e d532 bb3e d42d 363f
000000a0: f7c5 163f 0e6a 243e 7547 193f 18de c43e
000000b0: dda7 653e 9580 b43e 2b27 a83e 1309 c33e
000000c0: 0b79 e53e 1d19 96bc 7e3d 973e 4e44 1bbf
000000d0: 480c ff3e 4951 493e 9d0a 8c3e 4451 823e
000000e0: 514f 8a3e 7740 c93e cd3c 823f 8d8a 0ebe
000000f0: 25c7 2f3e a6a1 113f bd02 213e 9629 4c3f
00000100: ed18 213e 830e 5b3f 77e4 a93e 3dbf 4d3f
00000110: 0363 523e 0900 283f 41cb fcbd 37eb 333f
00000120: 0c01 943e b9c1 213f 2b4c 34be e7be 453f
00000130: b1fe d5be fed3 bf3e 7270 8a3e 7e0c 813f
-0.14766511 -0.052338496 0.20087819 0.25070295 0.31999883 0.9401832 -0.20498638 0.4694985
-0.01716384 0.39855194 0.6509887 0.46763828 0.25693703 0.32002854 0.34752363 0.5277233
0.24845 0.6663232 0.4027127 0.3428282 0.66378045 0.20551999 -0.020165462 0.23774424
0.43025607 1.0079824 0.06308442 0.33035737 0.2221443 0.35440952 0.4388979 0.2965068
0.05446838 0.6489634 -0.2191298 0.36252862 0.3535416 0.25370586 0.3656222 0.7116368
0.5889582 0.16056082 0.5987466 0.38450694 0.22427316 0.3525435 0.32842383 0.3809286
0.4481891 -0.018322522 0.29539102 -0.606511 0.49814057 0.19659914 0.27351847 0.25452626
0.2701364 0.39306995 1.0174805 -0.1392004 0.17165811 0.5688728 0.15723701 0.79750955
0.15732165 0.8556902 0.33182117 0.8036993 0.20545582 0.65625054 -0.12343455 0.70280784
0.2890705 0.6318622 -0.17607181 0.7724442 -0.41795877 0.37466425 0.27038914 1.0081937

weight f4 [20, 80]
00000000: d93a 33bf 7ccb c33f bfa7 59c0 171f 8ac0
00000010: 05b6 ac3c 0372 a63e 6ab2 8fbf e5fb 853e
00000020: 2c60 0dc0 3cbe 203e abed 523f 704c 7a3f
00000030: c5e3 b7bd 715e 4e3f 1d40 b0bf 5b0a f43e
00000040: 6fb7 8a3f cf53 cd3a 71b5 54be 3d8a 9a3e
00000050: 1d25 593e 1f64 9d3d 26aa cb3f 48e9 d23c
00000060: 3ce4 9ebc 01dd b03e 5de5 30be 8133 e33c
00000070: ba6a fc3f e163 dabc 952b 2e3d e665 ef3f
00000080: d8a7 cb3f 3243 313e 6164 4abe a288 6f3e
00000090: 77bc ccbe a547 853e 0dce 753f f313 6e3e
000000a0: 09b7 5f3f f0e0 733e e8dd 1b3f 4151 bb3e
000000b0: 8523 6f3b 6e30 023e 0ad0 fe3e 2bcc 353e
000000c0: 82d9 763d 33a3 d23d 6453 893f cb4b c7bf
000000d0: 7940 b93e 387c 81bd 821c 10bd f51e 4ebe
000000e0: e7bb c5bf 2fe0 b33e 2ae3 cb3e 0b0d cdbf
000000f0: ed28 833f d01f 313f f40c 0f3e f7d3 753e
00000100: b151 22bf f2aa 853d 5dd7 fb3e 95c6 a63e
00000110: 2a92 eebf 43e5 4a3e d25b 62be 5d3f 043d
00000120: 30df f13e 74df c4bc b805 69bc 01e7 3b3e
00000130: d6fe 3e40 4e70 bb3d 5e1a 1dbe f157 bb3e
00000140: fdcb 40bf b086 ad3f 5bef 61c0 254d 8ac0
00000150: a100 f6bb 5e94 8f3e 8d2f 81bf 5149 6c3e
00000160: 1189 16c0 6ed8 033e 41ad 1f3f f573 783f
00000170: fee7 0fbe 1677 3d3f 7daa abbf c61c c03e
00000180: 8073 713f 71b6 d13b 1a4a 37be 8cf0 113e
00000190: 0b3a 983e e4c4 d83b ea72 bd3f 539b 48bd
000001a0: 375e 04be 6673 403e 5ff7 61be 19dc 0ebe
000001b0: 7323 0840 2a3d ebbd fdc8 e2bd 8925 df3f
000001c0: c11e d43f 0440 903b 2c3c 0ebe b8e9 e93c
000001d0: a75b a0be 4694 633e 734d 863f df3f 133d
000001e0: 6683 863f eaa5 7e3e 8249 273f 758f 733e
000001f0: ca30 9ebc 1712 d33d 12eb c53e ca16 263e
00000200: 1308 b13c d0d6 843e e98a 843f 9f92 b4bf
00000210: 3553 ed3e e53e 8cbd b476 0fbe 5977 ccbe
00000220: 21a8 b8bf d842 ac3e 82e9 9a3e 05be c9bf
00000230: 07bd 943f c79f 303f fdda 0b3e 3677 983d
00000240: 1bdd 31bf 55fc 523d c70b 153f 91e2 663e
00000250: dbe4 dbbf dd22 9e3c 702c 40be 9346 e33d
00000260: fc9c f43e 6e19 893b 33e4 b93a f44d 213d
00000270: 0bcd 3a40 7404 50bd 0722 69be e958 9c3e
00000280: 26af 53bf 56d9 b63f 191a 64c0 2a9c 89c0
00000290: c12d e1bd 3bce 0c3e 9663 93bf 40cb 0e3e
000002a0: f626 16c0 b2a3 39bd 19bc 0c3f 1944 843f
000002b0: 9704 12be 6361 2a3f 23a8 bfbf 9104 b33e
000002c0: 324b 4c3f 22a8 90bc 1f14 c0be 8021 4a3e
000002d0: cdfd be3d 8e87 83bc 34b8 e53f c9ed a7bd
000002e0: f8ca 58be bdb7 af3e 0031 2bbe fd79 3dbe
000002f0: 3d24 e23f ec2a a2bc 6bfa 0bbe 51cd bd3f
00000300: b5d0 ac3f fe07 c0bd c917 78be 133f e13d
00000310: 2038 a8be a9f3 fe3d 9cb5 6e3f d4bb 2ebd
00000320: 0679 483f 9592 8e3e 3766 0e3f 6405 673e
00000330: 1ba4 a63d 9bd6 c33d 5806 ab3e 5962 393e
00000340: 0824 a8bd bec6 1d3e 8c34 713f 6eb7 cabf
00000350: 3a04 a83e 5f88 00be b6b1 4abe b1c5 f5be
00000360: a362 bebf 30bc 383e 5345 9f3e 5780 dcbf
00000370: 6a94 7a3f d69f 1c3f 179c 1abd 2243 453d
00000380: 08fe 10bf 65f1 dcbc b113 f93e 4481 833e
00000390: 6f22 f4bf bbde 08bd 53ae adbe 09bc c23d
000003a0: 1f09 9f3e e00b 3dbe 9c3e f9bd 8913 b63d
000003b0: 3b38 3540 cccb 313d a263 88be 755d 633e
000003c0: 1911 0cbf dfa4 d53f d76b 63c0 ed9d 86c0
000003d0: c062 313d 597b 5a3e 590c 79bf 9a57 3b3e
000003e0: 85a7 1ac0 350e 203e 6400 543f da35 823f
000003f0: 7780 9fbd 3007 4e3f 79e1 aabf b2bb ff3e
-0.7001167 1.5296474 -3.4008634 -4.316295 0.021082887 0.3250886 -1.1226323 0.26168743
-2.2089949 0.15697569 0.823939 0.97772884 -0.089789905 0.80612856 -1.3769566 0.4766415
1.083723 0.0015665236 -0.2077234 0.30183592 0.21205564 0.07685112 1.59113 0.025746003
-0.01939594 0.34543613 -0.17274995 0.02773452 1.972007 -0.026658954 0.04252203 1.8702972
1.5910597 0.17310789 -0.19764854 0.23391965 -0.39987537 0.26031223 0.96017534 0.23249798
0.87388664 0.23816276 0.6088548 0.3658543 0.0036489677 0.12713787 0.49768096 0.17753665
0.060266025 0.10285034 1.0728574 -1.5570005 0.36182 -0.06322521 -0.035183437 -0.20128997
-1.5447968 0.35131976 0.3982175 -1.6019605 1.0246865 0.6918917 0.13969785 0.2400664
-0.634059 0.06526746 0.49187747 0.3257338 -1.8638356 0.19814019 -0.22105339 0.03228699
0.4724059 -0.024032332 -0.014222555 0.1834984 2.984304 0.0915228 -0.1534209 0.3659053
-0.7531126 1.3556728 -3.530234 -4.321917 -0.007507399 0.28042883 -1.0092636 0.23074843
-2.3521159 0.1287553 0.6237374 0.97051936 -0.14053342 0.74009836 -1.3411404 0.37521952
0.94316864 0.0063999225 -0.17899361 0.14251918 0.29731783 0.006615268 1.4800694 -0.048976254
-0.12926565 0.18794021 -0.22067021 -0.13951148 2.1271636 -0.114862755 -0.11073492 1.743333
1.6571885 0.0044021625 -0.13890141 0.028553829 -0.31319925 0.2222453 1.0492386 0.035949584
1.050885 0.24867979 0.6534654 0.23785193 -0.019310374 0.10306185 0.38655907 0.16219631
0.021610295 0.2594514 1.0354892 -1.4107245 0.46352544 -0.06847934 -0.14010125 -0.39934805
-1.4426309 0.33644748 0.30256277 -1.5761114 1.1620187 0.689938 0.13657756 0.07444613
-0.69478005 0.051510174 0.58221096 0.22547366 -1.7179216 0.019303733 -0.18766952 0.11097445
0.4777602 0.0041839397 0.0014182389 0.039380983 2.9187648 -0.050785497 -0.22766887 0.30536583
-0.8268913 1.4285076 -3.5640929 -4.300313 -0.10995055 0.13750546 -1.1514766 0.13944721
-2.346128 -0.045322128 0.54974514 1.0333282 -0.14259563 0.6655485 -1.4973186 0.3496442
0.7980224 -0.017658297 -0.3751535 0.19739342 0.093257524 -0.016055848 1.7946839 -0.08199651
-0.21171176 0.3431987 -0.16717911 -0.18503566 1.7667309 -0.019795857 -0.13669746 1.4828283
1.3501192 -0.093765244 -0.24227823 0.109983586 -0.3285532 0.12448818 0.93245864 -0.042659596
0.7830967 0.27846208 0.5562472 0.2256065 0.081367694 0.09562417 0.33403277 0.18103923
-0.082099974 0.15407845 0.94220805 -1.5837228 0.32815725 -0.12552021 -0.19794354 -0.4800239
-1.4873852 0.18040538 0.31107578 -1.7226666 0.9788271 0.6118139 -0.037746515 0.048159726
-0.5663762 -0.026970575 0.48647836 0.2568456 -1.9073008 -0.033415537 -0.3392206 0.09508521
0.31061646 -0.18461561 -0.12170145 0.08890445 2.831557 0.043407246 -0.26638514 0.2220362
-0.5471359 1.669094 -3.553457 -4.206778 0.043307066 0.21336116 -0.97284466 0.18295136
-2.4164746 0.1563042 0.82813096 1.0172684 -0.077881746 0.8047972 -1.3350059 0.49947888

bias f4 [20]
00000000: 49ab 063f f2a3 f23e e118 ea3e ca3c 2a3f
00000010: d217 433d ce0d e73d ff9c 003e c2e3 cd3d
00000020: 83dd b83d 8709 bb3b 32b9 523e 64c9 6c3d
00000030: 7ba8 813d f04a a53e c5bb 303d 6ec5 133d
00000040: 6d1e 8c3d cdca ab3e 0b15 0d3e 5307 083f
0.5260511 0.47390705 0.45722106 0.66499007 0.04763014 0.1128193 0.1255989 0.10053207
0.09026625 0.005707923 0.20578459 0.05780925 0.06330963 0.32283735 0.04314782 0.036076955
0.06841741 0.33553162 0.13777559 0.53136176

weight f4 [1, 20]
00000000: 7c18 9cbf 5a52 97bf a257 99bf 57db 92bf
00000010: fd78 4a3f 36ac 45c0 9215 163f 2d94 2d3f
00000020: abaa 223f 7cce 4b3f 9b00 febf a0f9 183f
00000030: 6da9 133f 65df debf 66ab 1f3f d146 54c0
00000040: f03d 293f 1d54 94bf 5fa6 18c0 2b4b 90bf
-1.2194972 -1.1822007 -1.1979868 -1.1473187 0.79090863 -3.088636 0.58626664 0.67804223
0.6354167 0.79611945 -1.9843935 0.597559 0.576804 -1.7411925 0.6237091 -3.3168223
0.66110134 -1.1588169 -2.3851545 -1.127294
