data/q_value_target_net_1_simple_spread_2680000_pH-MARL.pth (torch, 115005 bytes, 7 tensors)

weight f4 [160, 80]
00000000: 03e8 573d 8ec0 6fbd 4467 cd3d 787d ccbe
00000010: e6d8 22be 250c a93e 5ed9 0fbe c84c eebd
00000020: 46c1 02be 2f97 d4be 58e4 363e e62f a53e
00000030: cdbe c93d 62f6 fcbc 43b6 933d 135b a53c
00000040: ed1a c0bd 5bc6 32bd ebf1 d1bc 1628 99bc
00000050: 7290 0b3e b16d 583e fe4a 19be c21e 30bc
00000060: d0b9 05bd 621e cdbd 0662 7dbe 197f 02bf
00000070: 2c7b 0d3e 4b35 863e 12d1 08bd 2945 28be
00000080: e15c 96bc 75e2 b13b 60cd fabc 7497 99bd
00000090: 276f 613c 41c2 1bbb 8e84 443e 3903 82bd
000000a0: 6972 ec3c 7944 24bb 50ea 61be 563e 38be
000000b0: 3468 c73e fa31 893d 1681 493e de64 433e
000000c0: 13c2 bebb 16cd 7dbd db2a f3bd a86b 10bd
000000d0: 70e1 93bc 1d0e ac3d f4b9 85be 9c24 c0bd
000000e0: 642d c8be 09f5 e4be 7641 b7bc 63ef edbc
000000f0: 47d0 3bbd 68e8 23bd 2399 f4bd 4e0a b5be
00000100: d1f0 c73d 93bd d6bd 08cf 143e 5905 053d
00000110: 2376 b6bc 25b2 803b e935 443e 6ad8 b03d
00000120: 126d 1f3b 0549 e1bd 857d 533d 5130 0d3a
00000130: 217e a83c 846f 18bd ed7e 38bd c436 57bd
00000140: 1154 0b3e 1e2e 393d 21e2 923d a3c6 503d
00000150: 5092 863d bc1d e7bc 5fc3 263e 7d10 cebd
00000160: f94b 85bd decc ac3d 20ff 1e3d dd0d 11bd
00000170: 37d1 6d3b 69b4 4d3d 823a b63d cc94 fdbd
00000180: f267 febd 4ca6 9abc f7cf 8a3d 4d47 1f3e
00000190: fe63 acbd ef78 e4bd 3961 9c3d 4573 13be
000001a0: 2171 cf3d 6873 eabd c17d e03d d6be 1d3c
000001b0: a6d3 563e 451a 4fbd 93f0 c53c 89bc 263d
000001c0: b305 d23d e429 12be c163 0b3e 50c9 293c
000001d0: bd43 0b3e 2223 69bb 63f3 3abd d1c5 1f3c
000001e0: 0df0 bbbb dac1 a63c 10e5 903d 2082 133d
000001f0: d2f5 00be 0e1c d43d 4ec9 133d fe48 6abd
00000200: f184 803d 23d6 083e d1cb d8bc 9293 813e
00000210: 25ad f1bd 445e ff3d 09d1 7fbc 5cb0 283e
00000220: c509 a1bd a869 203e cdb5 02bd 0c47 173d
00000230: 9d65 303e 0397 0a3e 93e4 c6bd e12d 2a3e
00000240: 40c6 c63d b561 523c bac6 f8bb 7b68 b43c
00000250: 692a 86bc 135e 50bd 7bde 103e af9c 2bbe
00000260: 71e1 023d 94c1 393d 2380 923d ab6d 9dbd
00000270: cb67 1abd 1d89 17bc 3cea f9bb 6ce1 d53d
00000280: 92cc 5c3c 696e 333d d40f c8bc b8cd cb3d
00000290: 45c3 12be 2510 f13d 0bc2 293d 7e46 4cbd
000002a0: 949f bb3d c261 40bc 6da3 4b3e 7a3c 1cbe
000002b0: 2141 2dbe 551e 88bc f8cb 733d 270c babd
000002c0: fc9a 333d 10f0 263d 919b 163e 1eab a33c
000002d0: 7b94 02be 049e c43d e20a 89be e44b 503e
000002e0: 2e27 553e 9537 34be 610e 0a3d 7224 453d
000002f0: d522 1c3e eac1 45be 9c80 35bd 40d0 9fbc
00000300: e35d 273d 4cdc 15bb a62e 0dbe 7b94 0e3d
00000310: ff2a 843d 6156 e63b ea57 01be 5459 0d3e
00000320: ac68 55be a65d ba3c a870 af3d 36a4 89bd
00000330: 385d 643e 90e7 16be dc66 9d3e 4dd3 82be
00000340: b0e2 953d 42ea e63d d368 85bd 5311 fd3c
00000350: 88dd 8f3d 96e6 d83c dda2 653d 9092 b93b
00000360: 8dda 3dbd 278b 163d 89ba 9cbe 9133 de3d
00000370: e7f1 4a3e ac20 503e ac71 1d3d 2a61 73bd
00000380: f0c8 593e 2619 10be f279 08bc 6e7b 5cbd
00000390: 7f44 823c 1f1c 8ebd e599 aabd 38fa 103d
000003a0: 3c65 3a3d efe3 443c c377 7bbd 7978 313d
000003b0: d680 c1bd e230 863d 1d68 e1bc 6329 af3d
000003c0: 8779 0cbf d93f 833e 7a94 bd3e 71eb 1e3e
000003d0: 52ad 9c3e d7ba 07be 32bd e0bd 13a4 4bbd
000003e0: 77ee 1d3d af31 423e 565a 88bd d8ca 08bd
000003f0: 2a24 8ebd 7556 483d b38d a7bd ad4e b2bd
0.052711498 -0.058533244 0.10029462 -0.39939475 -0.15903053 0.33017078 -0.14047763 -0.116357386
-0.1276904 -0.41521594 0.17860544 0.32263106 0.098508455 -0.030879203 0.07212498 0.02018503
-0.09380136 -0.043646198 -0.02562805 -0.018695872 0.1362932 0.21135594 -0.14970013 -0.010749521
-0.032647908 -0.10015561 -0.24744424 -0.50975186 0.13816518 0.26212534 -0.03340251 -0.16432633
-0.018354835 0.005428607 -0.030615509 -0.074995905 0.013759411 -0.0023766907 0.1919119 -0.06348271
0.028863149 -0.0025065227 -0.2206204 -0.1799253 0.38946688 0.066989854 0.19678149 0.19081447
-0.0058214753 -0.061963163 -0.118734084 -0.03525892 -0.018051833 0.084011294 -0.26118433 -0.09381983
-0.3909713 -0.44718197 -0.022370081 -0.029044813 -0.045852926 -0.04001656 -0.11943271 -0.35359424
0.09762729 -0.10485377 0.14532101 0.032475803 -0.022273129 0.0039274865 0.1916119 0.08635028
0.0024326486 -0.110002555 0.051633377 0.0005385923 0.020567955 -0.037215725 -0.04504292 -0.052542463
0.13606288 0.045209996 0.07172037 0.050970685 0.06570876 -0.02821242 0.16285466 -0.10061739
-0.06508631 0.08437513 0.038817525 -0.03541361 0.0036288032 0.05022088 0.08897878 -0.123818964
-0.1242217 -0.018878125 0.067779474 0.15554543 -0.084175095 -0.11155879 0.07635731 -0.1439944
0.101289995 -0.11447793 0.10961486 0.009628018 0.20979175 -0.050562162 0.024162566 0.040707145
0.10254993 -0.14273793 0.13612272 0.010362938 0.13600059 -0.003557392 -0.045642268 0.009751753
-0.0057354034 0.020356108 0.0707494 0.03601277 -0.12593773 0.103569135 0.03608065 -0.057198517
0.062753566 0.13362937 -0.026464375 0.253079 -0.11800603 0.124691516 -0.015613803 0.16473526
-0.078631915 0.15665305 -0.03191166 0.03693299 0.17226262 0.13534169 -0.09711566 0.16619064
0.09705782 0.012840678 -0.0075920494 0.022022476 -0.016377645 -0.050870966 0.1414737 -0.16758989
0.03195328 0.045350626 0.071533464 -0.07686933 -0.03769664 -0.009248999 -0.0076268 0.104433864
0.013476508 0.043806467 -0.02442161 0.09951347 -0.14332302 0.117706574 0.04144482 -0.049871914
0.091612965 -0.011742057 0.1988656 -0.15257445 -0.16919376 -0.016616026 0.05952069 -0.09084349
0.043848976 0.040756285 0.14707781 0.019979056 -0.12751953 0.096004516 -0.26766115 0.2034145
0.20815727 -0.17599328 0.03370512 0.04813046 0.15247662 -0.19312254 -0.044312105 -0.019508481
0.04086102 -0.0022866903 -0.13787326 0.03480957 0.06453513 0.00702934 -0.12631193 0.13803607
-0.2084071 0.022749733 0.08566409 -0.06720774 0.22301185 -0.14736772 0.30742538 -0.25551835
0.07318628 0.1127515 -0.06514134 0.03089205 0.070246756 0.02647714 0.05606352 0.0056632236
-0.046351004 0.0367538 -0.30611065 0.10849679 0.19818841 0.20324963 0.038438484 -0.059418835
0.21268058 -0.14072093 -0.008329855 -0.05382865 0.015901802 -0.069389574 -0.08330134 0.035394877
0.0455067 0.012017234 -0.06139351 0.043327782 -0.09448402 0.065522924 -0.027515465 0.08552816
-0.54872936 0.2563465 0.3702734 0.15519501 0.30600983 -0.13254867 -0.10973586 -0.04971702
0.038557496 0.18964265 -0.06657855 -0.033396572 -0.069404915 0.048910577 -0.08181324 -0.087064125

bias f4 [160]
00000000: fe17 263d 7ee6 313f 4c4c 11bd 8f77 1e3e
00000010: 6b67 a4bd 0b73 b5bc 4f0b 2abe 13f2 76bf
00000020: 57fd 14be e54d 54be a25c 263f a80f ef3e
00000030: 0345 803f 09be 57be 9899 423f 0c44 ee3d
00000040: a900 803e 95a8 1e3f 5a6b 413f 422e 67be
00000050: 4104 a7bd 476e 8b3c 0ca8 08be 3dc4 473f
00000060: ba35 033f 9f9a 8ebe d812 47bf ba26 d4bd
00000070: b449 463f c757 1bbe f1a7 903e 6e78 e7bd
00000080: a8fd 823f 6b3d bebd 8481 f23e 2511 24bf
00000090: c546 acbe 7f70 f53d 0041 d73e 82de 423f
000000a0: 7ccc bbbe c51b 1c3d 6042 0f3f 3598 303f
000000b0: a41c 563f 45a9 80bd 7f35 233e c31e da3e
000000c0: 2ac1 93be 2ed9 b6be c5b2 d43e b4dd 953e
000000d0: 6020 8e3b 4970 313e 93a6 e2bc 39f9 4a3f
000000e0: 779b c43e 0caa 5f3f 6ce9 cf3e bdf4 66be
000000f0: 7a0d 253c 8052 de3e b720 17be 81fc 9c3e
00000100: 84b9 84bf 9845 533f 47a5 b4bd 6293 c43e
00000110: 01d3 063e 56c9 9dbe 6fea 123f ff3c 313f
00000120: 3433 84be 5878 183d efe6 5b3f e547 b93e
00000130: 8b69 333e 6f18 eb3c 7cff 243f d49b 24be
00000140: d46a 573f c01d 123e bdeb fe3d 39de 8dbe
00000150: d333 99be 57e7 14bf 4a2e f6be 4ba9 1fbe
00000160: 1781 363e 8d97 a03e d4f9 a23e cf4a 3d3f
00000170: 91f0 8a3e 53b0 ce3c 5b90 c13e 4c9d c63d
00000180: fa9e efbc 664e 923f e88f 4f3f d1a9 32be
00000190: 7712 08bf f898 8a3f e7d2 b8be 0656 b23d
000001a0: 79e1 233e 2793 92bb 8a24 fc3e 45fe 923f
000001b0: ae34 ff3e 2670 5d3f 656d 5abe a85b b5be
000001c0: 3ed8 2e3e 15c2 033f 1ff0 2a3f 3e52 f43d
000001d0: 6d7a 313d df43 99be ba4c 10bf 0738 dabc
000001e0: dab5 353f c124 9cbe 79b7 ccbd b79f bbbd
000001f0: b6e6 63bd f0f2 4d3e 9dd4 263e 6d25 433e
00000200: 736b 0b3f 6a2e 76be a257 2abd 0127 743e
00000210: 7a91 6b3e 89a0 2dbc 01ed aabd cb42 233e
00000220: f923 203f 991e 863f 53a5 113e 94cf 173f
00000230: 2a91 793f c2d1 413e adbd 213f 0263 a53f
00000240: bc2e 41bf 54a2 d03e 7b40 cabe 9c72 a03e
00000250: ecde 21be 9fb7 483f eada a23e 8152 84be
00000260: 7f36 003d 4d2c ccbe 0f8c 1ebf 1426 c2bc
00000270: 7f87 123e e390 303f 0f0a 2c3f c7c4 e4be
0.040550224 0.6949233 -0.035473153 0.15475295 -0.08027538 -0.022149583 -0.16605876 -0.96463126
-0.14549766 -0.2073284 0.64985096 0.46691632 1.0021061 -0.21068586 0.76015615 0.11634073
0.25000504 0.61975986 0.7555443 -0.2257624 -0.08155108 0.017020358 -0.13345355 0.7803381
0.51253855 -0.27852342 -0.7776313 -0.10358949 0.7745621 -0.15170203 0.2825313 -0.11302267
1.023366 -0.09289058 0.47364438 -0.6408866 -0.33647743 0.119843476 0.4204178 0.7612077
-0.36679447 0.03811242 0.55960655 0.6898225 0.8363745 -0.062822856 0.15938376 0.42601594
-0.2885831 -0.3571257 0.4154264 0.2927071 0.0043373555 0.1732799 -0.02766732 0.79286534
0.3839986 0.87368846 0.40607774 -0.22554298 0.010074014 0.43422318 -0.14758573 0.30661395
-1.0369115 0.82528067 -0.08820587 0.38393694 0.13166429 -0.3081767 0.5738897 0.692337
-0.25820315 0.037224144 0.8589925 0.36187664 0.1752073 0.028698174 0.6445234 -0.16075069
0.8414738 0.14269161 0.12447307 -0.27708605 -0.2992235 -0.58165497 -0.4808219 -0.15591924
0.17822681 0.31365624 0.3183123 0.73942274 0.27136663 0.025230562 0.37805447 0.09697971
-0.02925061 1.1430175 0.8107896 -0.17447592 -0.53153175 1.0827932 -0.36098406 0.08707814
0.1600398 -0.0044731083 0.49246627 1.1483847 0.4984488 0.8649925 -0.21330793 -0.3542149
0.17074677 0.5146802 0.66772646 0.11929749 0.043329645 -0.29934594 -0.56367075 -0.026638044
0.7098061 -0.3049679 -0.09995932 -0.091613226 -0.055639945 0.20112205 0.16292043 0.19057246
0.5446083 -0.24041143 -0.04158748 0.23843004 0.23004714 -0.010597357 -0.08345986 0.15943448
0.6255489 1.0478088 0.14223222 0.59301114 0.9748713 0.18927673 0.6318005 1.292084
-0.75461936 0.40748847 -0.3950232 0.3133744 -0.15807694 0.78405184 0.31807643 -0.25844195
0.03130197 -0.3987755 -0.6193246 -0.023699798 0.143095 0.6897108 0.6720285 -0.4468138

weight f4 [80, 160]
00000000: 80be 24bd 8a56 81be b28a edbe 2681 ecbd
00000010: 7053 5abd 0c55 693e 3c60 bfbd 52a9 18bf
00000020: 9655 0dbe 4597 19bf bf42 3cbe b808 37be
00000030: 8071 15be 6f41 2fbf c1c8 9abe 3f80 75be
00000040: 783e d73d 5a78 a5bd fcfc ffbd 4b50 423e
00000050: 1cae fdbe cd91 07be eeab 52bd 95a4 91be
00000060: f8b7 b13d 0677 713e e1ca 923e 751e b13e
00000070: e57c acbd 4620 6bbe 373e 8b3d 171b f6be
00000080: 85b9 fbbc 8992 a33e 5e7d c1be e8c0 52be
00000090: 502b d8be deb0 163e 6ad0 9e3d 3206 c0be
000000a0: eefd 42be cb17 c2bd c8b1 d0bd 5242 51be
000000b0: 212f 82be 2d7d e2bb 0ce8 d43c c528 d3be
000000c0: d8a5 bf3e 9b6e 833e 5d97 913e a902 8e3e
000000d0: bb10 823c 5d2c 343e a14b 8b3d f59a 00be
000000e0: cb3c 3bbe bc29 abbe 3dc8 b1be 0989 ba3e
000000f0: c9e4 a83e 1fd6 283e 4148 a73d 5cae b7be
00000100: c32b b8bf adc1 cabd 5209 193e 3a72 d93d
00000110: c4d5 f63d b470 d1ba 2f06 f9bd a7f2 0bbe
00000120: 5cbe 473e 2dd2 e53e 7fd2 e7bd aa39 903e
00000130: 6cfd 91bd 02da 35bd 24b1 f9bc 1566 7abf
00000140: 2b30 67be ce72 93bd 8f97 6dbe 980e e8bc
00000150: 38cd babf ae6e b1be 7e54 a5bd aa82 243b
00000160: 142d c3be b701 cf3b 111b 6abe 1cdf 12be
00000170: 3d6e 0c3f ea18 db3c b222 463d 238c 0a3f
00000180: a71c 8cbe a01d a6be 1c26 eabe 06e4 f53e
00000190: 59c3 233e f2d0 67be 01f4 49be 8a5f 8dbe
000001a0: 15d7 d2bd 0c51 2e3c 54ca 803d 754a 9dbe
000001b0: 9503 7d3d b304 babe 2431 3dbf f89f 38bf
000001c0: 7e2e ddbc 14a2 47be d2f5 b53e d3b7 953c
000001d0: 4bfe 07bd 74cf 903c 565d f6be 7e90 823d
000001e0: c52c 1b3d cd68 5cbf 11e7 b23e 23a3 c1be
000001f0: e65d 9f3e 0ade 96be 72ee 433e 6bc5 90bc
00000200: f729 013d 8524 c6bd 3322 61be 51df 0cbf
00000210: 43ad 943e bcce a43e 8e6f 30be 4e81 b9bd
00000220: 5a8b 9abe bd74 9ebe edcd e83c 3a15 b7bd
00000230: aad9 f2bc 4cf6 7a3e 5bbe 4abe 2d81 61be
00000240: 0fca 04be 37bb 1abe b6d3 85be f9fe 74be
00000250: c59e b43d dc0d 0ebe 1b0c 98be eb3f 8bbe
00000260: 5fce 9cbd 91ef 0a3e 8e66 babd 6537 c4bd
00000270: cb30 4ebe 0b48 7fbe 0ede 7dbe 8e12 03bf
00000280: c40e 9c3e 7724 193d d613 f8be 24e1 dc3d
00000290: bb8e c1bd 35d1 383e 0051 723d 4b0d 19bf
000002a0: 5dfd 9cbd 7889 da3d 2e4c dd3d e403 04be
000002b0: f793 b03d 44ab 9fbe 7561 d03d 5775 333e
000002c0: c24f 223e c793 743e fe09 c43c 2173 343d
000002d0: 82c0 8a3c cf4f ea3c 1335 a13d d7c3 823c
000002e0: d64b c9bb 5df0 2cbe a113 873d d023 a13b
000002f0: bf5c 1c3e b3cf 02be b91f c63d 801d cabe
00000300: d071 1c3e cb01 0a3e 9161 a03d c42c e2be
00000310: f946 f33c 8fee ba3d 6bf3 2b3e 11a8 8f3d
00000320: 81c5 08be ae87 893d 2b77 ec3d c3f4 653e
00000330: 5639 0a3e d923 9e3c fe74 cabb 2867 6d3c
00000340: 36de 943d 74b7 e93c 6b9e 3b3d abfb bb3d
00000350: 766a a23d ace0 8b3d 9600 95bd 4f8f a43d
00000360: cb98 0c3e 8794 813a d3fe fe3d 273a f8bd
00000370: 2dcc 4fbd df2a 7b3e 6df2 053b e147 893d
00000380: c732 14bf 71c9 a93d 1a4d e93d f3cc ecbc
00000390: 911a a2bd 17dd 013e 00e3 063e dc85 073e
000003a0: 1633 2bbd ea44 b53b ae33 ea3c 3fc6 b53d
000003b0: efa5 97bc c6c6 123e 948c f73d a537 d6bd
000003c0: 8d30 fa3d 0b2d 0c3e e9e5 ea3d d6f9 743d
000003d0: 940b 61be 4c79 2fbf 4b7a 843c d58d a2bd
000003e0: cf45 61bd c7c2 b73d 6abe 653d 7641 eebc
000003f0: 7701 373e fe76 cd3d f505 203d 5541 083e
-0.040220737 -0.25261337 -0.4639488 -0.115480706 -0.05330223 0.22786349 -0.09344527 -0.5963336
-0.1380218 -0.59996444 -0.18384837 -0.1787442 -0.14594078 -0.6845922 -0.30231288 -0.23974703
0.10509962 -0.08079596 -0.12499425 0.18975942 -0.49546897 -0.13239212 -0.051433496 -0.2844588
0.086776674 0.2358056 0.2867041 0.3459355 -0.08422259 -0.2296153 0.06798976 -0.48067543
-0.030728111 0.31947735 -0.3779096 -0.205814 -0.42220545 0.14715907 0.077545956 -0.37504727
-0.19042179 -0.094771944 -0.10190159 -0.20435455 -0.25426582 -0.006911895 0.025989555 -0.41242042
0.37431216 0.25670323 0.28435794 0.27736405 0.015877118 0.17595048 0.068015344 -0.12559111
-0.1828491 -0.33430278 -0.34723082 0.36432675 0.3298705 0.1648793 0.08168078 -0.35875213
-1.4388355 -0.09900222 0.14944962 0.1061749 0.12052491 -0.0015979023 -0.121593826 -0.13666783
0.1950621 0.44886914 -0.11319446 0.28168994 -0.071284145 -0.04439736 -0.030479975 -0.97812015
-0.22576968 -0.07199632 -0.23202346 -0.028327271 -1.4593878 -0.34654754 -0.08072756 0.0025102296
-0.3812033 0.006317343 -0.22861888 -0.14342922 0.5485571 0.026745278 0.04837293 0.5412008
-0.2736561 -0.32444477 -0.457322 0.4802553 0.15992488 -0.226383 -0.19721986 -0.27611953
-0.1029493 0.01063944 0.06288591 -0.3072087 0.061770994 -0.3633171 -0.7390311 -0.7211909
-0.026999708 -0.19495422 0.3553911 0.01827613 -0.033201497 0.017677046 -0.48118085 0.06375216
0.037884492 -0.86097413 0.34941915 -0.37819776 0.31126326 -0.29466277 0.19133928 -0.017672261
0.03153416 -0.09674934 -0.21985702 -0.55028254 0.29038438 0.32188976 -0.17230055 -0.09057866
-0.30184442 -0.3094844 0.028418506 -0.089395955 -0.029644806 0.24508017 -0.19799177 -0.22021933
-0.12967704 -0.1511048 -0.26138085 -0.2392539 0.088193454 -0.13872474 -0.29696736 -0.27197203
-0.0765655 0.1356795 -0.09101592 -0.09580878 -0.201358 -0.24929826 -0.24791738 -0.5120019
0.30480015 0.03738829 -0.48452634 0.1078513 -0.09451052 0.18048556 0.05915928 -0.5978591
-0.07665513 0.10670751 0.10805546 -0.12892109 0.08621972 -0.31185353 0.101748385 0.1752523
0.15850738 0.23884498 0.023930546 0.044055108 0.016937498 0.028602509 0.07871451 0.015962524
-0.0061430736 -0.16888566 0.06595541 0.0049175993 0.15269755 -0.12774543 0.09674019 -0.39475632
0.15277791 0.13477246 0.07831109 -0.44174778 0.029696928 0.09127533 0.16792075 0.07014478
-0.13356592 0.06715332 0.11546167 0.2245665 0.13498434 0.019304203 -0.0061784973 0.014489926
0.07268946 0.02852986 0.045805376 0.09178861 0.07930462 0.06829962 -0.072755024 0.080351464
0.13730161 0.0009886184 0.124509476 -0.12120467 -0.050731827 0.24528073 0.0020438686 0.06703163
-0.5788998 0.08290375 0.11391659 -0.028906321 -0.079152234 0.12681995 0.13172531 0.13234657
-0.041796766 0.005531897 0.028589096 0.08875703 -0.01851174 0.14333639 0.1208736 -0.10459832
0.122162916 0.13689058 0.11469633 0.059808575 -0.21977073 -0.6854446 0.016171595 -0.079372086
-0.054998215 0.08972698 0.056089796 -0.029083949 0.17871653 0.100324616 0.03906818 0.13306172

bias f4 [80]
00000000: ed69 e13e eee9 4d3e 46d4 023e 0db5 e53e
00000010: 0d10 8b3e 7396 973e fea1 163f f71e c93e
00000020: 2639 2a3f ef70 e63e 3a15 ca3d 0cc7 c53e
00000030: 4c09 3f3e d496 8d3e bf96 303e 13da 4c3f
00000040: cf5a 693f c16b 343f ed98 9739 3905 0c3d
00000050: efcf ab3e 0574 113c 6fa9 aa3e 4a1d 853e
00000060: 43e9 183f ad87 533e e892 4e3d 1155 2f3f
00000070: 8009 0f3f 2b54 313e 57fe ca3d 07a8 eb3e
00000080: 6546 f63e a975 783e 5055 20be cb54 a63e
00000090: 4f03 9fbd 0c1a 153f 5d02 1c3e 1282 3a3e
000000a0: 1893 e63e 4180 713f e744 673f 8426 1b3e
000000b0: 1611 853d 9a3a 593f 91ef 8e3e 8197 353f
000000c0: e40c a53e 8acc a13e 9c5d ccbd d48c 5a3e
000000d0: 7917 453d 66f8 ef3e 8020 2e3e 0a44 873e
000000e0: 8e3a 9b3d 6af2 a23e b3ae 3b3e b824 b0bd
000000f0: 275e 3b3e 9c77 573d d154 343e 24d9 153e
00000100: 89b9 f53d b34a 553e 1cd4 3f3e e527 3c3f
00000110: 2be4 013f 82d3 c23e e316 823e 275a 963f
00000120: 10e4 263e b58e 8d3e 19d7 1b3e cbe6 453e
00000130: 0ce5 2e3f 5393 293f f779 c23e 8387 ec3d
0.44026127 0.20108768 0.12776288 0.44864693 0.27160683 0.2960697 0.5884093 0.39281437
0.6649345 0.45008036 0.0986733 0.38628423 0.1865589 0.27654135 0.17245005 0.80020255
0.9115419 0.7047692 0.00028914903 0.03418467 0.33557078 0.008877759 0.33332393 0.25998908
0.5973093 0.20657225 0.05043307 0.68489176 0.5587387 0.17317264 0.09911793 0.46026632
0.48100582 0.24263634 -0.15657544 0.32486567 -0.07764303 0.5824287 0.15235277 0.1821368
0.450341 0.94336325 0.9033951 0.15151411 0.064973995 0.84855044 0.2791715 0.709343
0.32236397 0.31601363 -0.09978792 0.21342784 0.04811809 0.468692 0.17004585 0.26419097
0.07579528 0.31825572 0.18328361 -0.086007535 0.18297635 0.052604303 0.1761048 0.14633614
0.11998279 0.20829277 0.18733257 0.73498374 0.5073878 0.38051993 0.25408086 1.1746262
0.16297936 0.2764794 0.15218772 0.19326322 0.6831825 0.66240424 0.37983677 0.11549284

weight f4 [20, 80]
00000000: de62 afbf 0120 dcbf 3829 39c0 626b d1be
00000010: 43f0 fdbf 6339 b4bf e2c9 d4bf 4249 6bbf
00000020: d2a0 65bf 321e dbbf c171 c5bf 0f3c b0bf
00000030: 14a1 86bf d567 14c0 1e4f abbf 2b76 e03e
00000040: f78f ab3e fcab a83e be6c c8bf 1dce 9abf
00000050: 3642 a0bf 24f1 0dbf ebe1 ffbf 9393 7bbf
00000060: ef35 8fbf 4c65 f4bf 8f83 3bbf 0f96 3abf
00000070: 2ff1 23c0 b415 84be 2edf 26c0 e4de 8fbf
00000080: e1c4 c0bf dcb7 f3bf 8b93 febf cd7a 98bf
00000090: 4d88 83bf 3668 a2bf 9088 cfbf 6cf5 02c0
000000a0: efd1 a3bf 9ce0 00bf 155f 0a3f 57be a9bf
000000b0: 4cd8 85bf 558c 103f ce17 b1bf 377a 38bf
000000c0: bef1 97bf f52b 12c0 5690 00c0 7515 b1bf
000000d0: be64 2ac0 f160 d3bf edde 0cc0 829b d6bf
000000e0: 6bfd f0bf 6e83 95bf bc4c fcbf e557 19c0
000000f0: d600 21c0 b7ef b3bf 0785 2bc0 88d1 cabf
00000100: 0583 a6bf 7ea4 afbf 7637 a7bf ddb9 94bf
00000110: 623f e9bf 2059 e4bf 5f8c 26c0 1dc8 1bbe
00000120: 3bd5 f8bf 2be3 6bbf 02d0 e0bf 3215 69bf
00000130: ef2e a1bf fcb9 c3be b604 a4bf a761 27c0
00000140: 0b6d 7a3e 3ca6 84bd ee8c 22bd 49d5 d9be
00000150: 31ed de3d e59e 89bd 4f2e abbd b969 da3b
00000160: c42a 87bd ff04 dd3c ae83 af3d a832 cc3d
00000170: 62b7 553e 8874 343e 9a33 6fbe 9e39 20bf
00000180: 3eaa 2dbf 627c e3be a278 d43e 4170 d83e
00000190: 436d 653e fff8 233e 2024 c7be a2ba 623d
000001a0: 06b3 aabd c0fe 3a3d 8f3e ba3d 23eb 94bc
000001b0: 30b1 b63d 920f dfbe 7252 a9be e4dd f23d
000001c0: ae70 153e 3e4f 97bc 521e 68bf 8cb0 0e3d
000001d0: d1fb dabe b687 23bd 7b59 9bbc 7a66 663c
000001e0: cd2c 0c3e 3f94 20be 0a10 64bf 372a ab3a
000001f0: 8ee4 af3c 782c 46bf c05a cdbe 6276 18ba
00000200: b43c 713e 1441 8fbe ed26 013e 6526 1bbd
00000210: b699 803d c5fd 1abf d5fb 8cbd 6f85 20bc
00000220: 52b3 7dbd ba7e 633c 8483 733d e887 c3be
00000230: c69d 913d 0934 debe 8ea5 dbbb b551 933d
00000240: 3f79 b1bd bd09 1cbf e883 333e 73db fbbd
00000250: f9ed 5ebd 4da8 51be d65b 2fbd 1d58 9dbe
00000260: 10f6 433d 5e85 043d 373f 2d3e a726 b5be
00000270: a146 d4be b3f3 f8be 6f02 503b cef8 9c3d
00000280: 0469 8bbe d520 293e baa6 6e3e e253 2e3d
00000290: 85c0 243f c532 ba3e 7aa2 36bc 910f 333f
000002a0: 71c2 c93e 67ac b43d 7232 a5bf d892 cb3e
000002b0: 14b8 49be a1da 453e c5be eb3c dec2 42bf
000002c0: 64f5 30bf fd40 46bf 0ecd 0abf eb0f c9be
000002d0: fd97 883d 7760 31bf 5660 ff3c 2eea 9b3d
000002e0: 9beb da3e d605 4e3e b98c 2c3b 3c9f c93e
000002f0: e4cc 4abd dc4d 71be 0118 8bbd 8f34 123e
00000300: a1c0 c6bc f496 e13e 9770 5dbf b7fa 80be
00000310: e26f 24bf 0e77 d03e 0be4 d83c 8dc3 8d3b
00000320: e27e 53bb 94be f23e 08f7 37bf 2f83 593e
00000330: bc5d 1bbe 52ad 46bf ad21 983d b514 e13e
00000340: eaf3 98bf 67af b2bf a474 76be 1430 5fc0
00000350: 73de 8d3d 5ffe 34bf 96a5 f1be 22b5 993e
00000360: 8c06 cabd 3c53 0c3f a7b2 a73e 1913 e43d
00000370: 38ef 0a3e 404c 4fbf 9856 563e 8701 08bf
00000380: 1dec 93bf 45e2 87be 86d7 92be f011 ef3e
00000390: e072 6dbd 3359 9cbd fcfd a03e 3ffa 223f
000003a0: cf74 063b f110 7b3e 9e6c c7bf 91db 87bf
000003b0: ffdc 4ebf b6c9 49bf c527 a93e 70de 663e
000003c0: 1355 edc0 beb7 b0be 41ec 05bf be1d 8b40
000003d0: 0632 44c0 7c35 24bf 26f5 efbf c62d 7dc0
000003e0: db12 f6bd 001f 67bf 33d5 d5bf 5225 54c0
000003f0: 7ddd f9c0 3da1 0fbf 668f 83c0 1e20 b53f
-1.3702047 -1.7197267 -2.8931408 -0.4090224 -1.9838947 -1.4080013 -1.662411 -0.9190866
-0.8969852 -1.711859 -1.542534 -1.3768328 -1.0517907 -2.3188374 -1.338352 0.43840155
0.33508274 0.32943714 -1.5658185 -1.2094151 -1.2520206 -0.55446076 -1.999082 -0.98272055
-1.1188334 -1.9093413 -0.7324762 -0.7288522 -2.5615957 -0.25797808 -2.6073718 -1.1239896
-1.5060083 -1.9040484 -1.9888777 -1.1912476 -1.0275971 -1.2688053 -1.621355 -2.0462294
-1.2798442 -0.50342727 0.54051334 -1.3261212 -1.0456634 0.5646413 -1.383539 -0.72061485
-1.1870649 -2.283933 -2.0088096 -1.3834673 -2.6623988 -1.6513959 -2.2011063 -1.6766207
-1.8827337 -1.1680734 -1.9710917 -2.3959897 -2.515676 -1.405753 -2.6799943 -1.5845194
-1.3008734 -1.3722074 -1.30638 -1.1619221 -1.8222468 -1.7839699 -2.6023176 -0.15213056
-1.9440073 -0.92143506 -1.7563479 -0.91047966 -1.2592448 -0.38227832 -1.2813938 -2.6153352
0.24455659 -0.06477019 -0.039685182 -0.42545536 0.108850844 -0.0671976 -0.08358442 0.006665435
-0.06599954 0.026979921 0.08570038 0.099705994 0.20870736 0.17622578 -0.23359528 -0.62587917
-0.67837894 -0.44430834 0.41498286 0.42273143 0.22404961 0.16012953 -0.3889475 0.05535377
-0.08334927 0.045653105 0.09093963 -0.018178528 0.089205146 -0.43566567 -0.33070713 0.118587285
0.14593765 -0.018470403 -0.90671265 0.034836337 -0.42770246 -0.039924346 -0.018963566 0.014062518
0.13688965 -0.15681551 -0.89086974 0.0013058846 0.021471288 -0.77411604 -0.401083 -0.000581598
0.23558313 -0.27979338 0.12612505 -0.037878413 0.06279318 -0.6054347 -0.06883971 -0.009797438
-0.06193859 0.013885194 0.059451595 -0.38189626 0.07110171 -0.43399075 -0.0067030853 0.07193319
-0.08665704 -0.6095236 0.17530787 -0.12297716 -0.054426167 -0.20474358 -0.04281219 -0.30731288
0.047842085 0.03235375 0.16918646 -0.35381052 -0.41460136 -0.48623428 0.0031739732 0.07664643
-0.27228558 0.1651643 0.23305789 0.042560466 0.6435626 0.3636686 -0.011147136 0.6994563
0.3940616 0.08821946 -1.290602 0.3976047 -0.19699126 0.19321682 0.02877749 -0.76078594
-0.69124436 -0.77442914 -0.5421914 -0.39269957 0.066696145 -0.6928782 0.031173866 0.076130256
0.42757878 0.20119414 0.0026328994 0.393793 -0.049511805 -0.23564857 -0.06791688 0.14277862
-0.024261774 0.4406048 -0.86499923 -0.2519128 -0.6423322 0.40715832 0.026475927 0.00432629
-0.0032271673 0.47411025 -0.71861315 0.21241449 -0.15172476 -0.77608216 0.07428298 0.4396111
-1.1949437 -1.3959779 -0.24067932 -3.4873095 0.069271944 -0.7070064 -0.47196645 0.30021006
-0.0986453 0.54814506 0.32753488 0.11136455 0.13567817 -0.80975723 0.2093147 -0.5312733
-1.1556431 -0.26539817 -0.28680056 0.46693373 -0.05797088 -0.07634201 0.31443775 0.63663095
0.00205164 0.24518181 -1.5580022 -1.0613881 -0.80805963 -0.7882341 0.33038154 0.2254579
-7.416635 -0.34515184 -0.5231362 4.3473806 -3.0655532 -0.6414411 -1.8746688 -3.9559188
-0.12015315 -0.9028168 -1.6705688 -3.3147779 -7.808287 -0.56105405 -4.1112547 1.4150426

bias f4 [20]
00000000: f5c0 0e40 60fe c5be 7574 3c3f a351 4740
00000010: 0cc9 393f cd0c 0940 a387 f73f 389f cfbe
00000020: 5ba0 5f3f 2f57 ac3f d584 763f bb84 503f
00000030: 7494 0b40 0b91 523f 8789 4a3f 16e1 503f
00000040: 9e35 343f 045c 3d3f ae47 6e3f d6a9 2b3f
2.2305272 -0.38670635 0.736152 3.1143577 0.725724 2.1414063 1.9338268 -0.40551162
0.8735406 1.3464106 0.96296436 0.8145253 2.1809359 0.8225257 0.791161 0.81593454
0.70394313 0.7396853 0.93078125 0.67056024

weight f4 [1, 20]
00000000: efda 2ec0 90fd c8bf 3eab 8942 a1b7 4bc0
00000010: 78aa 8942 adde 8bc0 7404 8ac0 1e6c a2bf
00000020: 4f6f 8c42 a2dc 54c0 9c2f 8c42 5530 8942
00000030: ade3 9fc0 ccd7 7c42 4e42 8b42 c785 8b42
00000040: e7df 8b42 9388 8942 694c 8d42 2d46 8a42
-2.7321126 -1.5702381 68.83446 -3.1830828 68.83295 -4.370932 -4.3130436 -1.2689245
70.2174 -3.3259664 70.09299 68.5944 -4.9965425 63.21074 69.6295 69.761284
69.93731 68.76675 70.64924 69.13706
