data/q_value_target_net_2_food_collection_3990000_pH-MARL.pth (torch, 138129 bytes, 7 tensors)

weight f4 [176, 88]
-0.42602 -0.30102184 -0.7295661 -1.5743424 0.2574767 0.014391638 0.13662145 0.24084835
0.28140023 0.18359056 0.08564786 0.09430637 0.20672178 0.06737681 0.14451024 0.061916325
0.328688 0.27796087 0.15205967 0.20818156 -0.08370922 -0.010809113 -0.120976806 -0.1002489
0.07296352 -0.08146515 -0.06174057 -0.1486941 0.0784719 0.13183288 -0.070240356 -0.08393191
-0.017577102 0.030653909 -0.24671456 -0.25946996 0.23829629 0.15363957 -0.006824345 0.0846356
0.26481384 0.2961685 0.96341026 1.6673422 -0.22378756 -0.2545403 -0.07277814 -0.07856401
-0.17137313 0.035730686 -0.05148233 -0.17917092 -0.16762003 -0.09784142 -0.4096912 -0.392709
-0.18776563 -0.18552472 -0.20480837 -0.09520423 -0.051915877 0.11858384 0.098269515 -0.05296112
-0.05170722 -0.054660603 0.07912677 -0.08858959 -0.046546828 0.0067916284 -0.0106698405 0.24116217
0.058083277 0.007866613 -0.16776726 -0.1719237 -0.08152504 0.06134993 0.08182363 0.040242318
-0.13817419 -0.15575917 -0.01754613 0.007840647 0.23054187 0.21050015 -0.008170017 -0.021380905
-0.056058943 -0.2754715 -0.101005144 -0.65465117 0.12198105 -0.42578638 0.081798844 -0.22070369
0.0867406 0.7867071 -0.050681077 -0.13376847 0.08252131 -0.07309812 0.14655246 0.05902418
0.035939977 -0.12267679 -0.028338512 0.018540898 0.08923696 0.10698677 0.1289386 1.081424
0.053037915 -0.43939772 0.15460327 -0.6651275 -0.02249844 0.52087486 -0.07838936 -0.31866157
0.022612404 -0.37631017 -0.012219001 -0.07545947 -0.07071677 -0.08533839 0.15127178 -0.025327777
-0.11683734 -0.30247387 -0.30650946 -0.2707925 -0.008967927 -0.24221358 0.19536816 -0.24044916
-0.028081596 0.2963779 0.15610439 -0.14839205 0.0552784 0.0067704474 0.016096888 0.23014142
0.024554396 0.044941857 -0.06283392 0.20794867 0.037249047 -0.0740133 -0.13159965 1.065268
-0.09380954 -0.31205308 0.1294024 -0.54933697 -0.071868844 0.6152104 0.25260136 -0.50308436
0.06482582 -0.36907732 0.0011654417 0.14194661 -0.082441844 -0.03259835 0.017810248 -0.26043284
-0.039826367 -0.08020123 0.04183181 0.16899784 -0.06302051 -0.034792874 0.014664936 0.13711946
0.057327896 0.013647595 -0.102430165 -0.34365138 0.25892648 0.012926859 -0.3869124 0.46944168
0.12203357 0.04879481 0.16454752 -0.046962272 0.5801345 -0.61329174 -0.14896935 0.24253188
0.017990487 0.11004935 -0.1584378 -0.0026094913 -0.118835546 0.108926654 -0.72938025 0.5269883
0.16055264 -0.08331795 -0.9692967 0.8340183 0.18345788 -0.14680077 0.22456023 -0.22724399
0.61208385 -0.8350593 0.1279259 -0.20813926 0.099687405 -0.1578652 0.14939727 -0.13733202
-0.19988383 -0.0931411 -0.48032793 -0.4622714 0.22445981 0.11270469 -0.34206426 0.5000024
0.29415718 -0.022858163 0.24348469 0.087784015 0.79144585 -0.57871 0.08795462 0.0516279
-0.18786155 0.13036053 -0.14035292 -0.10648345 -0.1467686 0.05149768 -0.26780692 -0.0949049
-0.010834716 -0.014028589 -0.4388496 0.36028922 -0.03588112 0.005792639 0.016137253 -0.13758057
0.68016404 -0.55308634 0.017993184 -0.06156321 -0.07152117 0.09138966 0.14111525 0.034059826
00000000: 4b1f dabe 891f 9abe d8c4 3abf 0d84 c9bf
00000010: fcd3 833e e8ca 6b3c 7ee6 0b3e f3a0 763e
00000020: b113 903e 2aff 3b3e 2568 af3d b323 c13d
00000030: e0ae 533e dafc 893d 7efa 133e f99b 7d3d
00000040: cb49 a83e e350 8e3e 88b5 1b3e 8c2d 553e
00000050: bd6f abbd b518 31bc b0c2 f7bd 4c4f cdbd
00000060: e66d 953d 33d7 a6bd aee3 7cbd 4443 18be
00000070: e0b5 a03d 33ff 063e 2dda 8fbd 7ee4 abbd
00000080: dbfd 8fbc e81d fb3c bea2 7cbe 3fd9 84be
00000090: f103 743e b153 1d3e c19e dfbb 6e55 ad3d
000000a0: ae95 873e 66a3 973e 0ea2 763f 786b d53f
000000b0: 9128 65be 1b53 82be b50c 95bd 2be6 a0bd
000000c0: 707c 2fbe 575a 123d 23df 52bd 9578 37be
000000d0: 96a4 2bbe 1561 c8bd 0cc3 d1be 2711 c9be
000000e0: a245 40be 31fa 3dbe 49b9 51be 6ffa c2bd
000000f0: bea5 54bd 16dc f23d 8741 c93d c2ed 58bd
00000100: f3ca 53bd cce3 5fbd 370d a23d 756e b5bd
00000110: e3a7 3ebd 4f8c de3b 8ed0 2ebc 37f3 763e
00000120: bbe8 6d3d f7e2 003c 2ecb 2bbe c40c 30be
00000130: 9af6 a6bd 104a 7b3d 2693 a73d 21d5 243d
00000140: 897d 0dbe 557f 1fbe e7bc 8fbc 0f76 003c
00000150: 2b13 6c3e 5a8d 573e 89db 05bc 0227 afbc
00000160: 109e 65bd 9a0a 8dbe c9db cebd 3897 27bf
00000170: 33d1 f93d ac00 dabe 2786 a73d 2600 62be
00000180: 0ea5 b13d a365 493f f696 4fbd 9afa 08be
00000190: ef00 a93d 78b4 95bd d911 163e 57c3 713d
000001a0: cc35 133d f83d fbbd 2b26 e8bc 15e3 973c
000001b0: dec1 b63d e11b db3d 7b08 043e 1a6c 8a3f
000001c0: 493e 593d bdf8 e0be 5250 1e3e cc45 2abf
000001d0: a64e b8bc 0e58 053f 9a8a a0bd 9c27 a3be
000001e0: a63d b93c baab c0be 3432 48bc 7f8a 9abd
000001f0: f4d3 90bd e5c5 aebd fde6 1a3e 337c cfbc
00000200: 6a48 efbd dbdd 9abe cfee 9cbe 51a5 8abe
00000210: 36ee 12bc d606 78be 970e 483e 4e38 76be
00000220: 600b e6bc d8be 973e d4d9 1f3e 16f4 17be
00000230: 9b6b 623d a1da dd3b 9fdd 833c 31aa 6b3e
00000240: 4d26 c93c f414 383d 12af 80bd 7ff0 543e
00000250: 7592 183d 4994 97bd 0fc2 06be b45a 883f
00000260: 371f c0bd 6cc5 9fbe 1082 043e 59a1 0cbf
00000270: f92f 93bd 6e7e 1d3f f754 813e 23ca 00bf
00000280: 66c3 843d b4f7 bcbe bcc1 983a 745a 113e
00000290: 45d7 a8bd d985 05bd cce6 913c 7457 85be
000002a0: f920 23bd 8b40 a4bd d557 2b3d c50d 2d3e
000002b0: e610 81bd f982 0ebd 3345 703c 0b69 0c3e
000002c0: a8d0 6a3d 2a9a 5f3c e8c6 d1bd 13f3 afbe
000002d0: 0392 843e 2dcb 533c 6219 c6be a95a f03e
000002e0: bdec f93d 11dd 473d 257f 283e 835b 40bd
000002f0: b283 143f b000 1dbf 6c8b 18be 475a 783e
00000300: c960 933c 8e61 e13d 853d 22be 0004 2bbb
00000310: 0d60 f3bd f014 df3d aab8 3abf b5e8 063f
00000320: e967 243e 9aa2 aabd d423 78bf 3982 553f
00000330: 62dc 3b3e f152 16be 1ef3 653e a6b2 68be
00000340: 87b1 1c3f 72c6 55bf 02ff 023e 7522 55be
00000350: e928 cc3d 6aa7 21be 99fb 183e c4a0 0cbe
00000360: 59ae 4cbe c3c0 bebd 8bed f5be d6ae ecbe
00000370: cbd8 653e b7d1 e63d 0c23 afbe 2800 003f
00000380: c59b 963e 0b41 bbbc 0d54 793e 1bc8 b33d
00000390: 329c 4a3f 5726 14bf 8d21 b43d c777 533d
000003a0: c75e 40be 3b7d 053e adb8 0fbe ff13 dabd
000003b0: 824a 16be 3bef 523d fd1d 89be 805d c2bd
000003c0: 1884 31bc 2bd8 65bc e5b0 e0be d477 b83e
000003d0: 15f8 12bd 2ed0 bd3b 4632 843c ece1 0cbe
000003e0: 3b1f 2e3f 1197 0dbf 7166 933c b429 7cbd
000003f0: b179 92bd 812a bb3d 8480 103e 5182 0b3d

bias f4 [176]
0.03361954 0.5929863 -0.22351512 -0.4242575 -0.14397036 -1.2251153 0.0030922168 0.37975186
0.085554704 1.4603179 -0.17446578 0.21786056 0.01860109 0.2977144 -0.16075788 -0.48794854
0.16306625 1.5980244 0.057944812 -0.69040394 -0.12985396 1.4530277 2.5224264 -0.23502329
0.025685573 -0.39781034 -0.16843267 -0.4002377 0.77015 0.013987143 0.62846744 0.20771475
2.4746463 -0.636048 -0.8997985 0.25198424 0.35843894 -0.29251236 -1.1062434 -0.41001412
0.16783656 0.34412885 0.09182413 -0.31242007 -0.08680435 -0.86932594 -0.1293747 -0.15014474
0.028129956 0.25405967 0.007612379 -0.38385853 -0.06193605 1.1431078 -0.79568875 -0.28134936
-0.89732736 -0.21534547 0.105734676 -0.6503551 0.05869108 0.5166572 -0.9126523 -0.07049253
1.5746133 0.88354826 0.42908788 -0.25843725 -0.054706607 0.064182185 0.26778418 -0.0019081422
-0.53390926 0.2738034 0.15520708 -0.24902505 -0.23344758 0.07777893 -0.18821608 0.24722181
0.12530732 1.1854036 -0.11841784 0.078757055 0.109605655 0.60598433 -0.0010672578 0.6556216
-0.5849989 -0.6846075 0.14298914 0.3577185 0.27987564 -0.20794763 -0.7359207 0.057872146
0.8309516 0.30872023 -0.06815529 0.7078061 -0.26705748 -0.29021472 0.2074656 1.4673766
-0.50552315 0.3777681 -0.23438008 -0.06333156 0.062545285 -0.15697293 0.26940712 -0.87697446
2.2678246 -0.34510285 -0.26935276 -0.06813421 0.10909034 0.18717536 0.38677707 -0.12322924
0.61484134 1.9576727 -0.4931848 -0.5523688 -0.42803982 0.05883612 -0.48590258 -0.027019897
-0.45920894 0.2884217 0.18000813 0.4569996 0.23302482 2.034427 0.6414864 -0.6094722
-1.5276309 0.28054196 1.7406539 -0.3474507 0.4876181 1.0501041 0.20206015 0.0046551796
0.5914051 0.16458791 -0.19683057 1.3187249 -0.11921099 -0.38461983 0.77091074 0.09625637
0.40671915 0.49837837 0.0530617 0.6248923 0.20711258 0.083947346 -0.32632294 0.29037324
0.8206738 -0.10965769 0.7019491 -1.1435518 0.09899976 0.084049255 -0.47935992 -1.1982847
1.4308966 1.0891074 2.0589194 0.2710099 0.18692517 -0.04694427 -0.12807085 -0.29875824
00000000: a5b4 093d f3cd 173f 26e1 64be 4738 d9be
00000010: f76c 13be 94d0 9cbf caa6 4a3b d66e c23e
00000020: 4e37 af3d b2eb ba3f 28a7 32be d716 5f3e
00000030: 5061 983c 066e 983e b79d 24be 64d4 f9be
00000040: d7fa 263e 108c cc3f 8a57 6d3d 50be 30bf
00000050: 70f8 04be d0fc b93f 6f6f 2140 f2a9 70be
00000060: 8d6a d23c ccad cbbe 9d79 2cbe f5eb ccbe
00000070: 8d28 453f 542a 653c 3ee3 203f 2db3 543e
00000080: 9b60 1e40 0bd4 22bf 3259 66bf 1404 813e
00000090: 4f85 b73e 2ec4 95be 6299 8dbf 5fed d1be
000000a0: 59dd 2b3e a831 b03e 4a0e bc3d 86f5 9fbe
000000b0: 7bc6 b1bd 258c 5ebf cd7a 04be 8bbf 19be
000000c0: cb70 e63c 1c14 823e 4371 f93b 1b89 c4be
000000d0: a8b0 7dbd 5b51 923f 42b2 4bbf 060d 90be
000000e0: 3fb7 65bf 8683 5cbe 6c8b d83d ac7d 26bf
000000f0: 0f66 703d a543 043f 95a3 69bf 635e 90bd
00000100: ee8c c93f 3830 623f 68b1 db3e e351 84be
00000110: 0914 60bd f371 833d 021b 893e a11a faba
00000120: 47ae 08bf f62f 8c3e 9bee 1e3e 6c00 7fbe
00000130: e20c 6fbe 8f4a 9f3d b7bb 40be b727 7d3e
00000140: 9050 003e 4ebb 973f 0d85 f2bd 614b a13d
00000150: ee78 e03d ca21 1b3f 3be3 8bba d1d6 273f
00000160: 7dc2 15bf 7042 2fbf bf6b 123e e126 b73e
00000170: dc4b 8f3e 39f0 54be 4d65 3cbf 580b 6d3d
00000180: 3eb9 543f 9410 9e3e 0095 8bbd c832 353f
00000190: c2bb 88be 0697 94be dd71 543e ffd2 bb3f
000001a0: f769 01bf d26a c13e 5501 70be fab3 81bd
000001b0: be17 803d 83bd 20be bbef 893e 6681 60bf
000001c0: 0a24 1140 52b1 b0be 9be8 89be f389 8bbd
000001d0: c26a df3d e6aa 3f3e a507 c63e 9d5f fcbd
000001e0: 3e66 1d3f 0595 fa3f b882 fcbe 0b68 0dbf
000001f0: 0928 dbbe 25fe 703d 39c8 f8be d558 ddbc
00000200: 6f1d ebbe 02ac 933e 0d54 383e dafb e93e
00000210: 0f9e 6e3e 0d34 0240 7438 243f 5f06 1cbf
00000220: 6989 c3bf 32a3 8f3e bfcd de3f 0fe5 b1be
00000230: 14a9 f93e d069 863f dbe8 4e3e 7a8a 983b
00000240: 5366 173f bc89 283e f48d 49be facb a83f
00000250: e424 f4bd e4ec c4be 685a 453f 0f22 c53d
00000260: 7e3d d03e 732b ff3e 3a57 593d f1f8 1f3f
00000270: 5215 543e 96ec ab3d cd13 a7be cdab 943e
00000280: ae17 523f 3694 e0bd f0b2 333f e85f 92bf
00000290: 63c0 ca3d 0422 ac3d aa6e f5be 6561 99bf
000002a0: 9f27 b73f df67 8b3f 56c5 0340 cfc1 8a3e
000002b0: 5069 3f3e a348 40bd 0125 03be d7f6 98be

weight f4 [88, 176]
0.078661025 0.53295493 0.21798775 0.005072374 0.2173595 -0.080033 0.032260425 0.27188456
0.4277221 0.37015566 0.22518858 0.048007507 0.06338238 0.27577516 0.25183636 0.11855929
0.5689268 0.5559045 0.025214542 -0.23338798 0.20090137 0.6421481 0.6165966 0.27794442
0.15791096 0.34215513 0.16907616 0.63317657 0.37162519 0.2619673 0.6417811 0.12536973
0.62314093 0.32594904 -0.22460806 0.1862098 0.4799228 -0.0002274736 -0.30728278 -0.12987456
0.47219843 0.24084997 0.024196759 0.25760874 -0.07795516 0.04880453 0.03795445 -0.118420236
0.2614109 0.1106807 0.28017685 0.15003476 0.24786629 0.33278704 -0.037873648 -0.08855379
-0.09331166 0.33042842 0.3903695 -0.10615513 0.10644587 0.29753986 -0.15348415 -0.03578122
0.65816164 0.40647596 0.21574222 0.25409645 0.15117002 0.17543265 0.45921984 0.25045025
0.35411224 0.35249186 0.37636262 0.26892352 0.22006346 0.13096185 0.33706892 0.56893945
0.23248403 0.40779892 0.17075554 0.22657576 0.12199957 0.4825101 0.0106864525 0.40141732
0.14842227 -0.1575517 0.11800302 0.104128055 0.22961584 0.29638782 -0.14812112 -0.019896425
0.4440673 0.29009992 0.22502755 0.17324185 0.1369687 -0.2211179 0.31038913 0.35763502
-0.08994138 0.16330871 0.011345146 -0.0716717 0.23767783 0.1125113 0.068395406 0.16704652
0.5149565 0.065962225 0.183192 -0.10377769 0.032421753 0.19127975 0.3540083 -0.042038035
0.30617604 0.5547703 -0.044952992 -0.036016174 0.40206346 0.11344029 0.32314315 0.51094913
-0.019307049 0.1195418 0.061029576 0.35238698 0.4375244 0.5311862 0.37673205 -0.025972309
-0.2913786 0.057105213 0.53814924 0.37958813 0.38614905 0.41402325 0.47482663 0.43620607
0.31114915 0.16496383 -0.073103875 0.530658 0.04215952 -0.06749231 0.43223184 0.17670073
0.4838462 0.39392292 0.3888231 0.5468055 0.30662435 0.48041672 -0.12448576 0.193887
0.5569401 0.10203619 0.45942104 0.1760835 0.07801359 0.41869766 0.18233703 0.26094222
0.6262945 0.45015526 0.5710002 0.38337067 0.2234699 0.21614881 0.37998042 0.031685673
0.08561416 0.07436252 0.14773561 0.022580888 0.2906946 0.33530086 -0.30829582 0.27755508
0.07288688 0.28129572 -0.013542732 0.13302948 0.0111707905 0.051847216 0.17972848 0.14970435
-0.29285464 -0.18943276 -0.06398536 0.4074664 0.46912453 -0.010924238 0.043196708 0.21727589
0.34690425 0.24535567 0.06913185 0.1478857 0.24063624 0.08374228 0.0793613 0.21632352
-0.011758307 0.060229883 0.41431975 -0.09331182 0.048914663 0.31423667 0.3777629 0.0694574
0.26042932 0.35397667 -0.021677332 0.056222215 0.20421377 0.0043424233 0.017242238 0.6726794
-0.18530364 0.34036422 -0.14928733 -0.25960553 0.09639847 0.075983055 0.717806 0.14806435
0.19630378 -0.0058430326 0.74190074 0.112545885 0.0006470193 0.009499925 -0.094315775 -0.08826326
0.031727765 -0.10365208 -0.21513337 -0.04377039 -0.00014765323 -0.02961701 0.5102502 0.027417563
0.114529185 0.05263421 0.102061816 -0.023447186 0.007819433 -0.50685966 0.03014435 0.2600896
00000000: 0819 a13d bc6f 083f 2e38 5f3e 2836 a63b
00000010: 7d93 5e3e 57e8 a3bd 8223 043d 7434 8b3e
00000020: 64fe da3e 0b85 bd3e d697 663e 85a3 443d
00000030: 9fce 813d 6732 8d3e b2f0 803e 37cf f23d
00000040: 30a5 113f c24f 0e3f ba8e ce3c 42fd 6ebe
00000050: 17b9 4d3e d163 243f 46d9 1d3f bb4e 8e3e
00000060: 69b3 213e f52e af3e 4d22 2d3e dc17 223f
00000070: a845 be3e 9420 863e c44b 243f ec60 003e
00000080: 2a86 1f3f cbe2 a63e a8ff 65be c8ad 3e3e
00000090: 71b8 f53e fb85 6eb9 2b54 9dbe d6fd 04be
000000a0: fec3 f13e 60a1 763e 4838 c63c 4be5 833e
000000b0: f4a6 9fbd 42e7 473d 2076 1b3d 4f86 f2bd
000000c0: a6d7 853e 90ac e23d 5773 8f3e b6a2 193e
000000d0: a9d0 7d3e 1063 aa3e 6621 1bbd b05b b5bd
000000e0: 2f1a bfbd ea2d a93e 83de c73e dc67 d9bd
000000f0: 4b00 da3d 2557 983e f32a 1dbe 548f 12bd
00000100: 487d 283f 9e1d d03e 87eb 5c3e ee18 823e
00000110: 50cc 1a3e 9ea4 333e dd1e eb3e 043b 803e
00000120: 334e b53e d079 b43e 9ab2 c03e 58b0 893e
00000130: 5158 613e dd1a 063e 4c94 ac3e 04a6 113f
00000140: 4b10 6e3e 05cb d03e 8ada 2e3e 7a03 683e
00000150: e9da f93d 900b f73e 3b16 2f3c 9286 cd3e
00000160: 02fc 173e 3c55 21be 91ab f13d 1741 d53d
00000170: 6a20 6b3e 25c0 973e 10ad 17be d4fd a2bc
00000180: ca5c e33e fa87 943e 9f6d 663e 5066 313e
00000190: 8641 0c3e bb6c 62be 53eb 9e3e f01b b73e
000001a0: 3033 b8bd 663a 273e fee0 393c 9dc8 92bd
000001b0: d161 733e 536c e63d e412 8c3d 3e0e 2b3e
000001c0: 30d4 033f 3417 873d af96 3b3e 6689 d4bd
000001d0: accc 043d d7de 433e 9340 b53e 1330 2cbd
000001e0: 1bc3 9c3e 6d05 0e3f a120 38bd b285 13bd
000001f0: 43db cd3e 6253 e83d 0573 a53e 90cd 023f
00000200: d129 9ebc 55d2 f43d 26fa 793d 116c b43e
00000210: 3303 e03e d2fb 073f 06e3 c03e e1c3 d4bc
00000220: 932f 95be 28e7 693d 26c4 093f 6059 c23e
00000230: 54b5 c53e dbfa d33e 7a1c f33e 6756 df3e
00000240: f14e 9f3e 47ec 283e 7cb7 95bd 34d9 073f
00000250: 76af 2c3d 6939 8abd 7e4d dd3e 09f1 343e
00000260: b0ba f73e 44b0 c93e d213 c73e 72fb 0b3f
00000270: defd 9c3e 2ef9 f53e 64f2 febd 508a 463e
00000280: a093 0e3f 5af8 d03d 3c39 eb3e 3c4f 343e
00000290: 97c5 9f3d 8a5f d63e 8fb6 3a3e 389a 853e
000002a0: d654 203f c07a e63e 122d 123f 2949 c43e
000002b0: 4bd5 643e 1d56 5d3e cb8c c23e d6c8 013d
000002c0: 7a56 af3d 604b 983d 0148 173e 8efb b83c
000002d0: ecd5 943e 8eac ab3e f3d8 9dbe b31b 8e3e
000002e0: b745 953d fe05 903e 56e2 5dbc e138 083e
000002f0: b105 373c bf5d 543d be0a 383e 194c 193e
00000300: 0bf1 95be a9fa 41be c20a 83bd 709f d03e
00000310: 1731 f03e 93fb 32bc 08ef 303d 927d 5e3e
00000320: 6f9d b13e 843e 7b3e 0095 8d3d 596f 173e
00000330: 5969 763e 1381 ab3d 2d88 a23d ea83 5d3e
00000340: eaa5 40bc 9cb3 763d b821 d43e 441a bfbd
00000350: be5a 483d a1e3 a03e 246a c13e ae3f 8e3d
00000360: fe56 853e 6e3c b53e a994 b1bc 4449 663d
00000370: 6a1d 513e e34a 8e3b 983f 8d3c b834 2c3f
00000380: 3dc0 3dbe 3844 ae3e c7de 18be 04eb 84be
00000390: 906c c53d 019d 9b3d 22c2 373f 2e9e 173e
000003a0: dc03 493e e976 bfbb 35ed 3d3f 757e e63d
000003b0: bb9c 293a 93a5 1b3c a128 c1bd 5ec3 b4bd
000003c0: f9f4 013d 8b47 d4bd ec4b 5cbe 9548 33bd
000003d0: 5dd3 1ab9 5f9f f2bc c29f 023f cc9a e03c
000003e0: 478e ea3d f896 573d c905 d13d 5014 c0bc
000003f0: 141d 003c 8ec1 01bf 49f1 f63c 772a 853e

bias f4 [88]
0.9573309 -1.1219269 -0.58319384 -0.82019657 -0.89155304 -0.75541866 -0.5331445 -0.7964936
-0.5784642 0.908264 -0.64106107 0.88063884 -0.25805405 0.98083085 -1.298846 0.92751235
0.9913605 -0.16862738 -0.39793417 -0.5474637 0.8812519 0.8813156 0.90045196 -1.0192508
0.96907896 0.99644667 -0.5506946 0.93931824 0.88037366 0.854273 -0.89450383 -0.970861
-1.0926452 1.0125335 -0.82935524 -0.6357685 0.88884765 0.93612915 -0.26522598 0.9498362
0.91152227 -1.049815 -1.3021532 0.88798875 1.0039903 0.98972344 -0.4284008 -0.6094905
0.949502 -0.4841823 0.9951645 -0.36762413 -0.92724276 -0.2853537 -0.540556 0.99391174
-0.47716138 0.9410377 0.930188 0.9094023 0.9020442 -0.19466923 0.85849744 -0.9796434
-1.0088106 -0.5122931 -0.32900083 -1.1070691 0.90648794 -1.5650281 0.91223013 -0.65790665
0.9826939 -0.79735124 -0.3992023 0.8575655 -0.57562894 1.0208766 -0.7319104 0.9685632
-0.70087147 0.9516832 0.89289784 -0.4689776 -0.43718535 0.9766394 -0.73472095 0.88867825
00000000: a313 753f 4d9b 8fbf 314c 15bf 67f8 51bf
00000010: d23c 64bf 1e63 41bf 287c 08bf 01e7 4bbf
00000020: 3b16 14bf fd83 683f 941c 24bf 8c71 613f
00000030: a91f 84be bb17 7b3f 9640 a6bf 7371 6d3f
00000040: cdc9 7d3f a8ac 2cbe 07be cbbe 9526 0cbf
00000050: b999 613f e69d 613f 0584 663f cf76 82bf
00000060: 8f15 783f 2117 7f3f 52fa 0cbf 2977 703f
00000070: 2b60 613f a3b1 5a3f 34fe 64bf 598a 78bf
00000080: ccdb 8bbf b39a 813f a050 54bf b9c1 22bf
00000090: 858b 633f 29a6 6f3f b3cb 87be 7728 733f
000000a0: 8659 693f 5760 86bf f5ac a6bf 3b53 633f
000000b0: c182 803f 845e 7d3f 5a57 dbbe 9207 1cbf
000000c0: 9012 733f bee6 f7be 1ac3 7e3f 3b39 bcbe
000000d0: c85f 6dbf e119 92be e161 0abf 0071 7e3f
000000e0: 7f4e f4be d9e7 703f cd20 6e3f 97ce 683f
000000f0: 5eec 663f 5f57 47be 7dc6 5b3f e9c9 7abf
00000100: b520 81bf a425 03bf cc72 a8be 71b4 8dbf
00000110: 980f 683f d752 c8bf ea87 693f 926c 28bf
00000120: d491 7b3f 361f 4cbf 3e64 ccbe 6a89 5b3f
00000130: 6b5c 13bf 16ac 823f 7b5e 3bbf c2f3 773f
00000140: 506c 33bf 83a1 733f f494 643f d51d f0be
00000150: c2d6 dfbe 0a05 7a3f ac16 3cbf 6b80 633f

weight f4 [22, 88]
0.007625195 1.2839823 9.03556 0.9073278 1.394115 0.83785385 0.72301334 0.9091483
0.48734853 -0.06886792 1.1037688 -0.0023802344 2.247825 -0.115294665 1.4039181 -0.122160904
-0.0034675305 1.6773185 2.4340713 1.1611209 -0.11789628 -0.13475098 -0.0004899493 0.715891
-0.11112577 -0.0047609545 0.6579418 0.055671506 0.021432245 -0.11136084 1.1576401 0.5154833
2.0478997 0.07312419 1.5107412 1.3116634 -0.10337111 0.028037403 1.2221025 -0.13551252
-0.098534435 1.3154877 1.3022473 -0.09958585 -0.09603683 -0.0035062374 1.2514225 1.4810433
-0.111175396 1.3359642 -0.040194597 2.5247507 4.6935887 1.4924061 2.1888266 0.05249185
1.7858388 0.052376285 -0.13682456 -0.09284416 -0.057763044 1.0212281 -0.14027289 2.7042923
1.1282183 2.2179408 2.176311 1.5820032 -0.139135 1.3418567 -0.11285714 2.7130437
-0.01833114 1.641331 2.818803 -0.1055652 1.1329957 0.08587455 1.0420973 0.0132934945
2.7474806 -0.13448109 0.010100136 1.2439142 1.23506 -0.018773234 2.6030982 -0.13237448
-0.0062804506 1.359785 8.934906 1.0803926 1.3203745 0.9101364 0.85531116 1.0713296
0.5007115 -0.09816297 1.151251 0.05666566 2.4425948 0.11746241 1.3854629 0.014295974
0.047570366 1.9066021 2.307901 1.1702313 0.04450289 -0.020159189 0.014996259 0.91259724
-0.11562206 0.09563875 0.5673143 -0.10313432 -0.040933255 -0.093692765 1.0109346 0.37575874
2.2114058 0.012612111 1.6900578 1.240671 -0.11187197 -0.0032003361 1.2045602 -0.039764136
-0.030378541 1.3595607 1.4659951 -0.10514068 -0.00019098725 -0.07783837 1.2363677 1.6237183
-0.09027005 1.0816114 -0.12524658 2.4872172 4.740516 1.4916506 2.1016304 -0.04821625
1.5475739 0.0018921061 -0.09461293 -0.10493256 -0.0016462401 1.0451695 -0.09241389 2.6675801
1.2690765 2.1896338 2.2254949 1.4153857 0.064801104 1.2790824 0.0755375 2.7181456
-0.0017167593 1.5504693 2.9100318 -0.070042804 1.068548 0.067452535 1.1078544 -0.094280295
2.7744718 -0.006491001 -0.096243404 1.3801244 1.226488 -0.02392058 2.4154165 -0.029718965
0.57687056 -1.329434 -8.846659 -0.96643853 -1.3470123 -1.1413163 -0.7087442 -0.83122396
-0.5266517 0.63475454 -1.3171169 0.48690313 -2.3028727 0.49007094 -1.3592908 0.52457184
0.6464089 -1.7250198 -2.5465071 -1.7083881 0.63714534 0.6418036 0.5993186 -0.72887206
0.49380496 0.47812715 -0.45695916 0.5147625 0.6285642 0.54407644 -1.4043647 -0.99289525
-2.2846274 0.4984403 -1.7486396 -1.7423209 0.5328383 0.6633112 -0.9990319 0.4863706
0.6513806 -1.753969 -1.4279271 0.5617784 0.58898854 0.63566893 -1.2176205 -1.8251039
0.513951 -1.2053853 0.6006481 -2.2582097 -4.654161 -1.644755 -2.7714903 0.48617506
-1.7770904 0.5467085 0.49349326 0.6142418 0.6206422 -0.98611695 0.5934882 -2.6844056
-1.4667706 -2.295258 -2.3442204 -1.5229919 0.5183223 -1.3522164 0.5251338 -2.7435405
0.5208518 -1.7334647 -2.8664577 0.5372906 -1.387168 0.6726098 -1.1776222 0.5252734
00000000: c6dc f93b 8859 a43f a791 1041 a246 683f
00000010: 5c72 b23f 977d 563f 6717 393f f1bd 683f
00000020: bf85 f93e a00a 8dbd 4c48 8d3f b5fd 1bbb
00000030: 5ddc 0f40 9c1f ecbd 97b3 b33f 7f2f fabd
00000040: 823f 63bb 5fb2 d63f d3c7 1b40 9c9f 943f
00000050: 9b73 f1bd 29fc 09be f16f 00ba a244 373f
00000060: e895 e3bd c801 9cbb e06e 283f ce07 643d
00000070: ad92 af3c 2711 e4bd 8d2d 943f b7f6 033f
00000080: ca10 0340 23c2 953d f85f c13f 96e4 a73f
00000090: 3cb4 d3bd b2ae e53c db6d 9c3f cbc3 0abe
000000a0: 6ccc c9bd e761 a83f 0ab0 a63f abf3 cbbd
000000b0: f5ae c4bd e7c8 65bb 9d2e a03f d492 bd3f
000000c0: edaf e3bd e000 ab3f 17a3 24bd 8495 2140
000000d0: e131 9640 2a07 bf3f bc15 0c40 b201 573d
000000e0: 5e96 e43f 8488 563d bd1b 0cbe 1425 bebd
000000f0: f198 6cbd 9ab7 823f b2a3 0fbe 2013 2d40
00000100: 7569 903f bef2 0d40 ae48 0b40 157f ca3f
00000110: 6879 0ebe f6c1 ab3f a521 e7bd 82a2 2d40
00000120: 302b 96bc 2217 d23f 4567 3440 9132 d8bd
00000130: 0106 913f ffde af3d 7263 853f f5cc 593c
00000140: b9d6 2f40 69b5 09be 0a7b 253c 9538 9f3f
00000150: 7216 9e3f 53ca 99bc 2999 2640 2d8d 07be
00000160: 3dcc cdbb 6f0d ae3f 60f5 0e41 4e4a 8a3f
00000170: 0802 a93f b3fe 683f acf5 5a3f 5421 893f
00000180: a12e 003f ab09 c9bd 315c 933f 401a 683d
00000190: 7953 1c40 2290 f03d d956 b13f a939 6a3c
000001a0: 25d9 423d 8a0b f43f a6b4 1340 24ca 953f
000001b0: aa48 363d e224 a5bc deb2 753c f99f 693f
000001c0: 42cb ecbd 40de c33d 833b 113f 1638 d3bd
000001d0: a1a9 27bd fee1 bfbd 4e66 813f 7363 c03e
000001e0: ac87 0d40 07a3 4e3c d053 d83f 4fce 9e3f
000001f0: 221d e5bd bbbc 51bb 072f 9a3f b8df 22bd
00000200: 6bdc f8bc 1606 ae3f baa5 bb3f ff53 d7bd
00000210: c043 48b9 b969 9fbd 4c41 9e3f 00d6 cf3f
00000220: 81df b8bd 3e72 8a3f a440 00be 912e 1f40
00000230: 4fb2 9740 68ee be3f 1d81 0640 677e 45bd
00000240: e716 c63f 8c00 f83a 6dc4 c1bd e2e6 d6bd
00000250: a7c6 d7ba 1dc8 853f 7e43 bdbd a2b9 2a40
00000260: 1971 a23f f622 0c40 826e 0e40 5c2b b53f
00000270: 71b6 843d f9b8 a33f 68b3 9a3d 19f6 2d40
00000280: e204 e1ba c775 c63f f63d 3a40 9a72 8fbd
00000290: 2ec6 883f 8e24 8a3d 2cce 8d3f 0716 c1bd
000002a0: f290 3140 77b2 d4bb 431b c5bd eba7 b03f
000002b0: 8ffd 9c3f 18f5 c3bc 2f96 1a40 3075 f3bc
000002c0: caad 133f e52a aabf ea8b 0dc1 8468 77bf
000002d0: e66a acbf a716 92bf 4370 35bf 18cb 54bf
000002e0: a5d2 06bf 467f 223f 4997 a8bf 5e4b f93e
000002f0: 4462 13c0 94ea fa3e 3efd adbf 574a 063f
00000300: 0e7b 253f 73cd dcbf f9f9 22c0 76ac dabf
00000310: f51b 233f 3e4d 243f f26c 193f 5c97 3abf
00000320: 01d4 fc3e 15cd f43e 8df6 e9be 7ac7 033f
00000330: 95e9 203f 9848 0b3f 39c2 b3bf 622e 7ebf
00000340: 5637 12c0 9133 ff3e 6cd3 dfbf 5f04 dfbf
00000350: 1768 083f c3ce 293f 8ec0 7fbf 9105 f93e
00000360: e1c0 263f 0e82 e0bf 51c6 b6bf b6d0 0f3f
00000370: f4c7 163f 33bb 223f fdda 9bbf 019d e9bf
00000380: 4b92 033f 114a 9abf 13c4 193f 8286 10c0
00000390: e3ee 94c0 5587 d2bf 1960 31c0 f0eb f83e
000003a0: b377 e3bf 17f5 0b3f 26ab fc3e f33e 1d3f
000003b0: 68e2 1e3f 2972 7cbf d8ee 173f 4dcd 2bc0
000003c0: 24bf bbbf 82e5 12c0 b507 16c0 66f1 c2bf
000003d0: c5b0 043f 6d15 adbf 2b6f 063f 2b96 2fc0
000003e0: 8b56 053f 2ce2 ddbf 0b74 37c0 e08b 093f
000003f0: b98e b1bf 2830 2c3f 53bc 96bf 5178 063f

bias f4 [22]
-0.5338062 -0.50307274 0.9190716 1.0296495 -0.6168086 -0.35263178 0.91738766 -0.60888106
0.8847612 0.8370869 -0.50346375 -0.5478435 0.950648 0.9518281 0.9737981 0.9385011
0.9072749 -0.5017919 -0.4001022 -0.5501044 -0.54809535 1.0092428
00000000: 86a7 08bf 60c9 00bf 4748 6b3f 8ecb 833f
00000010: 2be7 1dbf 278c b4be ebd9 6a3f a1df 1bbf
00000020: b67f 623f 544b 563f 00e3 00bf 793f 0cbf
00000030: ab5d 733f 02ab 733f d54a 793f 9c41 703f
00000040: 2b43 683f 6f75 00bf 32da ccbe a4d3 0cbf
00000050: fa4f 0cbf de2e 813f

weight f4 [1, 22]
0.79143715 0.8048409 -0.575374 -0.5077671 0.88233995 0.7397292 -0.5207814 0.8397677
-0.495934 -0.58096457 0.6762147 0.8350625 -0.61125135 -0.52875847 -0.58443415 -0.67021024
-0.52923256 0.90224975 0.72480357 0.83341646 0.6873281 -0.6478945
00000000: a09b 4a3f 0e0a 4e3f b64b 13bf 06fd 01bf
00000010: 08e1 613f e55e 3d3f ee51 05bf 04fb 563f
00000020: 10eb fdbe 18ba 14bf 681c 2d3f a8c6 553f
00000030: f87a 1cbf b75c 07bf 7a9d 15bf e692 2bbf
00000040: c97b 07bf d7f9 663f ba8c 393f c85a 553f
00000050: bcf4 2f3f 6adc 25bf
