data/q_value_net_2_simple_spread_3560000_pH-MARL.pth (torch, 114935 bytes, 7 tensors)

weight f4 [160, 80]
000000 6c ca cf 3e e9 6c a4 3d ce 10 84 bd 03 81 11 bd
       0.40584123 0.080285855 -0.06448518 -0.035523426
000010 82 2b d8 3c 21 17 39 3e c9 3d 7b 3e e6 02 53 3e
       0.026387934 0.18075229 0.24535288 0.20606574
000020 81 56 ee 3d ef 93 68 be b2 b3 32 3d 60 2a 87 3e
       0.11637593 -0.22712682 0.043628402 0.26399517
000030 1f e0 d9 3c 9e 72 4d bd ff 64 04 3e 63 a1 a7 bd
       0.026596127 -0.050158136 0.12929152 -0.08185079
000040 4f 62 87 3c 4f f3 4b 3d bb 9c c6 3e b8 71 18 3e
       0.01652637 0.049792584 0.3879145 0.1488713
000050 58 0e 67 be 03 98 e1 3d 8f 3f d2 3d a1 6b 2e 3e
       -0.22564065 0.11015322 0.10266029 0.17033245
000060 d4 95 7a 3e 07 34 c0 3d 87 44 b9 3a 1e 4d 02 be
       0.24471217 0.093849234 0.0014134803 -0.1272473
000070 08 a9 e5 3d 73 6e 46 3e c0 f2 9c 3d d9 8e 07 bd
       0.11213881 0.1937807 0.076634884 -0.033095215
000080 98 e2 03 3e 57 00 ea 3d a6 b6 00 bc 77 10 72 3d
       0.12879407 0.11425846 -0.007856047 0.059097733
000090 0b 07 99 3e 1e 0c 2c 3e df f1 6f 3d 30 4e a9 3e
       0.29888186 0.16801497 0.058580276 0.33067465
0000a0 50 a5 38 3d 0b a6 87 3b 0f 0f 8c 3e e7 ac d8 bd
       0.04507953 0.004139667 0.2735524 -0.105798535
0000b0 56 9e ff 3e 30 9f 86 3c 05 23 38 3e b6 36 02 bd
       0.49925488 0.016433328 0.17982109 -0.031790458
0000c0 dc 86 00 be a4 1c a0 3d c2 17 13 bd f7 a6 ce bd
       -0.12551445 0.07817963 -0.03591133 -0.1009044
0000d0 6d 51 f4 bd fb ce 17 be 70 ae b3 3e 5c d6 c6 3d
       -0.11929593 -0.1482505 0.35094023 0.097088546
0000e0 e7 c7 c5 be 8b 83 84 3c 04 03 81 3e 5c 13 a0 3d
       -0.38629076 0.016176006 0.25197613 0.078161925
0000f0 26 d1 74 3e 56 27 2e 3e 5a 02 8f 3d e3 b1 8e be
       0.23907909 0.17007193 0.069828704 -0.27870092
000100 b9 d9 aa 3e bb d0 13 3e 7b 56 10 3e 16 a0 8e 3d
       0.33369234 0.14435093 0.1409549 0.06964128
000110 f0 6c c3 3d 52 64 18 3d 83 ab 19 3e 03 d0 e4 3d
       0.095422626 0.037205048 0.15006833 0.111724876
000120 74 2f 17 bd e4 4e 43 bd ec 0c d3 bd c6 53 9d bd
       -0.03691049 -0.047682658 -0.10305199 -0.07681994
000130 5e cc 56 3b 9b 62 67 3e 23 5e 69 be c7 a9 1d bd
       0.003277562 0.22596209 -0.22789817 -0.03849199
000140 66 b6 8c 3e 87 bd 88 bc 67 d5 53 3f 37 54 38 bd
       0.2748291 -0.016691936 0.827475 -0.04500219
000150 a0 0f 0a 40 25 5f b7 be dc c4 5d be e4 be 4c 3c
       2.1572037 -0.35814777 -0.21657127 0.012496684
000160 f0 9f 7f be e9 f7 96 3d 1e 13 c3 bf b3 ee 08 bd
       -0.24963355 0.07371504 -1.5240209 -0.033430766
000170 18 81 12 be e0 7c 69 3d 5b 75 81 be cb b1 0f bd
       -0.14307058 0.057003856 -0.25284848 -0.035081666
000180 4b 67 35 be b8 49 ff 3d c7 6a c1 3c d0 e6 a2 bd
       -0.17715184 0.124652326 0.023610486 -0.0795418
000190 c2 76 83 bd 8e 4c 8a bc f0 34 3f 3f 9d 83 af 3d
       -0.06419136 -0.016882207 0.7469015 0.08570025
0001a0 52 cb 0b 3e 81 03 32 be 36 5a c2 bc c7 7c 56 bb
       0.1365178 -0.17384149 -0.023724657 -0.0032728182
0001b0 91 bb 42 bf b7 14 ed bd dc 40 92 3e 63 c3 8b bc
       -0.76067454 -0.11576217 0.2856511 -0.017060941
0001c0 1c c6 ed bd ef bb ab bb 66 64 b2 bd 36 85 db 3d
       -0.11610052 -0.0052409093 -0.08710556 0.10718767
0001d0 24 c3 c3 3d 80 77 9f 3b ac 76 8b 3d 96 a6 01 3d
       0.095587045 0.0048665404 0.06809744 0.03165301
0001e0 c0 e1 06 3f eb 77 c8 bd 16 e5 2b bc 25 70 0a 3e
       0.5268822 -0.097884975 -0.01049163 0.13519342
0001f0 e7 99 02 3e ce fe 25 3c b3 38 55 bf 94 7a 28 be
       0.12754022 0.010131551 -0.8328964 -0.1645301
000200 21 7a 46 3e 55 fb 8d bc c5 68 8c bc a3 94 df 3a
       0.19382526 -0.017331759 -0.017139802 0.0017057847
000210 0f 0a dc bd 37 b5 89 3d ff cf 94 be 7b b3 e2 3c
       -0.10744106 0.06724017 -0.29064938 0.027673474
000220 06 b1 62 bf c4 66 9b 3c fe 2c af 3f 73 85 ef bd
       -0.88551366 0.0189699 1.3685606 -0.11695375
000230 be bd 97 3e 22 e2 23 bd e1 b4 3c 3e 8d f9 fa bc
       0.2963695 -0.04001058 0.18428375 -0.030636573
000240 02 a5 f6 bf 4a 6f 4f 3f 32 cc 46 3e b9 b3 e1 bd
       -1.9269106 0.8102919 0.19413832 -0.110206075
000250 a3 d8 5e 3e ab 81 b9 bd 4e 96 e8 3d 40 76 d6 bd
       0.21762328 -0.09057935 0.11356793 -0.10471773
000260 71 3a 42 3d 0d 66 b4 3b 23 08 e1 bb d0 c3 00 3b
       0.047419015 0.0055053295 -0.006867425 0.0019647963
000270 bd c4 ba ba 2c d4 0e bc e8 97 9e bd d9 9b 93 bb
       -0.0014249306 -0.008717578 -0.077438176 -0.0045046625
000280 80 e4 68 be 7a c0 af 3d b5 08 b9 3c 24 bc 05 3e
       -0.22743416 0.08581634 0.02258716 0.13060051
000290 61 d7 a4 3e c8 93 24 be 5d b5 48 3e 28 61 2d bd
       0.3219557 -0.16071999 0.19600435 -0.042328984
0002a0 3a a0 45 bb 14 87 a6 bb 94 22 02 3d 41 d3 ae 3d
       -0.0030155317 -0.0050820205 0.031771258 0.08536387
0002b0 8a c2 48 3e c1 f4 44 bc 20 00 23 3e 7b 3d bd bc
       0.19605461 -0.0120212445 0.15918016 -0.023100605
0002c0 03 02 02 3e 87 01 fe bc 42 00 c2 bd 45 a1 61 be
       0.1269608 -0.031006588 -0.094727054 -0.22034176
0002d0 5c d8 fb 3b 6e 16 62 3e 26 cd e8 bd 56 d6 4e 3c
       0.007685704 0.22078869 -0.11367254 0.012624344
0002e0 b1 4e d4 be 0e b6 5e be 24 ab cd bc 66 94 ba 3d
       -0.41466287 -0.21749136 -0.02510602 0.09110336
0002f0 21 a6 23 bd 79 ab d4 3d 2b 96 8b bc 31 15 e3 bd
       -0.039953355 0.10384268 -0.01703938 -0.11088026
000300 82 0b 5a 3e a5 15 e8 bd 46 0a 04 3e 3c 43 3a bd
       0.21293452 -0.11332253 0.12894544 -0.045474276
000310 4b e5 43 3d 76 c6 08 3e 0c d5 44 be e0 1f db 3e
       0.047826093 0.13356957 -0.19221896 0.42797756
000320 56 e3 cf bd 03 4a 9e 3d 6d d7 be 3c e5 b6 d8 bd
       -0.10150783 0.0772896 0.023296082 -0.10581759
000330 72 91 af be 56 af 1e b7 94 43 61 bd 00 2e 4f 3d
       -0.34290653 -9.458357e-06 -0.05499609 0.05058098
000340 31 86 ed bd f7 e2 8d bd ee 3f 2d be c8 d3 f6 3d
       -0.115978606 -0.06928056 -0.16918918 0.12052113
000350 0a 22 ea bc cb aa f5 bd c8 16 73 3d 8f 07 10 be
       -0.028580684 -0.11995467 0.059347898 -0.14065383
000360 19 f6 ea bd 0b 81 69 3e e1 83 ab bd 62 96 d8 bd
       -0.11472721 0.22803132 -0.08374763 -0.10575558
000370 35 0b 2c 3e ec 64 4b 3d be 67 9d bc d4 49 c0 3d
       0.1680115 0.049656793 -0.019214507 0.093890816
000380 c4 f6 d8 bd b6 ca ca 3d 5c 67 b6 bd c9 82 92 3c
       -0.10593942 0.09901945 -0.08906433 0.017884629
000390 cf 1f 6a bc 57 ff 10 3b bf 02 fd 3d b5 ca fc 3d
       -0.01428981 0.002212485 0.123540394 0.12343351
0003a0 12 a2 a9 3d 57 18 02 be a7 be c4 bc 22 e7 12 3c
       0.082828656 -0.12704597 -0.024016691 0.008966239
0003b0 23 30 07 be aa 02 b2 3c cd 41 8a 3d e8 05 8f 3d
       -0.13201956 0.021729786 0.06750832 0.069835484
0003c0 a5 6f a8 bd f6 fb db 3c 90 c2 eb bc af 0d 33 bf
       -0.082244195 0.026853543 -0.028779298 -0.69942755
0003d0 93 fb 35 3e fb 47 83 3e 62 8d a7 3d 19 91 5c 3e
       0.17771749 0.25640854 0.081812635 0.21539725
0003e0 9f 3c ba 3c f8 b3 18 3e da 53 10 3e f9 d2 12 3e
       0.022733985 0.14912403 0.14094487 0.14338292
0003f0 18 48 ca bd 25 8d b8 bd c2 d1 b6 bb dd fe 97 bd
       -0.09877032 -0.09011296 -0.0055792043 -0.07421658

bias f4 [160]
000000 4e 9e 1e be 64 68 c5 be e8 d1 56 bc 57 41 17 3f
       -0.15490076 -0.38556206 -0.013111569 0.59084076
000010 06 43 53 3e 8f 05 91 be 91 07 22 be d0 dd 7d be
       0.20631036 -0.28324553 -0.15823199 -0.24791646
000020 7a 3f cd 3d cf 20 1d bb cc ca 71 be 79 9c 6b be
       0.10021873 -0.0023975854 -0.23612517 -0.23008908
000030 a3 56 33 be f3 68 ca 3d 59 0f 09 be 9a 00 80 3e
       -0.17513518 0.09883299 -0.13384761 0.2500046
000040 6d bf 03 be 5f ea b7 3e 6d b4 ad bd 9a b0 39 3f
       -0.12865992 0.35920998 -0.08481679 0.725351
000050 c3 70 ee bd 97 0e 77 be 26 67 b7 3c ea d4 ab be
       -0.11642601 -0.2412666 0.022388052 -0.33560878
000060 f2 77 9a be 88 c1 84 bf 84 90 6d 3e 27 57 1b 3f
       -0.30169636 -1.0371561 0.2319966 0.6067986
000070 c4 8a b1 3e e5 72 28 be 89 db 77 3d 87 fb 31 be
       0.34676182 -0.16450079 0.0605121 -0.17381106
000080 50 49 35 3e 89 b2 67 3e f0 38 be 3d 37 e0 c6 bd
       0.17703748 0.226267 0.09288204 -0.09710734
000090 50 69 ae be 8a 3a 7b 3d dd 95 ed 3e 8f b4 0e be
       -0.34064722 0.061335124 0.464034 -0.13936065
0000a0 cb c9 45 3e 4f 20 5a 3e be b2 3b bc 9f f9 10 3e
       0.19315259 0.21301387 -0.01145619 0.14157723
0000b0 9e ba 06 3e 01 5d b5 be 2c 50 53 bc 61 93 aa 3f
       0.13157126 -0.3542252 -0.012897532 1.3326226
0000c0 cb 02 61 bd c1 0a f1 3e a6 1e 2f 3e 65 75 6d be
       -0.054934304 0.47078517 0.17101535 -0.23189314
0000d0 13 b8 fc 3e 4c 0b 6a be 6a 24 8f be a3 a7 bb be
       0.49359187 -0.22855872 -0.2795747 -0.36651334
0000e0 c4 db 19 be 0d 21 60 3f 82 9e b4 3d 7b a5 3d 3f
       -0.1502524 0.8755043 0.088192955 0.7408063
0000f0 95 12 4d 3e e4 e8 3a 3e e6 c1 2e be 52 76 41 be
       0.2002662 0.18252903 -0.17066154 -0.18892792
000100 52 ce 8c be 6d 94 25 3f bb 6d 1c bf 79 85 bb bc
       -0.2750116 0.64679605 -0.61104935 -0.022890793
000110 36 c5 a5 3f e5 1f 5f be 48 44 53 bd 3c 4b e9 be
       1.2950809 -0.2178951 -0.05157879 -0.45565212
000120 24 4d 35 3f 51 eb b1 3c 00 e0 fc bd cb 60 a8 be
       0.7082083 0.021718653 -0.12347412 -0.32886347
000130 5f b0 77 3f 18 78 34 3f 8b ac 87 bf b7 f8 d4 be
       0.96753496 0.7049575 -1.0599531 -0.41596004
000140 d6 4b 46 bd 31 45 94 3e 15 33 92 be fc 77 01 3d
       -0.048412167 0.2895904 -0.28554597 0.031608567
000150 36 55 3a 3e 1c 48 9c be 0e 91 88 be 1d 2e 81 3e
       0.18196568 -0.30523765 -0.26673168 0.25230494
000160 15 d1 48 3d 80 0c 9f 3f 8f a3 a7 3e 39 f8 14 bd
       0.04902752 1.242569 0.32741973 -0.036369536
000170 b5 be 34 be 7d 59 6f be 44 ee 4d be bb 45 da 3c
       -0.17650874 -0.23373981 -0.20110422 0.026644578
000180 41 b1 22 be 97 c1 8a be 7f 6d 1f 3e e0 18 51 3b
       -0.1588793 -0.27100822 0.15569113 0.0031905696
000190 aa b3 8d 3f 03 3c 6b 3f 29 9c e9 bd 9f 94 5d 3e
       1.1070454 0.91888446 -0.11406738 0.21638726
0001a0 65 5e cb 3e 85 b5 0b be 6e 11 44 3f 2a 1c 78 bd
       0.39720455 -0.13643463 0.76589096 -0.060573734
0001b0 9b 88 25 be 3e e9 bb 3c b2 47 03 be 26 5e 66 3f
       -0.16165392 0.022938367 -0.12820318 0.8998741
0001c0 0e 24 9c be d5 41 70 3f bc 89 da be 88 4f 29 bd
       -0.30496258 0.9385045 -0.42683208 -0.041335613
0001d0 76 ab b1 bd 7e 90 8d be fe 98 96 3e 48 23 d2 be
       -0.08675282 -0.276493 0.294136 -0.41042542
0001e0 10 f7 38 bf 77 ab 50 bd 12 5d 62 be 3d 7a e7 3e
       -0.7225199 -0.05094477 -0.22105816 0.45210448
0001f0 b8 1c a7 3e 3d 53 cb bd 67 f2 7e bd e9 f7 4c be
       0.32639098 -0.09927986 -0.06224289 -0.20016445
000200 e2 e2 05 bd b0 39 04 3f a4 e1 af 3e 48 62 1a 3f
       -0.032687075 0.51650524 0.34351838 0.60306215
000210 c2 68 97 be 6e 1a cb be e1 a5 35 bf 58 f3 80 3f
       -0.2957211 -0.39668602 -0.70956236 1.0074263
000220 0a 5a 21 be 6d 7e 78 be 35 b9 28 3f f6 db be bd
       -0.15757003 -0.24266978 0.65907604 -0.09319298
000230 3d 2e d8 bc 3b 37 75 3e c3 1d 55 3e 20 1b 2f 3f
       -0.026389236 0.2394685 0.20812134 0.68400764
000240 91 0c 18 bf 4e a1 c2 3e 82 22 81 3f 75 11 9f be
       -0.59394175 0.3801369 1.0088656 -0.31068006
000250 b8 dc 81 3e e2 65 ee bd 4a bd 36 3f 31 8f d8 bd
       0.25363708 -0.11640526 0.7138258 -0.105741866
000260 37 fd 96 3f 46 e2 f7 3d 28 cc 35 3f ef 19 39 be
       1.1796025 0.12103705 0.7101464 -0.18076299
000270 2e d2 a7 be 36 09 15 3e c3 db 39 3d 1d 9d b9 be
       -0.32777542 0.14554295 0.045375597 -0.3625268

weight f4 [80, 160]
000000 b0 64 ad 3d 82 0f db 3d ef 40 a9 3e a8 c3 aa be
       0.0846647 0.10696317 0.33057353 -0.333524
000010 1d e8 d5 bd 7c 16 cf be a6 47 50 3e b8 66 73 be
       -0.10444663 -0.40446842 0.20339832 -0.23769653
000020 0c bb 2c 3d df 5f 70 be 57 29 73 be a5 82 58 bf
       0.04217057 -0.23474072 -0.23746239 -0.8457435
000030 7c 0c f6 be 89 6a 98 3e ee e1 23 be aa a2 6d 3d
       -0.480564 0.2976878 -0.16004154 0.058016457
000040 4d 1d 13 3e fd 51 64 be ca 5f 5c bb 22 c9 c7 bd
       0.14366646 -0.22296901 -0.003362643 -0.0975516
000050 a0 d2 bc 3e 60 0a a0 3d 06 fa 90 be 77 8a b7 3d
       0.36879444 0.07814479 -0.28315753 0.08961957
000060 33 9f 05 bf 11 f9 fe be db 5f b4 3e f2 fc df 3e
       -0.52196044 -0.49799398 0.35229382 0.4374767
000070 38 30 0e 3e 32 37 54 3e 52 91 40 3e 8a 91 cd bf
       0.13885581 0.2072418 0.18805435 -1.606004
000080 5a ae 07 be fd 22 c2 bd a7 ad 3f bd b6 74 65 bd
       -0.13250104 -0.0947933 -0.046796467 -0.056019507
000090 ed 8a 0a bf 01 9a d9 3d 5e 44 5d 3d 4b b6 69 3e
       -0.54118234 0.10625077 0.05402028 0.22823445
0000a0 0c f4 fd bc 48 f5 fa 3d 06 c0 e3 bd 65 4d 04 3b
       -0.03100016 0.12253815 -0.1112061 0.0020187732
0000b0 70 d2 84 be 01 70 ba bb 81 f7 a6 bd 43 de e0 bc
       -0.259418 -0.0056896214 -0.081526764 -0.027449733
0000c0 86 97 a4 bb 0c 25 ab be 7a 72 bf 3d d1 a1 35 ba
       -0.005022946 -0.33426702 0.093480065 -0.00069287146
0000d0 82 2d 48 bd 2f 6b 19 3e d6 2d 05 be 83 b1 ce bf
       -0.048871525 0.14982294 -0.13005766 -1.6147922
0000e0 e1 4f e6 bf bb 58 70 bd fa d6 d2 bc 83 47 4d be
       -1.7993127 -0.05867837 -0.025737274 -0.20046811
0000f0 18 d5 5d 3e 7d 8f 1d 3c f0 d2 39 3e 08 bb 5c 3d
       0.2166332 0.00961673 0.18146873 0.053889304
000100 e7 02 67 be 20 b9 41 3d 38 be ef be 59 6b b6 bc
       -0.22559701 0.04729569 -0.46824813 -0.022267984
000110 af 09 bd be aa 2d 4d bf 78 8b cc 3d a1 3f 04 3e
       -0.3692145 -0.801478 0.09987539 0.12914898
000120 da 22 a5 3d 6c 9f 61 3c bc 7c e2 3d 76 47 79 be
       0.08063288 0.013770919 0.110589474 -0.24343666
000130 e1 d0 19 be d4 2a 08 3e 44 4f 3b bf 40 2e cb be
       -0.15021087 0.13297588 -0.73167825 -0.39683723
000140 5e 11 fd 3e b5 e9 2f bd 14 3a bb be af 96 90 bd
       0.49427313 -0.04294749 -0.36567748 -0.070599906
000150 3c 88 66 3d 2e 88 8f 3d 6e 6a 9d bd 99 51 3a bd
       0.056282267 0.07008396 -0.076863155 -0.045487974
000160 25 43 e1 3d 4e 8a cb 3d c9 97 f2 bc 96 ff be 3e
       0.10999135 0.09938489 -0.029613392 0.37304372
000170 d9 81 d7 bd 96 e3 93 bf 33 4e 62 be e0 93 88 3d
       -0.10522813 -1.1553829 -0.22100143 0.0666883
000180 87 e2 04 bf 82 c5 65 be 61 0e a2 3c 18 a3 78 be
       -0.51908153 -0.22438625 0.019782247 -0.24280965
000190 7a d5 21 bc 97 b9 be bc e0 99 0d c0 36 e8 b9 3d
       -0.009877557 -0.023281856 -2.2125168 0.09077494
0001a0 37 0a ba 3d f2 69 18 3e 33 a1 06 3d ea 4f 9c bd
       0.090839796 0.14884165 0.032868575 -0.0763243
0001b0 aa fe f7 3d 1f 46 9c 3d 08 a3 28 be 3c c9 45 be
       0.1210912 0.07630562 -0.16468441 -0.19315046
0001c0 b6 24 2c ba 34 66 4a 3e a7 28 50 bd 07 ce 93 3e
       -0.00065667497 0.1976555 -0.05082002 0.28868124
0001d0 0a 72 3a bd c5 de 31 bf 7f e3 c0 3d 0c 47 cd 3d
       -0.045518912 -0.69480544 0.094183914 0.10023317
0001e0 9a 80 46 bf 09 5f 65 3e 90 f6 e6 bf a7 c7 a5 3c
       -0.7753998 0.22399534 -1.8043995 0.020236803
0001f0 e5 5e 60 bd 64 cc bf 3d fd 74 5e 3e 85 40 29 be
       -0.054778 0.09365156 0.21724315 -0.16528518
000200 cd 78 44 be 66 af 33 3e ae 57 3f be c3 94 82 bd
       -0.19186707 0.17547378 -0.18685791 -0.0637603
000210 15 45 04 3e 1f ef 77 be 36 23 dc bc c6 16 95 bd
       0.12916978 -0.24212311 -0.026872259 -0.07279734
000220 5f 6b 15 be e7 ae 7c bd 43 69 50 bf c8 f1 6c 3d
       -0.1459174 -0.061690237 -0.81410617 0.057847768
000230 16 43 1b 3e 33 9f 37 3d ba c7 89 bd 5d 52 1d 3e
       0.1516231 0.04482956 -0.06727548 0.1536345
000240 d4 43 21 bf 4c 77 ac bd 93 b2 ce be 19 0c 7a 3e
       -0.6299412 -0.084211916 -0.40370616 0.24418677
000250 9f 26 62 be 90 d5 1c be 80 ec 00 be a5 3d cc 3d
       -0.22085045 -0.15315843 -0.12590218 0.09972695
000260 a1 a1 22 be 07 24 bb 3a ce c7 09 3d e2 e7 6d 3b
       -0.15881969 0.0014277705 0.033637814 0.0036301543
000270 ba 6d 9b be ba db e7 3d 2e 1f 0e 3e f7 e6 c8 bb
       -0.30357152 0.113212064 0.13879082 -0.006131049
000280 c0 86 42 bd 33 bd 18 3e 6d 38 a5 3e 1b 87 82 3d
       -0.04749179 0.14915924 0.32269612 0.063734256
000290 1f 5a f7 3d c8 be a9 3d 14 ae ff bd 15 3b 02 be
       0.12077736 0.08288342 -0.12484375 -0.1271785
0002a0 28 f2 6d be 79 d3 d1 3d 09 ab a7 3d 22 3e 49 bc
       -0.23236907 0.10245413 0.08186919 -0.01228288
0002b0 cf a5 d0 3d 71 0a 38 3e 3e 81 5d be 16 1a 5a 3d
       0.101878755 0.17972733 -0.21631333 0.053247534
0002c0 85 63 5f bd 17 ec 5c 3d 89 ea 0d 3e 7d 75 2c 3d
       -0.05453827 0.05393609 0.13859 0.042104233
0002d0 00 2a a8 bc af b7 5d 3d ee 98 b5 3c 97 ed ba 3d
       -0.02052784 0.054130252 0.02216765 0.09127348
0002e0 9f 1e 0b be 5a 51 8b be 2f ed 43 3e ab 58 cc 3e
       -0.135859 -0.27210504 0.19133447 0.39911398
0002f0 da 27 10 be 3f 6a 85 bd b4 43 27 bd b7 1f 50 3e
       -0.14077702 -0.065144055 -0.04083605 0.20324598
000300 0e ef 5f bd 56 da ae bd 57 d6 d7 3b a0 59 85 3e
       -0.05467134 -0.08537738 0.0065868306 0.2604494
000310 5b 7c 89 be 14 b8 2f be f5 de 2e 3d c5 22 57 be
       -0.26852688 -0.17160064 0.042693097 -0.21009357
000320 bd 52 07 3f 48 ec 4f 3e ac 8c 89 3c 0f 13 70 3d
       0.52860624 0.20304978 0.01679071 0.058611926
000330 78 7f 52 3c 44 02 1c 3e d3 7b 2b be 39 bc 76 3e
       0.012847774 0.1523524 -0.16746454 0.24095239
000340 8a 43 17 be 9f 73 c0 3e 30 78 ca bd fc 82 4b bd
       -0.14771858 0.37588212 -0.09886205 -0.049685463
000350 3e db 35 bd 70 1d 06 be 7a 35 47 3e f8 b4 06 3d
       -0.04439854 -0.13097167 0.19453993 0.03288743
000360 c6 a6 12 be bb ac 89 3d 22 4d 45 bd da 3a bb 3e
       -0.14321432 0.06722399 -0.048169263 0.36568338
000370 f1 2d e8 3d c8 6b b3 3e 30 94 0d be 46 5a 55 3b
       0.11336888 0.35043168 -0.1382606 0.0032555028
000380 5f 8a 01 be b1 2f 7e 3e 82 56 0d 3e d2 64 41 bd
       -0.1265044 0.2482288 0.13802531 -0.04721529
000390 ab 66 81 3e d6 0c da bd 3f 8d aa 3e ec 21 8f 3d
       0.25273642 -0.106469795 0.33310887 0.06988892
0003a0 84 0b 6f be 02 ae 8d bd 87 0b 2d 3d ca 97 fc bd
       -0.23344237 -0.06917955 0.04224732 -0.12333639
0003b0 e0 44 17 be 11 8b 8d bd c2 89 bb bd 4c 2f 60 be
       -0.14772367 -0.069112904 -0.091571346 -0.21893042
0003c0 60 08 c8 be 32 98 7e 3d 6a 82 14 3e dd 28 70 be
       -0.3906889 0.062156864 0.14502874 -0.23453088
0003d0 d0 f7 2d be 1f 73 d0 3c 14 2c 6f bd 7d 61 c3 bd
       -0.16989064 0.025445519 -0.058391646 -0.09540079
0003e0 f0 ca 6c bd 47 65 8f 3e 0f 53 f3 3c 69 39 44 be
       -0.057810724 0.28006956 0.029702691 -0.19162525
0003f0 91 67 8d 3d 00 0f 95 3e af 1c e2 bd ca a2 b1 3c
       0.06904519 0.29113007 -0.11040627 0.02168407

bias f4 [80]
000000 19 ac 81 3e d5 da 36 3e 90 2c b6 3c 0f 48 36 3e
       0.25326613 0.17856915 0.022238046 0.17800926
000010 48 a8 e6 3e eb 49 d4 3e 74 c3 ff 3e ae 82 d8 3e
       0.45050263 0.41462645 0.49953806 0.422872
000020 1c 4a b2 3e 02 8f 19 3d a9 aa 4e 3f 38 e6 3d be
       0.34822166 0.0374899 0.80729157 -0.18544853
000030 a3 95 81 3e e7 45 e2 3e 92 76 18 3d a5 25 68 3e
       0.25309476 0.44193956 0.037222452 0.2267061
000040 71 90 7c 3e 55 77 dd 3d 3e d0 36 3e 9f 04 ca 3d
       0.24664475 0.108137764 0.17852876 0.09864163
000050 e5 77 e4 3e ac f9 14 3e 10 67 d3 3e 4e 39 41 3e
       0.44622722 0.14548367 0.41289568 0.18869516
000060 9a d5 e0 3b 7d 82 75 3e f1 de 4a 3e a6 e3 15 3e
       0.006861401 0.23975559 0.19811608 0.14637622
000070 1d a1 e9 bb d4 59 1c 3f f2 61 86 3e cf 3f 91 3e
       -0.007129802 0.61074567 0.262466 0.28368995
000080 86 44 85 3f d8 1b 64 3f da 42 41 3d 98 7d 41 3e
       1.0411537 0.89104986 0.047182895 0.18895566
000090 f4 f9 e7 3e 24 8a 40 3e 46 8c ba 3e e4 4d 5e 3f
       0.45307887 0.18802696 0.36435145 0.868376
0000a0 20 53 70 3e bc 6a 74 3d c4 5d 48 3f d8 37 eb bd
       0.2346921 0.059672102 0.78268075 -0.11485261
0000b0 6b e8 ff bd ec 45 20 3f f2 a7 1e 3f 49 e7 9e 3d
       -0.12495502 0.6260669 0.61975014 0.07758958
0000c0 15 73 fe 3e bf 90 94 3e ec 94 26 3e 77 2c 06 3e
       0.49697176 0.29016683 0.16267747 0.131029
0000d0 d2 41 17 3f 5a 8b b2 3d 9d 5f e9 3d fd 5a 39 3e
       0.5908481 0.087179855 0.1139519 0.18101116
0000e0 a2 b4 02 3e a5 e0 49 3e 8d ff b8 3e a4 93 06 3e
       0.12764218 0.19714601 0.3613247 0.13142258
0000f0 0c 07 17 3e bc ce ea 3b 56 40 68 3f c8 fc 1d bd
       0.14748782 0.007165758 0.9072317 -0.03857115
000100 87 98 cd bd d3 5a 4f 3d fd 8b ae 3d 8b 28 bc 3e
       -0.10038858 0.050623726 0.085227944 0.36749682
000110 dd 7a 36 3d de 4a 75 3e a8 4c 79 3d aa 86 f7 3e
       0.044550765 0.23954341 0.06086412 0.48344928
000120 fb 31 9c 3e fa 86 5e 3f aa 58 f0 3d d8 fc eb 3e
       0.30506882 0.8692471 0.11735661 0.46091342
000130 93 af 0b 3f 1b 2e 4a 3f 38 ba 85 be 42 cd 0e 3e
       0.5456478 0.789766 -0.26118636 0.13945487

weight f4 [20, 80]
000000 4d 61 45 3d e8 74 63 3d ab e3 f9 3d 2b 9e b2 3e
       0.048188496 0.055531412 0.12201627 0.34886298
000010 92 7b 6b 3e 35 3b 05 be 76 61 0f bf 8b 26 04 b9
       0.22996357 -0.13010867 -0.5600809 -0.0001260286
000020 cc 78 2d be 3d 69 3c be be 50 3d bf da 50 82 bf
       -0.16940612 -0.1839952 -0.7395133 -1.0180924
000030 12 37 b9 bd c9 8a 25 3f 55 55 26 bf d8 ba fc 3d
       -0.09043707 0.64664894 -0.64973956 0.12340325
000040 60 96 d6 bc 6b c9 01 3e e4 30 ad 3e 6c 47 06 bd
       -0.026194751 0.12674491 0.33826363 -0.032782957
000050 6c b0 20 3f e1 98 fb 3d 4f 36 2b 3e 91 45 ba bc
       0.627692 0.12285019 0.16719936 -0.02273825
000060 4f 42 c3 bf 70 85 d6 3e b7 d8 c7 bc cf 52 a9 3d
       -1.5254611 0.4189868 -0.02439533 0.082677476
000070 39 17 3f bf da 1a 08 3d ac 11 a3 bf 2c 8e 91 3e
       -0.7464481 0.033228733 -1.2739768 0.2842878
000080 ad f1 ff be 15 8f ad ba b5 18 ac bf bf 4a 43 3e
       -0.4998907 -0.0013241494 -1.344504 0.19071482
000090 63 85 78 bf 2f 61 50 3d 27 8f e8 3e ad ca 2e bf
       -0.9707853 0.05087393 0.45421717 -0.6827801
0000a0 04 e2 0b 3f e8 97 e6 bd 05 f1 4a 3f d3 3c b7 be
       0.5464175 -0.112594426 0.79274017 -0.35788593
0000b0 fd 13 e3 3e 32 85 22 3f 4a ea 2f 3f 5c 94 59 be
       0.44351187 0.6348449 0.6871687 -0.21248001
0000c0 41 d0 36 3d 0b fb 04 be 27 00 c4 be bc 79 2b bf
       0.0446322 -0.1298639 -0.38281366 -0.66982627
0000d0 ee 19 30 3f 3a 5a 8b 3e 34 d5 b2 3e dd a3 87 3c
       0.68789566 0.27217275 0.34928286 0.016557628
0000e0 1f 00 aa 3e 78 27 88 3e 02 59 8f 3e d7 f0 3d 3e
       0.33203217 0.26592612 0.27997595 0.18548904
0000f0 73 99 de bd 99 4f 92 bd 05 7a 47 bf 83 55 07 3c
       -0.10869112 -0.07144088 -0.7792056 0.008260134
000100 26 fb 9b bf 5b 69 11 c0 e7 9e b9 3e f7 27 ac 3d
       -1.218602 -2.2720554 0.36254045 0.0840606
000110 b3 31 de 3e 08 cd 82 3d 01 f8 9a 3e 91 26 75 bc
       0.43397292 0.06386763 0.30267337 -0.014962808
000120 d6 cb 75 bc 57 28 0f bf d3 fa 66 bf 3f d4 e7 bf
       -0.015002212 -0.5592093 -0.9022648 -1.8111647
000130 af af 79 be b9 b4 88 bf 49 f7 48 be fd 36 3c 3f
       -0.24383424 -1.0680152 -0.19625582 0.73521405
000140 1d 18 1a be 70 f8 4c bf 38 ba 02 bf 37 16 ab be
       -0.15048261 -0.80066586 -0.510654 -0.33415386
000150 a9 ff ae 3d cc ce fc 3c b7 c8 f4 bf c2 98 f4 be
       0.08544857 0.030860327 -1.9123753 -0.47772795
000160 39 14 14 c0 c7 81 63 bf 27 20 f7 bf 82 b1 bf bf
       -2.3137343 -0.888699 -1.9306687 -1.4976046
000170 7d 96 9c bf 0b 94 a1 be e6 f7 7f bf cd 8a 85 bf
       -1.2233425 -0.3155826 -0.9998764 -1.0432984
000180 c7 3d 0d c0 f3 48 8c bf d9 a6 fc be eb a4 9e bf
       -2.2068956 -1.0959762 -0.49346045 -1.2394079
000190 4b 07 08 c0 c5 e0 7f be 92 56 9e 3d 4b 4e 13 c0
       -2.1254451 -0.24988087 0.07731356 -2.3016536
0001a0 fe 29 76 bf 53 8d 1d bf 4d 14 81 bf 92 72 79 bf
       -0.96157825 -0.6154377 -1.008432 -0.97440445
0001b0 92 e0 f2 be f3 98 b2 be 66 6c 85 bf 8c 5e 43 bf
       -0.4743696 -0.34882316 -1.0423706 -0.7631614
0001c0 c8 f5 90 3e f0 69 ba bc 05 02 44 bf 21 0a e1 be
       0.28312516 -0.022755593 -0.7656558 -0.4395304
0001d0 82 3b 07 c0 0b 72 2e bf 37 5d 11 3e 53 22 84 bf
       -2.113007 -0.68142766 0.14195715 -1.0322975
0001e0 cc c2 08 3d 5c 1f 75 3e 79 17 a9 bf 8f a7 03 c0
       0.033388898 0.23937744 -1.3210288 -2.057102
0001f0 b2 b7 d2 bf b6 a2 ea bf 76 9d fa bf 33 8a 90 be
       -1.6462309 -1.8330905 -1.9579303 -0.28230438
000200 77 b5 4a bf dc a3 bf bd b9 1a 85 bf b8 52 61 be
       -0.79183143 -0.093574256 -1.039878 -0.22004211
000210 22 c3 01 c0 78 6b 02 bf 36 fe 71 bf 4d e8 8a bf
       -2.027535 -0.50945234 -0.9452852 -1.0852143
000220 76 c4 5b be 9c c7 1f bf cd d4 1f bf 60 4d 43 bf
       -0.21461663 -0.62413955 -0.62434083 -0.7628994
000230 48 e8 82 bf b0 c6 24 bf 34 0e b2 bf b9 3a 70 bf
       -1.0227137 -0.64365673 -1.3910584 -0.93839604
000240 91 7a 37 bf 73 63 4b bf 17 76 03 c0 40 7d 5b bd
       -0.71671396 -0.7944862 -2.0540826 -0.053586245
000250 4c 1f c6 bf d7 41 7d bf 20 c6 31 bf e5 38 a3 be
       -1.5478301 -0.9892859 -0.6944294 -0.31879345
000260 33 f2 ea bf 7c 48 f0 be 12 0b c6 be bb 5e 8e bf
       -1.8355163 -0.469303 -0.3868032 -1.112266
000270 03 57 87 be a8 88 14 c0 5d 09 6c bf b6 a2 a6 bf
       -0.26433572 -2.3208408 -0.9220179 -1.3018405
000280 f9 b7 d9 3c b1 7a 5a 3d 4c 70 9d 3d 6a 5a 9d 3e
       0.026576983 0.053339664 0.076874346 0.30733043
000290 e2 b1 4a 3e c7 70 19 3d 73 41 00 bf 07 f1 6a 3c
       0.1979442 0.03746107 -0.5009987 0.014339692
0002a0 4f 93 ee bd 6d 64 d9 bd b2 6e 24 bf b7 b0 56 bf
       -0.11649191 -0.10614858 -0.6423141 -0.83863395
0002b0 a6 73 3d bd 3a f1 09 3f 48 8a 0e bf b3 4e b1 3d
       -0.04625287 0.5388371 -0.5567975 0.08657589
0002c0 4f cb d6 bc 25 e6 99 3e ce 19 84 3e 1d cb 68 bc
       -0.026219992 0.300584 0.25800937 -0.014208582
0002d0 61 05 0b 3f 91 81 6d 3d 17 de 11 3e ed b6 09 bd
       0.5430508 0.057984892 0.14244877 -0.033621717
0002e0 2a cf a3 bf 00 bd a7 3e 70 47 44 bc cc 51 95 3d
       -1.2797596 0.32761383 -0.011979923 0.07290992
0002f0 9e 7e 2e bf 4a ae 95 3c a7 ff 8c bf 88 49 85 3e
       -0.6816195 0.018271584 -1.1015519 0.26032662
000300 b6 c2 df be 3c fc 84 3b 7a fb 81 bf 05 89 1e 3e
       -0.4370324 0.004058389 -1.015487 0.15481956
000310 79 ce 54 bf 4d 60 2d 3c 61 f6 ac 3e 0d 12 19 bf
       -0.8312755 0.010582042 0.33781722 -0.5979317
000320 58 18 06 3f 33 b1 a0 bd 5f 51 33 3f 3e 07 8b be
       0.52380896 -0.07846298 0.7004604 -0.27153963
000330 76 09 a2 3e 05 0a 17 3f 69 39 13 3f 37 22 22 be
       0.31647843 0.58999664 0.57509476 -0.15833364
000340 52 a0 1f 3d 33 12 28 be 8d 5f 7e be 0e cc 04 bf
       0.038971253 -0.16413192 -0.24841137 -0.5187386
000350 48 1d 0e 3f e3 8f 8e 3e e9 d6 97 3e c3 50 e2 3c
       0.5551343 0.27844152 0.2965615 0.0276264
000360 4d 89 ab 3e cd 56 83 3e a6 90 77 3e 16 6a 1f 3e
       0.3350319 0.2565216 0.24176273 0.15567812
000370 b2 60 83 bd f4 cd b0 3d 29 ec 2a bf e5 ba fd 3d
       -0.064149275 0.086330324 -0.667666 0.12389163
000380 9a f3 73 bf f9 9c e9 bf ea 16 98 3e 9d bd 8b 3d
       -0.9529358 -1.8251029 0.29704982 0.06823275
000390 53 06 c0 3e 2e c5 21 3d 96 c6 8b 3e 0e d4 61 bc
       0.37504825 0.039494686 0.27299947 -0.013783468
0003a0 1f 50 7a 3c 9d e2 fc be 28 fe 2f bf 8c a9 c7 bf
       0.015277891 -0.49391642 -0.68747187 -1.5598617
0003b0 57 5c 9f bd cd e2 69 bf e7 4e 3b be 4f 69 44 3f
       -0.07781284 -0.91361696 -0.18291818 0.7672319
0003c0 79 5c 20 be 9c 7d 50 bf f7 9b 29 bf 04 ad 22 bf
       -0.15660276 -0.81441665 -0.6625361 -0.6354525
0003d0 b7 9d 7c be 53 6b b7 be 11 a4 09 c0 47 dd 2a bf
       -0.24669538 -0.3582407 -2.1506388 -0.6674389
0003e0 cd 02 24 c0 9d 11 72 bf e3 c7 1d c0 2f f2 96 bf
       -2.562671 -0.94558126 -2.465325 -1.1792659
0003f0 3c 31 8f bf 15 51 12 bf 61 e9 a4 bf d0 27 6a bf
       -1.11869 -0.5715497 -1.2883722 -0.91467

bias f4 [20]
000000 3f 9b 95 3f a0 84 d7 3f 10 85 66 3f 62 5d c8 3f
       1.1688002 1.6837349 0.9004679 1.5653498
000010 b3 de 00 bf 4a 93 53 3f e7 57 80 3f c7 3c 7b 3f
       -0.5033981 0.8264662 1.0026826 0.98139614
000020 76 65 6c 3f 57 80 0c 40 1b 27 78 3f c9 24 5c 40
       0.9234232 2.1953332 0.9693467 3.4397452
000030 d3 e2 63 3f 7c 26 6c 3f 2e 64 5f 3f 0b 59 81 3f
       0.8901798 0.9224622 0.8726224 1.0105299
000040 76 87 f7 3f bf a2 1c bf 77 e5 ff 3f 01 61 8b 3f
       1.9338214 -0.6118583 1.9991902 1.0888978

weight f4 [1, 20]
000000 f4 f0 ae 42 97 1c 80 c0 9a 55 a8 42 f0 3a 89 c0
       87.47061 -4.00349 84.16719 -4.2884445
000010 07 7b 9b bf 9c 10 ab 42 04 ed a6 42 47 99 b8 42
       -1.214692 85.53244 83.46292 92.29937
000020 cc f9 80 42 5c e4 19 c0 1a 31 ae 42 67 1e 85 c0
       64.487885 -2.404563 87.0959 -4.159961
000030 0f b6 ab 42 b8 48 ad 42 fc 87 a4 42 68 49 b3 42
       85.85558 86.64203 82.265594 89.64337
000040 30 3c 8f c0 af f1 94 bf a4 c1 9d c0 e7 e0 ae 42
       -4.476097 -1.1636256 -4.929888 87.43926
